src/Catcher_Flappy_Continuous/wandb/run-20241022_235043-ejgq5l0i/files/flappy_agent_acc_state_inacc_r.pt (torch, 106575 bytes, 8 tensors)

network.0.weight f4 [128, 8]
000000 0e 36 35 3e e8 39 49 3e 2d cd 2a be 25 dc 29 3d
       0.17696401 0.19650996 -0.16679831 0.04146971
000010 27 54 f8 be 4c 7a 95 3d 59 a4 a9 be e8 fb ab bc
       -0.48501703 0.07298717 -0.331332 -0.020994142
000020 25 a9 c0 bc ef 1d b2 bd 7e ff 23 3e e9 19 36 3c
       -0.023518154 -0.08697116 0.16015431 0.011114576
000030 8e b4 bb 3d 5c 86 27 be 73 e6 6d 3c 3b 40 4b bd
       0.091652974 -0.16359848 0.014520275 -0.0496218
000040 b8 e6 51 3d 00 20 b9 ba b7 3d 9e 3e 64 53 e1 3d
       0.05124542 -0.0014123917 0.3090646 0.110022336
000050 51 d3 06 be 49 a8 5a be c0 bb 72 bd 79 29 1c be
       -0.13166548 -0.21353258 -0.059261084 -0.15250196
000060 6b 50 ac be 5a 88 02 3e 39 d9 52 3e ee 22 37 3e
       -0.33655104 0.12747326 0.20590676 0.17884418
000070 bb 87 ee be 73 c4 b4 3d 2a 17 08 be bf a2 d5 3d
       -0.4658793 0.08826532 -0.13290086 0.10431432
000080 fa 61 e0 3d d7 b0 2f 3b ec 40 0a bf f9 d9 b0 be
       0.109561875 0.0026808286 -0.5400531 -0.345413
000090 ad a2 b3 3e de 58 49 3d d6 2a ca 3d d2 a4 50 bd
       0.3508505 0.049157016 0.098714516 -0.050938435
0000a0 f7 8e 0d 3f 13 77 c5 be 28 75 2a 3e 23 c2 6c be
       0.5529627 -0.3856741 0.16646254 -0.23120932
0000b0 6f e8 99 be db de 86 3d 96 30 f3 bd 54 65 0b 3e
       -0.30060145 0.06585475 -0.118745014 0.13612872
0000c0 e2 e1 37 bd 38 a0 ce be 34 c9 e4 be 3a 30 5a be
       -0.044893153 -0.40356612 -0.44684756 -0.2130746
0000d0 d1 7c 5d 3e 28 98 1e bd 54 d6 47 3d 79 c9 28 3e
       0.21629645 -0.038719326 0.048788384 0.16483106
0000e0 48 b5 01 bf 91 9b 7a be c3 bb 44 3e e8 57 35 3e
       -0.5066724 -0.24473406 0.1921225 0.17709315
0000f0 9e 62 ad be 16 fe 34 3d be 42 0b bd b7 ee 2b 3d
       -0.338643 0.044187628 -0.033999197 0.041975703
000100 bb f1 4a be f8 5f 6e bd 80 6d e0 bb 88 83 53 3d
       -0.19818775 -0.05819699 -0.006848991 0.05163911
000110 fe 60 89 be 93 74 80 be 62 f3 44 3e 50 ca a9 bd
       -0.26831812 -0.2508894 0.19233468 -0.08290541
000120 62 71 a2 bc 29 2d 15 be 2d a9 8e bc 43 dc 99 bd
       -0.019829456 -0.14568008 -0.017414654 -0.07512715
000130 24 82 cd bc 3a 22 00 3d df a9 d0 be ec 5e 81 3d
       -0.02508647 0.03128264 -0.407546 0.06316933
000140 e0 ff 6a be 16 99 a8 bd 02 d5 af be f1 32 b3 bd
       -0.22949171 -0.08232324 -0.343422 -0.08749951
000150 b0 c7 94 3e 66 40 d3 bd be 62 af be ee a1 ac 3e
       0.290586 -0.103150174 -0.34255022 0.33717293
000160 84 f6 5a bd 28 23 4d be 6c 9c 4d 3e 79 24 67 be
       -0.053457752 -0.20032942 0.20079201 -0.22572507
000170 09 bd 9a 3d 64 5d e6 3d b2 f7 74 be 69 95 30 be
       0.07555587 0.112482816 -0.23922613 -0.17244495
000180 f8 54 1d 3c 98 d0 8c be ca 2f d4 be 4e 16 91 be
       0.009602778 -0.27502894 -0.4144271 -0.2833733
000190 bf 2f 9b 3e 6c 81 3c bd 04 f5 7e bd b4 c2 ae 3d
       0.30309865 -0.046021864 -0.062245384 0.085332304
0001a0 80 8b 7c bf 4d de d3 bc c6 f7 65 3e d9 b4 cd bd
       -0.9865036 -0.025862837 0.224578 -0.100442596
0001b0 dd a3 22 3d 17 a3 05 be 65 57 c3 bd 9a bb 9d 3c
       0.039707053 -0.13050495 -0.095381536 0.019254494
0001c0 4f 0d b2 3d ac 10 be bd 35 22 1b be 83 f2 a3 3d
       0.08693945 -0.09280524 -0.15149768 0.0800524
0001d0 03 9b 66 3d e6 66 88 3c d8 75 a8 be dd e1 ce be
       0.056300174 0.016650628 -0.32902408 -0.40406695
0001e0 62 f3 5a be e8 ed 35 3d 65 6a b4 3e e5 b0 64 be
       -0.21381906 0.04441634 0.35237423 -0.22333105
0001f0 6a ec 40 3e 55 62 48 be 7d 32 aa be 28 e5 99 bd
       0.18840185 -0.1956876 -0.33241645 -0.07514411
000200 49 3d 4d bc e8 83 ef 3e 45 44 17 bf ea 71 38 be
       -0.012526819 0.46780324 -0.59088546 -0.18012205
000210 60 26 36 3e 42 30 c2 3d e8 79 9f bd 0e 1a c8 3d
       0.17788076 0.09481861 -0.07786924 0.097705945
000220 11 72 38 3e 0d 53 a2 3d 62 9b 91 be 90 32 aa be
       0.18012263 0.07925997 -0.2843886 -0.332417
000230 5b d1 51 be 6c f1 b0 bd d1 6d 85 be 1a 20 ab 3d
       -0.20490019 -0.086397976 -0.26060346 0.08355732
000240 5d 9c 13 be e6 bb 30 3e db 7b 68 be 39 65 02 be
       -0.14415117 0.17259178 -0.22703497 -0.12733926
000250 00 0f 18 bc 6c a0 af bc 8c de 9e be 53 8f 17 3e
       -0.00928092 -0.0214388 -0.31029165 0.14800768
000260 f8 6a 27 bd e0 02 47 bc 4c dc aa be 92 03 69 be
       -0.040873498 -0.012146682 -0.33371198 -0.22755268
000270 16 81 53 be 2c da 1a be 01 b3 80 3e 60 9d ec bd
       -0.20654711 -0.15122288 0.2513657 -0.115534544
000280 ca 10 05 bf 1f e9 7e be 47 95 fb 3e 8a 9c ad 3e
       -0.51978743 -0.24893616 0.49137327 0.33908492
000290 83 48 81 be ce 52 42 3d d3 86 b4 3d a9 d0 d5 bd
       -0.25250635 0.04744225 0.08814778 -0.104401894
0002a0 16 ae 84 be 01 c0 f0 3e 77 82 07 bf 98 54 97 3d
       -0.25914067 0.47021487 -0.5293345 0.07389182
0002b0 5f 38 0a bd 90 7b b8 bd 59 4b 20 3d 0c 8b ee 3d
       -0.033745166 -0.09007943 0.039134357 0.11647615
0002c0 3b 49 3f 3e 2d 37 93 3d ca 19 6c be 94 ca 3c 3e
       0.18680279 0.07188258 -0.23056713 0.18436652
0002d0 19 cd 28 be 42 19 90 bd 83 f1 81 be a4 b3 b0 bd
       -0.16484489 -0.070360675 -0.2537957 -0.08628014
0002e0 b2 82 69 be f9 56 a6 3e ba 7e 9c be f8 19 8d be
       -0.22803763 0.3248823 -0.30565435 -0.27558875
0002f0 20 b2 44 bc 89 c2 43 be aa 8a 01 3e a3 5b 0b be
       -0.012005359 -0.19117178 0.12650552 -0.13609175
000300 89 d4 40 bf b7 bb 69 bd f8 10 f2 3e a9 07 30 be
       -0.753243 -0.057063784 0.4727857 -0.17190422
000310 7a 15 9c 3d 23 d6 0d 3e 00 24 c0 3e 56 e7 bc be
       0.07621284 0.13851218 0.37527466 -0.36895245
000320 b5 eb 20 3d ab 09 10 c0 ce 08 e1 3d 8c fd 14 be
       0.039287288 -2.25059 0.109880075 -0.14549845
000330 42 ad ff 3d d7 ac d6 bd 80 47 44 3d 88 db 59 bd
       0.12484218 -0.10482185 0.04791975 -0.053187877
000340 1b 32 ea bd 58 6a 87 3f ea 73 14 bd 67 60 02 bd
       -0.11435338 1.0579329 -0.036243357 -0.031830218
000350 84 61 f9 be ff 23 97 3d 74 85 da 3d f0 12 b3 3d
       -0.4870721 0.073799126 0.106699854 0.087438464
000360 d5 18 24 3e b9 ae 99 3c f7 b3 5d be 74 56 53 3e
       0.16025098 0.018760072 -0.21650682 0.20638448
000370 dc c8 c4 be 55 0d 63 3e 69 55 ac be 97 f2 b1 be
       -0.38434494 0.22173055 -0.33658913 -0.34755394
000380 cc e1 28 3d 54 71 01 bf 33 8a 88 be 45 64 1a bd
       0.04123096 -0.5056355 -0.26667938 -0.03769328
000390 ad f2 14 3d 2e c4 29 3e 29 3c 94 bd 3a 40 c2 be
       0.036364246 0.16578743 -0.07238037 -0.37939626
0003a0 b9 32 de 3e 82 66 0c 3f ae e7 8f be c0 21 90 3d
       0.43398073 0.54843915 -0.28106445 0.07037687
0003b0 45 00 b3 be a7 c8 45 3d 1f c5 a1 3e 89 bf a0 be
       -0.34961143 0.04828706 0.31595704 -0.3139613
0003c0 2d af 94 be d0 b4 fd bc c2 10 18 3e 40 c4 27 bc
       -0.290399 -0.030970007 0.14850143 -0.010239661
0003d0 ea 94 37 be 00 6f 04 3c 5a 25 aa be f4 df 7f be
       -0.179279 0.008083105 -0.33231622 -0.24987775
0003e0 91 c5 35 bf 1e 3d 8e 3d 33 c1 21 3f 8b 99 68 3c
       -0.7100459 0.06945251 0.63185424 0.014196764
0003f0 07 ae 0d bd 9d 76 d5 3d 54 de 3c 3e df e3 6c be
       -0.034589794 0.10423014 0.18444186 -0.23133801

network.0.bias f4 [128]
000000 93 5b d4 bd 56 4c 84 bd 38 fd 5c 3d 5e 4b d3 be
       -0.10369029 -0.064598724 0.053952426 -0.41268438
000010 87 80 18 bd 8a a1 28 3b a0 ff 18 bd 64 b4 ce be
       -0.03723195 0.002573105 -0.037353158 -0.40372002
000020 8d 43 85 3e 3c 84 d5 bd e9 f4 bf 3e 3d 13 ec bd
       0.260281 -0.10425612 0.3749154 -0.11527107
000030 7a ac df bd 0f 62 55 be be ce e2 be 60 6e 33 3d
       -0.10921569 -0.20838188 -0.44298357 0.043806434
000040 13 72 80 be 01 99 6b 3e ea 5b db be 45 27 9d 3e
       -0.25087032 0.23007585 -0.42843562 0.30694023
000050 75 9c 41 bd 38 49 0c 3e f1 5a 1e 3e 40 98 a7 3d
       -0.04726835 0.13699806 0.15464379 0.08183336
000060 90 9f 9d be 4d 59 3a be 29 61 b2 be f2 03 d4 be
       -0.307858 -0.18198128 -0.34839752 -0.4140926
000070 0b ce 1d 3e 0e 02 0a be 12 46 2a 3e f1 e7 87 be
       0.1541063 -0.13477346 0.16628292 -0.26544145
000080 6d f2 c1 bc 72 c3 8e be dd b7 8c be e5 28 6c bd
       -0.023675168 -0.27883488 -0.27484027 -0.057656188
000090 f6 13 c0 3d e2 c2 32 3e bf a0 ea be a4 be 2c be
       0.09378807 0.17457154 -0.45825765 -0.16869599
0000a0 fc 98 aa be 5e 97 4c be 80 1c 99 bc 93 b3 7e be
       -0.33319843 -0.19979617 -0.018690348 -0.2487319
0000b0 b5 1c ee be ec 48 6b be 6e 24 f7 3e 9d 23 a3 3e
       -0.46506277 -0.22977036 0.4826998 0.31863108
0000c0 48 4d a0 be 02 b8 77 be 50 60 97 be 97 73 c6 be
       -0.3130896 -0.24191287 -0.29565668 -0.38760063
0000d0 8f 62 34 be 85 be af 3e f1 05 65 be 4c 5f e1 3d
       -0.17615722 0.34325042 -0.22365548 0.110045046
0000e0 13 1b 30 3e 00 9a a2 bd 29 07 92 3e 8c 16 9e 3d
       0.17197828 -0.079395294 0.28521088 0.07719144
0000f0 37 5e f0 3e 4c 8b df bc 1b 63 92 be 8e b8 76 bd
       0.4694688 -0.027288102 -0.28591236 -0.0602346
000100 ac 0e 3b be b5 68 95 3e 7e 21 03 3d 50 cd 28 3d
       -0.18267316 0.29181448 0.032014363 0.041211426
000110 ef 7b 22 bf e9 70 c0 be 3b af 93 3e e8 52 16 bd
       -0.6347036 -0.37586144 0.28844628 -0.03670016
000120 62 58 02 bf 91 42 f1 bd d6 b7 af 3c 32 dc c6 bd
       -0.5091611 -0.11780275 0.021449964 -0.09709968
000130 c7 b3 da 3d ed cd 8c bd c5 3f d8 be 00 f5 7d bb
       0.10678821 -0.06875215 -0.42236152 -0.0038750768
000140 46 27 b7 be aa e4 74 3e 79 f8 c8 3d d4 91 86 3d
       -0.3577215 0.23915353 0.098130174 0.06570783
000150 93 92 a4 3e 92 d5 31 3e 23 e4 b4 be 92 4a 9d bd
       0.32143077 0.17366627 -0.35330305 -0.07680239
000160 66 cf fe be eb cb d4 bb f0 bf 14 bd 5d 4f 11 3e
       -0.49767607 -0.0064940355 -0.03631586 0.14190431
000170 9d aa 85 be 6d f4 dd be b4 bf 81 be d5 8d 67 be
       -0.2610673 -0.43350545 -0.2534157 -0.22612698
000180 c6 f1 6f 3e 51 c5 92 3e c6 29 f3 3e 8d 08 c8 bd
       0.23432073 0.28666165 0.47492808 -0.09767256
000190 99 26 70 be b0 2a c9 3c 63 73 c1 be 05 7e 18 3d
       -0.23452224 0.024556488 -0.37783346 0.037229557
0001a0 f5 85 93 be 4d 39 bf 3d f2 ce 69 3e ae 80 ef 3e
       -0.2881314 0.09337101 0.2283285 0.46777862
0001b0 f4 2c 98 be 59 85 94 3e 9e f0 c4 be c2 22 49 be
       -0.29721797 0.29007986 -0.38464826 -0.19642165
0001c0 73 3f a5 3e 9a d6 c3 3e d5 8a 90 be 68 ef cc 3d
       0.3227497 0.38249665 -0.2823092 0.100066006
0001d0 10 d2 a5 be fa 9e c6 3d aa 00 30 3f ba a8 63 bd
       -0.32386827 0.09698291 0.68751013 -0.055580832
0001e0 9d 39 f2 bb 23 ca 77 be ba ac 26 bf 49 0a 42 be
       -0.007392122 -0.24198203 -0.6510731 -0.18949236
0001f0 76 73 59 bd 33 18 94 be fe 4c 0a bf 50 ee 1e 3d
       -0.053088628 -0.28924713 -0.5402373 0.03880149

network.2.weight f4 [128, 128]
000000 64 70 b3 bd 06 42 c6 bc 80 60 48 ba 0d 6e 40 bd
       -0.08761671 -0.024201404 -0.0007643774 -0.046979953
000010 87 9d b9 3d 89 0a 8b bd 14 12 8a bd 14 f5 88 bc
       0.09063249 -0.06789119 -0.067417294 -0.016718425
000020 59 b0 93 bd 47 bf ca 3c fd 44 a7 3c 9c 56 97 bd
       -0.0721137 0.024749411 0.020418638 -0.07389566
000030 96 4a 5a bd 85 61 8d 3d 45 98 ac bd d8 1b c4 3c
       -0.053293787 0.06903366 -0.084274806 0.023939058
000040 61 f4 cb bd 8e 1d a1 bd 26 37 37 bd 0b a1 4e bd
       -0.09958721 -0.07866965 -0.044730328 -0.05044655
000050 c1 41 09 bd 22 3c dd bc 42 79 df 3a 37 03 3d bd
       -0.033509973 -0.027006213 0.0017049687 -0.046145644
000060 8e df 5d 3c 25 31 20 3d 24 96 e1 bc 71 32 85 bd
       0.013542069 0.039109368 -0.027537413 -0.065037616
000070 94 4d 08 be 45 d0 67 3d 42 97 18 3d 9d eb de bc
       -0.13310844 0.056595106 0.037253626 -0.027211959
000080 e1 c0 ea bc f9 40 2b 3d 48 90 00 3d bb c8 55 bd
       -0.028656425 0.04181001 0.031387597 -0.052193385
000090 ee d4 20 3d 30 59 4d 3c 99 46 1c 3d 02 11 d7 3c
       0.039265566 0.012533471 0.038153265 0.026253227
0000a0 a0 52 31 bb 7c 31 d7 bc 80 ff bf 3b df fa 8c 3d
       -0.0027057305 -0.026268713 0.0058593154 0.06883787
0000b0 b9 ee f6 3c 68 7e 98 bd 30 5e 4d 3d 74 be 0f 3d
       0.030143129 -0.07445985 0.050138652 0.03509374
0000c0 f2 ed 0a 3d e4 3d 5a 3d 22 cd 2f 3d 2f 99 1d 3d
       0.03391833 0.05328168 0.04292024 0.038476165
0000d0 31 78 19 3c 29 1f aa bd d6 fc fa bc 52 cb 7b bc
       0.009367035 -0.083067246 -0.03063814 -0.0153683
0000e0 ce 3e 88 bd 24 a1 60 bd 2a 4c 74 3d c1 9f ec 3b
       -0.06652604 -0.054841176 0.05964295 0.0072211926
0000f0 bc c2 d3 bd c3 b5 4b 3d 7a 36 55 3d 2d c1 99 3c
       -0.10339877 0.04973389 0.052053906 0.018768871
000100 f5 4e a5 3d b4 26 0f bd db e3 9d 3b bf e8 c6 bd
       0.080717005 -0.03494902 0.0048184223 -0.097123615
000110 d4 e9 a0 bd 65 fe 32 be 30 e0 89 bc 4a 1a 4e 3d
       -0.07857099 -0.17479856 -0.016830534 0.05031804
000120 0c 82 1d 3d 9d 0a ae bd 42 17 18 bd bd 90 11 bc
       0.0384541 -0.08498118 -0.037131555 -0.008884606
000130 11 2f 1f bd 88 ce 8f bd 21 e1 23 3d 72 40 7a 3d
       -0.038863245 -0.070218146 0.04000962 0.061096616
000140 01 6d c7 3c b5 cc 46 bd e8 a3 6b bd 08 86 ea bc
       0.02434397 -0.048535068 -0.05752936 -0.028628364
000150 ac 1d aa bc 40 f2 c2 bc 40 d5 8c bb 65 7b 79 bc
       -0.020766102 -0.023797154 -0.0042978823 -0.015227173
000160 c8 7a 60 bd 58 18 cc bd aa c9 21 bc 4c ab 52 bd
       -0.054804593 -0.09965581 -0.009874741 -0.051432893
000170 ea 09 ff bc 86 9c a7 bd f6 ee 24 3d 26 1f a9 bd
       -0.031132657 -0.08184151 0.040266953 -0.08257894
000180 6d 8e 8e bd de 8d 45 bd 25 29 61 3b 67 64 3c 3c
       -0.06960759 -0.048231 0.00343568 0.011498547
000190 57 ea b7 3d a1 f9 dd bd 5d 11 97 bc 6b 96 0b 3e
       0.08980244 -0.108386286 -0.018440897 0.13631599
0001a0 e5 dd ef bb 0b 65 3e bc d3 fe 83 3d 23 b5 2a 3c
       -0.007320153 -0.01162077 0.06445088 0.010419163
0001b0 59 56 47 bd 00 f4 8c 39 77 40 3e bc 88 9c b5 bd
       -0.048666332 0.00026884675 -0.011612049 -0.088677466
0001c0 b9 a4 b4 3d d5 52 6c bd 4d 9d 35 3d b5 0f 03 3e
       0.08820481 -0.057696182 0.044339467 0.1279896
0001d0 44 84 c9 bd 02 a5 c0 3c eb 5b 17 bd 9c be 74 bd
       -0.09839681 0.023516182 -0.036952894 -0.05975209
0001e0 48 04 90 3c 44 e8 40 3c b8 f0 86 bd 0a 60 93 bd
       0.017580166 0.011774126 -0.06588882 -0.07196052
0001f0 2d 8a 8c bd 3e b1 99 bd 7a 93 bd 3c d9 b5 5f bd
       -0.068622924 -0.075045094 0.023141611 -0.054616783
000200 ca a9 b7 bc d8 f4 da bc 78 bd 77 3c c0 a0 fd bc
       -0.022419829 -0.026728079 0.015120856 -0.03096044
000210 89 b9 af bc 27 68 17 bd 82 61 e4 3c 63 0b 5a 39
       -0.021450775 -0.03696456 0.027878527 0.00020794342
000220 80 7f 90 ba c8 1a 16 bb 17 01 5a 3d 29 92 b6 3b
       -0.0011024326 -0.0022904146 0.053223696 0.005571623
000230 2b f3 6b 3c cc 34 f0 bc 37 4d 3a bc 17 15 98 3d
       0.0144012375 -0.02932205 -0.0113709485 0.074258976
000240 e2 16 e2 bd 98 77 10 3c b7 35 5a 3d e3 ac 35 bd
       -0.11039521 0.008817576 0.053273883 -0.04435433
000250 8e 5e 70 bd 25 cc a2 bc df eb 1e 3d 8e d6 08 3d
       -0.058683924 -0.019872734 0.038799163 0.03340774
000260 d2 14 28 3b fe 2f 8d bc 05 5c 15 bd 30 b3 ff 3c
       0.0025647175 -0.017234799 -0.03646471 0.031213373
000270 f2 62 68 bd 09 bf 14 3d a2 81 d4 bc 93 9e c8 bd
       -0.056734987 0.036314998 -0.02594072 -0.09795871
000280 db 98 b1 bc 3d d4 1f 3d 20 06 63 bb c2 c5 65 bd
       -0.021679332 0.039020766 -0.0034641102 -0.0560968
000290 1b 26 5d bc 62 25 40 3d 8c a6 98 bc 69 c8 88 bd
       -0.013497855 0.04691065 -0.018634103 -0.0667885
0002a0 ba 18 81 bd c8 0c b4 bb 10 91 e8 bb 59 07 ad 3d
       -0.06303544 -0.0054946877 -0.007097371 0.08448667
0002b0 90 cb 40 bd d9 87 a3 3c 96 23 25 be 1d 0b ac bd
       -0.047069132 0.019962238 -0.16126856 -0.08400557
0002c0 a1 39 89 bc a1 bd 78 bd 84 28 d3 bc a7 c0 ac 3b
       -0.016751112 -0.06072772 -0.025776155 0.0052719894
0002d0 c7 68 85 bd 5e c8 78 3d a5 73 8c bd 33 e9 33 3d
       -0.06514125 0.06073796 -0.06857995 0.043923568
0002e0 46 9b 93 3b 02 b1 67 3b 3f 6b 9e bd f8 44 a4 bc
       0.004504594 0.0035353308 -0.07735299 -0.020052418
0002f0 a1 aa aa bd 68 16 87 3d 60 48 98 bd a0 3e c5 3c
       -0.08333326 0.065960705 -0.074356794 0.024077713
000300 d4 86 47 bd 0c d9 68 bd ac 03 91 bd c0 31 a6 bc
       -0.048712566 -0.056847617 -0.070807785 -0.020287395
000310 c4 bb a1 bb 7f 0f 8c 3d 56 00 39 3d b5 e0 13 bd
       -0.0049357135 0.06838893 0.045166336 -0.03610297
000320 37 50 8c bd 65 c5 59 bd 99 a4 69 3d 4c b0 2d bd
       -0.06851237 -0.053166766 0.05704174 -0.042404458
000330 16 da 86 bd 34 06 04 3d 9b a4 84 bc f8 56 7b 3c
       -0.06584565 0.03223248 -0.016191771 0.015340559
000340 95 79 7d bb d2 97 7c 3d 56 1d 3b bd b8 fe 46 3d
       -0.0038677205 0.061668225 -0.045682274 0.048582762
000350 57 11 ae 3d 7c b4 ba bc 6e 7e 64 3d 04 f7 b2 ba
       0.08499401 -0.02279114 0.055784635 -0.0013653939
000360 5b 43 84 3d 7e 09 8d bc 30 6e c4 bd 89 78 50 bd
       0.064581595 -0.01721644 -0.09591329 -0.0508962
000370 f9 2b 8b bd 56 45 af bc a1 07 82 3d 05 a4 90 3d
       -0.067954965 -0.021395367 0.06349111 0.07062534
000380 d5 bb 88 3d a0 4b 0f 3c e1 14 0d bd 5a eb 0a 3d
       0.06676451 0.008746058 -0.03444374 0.033915855
000390 3f fa 29 3d a0 c7 55 bb a4 00 99 bd 44 a7 4a 3c
       0.04149842 -0.0032620206 -0.07470825 0.012368981
0003a0 c6 ba 2c bc 94 58 7e bd 93 49 2a bd 97 37 0d 3d
       -0.010542577 -0.062096193 -0.041574072 0.034476843
0003b0 cd 82 d3 3d 87 12 0d bd 1d f9 0c bd dd 05 84 bd
       0.10327683 -0.034441497 -0.03441726 -0.06446431
0003c0 58 64 ec bc a6 96 3e 3d 69 8e d0 bd 71 b4 2f 3d
       -0.028856441 0.04653039 -0.101834126 0.04289669
0003d0 1d ae d3 bd d4 df 4e bd b6 c5 22 bd d4 e1 ab bc
       -0.10335944 -0.050506428 -0.039739333 -0.020981707
0003e0 1a 6c 1f bd f5 86 68 bd 89 98 6e bd cc 50 83 bd
       -0.038921453 -0.05676933 -0.058250938 -0.06411895
0003f0 87 b6 a2 bd d0 8e 61 bd a9 8c 87 3d 09 95 2a bd
       -0.079449706 -0.055067837 0.06618626 -0.041646037

network.2.bias f4 [128]
000000 00 4f d2 bd 8e 1f 07 be 44 da 3a 3d 66 44 3b bc
       -0.10268974 -0.13195631 0.04561831 -0.011429882
000010 41 30 a0 bd d9 8a 46 3d b5 d8 8d bd 64 58 01 3d
       -0.07821704 0.04847226 -0.06926099 0.031578436
000020 b6 1b 7a bd 95 d0 06 3d 9e e0 9e 3c 66 49 95 3c
       -0.061061583 0.032913763 0.019394215 0.018223476
000030 38 08 14 bc d3 f3 d1 bd 94 4d 4b bd d8 bf 48 bb
       -0.009035163 -0.10251584 -0.04963453 -0.0030631926
000040 84 bc 3d bd 71 dd 34 bd ba 77 bd bd 16 a5 1f 3d
       -0.04632236 -0.044156495 -0.09251352 0.038975798
000050 bd c0 34 3d d3 eb ce bb 3c 28 52 bd 19 38 a4 bd
       0.044129122 -0.0063147335 -0.0513079 -0.08018512
000060 1a b7 9c 3d 0e b5 08 be 34 c6 0d 3d bd 61 37 bc
       0.07652111 -0.13350317 0.03461285 -0.011192736
000070 75 6c 11 bd d6 5a 72 3d cc 6b 40 3c d1 66 0d be
       -0.035503823 0.05916866 0.011744451 -0.13808753
000080 35 14 ab bd 68 75 c2 3c 0b fa 83 bc 1f b4 47 bd
       -0.083534636 0.023737624 -0.01611044 -0.04875576
000090 38 f4 7c 3d 35 5e bd 3c 51 5d ba bd 3c ff bb bd
       0.061756343 0.02311621 -0.0909983 -0.091795415
0000a0 df 87 df bd c6 a3 2e 3c 5d 8b a2 bd c2 82 26 bd
       -0.10914587 0.010659164 -0.07936738 -0.040652044
0000b0 8d 1b 1a 3d 04 c0 f9 3b 5e ff fb 3d 71 b9 de bd
       0.03762393 0.007621767 0.12304567 -0.10875214
0000c0 9e b4 24 3d 57 dc 98 3c 12 8d fe 3c a8 c3 19 3c
       0.040211312 0.018659754 0.031073127 0.009385027
0000d0 d5 f0 92 3d b2 d1 90 3d 2b 18 8b bc dc dc bf bd
       0.07174841 0.07071246 -0.016979298 -0.093682975
0000e0 ce c0 ec 3c 7b 8a e9 bd f8 44 f2 bc 87 5d 9b bc
       0.02890053 -0.11403366 -0.029573902 -0.018965496
0000f0 3b 64 79 3e ad 75 5d bd 4c 02 2e be df 81 c5 3c
       0.24354641 -0.054067302 -0.16993064 0.024109779
000100 de 83 ca bc 7c 3f ae bd 3f 05 74 bc 94 85 09 bd
       -0.024721082 -0.085082024 -0.014893829 -0.033574656
000110 5f ba fd bc 6e e8 55 bd 71 d1 01 bd 97 36 61 bd
       -0.030972658 -0.052223615 -0.03169388 -0.0549837
000120 08 a0 89 3d 5f 90 02 3c 30 11 7c bd 2e a2 a2 bd
       0.06719977 0.007968991 -0.06153983 -0.079410896
000130 4a fe ad bd e1 f7 5b bd 11 ec 8c bd a0 7f d7 bd
       -0.084957674 -0.053703193 -0.068809636 -0.105223894
000140 34 c2 a2 3b 28 ef 13 bd 16 30 94 bc 4e d8 bb bd
       0.0049669985 -0.03611675 -0.018089335 -0.09172116
000150 5d 69 b2 bd 6b d3 d1 bd ac 08 84 bd eb 7c f2 bd
       -0.08711503 -0.10245403 -0.064469665 -0.118402325
000160 fd 05 3d bd 7a 9f 05 be bd 25 37 3d e4 e6 25 3d
       -0.04614829 -0.13049117 0.044713724 0.040503398
000170 88 1d 42 3c b8 58 5b 3d 9e 6a c1 3c 35 e1 4c 3c
       0.011847861 0.053551406 0.02361041 0.012504865
000180 8b 0b b5 bd f9 c6 99 3c 95 1d 9d bb 21 d1 22 bd
       -0.08840092 0.018771635 -0.004794786 -0.039750222
000190 ba 3f 0d 3b ec 89 8a 39 74 94 d6 bc 11 d0 78 3c
       0.0021552877 0.0002642417 -0.026193835 0.015186326
0001a0 cc aa 87 3d 3a a9 b0 3e fb a4 9c bc 1b dd cf bd
       0.06624374 0.3450411 -0.019121638 -0.101495944
0001b0 10 2d d6 3c 5b 9c c5 bd 23 c7 bd bc fb d3 b0 bd
       0.026144534 -0.09648963 -0.023166245 -0.08634182
0001c0 0a f9 91 bd 12 e7 eb bb 96 92 ab bd 64 86 23 3d
       -0.071275786 -0.0071991766 -0.083775684 0.039923087
0001d0 e0 e9 67 3d fb 23 da bd 3c 4a 99 bd 92 89 51 3c
       0.056619525 -0.10651394 -0.07484862 0.012789147
0001e0 91 98 28 bd f0 5d d6 bd 8a fe 4b 3e 20 68 4e bd
       -0.041161124 -0.10467136 0.19921318 -0.05039227
0001f0 4e 80 33 be 6c e5 d0 bd c7 5c b1 bc 36 5a 0f be
       -0.17529413 -0.10200009 -0.021650685 -0.13999256

network.4.weight f4 [64, 128]
000000 ef 40 81 bd 48 a3 a3 3d 2f b4 32 bd 4a 6b 09 bf
       -0.06311213 0.07990128 -0.043628868 -0.53679335
000010 b6 91 56 bd d0 79 81 bd 99 45 75 bd c9 9b 35 3d
       -0.052385055 -0.06322062 -0.059880827 0.04433802
000020 73 86 64 3d 8d 3c 48 3d 7b 11 b6 3c 96 52 8b 3d
       0.055792283 0.04888587 0.022225132 0.068028614
000030 ae e4 5b bd dd 74 4c bd b7 ed bf 3d df cd ab 3d
       -0.053684883 -0.049916137 0.093715124 0.08388876
000040 87 33 9e 3d a5 da 0f bb 1d 45 58 3d 2b 45 a0 3c
       0.07724672 -0.002195039 0.052800287 0.019564232
000050 ce 16 f9 bc d8 7c d9 3c 7a 80 3f bd cb fc d2 bd
       -0.030406382 0.026548788 -0.046753384 -0.10302123
000060 c5 41 31 bd ec 0a c7 3d 4c c7 e9 3c bd 62 40 bb
       -0.043275613 0.0971888 0.028537415 -0.0029355728
000070 2a ba 8e bc 32 36 14 3d 6d fb 68 3d 68 22 fa 3c
       -0.017422754 0.036184497 0.056880403 0.030533984
000080 da 34 1c 3d 5f 8b fd bc 4f 45 06 3c 3e e8 20 bd
       0.03813634 -0.030950246 0.008195235 -0.039283983
000090 5d 09 89 bc 29 b4 9f 3d 87 76 f4 3c 99 ab a2 3c
       -0.016728098 0.07798035 0.029841674 0.019857215
0000a0 55 be 09 bd 4c c4 67 3b 7b 91 c3 3c f7 9b b0 bd
       -0.03362878 0.0035364805 0.023873081 -0.08623498
0000b0 6f 96 a7 bd d4 e0 1b bd 29 87 e2 3d 3b 56 8f 3c
       -0.0818299 -0.03805621 0.11060936 0.017497173
0000c0 42 1c 2d bd 56 58 2e bd 32 15 07 3d 6e b6 55 bd
       -0.042263277 -0.042564712 0.032979198 -0.05217593
0000d0 c4 cf c5 3c ae 8e 21 3d 6f 98 dd bc e5 0d bc 3d
       0.024146922 0.03944271 -0.027050225 0.09182338
0000e0 92 e1 1a 3c 7c 3a 27 bc 96 c6 6c bb a8 68 61 bd
       0.009453194 -0.010206815 -0.0036129109 -0.05503145
0000f0 f7 a9 15 3c f5 e7 a3 bd 11 0c 8a 3d 3b c5 1c bd
       0.009134761 -0.08003227 0.06740583 -0.03827403
000100 6f 56 9c bc 9d 1a 03 bd fd 59 1f bc 74 ef 08 3d
       -0.019084183 -0.032007802 -0.009726045 0.033431485
000110 26 24 93 bd da f8 08 3c 41 f3 92 bb 2f 42 c5 ba
       -0.07184629 0.008360112 -0.0044845645 -0.0015049631
000120 5d 68 83 3d f9 d6 2f 3d d6 bb 63 3c 88 df 5f bc
       0.0641639 0.042929623 0.013899764 -0.013664134
000130 d9 0b c2 3d e0 f6 87 3d 1d df 93 bd 69 1f 39 ba
       0.09474916 0.066388845 -0.0722029 -0.00070618704
000140 1a 46 45 bd 6e a8 a4 bc 74 1b 7b 3d fe 5c 0b bd
       -0.048162557 -0.020099845 0.06130548 -0.03402423
000150 1f 9d 5e 3d d7 9f 85 bd d2 2b 14 bf 4c fd 69 3d
       0.05434906 -0.06524628 -0.57879364 0.05712633
000160 ff 0a 96 3a 48 5d 10 3c 79 cb bb 3c f6 f8 86 3c
       0.0011447369 0.0088113025 0.022924172 0.016476136
000170 ef 58 03 be c0 c1 04 bd 5d b3 4d 3d 42 56 83 b9
       -0.12826894 -0.032411337 0.050219882 -0.00025050534
000180 39 e6 ab 3d 6b 84 f2 3b 8a 46 76 bd 2c e6 f0 bb
       0.08393521 0.0074010394 -0.060125865 -0.0073516574
000190 37 7d 27 3d 31 b9 aa 3b 73 27 13 bc b9 a0 8f ba
       0.0408909 0.005210065 -0.008981573 -0.0010957933
0001a0 1b 77 ec bc 01 18 21 3d ba 9b 0d 3d 78 84 c7 be
       -0.028865388 0.039329533 0.03457234 -0.38968253
0001b0 e6 cd c6 3c 74 60 72 3d 77 42 86 bd 2d 57 ec bc
       0.024268102 0.059174016 -0.06555646 -0.028850162
0001c0 84 c1 7c be e7 fe 66 3d b7 52 37 3d 4c cc 9e 3c
       -0.24683195 0.056395438 0.044756617 0.019384526
0001d0 ae 2f 70 3d e8 92 3b 3d ae 2c 8f 3d bc df 55 3c
       0.05863922 0.045794398 0.06990944 0.013053831
0001e0 e1 20 00 3d 85 df 9c 3d 0e da dd bd 2a 27 0a bd
       0.031281356 0.076598205 -0.10832606 -0.033728756
0001f0 ca d1 5c 3c 0e ee cb 3c 1f 84 cf 3b 28 be 5d be
       0.013477752 0.024893787 0.0063328887 -0.2165457
000200 61 6e 12 3d b8 69 53 3d f8 65 96 bc 1c 71 a2 be
       0.035749797 0.051614493 -0.01835917 -0.3172692
000210 7b a0 0f bd db 45 5a bd 32 55 b3 bd 4a 52 2d 3d
       -0.035065155 -0.053289276 -0.08756484 0.042314805
000220 7d b2 84 3d 50 5a 14 bc 80 64 9b bd 01 3f a1 bc
       0.064793564 -0.009054735 -0.07587528 -0.019683363
000230 47 99 80 bd 1a b9 86 bd 17 58 be bc 7a 8e c6 3c
       -0.06279235 -0.06578274 -0.023235364 0.02423786
000240 0c d7 47 3d 45 0c ae bd 8b 9a 25 be 28 b3 22 bd
       0.04878907 -0.08498434 -0.16172235 -0.039721638
000250 08 d3 b6 3c 9f 8b 2c ba a7 0d 6d 3c c0 8f bd 3c
       0.022317424 -0.00065820845 0.014468587 0.023139834
000260 60 6e 7f 3b 08 91 ce bd e0 9f 93 3c 0c d5 00 3d
       0.00389757 -0.10086256 0.01802057 0.031453177
000270 bb 9f e2 3b dc 37 c2 3c a6 84 81 bb 0d 23 8b bd
       0.006916014 0.023708276 -0.0039525805 -0.06793795
000280 bb dc ac 3d e2 44 7b 3c 7d 34 52 3d 50 1e 3c 3b
       0.084405385 0.015336247 0.051319588 0.002870459
000290 0a 2c 57 3d 90 b2 c4 bc 3c 5e 8a bc 97 84 9f 3d
       0.052532233 -0.024010926 -0.016890638 0.077889614
0002a0 ee 94 07 bd 34 14 83 bd fb 73 65 3c c5 e9 5c 3d
       -0.033101015 -0.06400338 0.014004703 0.053933877
0002b0 cc 85 ab 3d 59 3d 0b 3b e9 a7 bd be b5 2d 9d bd
       0.08375129 0.0021246283 -0.37042168 -0.076747335
0002c0 fc 55 69 3d f3 a3 1d bd e6 93 37 bd 9d 02 6e bd
       0.056966767 -0.038486432 -0.04481878 -0.05810796
0002d0 a4 c2 fd bc ed 60 8a 3d 3d ca 87 3d 9f 2e aa bd
       -0.030976601 0.067567684 0.06630371 -0.083096735
0002e0 74 9c f3 3c 64 86 3a 3b f3 dd 80 3d d3 9b 27 bd
       0.029737689 0.002846145 0.062923335 -0.04092009
0002f0 e6 52 61 3d 81 76 a8 3d 59 22 54 bd 1a cd 62 bd
       0.0550107 0.08225728 -0.05179057 -0.05537138
000300 a3 b5 99 3c 25 a5 8d 3d 1a 46 b1 bd ce 6f 72 3d
       0.018763369 0.069162644 -0.08655949 0.059188657
000310 57 e2 45 3d f1 41 b1 3d b2 a6 88 bc 27 69 d8 bc
       0.048311558 0.086551555 -0.016681049 -0.026417328
000320 eb 73 70 bd f9 77 81 3d ec eb bf bc 66 38 7a 3b
       -0.058704298 0.06321711 -0.023427926 0.0038180589
000330 95 23 46 bd 58 08 0a bd 7c 21 18 3d 44 3a 03 3c
       -0.048373777 -0.033699363 0.03714131 0.008009497
000340 2b 15 89 3d 5d 2b c6 3d fa b9 09 be 5e 04 5d bc
       0.066934906 0.0967624 -0.1344985 -0.013489811
000350 58 ac 0a bc f4 ad 50 3d 9f 7a 88 be d1 86 33 bd
       -0.0084639415 0.050947145 -0.26656052 -0.043829743
000360 c6 99 83 bd a5 da b8 bd 00 d2 cd 3a a7 e3 5c 3d
       -0.06425814 -0.09026078 0.0015702844 0.053928044
000370 d6 ad 94 3e a8 3c da bc 64 7f c0 bc c0 36 db bc
       0.29038876 -0.026640251 -0.023498245 -0.026759505
000380 3f d1 9c 3d 17 37 5c 3d 7a a9 5e bd 4c 22 60 bd
       0.07657098 0.053763475 -0.054360844 -0.054720208
000390 16 2c 43 bd c9 0b 83 bd b8 09 9f 3b 02 8c 9e bc
       -0.047649466 -0.06398732 0.0048534535 -0.01935387
0003a0 7b a5 1a bd d2 94 68 bd 5a 24 6d bd 9f ba 22 3d
       -0.03775547 -0.05678255 -0.057895996 0.039728757
0003b0 08 c6 8f 3d 81 98 28 bc 51 da 66 bd ce 7d ae bd
       0.07020193 -0.010290266 -0.056360546 -0.08520089
0003c0 26 c3 ee 3d e6 b4 0d 3a d8 36 4a 3b 54 0d cf bb
       0.11658315 0.0005405679 0.0030855443 -0.0063187275
0003d0 c1 8b d2 3c d1 04 a9 bd 9c 35 94 bc 7e e6 c5 bc
       0.025701405 -0.08252872 -0.01809197 -0.024157759
0003e0 b7 1c 30 bd 83 ec b8 bd d5 c1 12 bd 9c fb eb bb
       -0.042996135 -0.09029486 -0.035829384 -0.007201625
0003f0 44 91 54 bd 30 60 93 3b 30 87 71 3c 9c 27 bd 3d
       -0.05189635 0.0044975504 0.014741704 0.092360705

network.4.bias f4 [64]
000000 38 46 a9 be 5f 5a ba 3c c2 30 14 be f4 90 98 be
       -0.33061385 0.02274817 -0.14471725 -0.2979809
000010 e9 82 e0 be 05 f0 a5 bd 17 45 d5 be b2 23 a0 3e
       -0.43849877 -0.08102421 -0.41654274 0.31277233
000020 6b 41 14 be 09 a7 14 3d a0 8c f7 3c 77 99 d3 be
       -0.1447808 0.03629211 0.030218422 -0.41328022
000030 90 fd b6 3d b7 cd 4b bf 33 80 a8 be 31 25 fe 3c
       0.08935082 -0.7961077 -0.32910308 0.031023594
000040 6a 78 42 bd 53 08 11 3e 24 cd 41 be 86 55 22 be
       -0.047478117 0.14163332 -0.18925911 -0.15852937
000050 95 3c b5 be 54 f1 d3 be 11 bc a1 3e bf 00 ba bc
       -0.35397783 -0.41395056 0.31588796 -0.022705434
000060 4b dc a9 bd 9b 08 00 be 76 f1 91 be af a2 88 3d
       -0.08293971 -0.12503283 -0.28504533 0.066716544
000070 4c a2 49 be 6b e3 22 bf 39 e6 11 bf a6 22 3c be
       -0.19690818 -0.6362826 -0.56991917 -0.18372592
000080 85 af 63 3d 05 62 bd 3c fa 15 3d be e4 eb 01 be
       0.05558731 0.023118028 -0.18465415 -0.12687641
000090 fe da d9 3d 40 9e f2 bd 03 1b 22 bc af e8 b0 be
       0.106374726 -0.1184659 -0.009894135 -0.34552523
0000a0 78 ec 65 be 1a 49 ee bd 8d 23 4e be 70 e6 30 bd
       -0.22453487 -0.11635037 -0.20130749 -0.043188512
0000b0 dd ea 4f bd 54 e5 3d be 7a 5d 5b bd 78 15 99 bc
       -0.050761092 -0.18544513 -0.053555943 -0.018686995
0000c0 a4 eb e6 bd 12 62 8e bc fd 23 98 be 9f 7d 61 be
       -0.11275414 -0.017380748 -0.29714957 -0.22020577
0000d0 0e 95 a4 be 01 19 0f bf c4 30 90 3d 58 b2 5f be
       -0.3214497 -0.5589753 0.07040551 -0.21845376
0000e0 9c d0 de bd bd be 0a be 36 5b e1 bc 26 ed cd bd
       -0.10879633 -0.13549323 -0.027509313 -0.10054998
0000f0 65 04 8e bd 95 e8 83 be a9 a2 8a 3e fa be 29 be
       -0.06934432 -0.25763384 0.27077225 -0.16576758

network.6.weight f4 [2, 64]
000000 9f ac 83 3b 46 5b d1 3c c7 48 1f bd 35 cf 13 be
       0.004018381 0.025556218 -0.038887765 -0.14434512
000010 ae ef 01 3d ad ea 91 3b 0c 6b a0 3c 85 cb 78 3d
       0.031722717 0.0044530244 0.019582294 0.060740966
000020 3c 64 0f 3e 9a 6f 00 3e bb 4e 9b 3d ee e8 40 3c
       0.1400308 0.12542573 0.07583376 0.011774285
000030 fe a9 a7 3d 2e 7d 6f bc 71 38 50 bd 3a b1 25 3b
       0.0818672 -0.0146172475 -0.050835077 0.0025282637
000040 e9 d7 de bb 9f e6 5d 3d ba 5c 86 bd 4d b6 34 3e
       -0.006800641 0.054175016 -0.06560655 0.17647667
000050 45 76 15 be 2b 15 20 3d ec b9 aa 3c f9 3c 82 bd
       -0.14595897 0.039082687 0.020840608 -0.06359286
000060 ea 4f 78 bd d5 e4 a4 3d 03 da 04 3e 7d a0 d4 bd
       -0.060623087 0.08051459 0.1297379 -0.10382173
000070 b8 ae 56 3d 0b f1 96 bd 25 5e 9a bd 39 41 11 3e
       0.05241272 -0.07370194 -0.07537488 0.14185037
000080 d2 52 55 3d e3 18 bc 3d 56 7f aa bd 3f 68 fb 3d
       0.052080937 0.09184434 -0.08325069 0.12275743
000090 cc 40 5e bc 59 a4 51 3c 9f 09 31 3c 9d ac 12 bd
       -0.0135652535 0.012795531 0.0108055165 -0.035809148
0000a0 74 c3 e4 3d 02 48 27 3d 57 92 5c bd b4 ff a3 bc
       0.11170092 0.040840156 -0.053850498 -0.02001939
0000b0 dc 05 d9 bd 50 f0 8d 3c 38 de 04 be eb ca c1 bd
       -0.10596821 0.017326504 -0.12975395 -0.09462532
0000c0 5b 08 74 3c d7 3b bc bd 87 82 48 3d 76 b7 eb ba
       0.01489457 -0.09191101 0.048952606 -0.0017983753
0000d0 c7 f3 30 3e f6 ad 74 be 39 89 e5 bc b2 ac 98 bd
       0.17280494 -0.23894486 -0.028019534 -0.07454814
0000e0 ed 70 fb ba 52 b0 c3 3c 75 07 ee bc db b8 1c bd
       -0.0019183435 0.023887787 -0.02905629 -0.03826223
0000f0 67 5d fa bd c3 07 dd bd 4d ce 96 bd 1e 6a a0 bd
       -0.12224846 -0.10792496 -0.073635675 -0.0783274
000100 3d e3 f8 3c 89 f6 d5 bd da b5 5c 3b 8b 04 10 be
       0.030381793 -0.104474135 0.0033677728 -0.14064233
000110 3b aa 82 bd 2e 10 53 3c 98 72 1f bd 68 3d 80 3d
       -0.06380125 0.0128822755 -0.038927644 0.06261712
000120 84 4b 01 3e f3 0c 32 b8 04 3f f3 bb b2 f8 08 be
       0.12626463 -4.2450567e-05 -0.0074232835 -0.1337612
000130 f7 1b 77 39 47 61 8c be 24 ac a0 bb a2 4d c4 3d
       0.00023566173 -0.27417967 -0.0049033333 0.0958512
000140 4f 36 4d 3b df 3c 18 bd e9 6c fa 3b d0 d7 00 3e
       0.0031312888 -0.037167426 0.0076423776 0.12582326
000150 0a 4f 81 bc fc d1 e2 bc 7e c2 1f bb 56 27 10 3d
       -0.01578476 -0.027688019 -0.00243774 0.035193764
000160 82 ee 8a bd e7 4c 1d bb 3a b6 1e 3d fd e7 c7 bd
       -0.06783773 -0.0024002136 0.038748004 -0.09761045
000170 fd 53 00 bd d7 b2 ef ba 7b 30 49 bd 9f 43 1c 3d
       -0.031330097 -0.0018287551 -0.0491185 0.038150426
000180 a2 d6 b4 3d 15 48 43 bd a5 c6 b3 bc 0b d1 1d 3d
       0.088300005 -0.047676165 -0.021945307 0.038529437
000190 57 3b bb 3d f2 a4 30 bd 0a 91 00 3d 62 46 75 bb
       0.091421776 -0.043126054 0.03138832 -0.0037425985
0001a0 9f 70 86 3d 26 1d 0a 3c a9 ac 83 bd c5 a6 3a 3e
       0.065644495 0.008429801 -0.06429417 0.1822768
0001b0 63 77 17 3c 61 18 b8 bc cf 6f 09 3c 71 e4 09 3c
       0.009244773 -0.022472562 0.008388474 0.008416281
0001c0 b5 f6 cd 3c 2e c3 5b 3b 32 4a 14 bc d2 64 3a 3d
       0.025142053 0.0033533084 -0.009050893 0.045506306
0001d0 0d 4f 6c 3d fb 1d 80 bd 4f 0d 1b bd 7f f0 99 3c
       0.057692576 -0.06255718 -0.03785449 0.018791435
0001e0 b3 16 d6 3d 0a 24 b2 bd e7 d7 63 bd 74 da c2 bd
       0.10453548 -0.0869828 -0.055625822 -0.09514323
0001f0 b1 e6 f6 bd de c9 86 bb 90 e1 90 bd 8b 36 c1 3a
       -0.1205572 -0.00411342 -0.07074273 0.0014740987

network.6.bias f4 [2]
000000 47 25 ab bc 53 ca 8d 3b
       -0.020891799 0.0043270974
