Catcher_Flappy_Continuous/wandb/flappyBird/run_inacc_state_acc_r/files/flappy_agent_inacc_state_acc_r_2.pt (torch, 40129 bytes, 11 tensors)

critic.0.weight f4 [64, 4]
00000000: 0f8f 123e 9a46 2ebe 72ea 993c 51ae 92bd
00000010: 7fd9 6f3e 7ae1 b13b 821f 78be 3613 41bc
00000020: db5c 463e 2506 873c e572 80be 000b 5ebd
00000030: e6a8 06be 2a9c 1d3e d934 8cbc 2b46 5b3e
00000040: 5125 e7bd bc0c c8bd 9fba ddbd 5dce a2bb
00000050: d4d0 fa3d 5424 553c 142c d93c a49f d4be
00000060: 681d 893d 5a04 b53d a607 813e 3d84 6f3e
00000070: 6d00 f83c 7488 c83d 2cdc bbbd 9620 aabe
00000080: 60e2 0b3d 9623 0e3e 0ed2 033e 384d 9bbe
00000090: c27a 9bbe 3e44 5abc 5b9c b53e c4b5 033d
000000a0: dd55 453e 407f 47bb 06de 98be 9a10 cf3d
000000b0: e1cd e0be e892 8bbd 27a7 793d beef 9a3e
000000c0: 965c 09be d04f 1a3e ca21 3dbd 85c0 7dbe
000000d0: 6a23 27be 0574 5c3e 6e0d 8a3e 8788 e8bd
000000e0: ec59 263e ab9f 72bd c07a 053e 6977 1bbe
000000f0: 33c3 023e 17c8 9c3d 3141 55be 213b 163e
00000100: 6b31 bbbd c0d7 febc 36b3 983e 0e50 56be
00000110: da85 3b3e 1a44 b3bd b0e2 983e 81cb f03d
00000120: f6b3 eabc 6e1a c33e 95ad 43bc e077 333d
00000130: a9c9 ebbd d97a f4bd 722c a0bd 2e32 b2be
00000140: 1304 9c3d cdd5 9cbe 8304 38be 2666 60bd
00000150: ea00 65bd 3e9d fd3b 2228 a3bd 70da 29bd
00000160: c8b2 26be eb05 383e 107d 613e 6b42 a2bd
00000170: 35c7 3abe da16 0c3e 9a38 b8bd 2000 f33c
00000180: e115 95bd e115 983d e63d 99bd 9e27 083e
00000190: 8c42 8fbd 7388 f0be 8b9c 64be 3702 82bd
000001a0: fcfc 01ba d5d0 e0be 261b d83d 47fb ef3d
000001b0: 7a22 1ebd 6e4c 0d3e 008b 963d ebc7 ce3e
000001c0: 76ba 323e faf1 8a3e bb36 923e 1584 393d
000001d0: 65fd 82be 9edf 49bd 443e d93c 1476 073e
000001e0: 5ca9 a43d 1be0 4abc acfb b93d 13c1 cfbd
000001f0: 786a 89bd 634a 7abe d839 cd3e e80f 9bbe
00000200: a2cf ebba 85ae 513d f25e 583d d328 573d
00000210: 127c 3abe 4df1 973e 5edf 433e 5e06 2cbe
00000220: 874d 113e c923 1b3d 30eb 95be 8a55 833e
00000230: cc9d 1bbf d98f fa3d a098 e2be afb3 56be
00000240: e5a1 4b3e c0c3 8b3e c1c9 ad3d 040c 1c3e
00000250: cf45 3c3d f6e7 5cba 0536 803b 688a 74bb
00000260: eb1c f2bc d57a 12be c925 17bd ab1c d6bd
00000270: 0035 3a3d b26c 8dbd 99bd 4bbd c1a1 483d
00000280: baf1 93bd 2064 33bb 173a e8bd 6bc4 e4bd
00000290: cbd5 503e 4ad6 d03c 2b80 2abd 346c cabd
000002a0: e57a 37bd ae5f 16bd 1582 7ebe 1c66 6a3e
000002b0: 0154 d1be c020 9b3d eb0a 56bd 59f1 c3be
000002c0: 8800 90be dac0 703d 591c 3bbe d302 723e
000002d0: ef3c fa3c ec0a 82bd c1fb fc3c 3878 c5bd
000002e0: db53 4e3e f251 083e 69cc df3d 0e3f b83d
000002f0: ae98 b2bd 29f2 0d3d df9d 1d3d 18c9 c9bd
00000300: c190 df3d 11df 853e 4e1d 43bd 974c af3c
00000310: b90c 17bd 481c cb3d d238 80bd 1656 59be
00000320: 6817 93bd 481d 0a3e 41da 0dbf fcdc 943b
00000330: 383f 873d b489 0cbc 48c3 3fbe 9e47 9bbd
00000340: 9bdc 873d a968 03be 783d 1b3e 5543 5c3e
00000350: 4d13 a43d 6a98 693e 4235 823c 0800 5e3c
00000360: f975 21be 8ec7 ea3b 1ee4 633e d9e5 75bd
00000370: 430c 97be 9317 2d3e b64f 04be cd64 253e
00000380: 4807 b03d 62e2 743e 8a5e 46bd 7cec c6be
00000390: a2f1 ed3c eb5c 493b 5dce a93c 4f69 a9bc
000003a0: 7027 51bc b108 8f3e b7a1 233e 8467 ccbc
000003b0: 46ef bfbd a0bc b03e e13d 4e3e 68b8 393e
000003c0: 6eaa f2bd a9f6 2cbe 2464 053e 36f0 cabd
000003d0: 5872 6b3e 5aa6 543d 9405 20bc 2339 d8bd
000003e0: 0c76 eabb 744b afba 9ab2 bcbd 1ad9 b63d
000003f0: 3b5c 1c3e cb37 263e 7eb7 b63d f6ce a53d
0.14312385 -0.1701912 0.01878855 -0.071621545 0.23422812 0.00542849 -0.2423077 -0.011784365
0.19371359 0.016482422 -0.25087658 -0.05420971 -0.13150367 0.15391603 -0.017115043 0.21413486
-0.112864144 -0.09768054 -0.10826611 -0.004968448 0.12246862 0.01300915 0.026510276 -0.41528046
0.06695062 0.088387206 0.25201148 0.23390289 0.03027364 0.09791651 -0.09172854 -0.33227986
0.034151435 0.13880762 0.12873098 -0.3033235 -0.30367094 -0.013321934 0.35470852 0.032155767
0.19271035 -0.0030440837 -0.2985689 0.10110588 -0.43907073 -0.068151295 0.060950425 0.30261034
-0.13414225 0.15069509 -0.046174802 -0.24780472 -0.16322103 0.21528633 0.2696337 -0.113541655
0.1624524 -0.059234302 0.13035107 -0.1518227 0.12769775 0.076553516 -0.2082565 0.14670993
-0.09140285 -0.031108737 0.29824227 -0.20928976 0.18312779 -0.08753224 0.2986045 0.11757565
-0.028650265 0.38106102 -0.011943241 0.043815494 -0.11513073 -0.11937494 -0.07820977 -0.3480391
0.076179646 -0.30631867 -0.17970471 -0.054784916 -0.055909075 0.007739692 -0.07966639 -0.041468084
-0.16279137 0.17971008 0.22020364 -0.079228245 -0.18240054 0.13680592 -0.08995171 0.029663146
-0.07279564 0.07426048 -0.07482509 0.13296363 -0.06995115 -0.46979102 -0.22325341 -0.06348079
-0.0004958657 -0.43909326 0.10552053 0.11717849 -0.0386071 0.13798687 0.07350731 0.403869
0.17453942 0.27137738 0.2855738 0.04529198 -0.2558395 -0.049285524 0.026518948 0.13228637
0.08040115 -0.0123825325 0.09081206 -0.10144248 -0.067097604 -0.24442439 0.40083194 -0.30285573
-0.0017990957 0.051191825 0.052824922 0.052529167 -0.18211392 0.29676285 0.19128177 -0.16799304
0.1418973 0.037875924 -0.29280996 0.256512 -0.60787654 0.12234468 -0.4425707 -0.20966981
0.19885977 0.27297783 0.08485747 0.15238959 0.045965012 -0.0008426899 0.0039126896 -0.0037313942
-0.029554805 -0.14304669 -0.03690127 -0.10454687 0.0454607 -0.069054976 -0.04974136 0.048982386
-0.0722384 -0.0027372912 -0.11339205 -0.11170276 0.20394056 0.025492806 -0.041626137 -0.09883919
-0.044794936 -0.03671234 -0.2485431 0.22890514 -0.40884402 0.07574606 -0.052256506 -0.3827007
-0.28125405 0.058777668 -0.18272533 0.2363389 0.030546634 -0.063497394 0.030881764 -0.096420705
0.20149176 0.1331251 0.1092766 0.08996402 -0.087205276 0.03465477 0.038480636 -0.09852809
0.109162815 0.2614675 -0.04763537 0.021398826 -0.036877368 0.099175036 -0.062608376 -0.21224245
-0.07182199 0.13487732 -0.55411154 0.004542945 0.06603855 -0.008577753 -0.18726838 -0.07582019
0.06633874 -0.12832893 0.15160167 0.2151006 0.08011494 0.22812048 0.015894536 0.013549812
-0.15767659 0.007164902 0.22254989 -0.060033653 -0.29501542 0.16903524 -0.12921032 0.16151734
0.08595139 0.23914483 -0.048430003 -0.38852298 0.029045884 0.003072555 0.020728284 -0.020680098
-0.01276575 0.2793632 0.15979658 -0.024951704 -0.0937181 0.3451891 0.20140792 0.18136752
-0.11848913 -0.16890968 0.13026482 -0.09909098 0.22992837 0.051916458 -0.009766955 -0.10557773
-0.0071551856 -0.0013373927 -0.09213753 0.089281276 0.15269558 0.16232221 0.08921717 0.08096115

critic.0.bias f4 [64]
00000000: 852a 823b aa50 d03e 58bb 4e3e 0000 0000
00000010: 6c9f 65b5 607b 0cb9 0000 0000 8003 cfba
00000020: af3b 5cbd 3b39 df3c 0d6a 8bbd 6b5c c13d
00000030: b756 b4bc 1dec fcbc bdff 38be 7132 9635
00000040: 1674 c3bb 8853 123c 4402 8e3b 0000 0000
00000050: d913 9faf cf21 3abc cd52 e2bd 7e9f 613d
00000060: 15fa 6438 0000 0000 0f67 e83d 0000 0000
00000070: 0000 0000 e357 193c c276 a3bd 0000 0000
00000080: 0ee6 d831 7720 9c3d 0000 0000 0000 0000
00000090: 0000 0000 4496 4ebe 0000 0000 5354 37be
000000a0: 0000 0000 42b7 d6bd f228 a03c 0000 0000
000000b0: bd10 7d3d 0000 0000 0000 0000 dfd9 3abc
000000c0: 075f cd3a cbb1 5abb e0d4 a13c 7cc5 1ebc
000000d0: 83dd bb3a 550d 9d3b 939f 023d 09d7 023e
000000e0: da82 9dbb ea98 9ebd c192 973d 0000 0000
000000f0: 0000 0000 5703 9ebd fd0f e5bb 0000 0000
0.003972354 0.40686542 0.20188653 0.0 -8.554114e-07 -0.00013397401 0.0 -0.001579389
-0.053767856 0.02724897 -0.06807337 0.094414555 -0.022014005 -0.030874306 -0.18066306 1.1190551e-06
-0.0059647663 0.008931048 0.004333766 0.0 -2.8936034e-10 -0.0113606 -0.11050949 0.055083744
5.4592343e-05 0.0 0.11347782 0.0 0.0 0.009359333 -0.07981636 0.0
6.3125816e-09 0.0762338 0.0 0.0 0.0 -0.2017451 0.0 -0.17903261
0.0 -0.104841724 0.019550774 0.0 0.06178354 0.0 0.0 -0.011404484
0.0015668579 -0.0033370133 0.019754827 -0.009690639 0.0014332983 0.004792849 0.031890463 0.12777342
-0.0048068585 -0.0774401 0.07401038 0.0 0.0 -0.07715481 -0.0069904313 0.0

critic.2.weight f4 [64, 64]
00000000: 5a1f 8a3c eadb 99bd 83fd ebbd c3c9 28bd
00000010: b7af 2bbd ecea a83d 9761 613c 0d05 be3e
00000020: e062 a93e cce8 813b e540 4f3e bdce 80bd
00000030: c02f 1a3e 5748 a1be 5890 92bd eaec fbbd
00000040: 8dfb ac3c ed37 62bd f2ec f03c 91d2 edbb
00000050: f355 99be e727 2a3d 6df2 0cbe b28b 743e
00000060: cd5b 74bc b1cc 13bd c340 c73d d6bb 3dbe
00000070: 5da5 33bd bf67 d7bd c89c b5be 74ad 2abe
00000080: 1e5b d9bc 5a61 d93b ce35 43be 5f6b d63e
00000090: 3549 86be 1962 f53e 676c 95be 22fb c5bd
000000a0: 069f 0a3e 8044 6bbe e584 463e 66aa 5b3e
000000b0: 7aa1 ad3d 6443 c43d c133 6abd 473e e9be
000000c0: e665 00bd 93c2 883e d9c5 b43c 8d79 aebe
000000d0: 75b5 5a3d f364 6abc 6c8a fdbd c45d 8b3d
000000e0: 9cd5 423d cd0b 923e 39c7 663d 961c 33be
000000f0: 7008 1e3e 4fcd 1a3e 59e4 c93e 6b3a 423d
00000100: 5a89 ae3e 8989 d53d f162 68be 788b 2d3c
00000110: 08e6 16be 7c6c abbe 57cd 64bd b5d8 3abe
00000120: b705 53be 80a4 1bbe 12bd 18bf 08c9 593d
00000130: 005a eabd 5805 cf3d 8f5c bdbc 78f9 293e
00000140: 24cf ee3d 7e1f 5abc 96bf 0b3e 02a1 5d3e
00000150: 366b 9fbe a31f 98bd 2f65 c63e 23f9 863d
00000160: 8aac a83d 9a9a 063e e8cf 893e 3d2d b3bc
00000170: 701c ffbd e34a 4b3d 35dd 72be 1639 c23d
00000180: cace a73e bfa2 87be e6e2 0f3e 5bdb 833d
00000190: e728 1fbd f4da 1ebe 4edc 213e efc2 a13e
000001a0: 0932 2cbd 59a0 45be 8990 e53a 8456 9abe
000001b0: 6639 543e a20d 973e 6d71 ca3c d09d 3c3e
000001c0: a678 11bc 24fd b53d f093 01be 08af babb
000001d0: b12c 1dbd 1c21 023e 9147 123f 448e f3bc
000001e0: c717 853e 4e2d 03bc a81e 3f3c 1ecc 863d
000001f0: 8a5b c23e 1d87 bbbe ce11 95bc d2fd 8ebd
00000200: 26e6 333e 2b4d 13bd 2f86 cb3d 0d9b 7e3e
00000210: 664e 8d3d 15e6 22be 3727 8e3d 169e bbbd
00000220: f7a3 d13d 3916 123e 3269 f23d e9ad 79bc
00000230: 38bf c43e 04c5 1fbd c432 523b bffe 4a3e
00000240: 77df 1cbe b043 87bd 927c 0a3d 921b cbb9
00000250: 2ac9 ca3c 540e fb3d 4745 b4bd f292 c4bd
00000260: 455f 44be c60c 863d d1e0 9e3e df3b 89be
00000270: 119e fdbd 9ed5 1b3e 7df1 92bd bc60 543d
00000280: 4fa3 e2bd a3d2 abbe 39cb 0c3e b28e b03c
00000290: 02bd 9bbd c12e 23bd 61c4 1dbe 5514 ae3e
000002a0: 034c 36be 4cb4 133e dadd f8bd 85e5 433e
000002b0: 613e 463e e617 bcbd 206d 7cbe 085d 9b3c
000002c0: 64ae 9cbd 6313 603e 1224 473e 18b5 893d
000002d0: 15fb e03c 10f3 b9be c345 d3be 4217 eebe
000002e0: bb53 653e aaee 9fbd ef1c 0a3d dedf 1a3d
000002f0: 49e5 00be e2c4 9cbe 5b57 85be 57de 4a3e
00000300: a2b4 cf3e 3034 e03d 44e7 15be fa59 cf3c
00000310: 8585 87be 5fbe 3cbd 8d6c 373e 9aed 36be
00000320: 7538 b93d a1fd db3d 25eb d53b 1f83 acbb
00000330: e73d 71bd 8bf7 70be c09f 3fbe 75bf ee3c
00000340: e516 47bd cb09 983e f7c3 273e 23dc 34be
00000350: b1cd 623d 1cb0 a53d 1be3 b33e 7f96 8c3d
00000360: 258e 273e 8802 bdbe 53ce 7cbd d275 bd3d
00000370: 56c3 af3d fbf8 0cbd 4963 d43d e18f 8d3e
00000380: c59e a4be b3f7 0bbe 395a 32bc fe1c 91bd
00000390: 395e 583e cec2 55be af8e 0c3e 8e3a d0bd
000003a0: 8ad7 ad3d 7b8d 5fbd 7c9e af3e 9330 80be
000003b0: 548d 863e 05dd 40bd 61a7 2ebd 3dc0 32be
000003c0: f95a 603e 22fc f5bd 8311 043e 35a9 6abe
000003d0: 242d 373e 1438 88bd e10c 19bd a535 aebd
000003e0: 585b 983c 1c5d 623e efc3 e33e 6575 0e3e
000003f0: 1213 82be 179b 773d a712 b1bd 633c 3bbe
0.016860653 -0.075126484 -0.11522963 -0.04120804 -0.04191562 0.08247933 0.013756177 0.37113228
0.33083248 0.003964519 0.20239599 -0.06289432 0.15057278 -0.31500503 -0.07156438 -0.12301047
0.021116043 -0.055229116 0.02940986 -0.0072577675 -0.29948387 0.04154196 -0.13764353 0.23881415
-0.014914465 -0.03608388 0.09729149 -0.18528685 -0.043858875 -0.10517835 -0.35471177 -0.1666773
-0.026532706 0.0066339197 -0.19063494 0.41878793 -0.26227728 0.47926405 -0.29184267 -0.096670404
0.13537225 -0.2297535 0.19386633 0.2145172 0.08478065 0.09583166 -0.057178263 -0.45555326
-0.031347178 0.26710948 0.022066997 -0.3407711 0.053395707 -0.014306295 -0.123799175 0.06804994
0.047566995 0.28524628 0.056342337 -0.17491373 0.15432906 0.15117382 0.39432028 0.047418993
0.34089166 0.104266234 -0.22693993 0.010592334 -0.14736187 -0.33481205 -0.05585989 -0.1824673
-0.20607649 -0.1519947 -0.596635 0.053170234 -0.114429474 0.10108441 -0.023115424 0.16599071
0.11660603 -0.013313172 0.13647303 0.21643451 -0.31136483 -0.07427909 0.38749072 0.06590488
0.08236034 0.13144913 0.26916432 -0.021872157 -0.12456596 0.049631964 -0.23717196 0.094835445
0.32774955 -0.26491353 0.14051399 0.06438323 -0.038857367 -0.15513211 0.15806696 0.31594035
-0.042039905 -0.19299449 0.0017514388 -0.3014413 0.20725021 0.2950259 0.024712289 0.18419576
-0.0088788625 0.08886173 -0.1265409 -0.005697135 -0.0383727 0.12707943 0.5714045 -0.029730923
0.25994703 -0.008006407 0.011665024 0.06581901 0.37960464 -0.3662652 -0.018196966 -0.06982006
0.17568263 -0.035962265 0.09937703 0.24863835 0.06899719 -0.15908082 0.069410734 -0.09161012
0.10236352 0.1426629 0.11836471 -0.015239217 0.38427138 -0.039006248 0.0032073716 0.1982374
-0.1531962 -0.06604707 0.033810206 -0.0003873972 0.024754126 0.12258592 -0.08802276 -0.0959834
-0.19176967 0.06545405 0.31030896 -0.2680349 -0.123836644 0.15218207 -0.071749665 0.051850066
-0.11066305 -0.3355914 0.13749398 0.021552417 -0.0760441 -0.03983951 -0.15406944 0.33999887
-0.17802434 0.14424247 -0.1215169 0.19130524 0.19359733 -0.09184246 -0.24651003 0.01896526
-0.0765045 0.21882395 0.19447353 0.06723994 0.027463475 -0.36318254 -0.4126416 -0.4650212
0.22395222 -0.078091934 0.033719 0.037811153 -0.12587465 -0.3061896 -0.2604321 0.19811378
0.405675 0.10947454 -0.14639002 0.025311459 -0.26469055 -0.04607999 0.17912503 -0.17864075
0.090439714 0.10741735 0.0065282756 -0.0052646543 -0.058896925 -0.2353193 -0.18713284 0.029144028
-0.04860582 0.2969497 0.16383348 -0.176621 0.055371944 0.08090231 0.35134205 0.06864642
0.16362818 -0.36915994 -0.061720204 0.09250988 0.08582179 -0.034417134 0.103705 0.27648833
-0.32152382 -0.13668709 -0.010885769 -0.07085608 0.21129693 -0.20875093 0.13726304 -0.101674184
0.084883764 -0.054578286 0.343006 -0.2503706 0.262797 -0.04708578 -0.042640094 -0.17456146
0.21909703 -0.12010981 0.12897305 -0.2291611 0.17888314 -0.06651321 -0.037365798 -0.08506326
0.018598244 0.22105831 0.44485423 0.1391197 -0.25405174 0.06045064 -0.08646136 -0.18284754

critic.2.bias f4 [64]
00000000: 909e e8bc ffa6 873c 00f3 62bc f892 f43c
00000010: ea06 45bd d35e 083d 3e6d 47bd 358a c83c
00000020: 7c2b 413d 6ac4 f83b 04a5 823d ac83 8d3d
00000030: bd22 a8bd 4757 d0bc 9a63 5b3d dc5d 483a
00000040: b923 1bbc 4363 6b3b 87c9 d03c 582e adbc
00000050: 38f5 16bc c281 173d be9c 84ba 7d81 fcbc
00000060: 78e1 29bd 7cff caba c1a3 4a3b 4f27 c2bc
00000070: 9c2f a33c 6207 333d 50e0 913b 70a6 62bc
00000080: 2b42 7cbb c7ee d6bc 705f 8e3c 8177 553c
00000090: 6c99 84bd 7ea0 16bb 1a4f a3bc 0146 7abd
000000a0: 10d2 4a3c 7dee ac3b 8685 74bd ba04 95bc
000000b0: 9456 393d 9125 1dbc ec2b 623d 1830 a63c
000000c0: 672f 053d 9bea 35bc c1cf 2fbd 11b8 0e3d
000000d0: e63c 563c 9f26 11bd 60b6 3abc b8de c23c
000000e0: 446c 6abc 6806 dc3c afd7 1f3d 0c5a 9d3c
000000f0: 5b11 9f3b 478c 6cbc b006 d53c 4bb5 723c
-0.028395921 0.016559122 -0.013851881 0.029855236 -0.048102297 0.033293556 -0.048688166 0.024479965
0.04716061 0.0075917738 0.063791305 0.0690988 -0.08209751 -0.025432242 0.053561784 0.00076433807
-0.009468966 0.003591732 0.02548672 -0.021140262 -0.009213738 0.03698898 -0.0010117514 -0.030823464
-0.04147479 -0.0015487517 0.003092036 -0.023700384 0.019920163 0.043708213 0.004451789 -0.013833627
-0.0038491588 -0.026236905 0.017379493 0.01302898 -0.064745754 -0.0022983844 -0.01993518 -0.061101917
0.012379184 0.0052774535 -0.05969765 -0.01819073 0.045248583 -0.009591476 0.05521767 0.020286605
0.03251591 -0.011103298 -0.04292274 0.03484351 0.013076043 -0.035437223 -0.011396021 0.023787841
-0.014308039 0.026858523 0.03902405 0.019207977 0.004854364 -0.014437742 0.026004165 0.014813731

critic.4.weight f4 [1, 64]
00000000: 96e9 a03e 9eba 8ebe 1cc3 0cbd fad1 903c
00000010: debf f43e 3758 bb3e af7d 5cbe 11bf edbe
00000020: 38f5 f5bd aa2d 4dbf 965a d23d e23f febe
00000030: d123 ad3e 7cac 053e 1f11 9ebe fa19 6a3e
00000040: 1cbb a4be 727b 643e 571b 273f 6ffb a93e
00000050: 933a e83e 38f0 c23e 5484 a8be 3239 9f3e
00000060: 877a a4be 93ac d3be 25fd f8be a117 5f3e
00000070: e5af 8fbd 358c 99be c4b8 ca3e c947 7a3e
00000080: ba6c 973d 4204 d7bd 9f7d b3be cab5 b23e
00000090: 1b22 8a3e 57db c2be bcc2 b43e e72b 003e
000000a0: 1f9a bdbe 9f86 f33d 6de0 0cbd 55ad 8abd
000000b0: 947a 98be 9e67 8dbe 2407 debd 607d 0d3f
000000c0: 3aad d23e 0a1d 113f 6b6a a43e 2c68 723e
000000d0: f4c2 7abe 3183 ddbe f6ed e93e 1d3e 3f3e
000000e0: 7706 6c3e 2117 f73e 08d5 10bf fb25 b2be
000000f0: 3303 e1bc 650c b9be 740f a7be dbc6 cb3e
0.31428212 -0.27876753 -0.03436576 0.01767825 0.47802633 0.3659074 -0.2153232 -0.46434835
-0.120096624 -0.801478 0.10271184 -0.49658114 0.33816388 0.13054079 -0.30872437 0.22861472
-0.32174003 0.22312716 0.6527609 0.3319964 0.4535719 0.38073897 -0.32913458 0.31098324
-0.3212473 -0.413426 -0.48630634 0.21786357 -0.07015971 -0.29989782 0.3959409 0.24441446
0.07393785 -0.10498859 -0.3505678 0.3490432 0.26979145 -0.38057968 0.3530482 0.12516747
-0.37031648 0.11890911 -0.034393717 -0.06771342 -0.2978102 -0.27618116 -0.10841206 0.5526943
0.41147786 0.56684935 0.3211244 0.23672551 -0.24488431 -0.43264154 0.45689362 0.18676038
0.23049341 0.48259833 -0.5657506 -0.34794602 -0.027467346 -0.3614227 -0.32628977 0.39800152

actor.0.weight f4 [64, 4]
00000000: 5b34 f13d c300 0e3e 2e95 db3d 6d56 8ebd
00000010: 1dc6 4b3e 3510 6fbe b442 00be 5052 02bf
00000020: 2b79 053e 55e3 7ebd dd9a b0be 1ee8 63bd
00000030: baae 4e3e 63da 413e c3a4 d33d cdfb 80be
00000040: 06b2 963e ea43 9f3e 1d90 8bbe 12fb 953d
00000050: ee51 823e 76de 9bbe 8ce2 76be cde5 0ebe
00000060: 2644 f83e db45 f53e d3e6 013d 9382 8abd
00000070: 7197 a43e 4f21 163d bab4 b5bd 89c6 593e
00000080: 9cdf 643d c215 39bd ecd4 653e 1662 3cbe
00000090: 6d1c 8dbd 05b2 e1bd 4674 34be ea47 f7bd
000000a0: ea7b a13e fb34 e2bd 1e11 c03d e808 0d3e
000000b0: 92e3 8d3e 6a38 2cbe c62e fa3d 240f f7bd
000000c0: 5733 a5be 2b03 433e bbf5 8ebe af2b 99be
000000d0: c528 a63e d9c5 83bd 8d8c 863d e824 6e3e
000000e0: d13a 903d 1a28 84bd 3bfa 88be c51c dbbd
000000f0: 3699 b3bd 5e0a 973e a340 8b3e f4fd af3d
00000100: fba3 623e 436c b6be e19d a73c 0950 eebc
00000110: 95e2 0dbe c8ac 683e 4489 14be e1fc da3d
00000120: 34b2 813e 0854 09be 110f 543e cc6a ac3d
00000130: 1414 1c3e 1c2b dabd 0822 9dbe 0e84 2cbd
00000140: 3671 9ebe 5714 29bd 9b41 66bc 17e9 bb3d
00000150: 6708 523e 10fb 653c 412b 14be 54de 56bd
00000160: d165 a13d 63ec 1e3e 426e a9bd 3bfa e93d
00000170: e985 f8bc 9776 2cbe 8324 b13d edf0 28bd
00000180: 90e4 e3bd af3c 34bd fa18 c9be fb13 f43d
00000190: c94a 1e3e 7847 46be 27ff 783e b088 7e3e
000001a0: 1f60 96be 0f38 24be 2ea9 8a3d 6ddb 413e
000001b0: 3219 043e 3be0 95bd bfac 5c3e 44c6 2ebe
000001c0: 8dec eabc e3b7 2fbe fd9c a6bd 0b65 7c3d
000001d0: aaf1 4e3e 63fe bcbd 2a7a d1bd a218 613e
000001e0: 93ef 18be 884e a53e b749 98bc 04ee 5ebc
000001f0: b4cd 9a3e b96d 053e 6ecb 9a3e 6098 28be
00000200: 0b1b c03d e480 ef3d 58e2 0cbd 344b 2e3c
00000210: eb2f 1a3b 2735 893e d6c2 2bbb e95d bfbc
00000220: ca16 113d 4920 aeba e89d 543e 82d8 d7bb
00000230: 2f17 843c 408d e93d 8dc4 4d3e f494 44bd
00000240: 6715 d23d 41c4 033e c2dc d73d 636f 953c
00000250: 4f38 853e 9713 d6bd cd6f e9bc 06c2 84bb
00000260: 7bbb 873d cf5a 61be b435 73be d107 93be
00000270: 64db dbbd 057e 483e 6614 f5bd 6af9 9d3d
00000280: 95e8 9b3e 8915 acbb 2812 96bd 4879 883e
00000290: f45a 82be 8c21 a7be 539e 8a3d 13a8 173e
000002a0: 1a8f 04b9 7add 673e 1b85 eabc 672b 973d
000002b0: dab1 55bd b3ae 81bd 2c3d 92be fe8a 893d
000002c0: b7c4 e3bb 8c3f 05bd 0fe1 a4bd 1bd6 83be
000002d0: 3346 e5bd 3a6d e1bc 8061 303e 947a 96be
000002e0: 3b8d 1ebe 895d 553d dd7b 99bd 1455 2abe
000002f0: a499 153e 7dbb 05bd 0c66 b2be c769 d9be
00000300: 92b8 853b 3fe1 c0be f73c 363e 1b4b c13d
00000310: 2556 56be 6f53 37be 71ba e0bd b20b 163e
00000320: 40f6 1b3e b121 4e39 20bf e83d 12f6 073e
00000330: 6e61 b2bd cc55 aebe 9aa7 5cbe 8b41 533e
00000340: 0f57 86be fb55 bbbd 3375 a43d 2ebd 7bbd
00000350: a7be e3bd 5c67 3a3e a259 913e 903d 90be
00000360: 62d6 31bd 11fc 43be f784 263e f959 25be
00000370: fef6 ca3c 3357 a73d 6d25 0cbe 6137 af3d
00000380: 50c1 e33b ed2c c33d 93c1 16be 3227 84be
00000390: 2609 243e b41c 25bc b9be 6cbe b113 933e
000003a0: 2061 3b3b fd5d 2cbe dbda c73d 3fc4 05be
000003b0: 7cd9 f1bb b88b 98bd 936a 70be 6f69 713e
000003c0: 6a13 9a3b 0cf5 7e3c 2597 2f3e ded2 973d
000003d0: b777 f3bd 2ffa 47be ac1b 263e aa0c fcbb
000003e0: a094 50be 1928 a33e b495 a73c 5208 b93e
000003f0: f931 5bbe 4a00 6dbe f8c1 26be 0a7a e4bd
0.11777564 0.13867478 0.10721813 -0.06950078 0.19899793 -0.23346026 -0.12525445 -0.5090685
0.13034503 -0.06222852 -0.3449315 -0.055641286 0.2018384 0.18930964 0.1033416 -0.2519211
0.29432696 0.31106502 -0.27258387 0.073232785 0.25453132 -0.30443162 -0.24109858 -0.1395485
0.48489493 0.47904858 0.03171427 -0.06763186 0.3214679 0.03665286 -0.088723615 0.21267141
0.055877313 -0.045186765 0.22444504 -0.18396792 -0.068901874 -0.11020283 -0.1762248 -0.120742634
0.3153985 -0.110452615 0.09378265 0.13772929 0.27712685 -0.16818395 0.122159526 -0.12063435
-0.32265732 0.19044177 -0.27921852 -0.2991614 0.3245298 -0.06434221 0.06569777 0.23256266
0.07042468 -0.06452961 -0.2675341 -0.10698847 -0.08769457 0.29500097 0.2719775 0.085933596
0.22132866 -0.35629472 0.020461025 -0.029090898 -0.13855965 0.22722161 -0.14505488 0.10692764
0.2533127 -0.13410962 0.20708872 0.084188074 0.15242034 -0.10652754 -0.30690026 -0.042118125
-0.30945748 -0.041279163 -0.0140537275 0.09175318 0.20511018 0.014036909 -0.14469625 -0.052458122
0.07880748 0.15519862 -0.08272983 0.11424681 -0.03033729 -0.16842113 0.08649542 -0.04124539
-0.11127579 -0.044003185 -0.39276868 0.119178735 0.15458216 -0.193632 0.24316083 0.2485683
-0.2937021 -0.1603701 0.0677055 0.1893136 0.12900236 -0.07318159 0.21550272 -0.1706782
-0.02867725 -0.17159991 -0.08135412 0.0616198 0.20209375 -0.09228208 -0.10228379 0.21982053
-0.1493514 0.32286477 -0.018589837 -0.013606552 0.30235064 0.13030137 0.3023333 -0.16464376
0.09380158 0.11694506 -0.034395546 0.010638047 0.0023527096 0.26798365 -0.002620866 -0.02336021
0.035422124 -0.0013284768 0.20763361 -0.006587089 0.016124336 0.114038944 0.2009451 -0.047993615
0.102579884 0.12867834 0.10540153 0.01824159 0.26019523 -0.10452955 -0.028495694 -0.0040514497
0.06627556 -0.22007297 -0.23750955 -0.287169 -0.10735205 0.19579323 -0.11966781 0.077135876
0.30450884 -0.0052515906 -0.07327682 0.2665503 -0.25460017 -0.32642782 0.06768479 0.14810209
-0.0001264181 0.2264308 -0.028627923 0.07381325 -0.052171566 -0.06332149 -0.28562295 0.06715964
-0.0069509405 -0.032531306 -0.08050739 -0.25749287 -0.1119503 -0.027517904 0.17224693 -0.29390395
-0.15483563 0.052091155 -0.07494328 -0.16634017 0.1460939 -0.032649506 -0.3484348 -0.42463514
0.0040808404 -0.3767185 0.17796694 0.09438153 -0.20931299 -0.17902921 -0.10973061 0.14652899
0.15230656 0.00019658242 0.11364579 0.13277462 -0.087099895 -0.34049833 -0.2154831 0.20630471
-0.26238295 -0.09147259 0.080301665 -0.061459713 -0.111203484 0.18203491 0.28388697 -0.28171968
-0.043417342 -0.19139124 0.1626166 -0.16147603 0.024775978 0.08170929 -0.13686152 0.085554846
0.006950535 0.09530053 -0.1472228 -0.25811154 0.16019115 -0.010077644 -0.2311963 0.2872596
0.0028591827 -0.16832729 0.0975854 -0.13063143 -0.0073806625 -0.07448524 -0.23478155 0.23575376
0.0047020214 0.015561353 0.17147501 0.074132666 -0.11888068 -0.19529031 0.16221493 -0.0076919394
-0.20369196 0.3186653 0.020457126 0.3613916 -0.21405782 -0.23144642 -0.1628493 -0.111560896

actor.0.bias f4 [64]
00000000: 5919 c83a 0000 0000 75a1 36bd 9566 cc3c
00000010: 7958 e13b 7812 86bb cbce 8bb6 0000 0000
00000020: 83d3 03bd 0000 0000 9547 3cb8 1cb3 a93c
00000030: 57ab 0329 0000 0000 0000 0000 0000 0000
00000040: 8ce0 9fbb 93fa 923c 5f1c ba3c 18c5 9ebc
00000050: 8c75 eabc 0dec 90bc 0000 0000 0994 1cbb
00000060: 19aa d0bc 850d f13c a77f 28bb 62e9 febc
00000070: 4fe1 f0bb a58e 9e2c 1513 203b c6d2 1abb
00000080: d545 b436 f9dd 703b de46 9f36 bba6 db38
00000090: 2c47 21b0 05c2 183c 0000 0000 1a9c c73b
000000a0: 0000 0000 5786 27bc e92d 73ae 47af 3abc
000000b0: 0000 0000 0000 0000 0000 0000 0000 0000
000000c0: 6788 833b 170e 793a 0000 0000 82a8 4ebc
000000d0: 53d2 7931 b980 6bbd 0000 0000 4fc4 1738
000000e0: 7414 98bc 0000 0000 0000 0000 739a 7f3d
000000f0: 0000 0000 3d08 63bc 0000 0000 0000 0000
0.0015266343 0.0 -0.04458757 0.024951259 0.006877002 -0.004091557 -4.1665967e-06 0.0
-0.032184135 0.0 -4.488936e-05 0.020715289 2.9236457e-14 0.0 0.0 0.0
-0.004879063 0.017941749 0.022718607 -0.019381091 -0.028620504 -0.017690683 0.0 -0.0023891947
-0.025471734 0.029425392 -0.0025710852 -0.031117145 -0.0073510776 4.506467e-12 0.0024425436 -0.0023624166
5.3725475e-06 0.00367534 4.7468193e-06 0.0001047379 -5.86726e-10 0.009323602 0.0 0.006091607
0.0 -0.0102249 -5.529258e-11 -0.011394328 0.0 0.0 0.0 0.0
0.004014063 0.0009500696 0.0 -0.012613418 3.6353824e-09 -0.057495806 0.0 3.6184032e-05
-0.01856444 0.0 0.0 0.062403154 0.0 -0.013856945 0.0 0.0

actor.2.weight f4 [64, 64]
00000000: 8f81 833e 91d6 083e a809 5fbe f317 b83e
00000010: e82b 16be 15ee 03be 9f22 37be 3d00 66be
00000020: 210c 93bd b073 24bd c4ce 273d bc5f 96bd
00000030: 5208 d1bc 354d 4dbe 7b00 8ebe de31 18bc
00000040: 874a f0bd 698f 82be 4efa 59be 6ad1 b3bc
00000050: 00bd b3be 15eb 5b3e d814 b2bc 37af 16be
00000060: 023c 6dbc 3b42 8c3d f93f a8be f6b6 4b3e
00000070: f2e9 7b3d 5dc3 153e 47ac 5bbe e9ec a6bb
00000080: 3668 84bb 7d66 77be 6a22 953e 980a 12bd
00000090: b904 a53e 59ac 4e3e 3d73 56be a925 c8be
000000a0: 1b59 5dbe 9bec 4f3d 0260 f8bc 654f 553e
000000b0: 8b44 b13d ec0f 33bd fbcd 67be e189 c5be
000000c0: a87d 9abe 17e2 253e 6d34 1ebe 5a5d f73d
000000d0: 7de0 32be 6cbb 453e c755 cd3e b3ef adbe
000000e0: 1543 b63d 1730 9b3d 79fb a13d cc90 3cbe
000000f0: b8aa 12bb 9024 0cbe c2c1 6fbd 235d 0bbe
00000100: c6bc 88be 19d7 0abe 9d02 35be 7b90 593e
00000110: b52f d43d 5ba2 20be 8dbe 9cbd 2161 3bbe
00000120: 2708 87bd 8dd6 58be 0de4 5b3d 3ea0 9abd
00000130: 1af9 a53e 136c 07bd faf8 f53e 5b56 033d
00000140: 4e92 91be 3f0e 42be 5963 7bbd 11c0 823d
00000150: 5890 01be 7b65 6b3e b53d 053e b7b2 3d3c
00000160: 63b8 38be 1224 0e3e 7358 00bf bb38 06bd
00000170: a40e 36bd a9ae 43be b712 e5bd 279f e0bd
00000180: 9dab 75b9 c776 213e f9d7 63bd 4d63 25be
00000190: fc0b b8be 1019 ea3d b33d 52be 65fd 693e
000001a0: b111 cd3d 0ca5 be3e 1900 dc3d 1fbd 4bbc
000001b0: 13d7 753d 99c6 723e d62c 8bbe e353 043e
000001c0: e86e dfbd 68c3 943e 0510 773d f91e bb3a
000001d0: a7c2 443e 42a5 b13d 6833 8a3e ed66 92bb
000001e0: 34e9 d43c f362 323e 93b6 50be 1bb3 babd
000001f0: 6524 163e d781 e13d 9df9 ac3d 5b1c bcbd
00000200: 56be 3f3e 0d6e 8cbe 48b3 2dbe d3f5 1abe
00000210: f4ff 133d f4b3 6c3e 0cf3 6a3e 14ad 4e3e
00000220: bd2b 1d3d 70f8 28ba 8957 973b 227b d73e
00000230: 8f30 863d a71e 5d3d b549 a9bd 2e03 16be
00000240: 5863 55bc 3bfb 8fbc f748 f03e fbea 9e3c
00000250: 9d6f 703e 427f 1ebe becb 35be 55ac d9be
00000260: 8e55 c6bd dfe4 11be 9423 9f3e dfdd da3d
00000270: 688c 303e aa38 11be e182 ac3d 7520 82be
00000280: eba5 443d 1463 213e c206 833d c69e 2dbe
00000290: eeb9 02be bcc7 27be 8de3 d4be e136 a03d
000002a0: 4982 a13d 5931 313d 6e40 4dbe 2102 cdbc
000002b0: d922 a6be 2312 eebc b229 49be bd45 9ebd
000002c0: 2c23 193e 2a6d b13d d49c 5abe 383f 14bd
000002d0: 1572 44bd d85a 94bd f331 d43c 3ef4 2fbe
000002e0: 704a 9d3e 9a2c 31be 5649 24bc 022b b43e
000002f0: bb08 d33d 7b45 dfbd ab2d c4be 0d89 c23c
00000300: ce16 53bd be34 4abe 9ad4 81bc 52c4 83bd
00000310: 86d3 a6bd c374 03bd 2ead a5be bcee c03d
00000320: d058 e23d 9e17 34be 8fe7 aa3e 7eda 9e3e
00000330: 30ae d9bd c6b4 eebd ac82 9cbd f441 9abe
00000340: 4c90 0cbe d8c4 213e 59cf dabc c79d 6cbd
00000350: 9357 843e b8aa 2fbe c403 373d 4e84 69be
00000360: cdf3 883e f38a e2bc e280 f33d d47f 863e
00000370: 17e5 9abc 4cc4 763d 4e36 8cbd 0bd6 163e
00000380: 7ae8 973e d187 ba3c 856d 273e e029 28be
00000390: 2014 843e 30b3 13bd 6afc 413e a169 cd3c
000003a0: 9683 0d3e eed6 26be 4657 413e 6e9c 353e
000003b0: c61c 43be 7ea8 5e3e 4042 6fbe 74b3 d33e
000003c0: 72f3 82bd 9e90 5b3d f878 afbe b4ea 8d3e
000003d0: 6c3d 833e e31e 013d d855 0fbd d85f a73e
000003e0: dc66 7bbe 8e28 173e 1602 17bd 02df 503e
000003f0: e26a 29be 8ff8 333d 5683 693d 64a4 233e
0.25684783 0.133631 -0.21781027 0.35955772 -0.14665186 -0.1288379 -0.178843 -0.22461028
-0.07180048 -0.04014939 0.04096867 -0.07342479 -0.025516663 -0.20048983 -0.27734742 -0.009289233
-0.11732965 -0.25500038 -0.2128689 -0.021950442 -0.35105133 0.21476395 -0.021738455 -0.14715277
-0.014479639 0.0684857 -0.32861307 0.19894013 0.061502405 0.14625306 -0.21452437 -0.00509416
-0.004040743 -0.2416019 0.29127818 -0.035654634 0.32230166 0.20182933 -0.20942397 -0.39091232
-0.21616022 0.050762754 -0.030319218 0.20831068 0.08655652 -0.043716356 -0.22637169 -0.38581756
-0.30173993 0.16199528 -0.15449686 0.12078352 -0.17468448 0.19309777 0.40104505 -0.33971938
0.08899514 0.07577532 0.07909293 -0.1841461 -0.0022379588 -0.13685822 -0.05853439 -0.13609748
-0.26706523 -0.13558616 -0.17676778 0.21246521 0.10360662 -0.15686934 -0.07653532 -0.1829877
-0.06593352 -0.21175595 0.053684283 -0.07550095 0.32416612 -0.033062052 0.48041517 0.032064777
-0.28431934 -0.18950747 -0.061374042 0.0638429 -0.12652719 0.2298793 0.1301182 0.0115782535
-0.18039088 0.13880947 -0.5013496 -0.032768946 -0.044447556 -0.19109596 -0.1118521 -0.10967856
-0.00023428952 0.15767966 -0.05562589 -0.16151161 -0.35946643 0.114305615 -0.20531349 0.22850569
0.1001314 0.37235296 0.10742206 -0.012435227 0.060019564 0.23708571 -0.27182645 0.12922625
-0.109098256 0.29055333 0.06031801 0.0014276198 0.19214879 0.086740986 0.26992345 -0.004467836
0.025990106 0.17420559 -0.20382147 -0.09116193 0.14662321 0.11011093 0.084460475 -0.09185096
0.18724951 -0.27427712 -0.16962922 -0.15132837 0.036132768 0.23115522 0.22944278 0.20183212
0.03837179 -0.00064457115 0.0046185893 0.4208613 0.065522306 0.05398431 -0.082660116 -0.1464965
-0.013024174 -0.01757585 0.46930668 0.019399157 0.23480077 -0.15478233 -0.17753503 -0.4251429
-0.09684287 -0.14247464 0.3108183 0.1068685 0.1724106 -0.14181772 0.08423401 -0.25415388
0.048009794 0.15760452 0.06397773 -0.16955099 -0.12766239 -0.16384786 -0.41579857 0.07822967
0.07886178 0.043259952 -0.20044109 -0.02502543 -0.32448462 -0.029061383 -0.19644812 -0.07728145
0.14954823 0.086633995 -0.21348888 -0.036193103 -0.04796036 -0.072438896 0.025902724 -0.17183015
0.30720854 -0.1730217 -0.01002725 0.35189062 0.103043996 -0.10901924 -0.38316092 0.023746992
-0.05153542 -0.19746682 -0.015848447 -0.064339295 -0.08145814 -0.032093775 -0.32358688 0.09420535
0.11052096 -0.17587134 0.3337979 0.3102607 -0.10628927 -0.116555735 -0.07642111 -0.30128443
-0.1372692 0.15797746 -0.0267102 -0.057767656 0.25848064 -0.17154968 0.044681326 -0.22804376
0.26748505 -0.027654147 0.11889817 0.262694 -0.018908067 0.060245797 -0.06846295 0.14730088
0.29669553 0.02276984 0.16350372 -0.16422224 0.25796604 -0.03605956 0.18943945 0.025074782
0.13819727 -0.16292927 0.18880948 0.17735454 -0.19053945 0.21743962 -0.23365116 0.4134785
-0.0639409 0.053604715 -0.3427198 0.27718127 0.256328 0.031523596 -0.034993976 0.3269031
-0.24550956 0.14761564 -0.036867224 0.2039757 -0.16544679 0.043938216 0.057010017 0.15980679

actor.2.bias f4 [64]
00000000: 1e5e ea3a 0d74 28bd f579 c8bc eab1 583b
00000010: ad0f cabc fff1 3bbc 8578 083b 892b 6e3c
00000020: 9e51 0a3c 724f f23c 7903 6dbc 069c c7bc
00000030: 0a60 7c3b eaba a3bb d331 a5bc 202b ba3c
00000040: c60d 7bbc 62df 15bd 8580 a83c 2504 a33c
00000050: 87c1 773a 1d48 9d3c 3a6e a93c a382 30bd
00000060: f0af 443c e1d0 b9bc 5539 9f3a 4233 2c3c
00000070: c475 a13c adf9 70bc 5ff5 8e3c 7fbf 2a3c
00000080: 18f6 3b3c 7093 9e3c 4660 243d a06d 983b
00000090: 3d76 06bc 9b7b a83b b195 303c 7b8a a83c
000000a0: 9cf5 573a f213 85bc 5f57 e4bb e697 693c
000000b0: 4a01 43ba 5b6b d7bb c2c7 ab3b bac7 093c
000000c0: e243 0cbc 1e3e 51bc e2e6 6eba df06 50bc
000000d0: 65da 64bd 2061 1e3c 5f9b 8e3c 43d4 0abc
000000e0: 454f 0bbc d718 003d b008 aebc 9565 cf3c
000000f0: dca4 1e3d 87ee c7bc baed 8d3c 10ff 4a3c
0.0017880832 -0.0411263 -0.024472216 0.003306503 -0.024665678 -0.011471271 0.0020823788 0.014536747
0.008442311 0.029578898 -0.01446616 -0.02436639 0.0038509392 -0.004996647 -0.02016536 0.022725642
-0.015323108 -0.036589988 0.020569095 0.019899437 0.000945114 0.019199425 0.020682443 -0.043093335
0.012004837 -0.022682609 0.0012147824 0.010510268 0.019709475 -0.014707965 0.017450986 0.010421633
0.011472248 0.019357413 0.040130876 0.00465174 -0.008206901 0.005141688 0.010777877 0.020573845
0.0008238198 -0.016244862 -0.0069684233 0.014257407 -0.0007438852 -0.006574077 0.005242319 0.008409435
-0.008561106 -0.012771158 -0.0009113384 -0.012696951 -0.05587234 0.009666711 0.017408071 -0.008473459
-0.008502786 0.03127369 -0.021244377 0.025316993 0.03873144 -0.02440573 0.01732527 0.012389913

actor.4.weight f4 [2, 64]
00000000: 2d1b 16be dfd3 6cbd 729e 2b3e 70cf b53d
00000010: 6f72 66be 7cd8 1dbd 55ac 94bd ff93 bb3d
00000020: 0413 8c3d 5aa6 843d e73b bfbd 6327 84be
00000030: 47d2 8a3e c9d9 2d3e 5def 1c3e 3bb1 2b3d
00000040: acdb 8ebe 5ccd 713e 1ebf 05be 8a8e 5bbd
00000050: f09f 2bbe 9e60 d7bd f6d0 46be 3fa7 6ebd
00000060: fb2d 3f3d 7985 313d e0ac 2f3e 814d 1cbd
00000070: 409c 113d 9ad0 493e f496 54be 1003 023d
00000080: c962 da3c fbe5 113d bce8 913d 895c 053d
00000090: ab5e 15bd 07f1 a83d c866 d63d bc0f 943d
000000a0: c838 eabd 0135 4b3a 74f7 193d a271 03be
000000b0: bc76 f73d b255 b93d d37d d23c 5e01 02be
000000c0: 15f9 43bd aa8e 36be d873 34be e83d 1ebd
000000d0: f86d df3d 8283 bdbb 3dbf 153d 223e a33b
000000e0: 7cb4 343e 6fc5 3b3d cec6 f23c 8d54 8dbe
000000f0: 12b2 b33c a0ae b8bc 044b 82bd 0170 7f3d
00000100: ec73 173e 02ac 643d f22d 2ebe d12b babd
00000110: 5649 643e a619 1e3d aa18 993d 363c c0bd
00000120: cfb5 90bd 6a03 85bd 589f c43d 890e 843e
00000130: 633d 8bbe 215f 31be 95ab 1cbe 82d3 2dbd
00000140: e524 8f3e 6b4f 73be cc28 033e f576 593d
00000150: 0e94 2c3e c9d1 d53d a2b6 473e 49f7 6d3d
00000160: 3741 31bd e48d 24bd 21e9 2dbe 9d54 163d
00000170: 2541 10bd 871b 49be 78fd 533e 47f0 09bd
00000180: e6df c8bc bc8f 16bd bb7e 95bd bbf1 16bd
00000190: c231 1b3d e52c a7bd b0bd d1bd 4d76 92bd
000001a0: 90ed f13d 6ea9 573a a6c8 1cbd 3099 033e
000001b0: 9d9c f4bd 39f7 b7bd 1178 b6bc 9839 023e
000001c0: dc71 413d 8579 353e c9ad 353e e6fa 183d
000001d0: 5f18 ddbd 8050 eb3b d295 18bd edc6 41bb
000001e0: c9cd 31be c7aa 36bd 9616 f8bc 3214 8d3e
000001f0: fd43 9abc de34 b63c 64cb 813d 38d4 79bd
-0.14658804 -0.057819244 0.16759661 0.08877456 -0.2250459 -0.038536534 -0.07259432 0.091590874
0.068395644 0.064770415 -0.09337597 -0.258113 0.27113554 0.1697761 0.15325685 0.041917067
-0.2790197 0.23613495 -0.13061187 -0.053602733 -0.1676023 -0.10516475 -0.1941565 -0.058264967
0.04667471 0.04334018 0.1715579 -0.03815985 0.035549402 0.19708481 -0.20760709 0.031741202
0.026658433 0.035619717 0.07124469 0.03255895 -0.036467236 0.08249097 0.10468823 0.072295636
-0.114366114 0.00077517336 0.037589505 -0.12836316 0.12083194 0.09049548 0.025694763 -0.12695834
-0.047844965 -0.1782786 -0.17622316 -0.038633257 0.10909647 -0.005783499 0.036559332 0.004981772
0.17646974 0.045842584 0.029635813 -0.2760357 0.021935496 -0.022544205 -0.06361964 0.062362675
0.14790314 0.055828102 -0.17009714 -0.090903886 0.222936 0.03859868 0.074754074 -0.09386484
-0.07065927 -0.06494792 0.09600705 0.2579234 -0.27195272 -0.17321445 -0.15299828 -0.042438038
0.27957836 -0.23760764 0.12808532 0.053091962 0.16853353 0.10440404 0.19503263 0.058097158
-0.043275084 -0.04017438 -0.16983463 0.036701787 -0.035218377 -0.19639407 0.2070216 -0.033676412
-0.024520826 -0.03675817 -0.072995625 -0.036851626 0.03788925 -0.0816286 -0.10241258 -0.0715147
0.118128896 0.0008226846 -0.03827729 0.12851405 -0.11943934 -0.08982701 -0.022274049 0.12717283
0.047227725 0.17722137 0.17742075 0.03734865 -0.10795664 0.007181227 -0.037252255 -0.0029568032
-0.17363657 -0.04459646 -0.030284207 0.2755447 -0.018831247 0.022242006 0.06337622 -0.060993403

actor.4.bias f4 [2]
00000000: f47e 133d e17e 13bd
0.036009744 -0.036009673
