Catcher_Flappy_Continuous_old/wandb/Catcher/run_acc_state_acc_r/files/agent_acc_state_acc_r.pt (torch, 40385 bytes, 11 tensors)

critic.0.weight f4 [64, 4]
0.50558025 -0.47970772 0.0296021 -3.72733 0.009178979 -0.12905613 -0.09604314 -0.9760475
-0.57291514 0.73152333 0.19607377 -1.9438065 -0.14658952 0.16125324 0.051489625 5.3872385
-0.20023076 -1.0007366 0.001968742 -0.44767657 0.46468833 1.5936747 -0.17248723 -0.6227265
-0.1489888 0.79508734 -0.67742974 0.5978563 0.00582571 0.2633359 -0.07066673 -3.087008
-0.061895978 1.1740886 -0.13151467 0.29479703 -0.18742353 -0.5366938 -0.00078999036 -1.322453
0.82935226 -0.17394128 -0.048936125 2.4783914 -1.1039436 0.24856706 0.40677983 0.3957029
-0.32282475 0.82991844 -0.5747025 -2.3881996 -0.050918538 0.12913129 0.04355995 -7.6204906
-0.6127645 -1.2132186 0.22289443 1.6362116 0.15844204 0.6726389 0.04661043 1.074337
-0.32631788 0.09567305 -0.42323396 -1.3905389 0.041072454 -0.036508456 0.28792816 7.1773906
0.4627898 0.7647118 -0.041770842 0.78805405 0.19208178 -1.0727977 -0.008285667 -1.6511973
0.060463022 0.10721102 -0.037220437 -1.7980806 -0.061785974 0.08326397 0.038385972 6.0585895
-0.081271835 0.13173267 0.06365866 -5.802463 -0.26044136 -0.39695933 -0.19491415 -1.5262548
-0.7253196 0.2881242 0.0775558 -3.1585617 -0.3482052 -0.67112714 -0.026987705 -0.9114991
0.2058324 -0.28236598 -0.08755111 2.5138447 0.014190301 -0.041850924 -0.14008674 5.1321344
0.36696053 0.64895856 0.03628696 0.89792144 0.47945794 -0.5067693 -0.037204623 2.4602532
-0.85419923 0.06747989 0.032562386 0.3161207 -0.095188156 -0.08622465 0.17675427 1.9284312
-0.24220331 0.18411686 0.058523566 -3.5602882 -0.13348778 0.13074413 -0.082942314 5.39254
0.42376724 0.6088868 -0.01581114 0.8504448 -0.2574551 -0.7465532 0.44459373 0.50022733
-0.021197004 0.11305531 0.041141186 1.1285061 0.37475297 0.4853243 0.053619597 1.8777541
1.1282264 -0.69494444 0.085862465 -1.4198784 0.5432964 -0.41983056 -0.36559558 -2.6219547
-0.37862962 -0.06570497 -0.26255095 0.21771799 -0.0458784 0.22357363 0.11566627 -2.937107
-0.8103522 -0.6979932 -0.051759806 -1.5039555 -0.58886886 0.26787907 0.1110862 -0.39359307
0.022981318 0.09698906 0.026088351 7.3546834 -0.7815631 -0.09843243 0.13909014 -2.6109154
0.037694823 0.5053686 0.19727205 1.0293221 -0.032104798 0.031942733 0.13423404 -5.7333903
0.9574163 1.4173862 -0.029317176 -0.71719486 0.052539088 0.41560915 -0.16208547 -4.1534405
0.55102205 0.8792638 0.023691827 0.6330468 -0.12992078 0.098589 -0.018814363 2.7791696
-0.028880075 -0.6110519 -0.5127882 -1.4555258 0.23969744 0.71021223 0.4486383 0.34523413
-0.6546574 -0.502086 -0.0421473 -0.93623203 -0.1995945 0.08665994 0.029090531 2.4734128
0.37845117 0.78436893 0.09987568 0.4444538 0.47012338 -0.5835303 0.09876384 4.9803233
0.2756587 0.99407625 0.03891409 0.6030545 -0.27865165 0.5066929 0.2959014 0.6021216
-0.62676835 -0.7790545 -0.029361302 -1.1918634 0.5074702 1.2860817 0.426133 0.10760435
-0.096909806 0.08507635 -0.09622901 -7.837112 1.070036 0.48368627 0.06360558 1.2367157
00000000: b56d 013f 409c f5be 1a80 f23c 938c 6ec0
00000010: 6e63 163c 4a27 04be 44b2 c4bd 40de 79bf
00000020: 91aa 12bf 1d45 3b3f 90c7 483e a7ce f8bf
00000030: 901b 16be 921f 253e c9e6 523d 4264 ac40
00000040: 4b09 4dbe 2318 80bf 0306 013b dd35 e5be
00000050: a1eb ed3e 88fd cb3f 7ea0 30be 016b 1fbf
00000060: 8590 18be d88a 4b3f 096c 2dbf 1c0d 193f
00000070: 99e5 be3b f7d3 863e b8b9 90bd 8a91 45c0
00000080: a386 7dbd 8948 963f c8ab 06be a3ef 963e
00000090: f4eb 3fbe c464 09bf 5b17 4fba 2446 a9bf
000000a0: 6e50 543f aa1d 32be 3f71 48bd f79d 1e40
000000b0: 064e 8dbf 5d88 7e3e 7245 d03e 9299 ca3e
000000c0: 4949 a5be 8975 543f b41f 13bf 43d8 18c0
000000d0: f58f 50bd fe3a 043e eb6b 323d 0fdb f3c0
000000e0: 22de 1cbf bf4a 9bbf 703e 643e 626f d13f
000000f0: a13e 223e 1032 2c3f 94ea 3e3d e083 893f
00000100: 2313 a7be 3bf0 c33d 1fb2 d8be 2efd b1bf
00000110: 973b 283d e489 15bd 526b 933e 2fad e540
00000120: c9f2 ec3e 27c4 433f e717 2bbd e9bd 493f
00000130: 16b1 443e 6f51 89bf 9bc0 07bc 6f5a d3bf
00000140: 13a8 773d 7491 db3d 7574 18bd 8127 e6bf
00000150: 4a13 7dbd 4d86 aa3d 9c3a 1d3d f7df c140
00000160: d971 a6bd eee4 063e 795f 823d c7ad b9c0
00000170: 9258 85be 413e cbbe 9397 47be 515c c3bf
00000180: 8cae 39bf 0485 933e 93d5 9e3d e025 4ac0
00000190: f447 b2be fdce 2bbf 5215 ddbc 0158 69bf
000001a0: bbc5 523e 4692 90be ff4d b3bd d5e2 2040
000001b0: 707e 683c e06b 2bbd e672 0fbe 723a a440
000001c0: 40e2 bb3e 2622 263f a3a1 143d 2ede 653f
000001d0: 837b f53e a2bb 01bf e063 18bd ca74 1d40
000001e0: cdac 5abf e632 8a3d 2360 053d 93da a13e
000001f0: 02f2 c2bd 8d96 b0bd 12ff 343e d5d6 f63f
00000200: 2504 78be 2189 3c3e 68b6 6f3d c3db 63c0
00000210: 05b1 08be cae1 053e a9dd a9bd b08f ac40
00000220: 05f8 d83e 01e0 1b3f 5d86 81bc c0b6 593f
00000230: 28d1 83be 1c1e 3fbf caa1 e33e e60e 003f
00000240: 57a5 adbc 8b89 e73d a983 283d e372 903f
00000250: 9fdf bf3e 6d7c f83e 39a0 5b3d 3f5a f03f
00000260: b969 903f e1e7 31bf a9d8 af3d 93be b5bf
00000270: 7915 0b3f 08f4 d6be 582f bbbe 1bce 27c0
00000280: bedb c1be 5490 86bd 146d 86be 77f1 5e3e
00000290: fdea 3bbd 7cf0 643e 70e2 ec3d 90f9 3bc0
000002a0: 3e73 4fbf afaf 32bf 1702 54bd 9d81 c0bf
000002b0: 1cc0 16bf 7227 893e 2981 e33d 0885 c9be
000002c0: 5143 bc3c 33a2 c63d 3db7 d53c 9159 eb40
000002d0: 8514 48bf f196 c9bd a56d 0e3e 3d19 27c0
000002e0: e365 1a3d d65f 013f af01 4a3e d4c0 833f
000002f0: 5280 03bd 62d6 023d a674 093e ef77 b7c0
00000300: 3c19 753f e96c b53f 932a f0bc 159a 37bf
00000310: 3a33 573d b9ca d43e bcf9 25be fce8 84c0
00000320: c80f 0d3f 6f17 613f 5d15 c23c 5b0f 223f
00000330: f409 05be 08e9 c93d 9420 9abc eadd 3140
00000340: e895 ecbc e66d 1cbf 1646 03bf ab4e babf
00000350: 3f73 753e 78d0 353f ebb3 e53e 87c2 b03e
00000360: a197 27bf b588 00bf a6a2 2cbd e7ac 6fbf
00000370: 8062 4cbe c47a b13d 444f ee3c 654c 1e40
00000380: 5ac4 c13e 67cc 483f 9f8b cc3d 738f e33e
00000390: 03b4 f03e 3e62 15bf b244 ca3d cf5e 9f40
000003a0: 2323 8d3e c87b 7e3f 6164 1f3d c861 1a3f
000003b0: 6eab 8ebe a0b6 013f 6380 973e a424 1a3f
000003c0: e473 20bf 1e70 47bf 1d87 f0bc fb8e 98bf
000003d0: 91e9 013f 539e a43f 1b2e da3e ab5f dc3d
000003e0: a678 c6bd 823c ae3d b713 c5bd 9fc9 fac0
000003f0: f1f6 883f baa5 f73e a443 823d b34c 9e3f

critic.0.bias f4 [64]
1.0971034 1.6390566 0.007497292 -3.1256745 -0.3788743 0.065702066 0.3075817 -3.0691018
0.5628762 -0.7842196 1.0498055 0.6653377 -0.46912274 -3.8725748 0.5467068 0.52336293
-1.3742512 0.26332507 0.7998331 -0.042332847 -4.985993 -4.137181 -0.5900803 0.25945303
-0.43814567 -0.89386404 3.70367 -0.6234971 0.8488781 0.37873498 -2.6927657 1.3786517
-2.0504763 -2.145084 0.90330106 -0.15063643 -0.23991899 0.3480829 0.7044813 0.44519353
1.0141436 -1.4989473 -0.35486373 0.028081626 -4.2960286 0.8325568 0.54514676 -1.0097916
0.07361069 -1.0457324 0.96556056 4.211569 -0.22342762 0.2814026 -0.8513534 5.10558
0.81536657 0.77032405 0.6706966 0.20042464 -0.34227303 0.8631261 4.3412423 0.8741986
00000000: e26d 8c3f 9bcc d13f d8ab f53b 0d0b 48c0
00000010: d0fb c1be ce8e 863d 597b 9d3e 2a6c 44c0
00000020: a818 103f 9ec2 48bf 0760 863f 9253 2a3f
00000030: db30 f0be 44d8 77c0 faf4 0b3f 1dfb 053f
00000040: 77e7 afbf 8bd2 863e ddc1 4c3f 3565 2dbd
00000050: 418d 9fc0 c963 84c0 810f 17bf 07d7 843e
00000060: a154 e0be 46d4 64bf ee08 6d40 829d 1fbf
00000070: 1350 593f 8de9 c13e 4656 2cc0 a977 b03f
00000080: 013b 03c0 0e49 09c0 bd3e 673f 7040 1abe
00000090: 53ad 75be ec37 b23e e358 343f 68f0 e33e
000000a0: 75cf 813f 81dd bfbf b3b0 b5be 700b e63c
000000b0: 1179 89c0 7122 553f bd8e 0b3f da40 81bf
000000c0: 34c1 963d 8fda 85bf fa2e 773f 2cc5 8640
000000d0: 36ca 64be 0014 903e 4cf2 59bf e960 a340
000000e0: ddbb 503f f533 453f c6b2 2b3f 1e3c 4d3e
000000f0: 693e afbe d5f5 5c3f 75eb 8a40 7bcb 5f3f

critic.2.weight f4 [64, 64]
-0.3177852 0.24134104 0.26925403 0.12447049 -0.4717969 0.3423809 -0.081489205 0.19567025
0.71458864 -0.52693135 0.59401757 -0.5615847 0.17736325 2.577407 -0.17072116 0.22726937
-0.6438072 0.027788384 0.36788565 0.18132387 -0.72228867 -0.6225912 -1.1990347 -0.16122958
-0.93973905 -0.38392574 0.9230161 -1.0271009 0.2735843 -0.3958412 -2.012229 0.22962275
-1.1658677 -1.3709166 0.28168768 0.9602893 0.08475437 0.56863374 -0.04694052 0.74713117
-0.3792111 -0.07640026 -0.18154146 0.28588888 -0.77011126 0.055844054 0.28785777 -0.301019
0.3626463 0.14308219 0.45751995 0.8689758 -0.33568692 0.3240707 -0.39158756 0.3095945
0.36345524 0.53441656 0.34697482 0.14611754 -0.32037377 0.5131765 0.9272143 0.3382113
0.69847596 0.23856528 -0.95712656 -2.0217907 -0.20717268 -0.6564329 0.028520914 -0.056513898
-0.26544276 -0.0899613 -0.16272128 0.47145692 0.54820526 -0.43441036 -0.09895549 0.09695796
0.21372463 -0.08268959 -0.005561043 0.012286878 0.6670268 -0.4960129 -1.2109436 0.20469213
0.29357174 0.2812425 1.0026999 0.2754202 -0.23275323 0.4846896 -0.42759657 -0.68445814
-0.039043184 -0.90338546 0.061796695 0.21597798 -0.16832356 0.12326328 -0.32821152 -0.1708637
0.113573484 -0.114642635 -0.031069146 0.14711349 -1.9321256 0.46660465 -0.08522335 0.65782464
0.04896672 0.23371354 -0.0036294546 -0.8422829 -0.24946462 0.090009615 0.21175528 -1.3042464
0.16477454 0.06634163 -0.09896711 -0.05670551 0.39672714 -0.053257335 1.3200788 0.035666622
0.30457744 -0.8189132 -0.18031426 -0.7075491 -0.019545298 -0.27316815 0.3845943 -0.0054343026
0.31424 -0.25304085 -0.2972548 -0.16856204 0.17834294 -0.80168533 -0.519279 0.42457512
-0.034906518 -1.4025973 0.25942677 -0.73788273 0.059598226 -0.38482362 1.6195223 -0.20509596
-0.3063117 -0.15507692 -0.12884259 -1.5510645 0.16693237 -0.5531262 0.43263906 0.6248385
0.5656528 -0.7632035 0.41613054 -0.34832063 0.13013881 -0.24475288 0.70375466 0.07825442
-0.124051906 0.40913284 -0.48261124 -0.037640207 -0.6543379 -0.19605052 0.015424595 3.5589437
0.19220527 0.09490447 0.60579956 -0.839744 -0.17463633 -0.13465257 -0.62881804 -0.18305057
0.42772493 -0.04433512 0.33074874 0.2050188 -0.35957795 -0.1765915 1.0807743 0.7963416
0.29483068 0.15556547 -0.06369387 0.27819428 -0.3355624 0.17879672 0.33772478 -0.04881509
0.28737453 -0.031243306 0.103578515 -0.18750691 0.072596215 -0.038780216 0.03371953 0.1836229
-0.20347211 0.3656938 0.33338547 -0.28686738 -0.11083548 0.49727818 0.26469192 -0.10854687
0.13344681 -0.544118 -0.16290888 0.3080765 0.20751566 -0.069563285 0.43693328 0.1772869
-0.36580852 0.081156656 0.11259412 -0.023467254 0.39887717 -0.08085134 -0.040600322 -0.18352482
-0.1487527 0.0017795323 0.25756988 -0.36273876 0.5847479 -0.22736406 0.12707102 -0.26425862
0.23551276 0.030669708 0.2728866 -0.082655214 0.016181089 0.13768984 -0.18289533 -0.022077661
0.23322889 0.3087247 0.5566721 0.3300111 -0.322572 0.114697926 -0.3946156 -0.045616083
00000000: beb4 a2be 1b22 773e aadb 893e 62ea fe3d
00000010: 5d8f f1be 8d4c af3e d0e3 a6bd c85d 483e
00000020: 48ef 363f f9e4 06bf 8911 183f 04c4 0fbf
00000030: b69e 353e 3cf4 2440 87d1 2ebe 4db9 683e
00000040: 8cd0 24bf 77a4 e33c 825b bc3e f7ac 393e
00000050: e9e7 38bf 2362 1fbf f879 99bf 5e19 25be
00000060: bd92 70bf ea91 c4be c84a 6c3f 0b78 83bf
00000070: 3e13 8c3e b3ab cabe 5cc8 00c0 3a22 6b3e
00000080: 273b 95bf 327a afbf 5e39 903e 85d5 753f
00000090: b393 ad3d fb91 113f b444 40bd fd43 3f3f
000000a0: f527 c2be bd77 9cbd 01e6 39be 0760 923e
000000b0: 0326 45bf bcbc 643d 1862 933e 2a1f 9abe
000000c0: c7ac b93e 2384 123e 0e40 ea3e 3375 5e3f
000000d0: 28df abbe 98ec a53e 2a7e c8be 2c83 9e3e
000000e0: ce16 ba3e 86cf 083f afa6 b13e d69f 153e
000000f0: 0808 a4be 895f 033f eb5d 6d3f 082a ad3e
00000100: 52cf 323f 754a 743e 3f06 75bf 0565 01c0
00000110: 1325 54be fd0b 28bf b1a4 e93c 1e7b 67bd
00000120: 1de8 87be a13d b8bd 68a0 26be cd62 f13e
00000130: 2e57 0c3f 096b debe 2da9 cabd e591 c63d
00000140: a1da 5a3e 2959 a9bd 6939 b6bb e74e 493c
00000150: 45c2 2a3f 67f5 fdbe 3300 9bbf d09a 513e
00000160: 094f 963e 04ff 8f3e 7858 803f e003 8d3e
00000170: dd56 6ebe 3c29 f83e f0ed dabe a638 2fbf
00000180: bfeb 1fbd 4544 67bf 881e 7d3d 5529 5d3e
00000190: 035d 2cbe 7571 fc3d 570b a8be e5f6 2ebe
000001a0: 3799 e83d c2c9 eabd b984 febc eba4 163e
000001b0: e44f f7bf cee6 ee3e 9489 aebd 3267 283f
000001c0: 5491 483d 9a52 6f3e 25dc 6dbb da9f 57bf
000001d0: a773 7fbe f656 b83d 60d6 583e 8cf1 a6bf
000001e0: a8ba 283e 1fde 873d 45af cabd 0944 68bd
000001f0: d21f cb3e 5d24 5abd 58f8 a83f 2a17 123d
00000200: 93f1 9b3e 4ca4 51bf 4da4 38be f021 35bf
00000210: 761d a0bc b2dc 8bbe 8be9 c43e 3c12 b2bb
00000220: 11e4 a03e 928e 81be c831 98be 879b 2cbe
00000230: 889f 363e 403b 4dbf 78ef 04bf e961 d93e
00000240: 23fa 0ebd 4f88 b3bf 96d3 843e e2e5 3cbf
00000250: 451d 743d 9a07 c5be 824c cf3f ad04 52be
00000260: e3d4 9cbe 7ccc 1ebe 50ef 03be 4889 c6bf
00000270: 52f0 2a3e ae99 0dbf de82 dd3e 6af5 1f3f
00000280: 9fce 103f 4e61 43bf 100f d53e 1557 b2be
00000290: 1c43 053e 80a0 7abe 4429 343f da43 a03d
000002a0: ed0e febd dc79 d13e d218 f7be 9e2c 1abd
000002b0: b082 27bf 78c1 48be 71b7 7c3c bcc5 6340
000002c0: 75d1 443e 465d c23d ae15 1b3f 76f9 56bf
000002d0: ded3 32be 5de2 09be 38fa 20bf 9c71 3bbe
000002e0: c3fe da3e be98 35bd e657 a93e 73f0 513e
000002f0: 9a1a b8be 67d4 34be d056 8a3f 0bdd 4b3f
00000300: 0cf4 963e 8e4c 1f3e ef71 82bd 7b6f 8e3e
00000310: d6ce abbe 7d16 373e 43ea ac3e 55f2 47bd
00000320: c122 933e f6f1 ffbc f920 d43d d001 40be
00000330: 53ad 943d 01d8 1ebd 7d1d 0a3d a407 3c3e
00000340: fe5a 50be 383c bb3e 80b1 aa3e 48e0 92be
00000350: b6fd e2bd 3f9b fe3e b385 873e d24d debd
00000360: 48a6 083e 514b 0bbf 96d1 26be 34bc 9d3e
00000370: fc7e 543e 3277 8ebd b8b5 df3e b28a 353e
00000380: 414b bbbe 7635 a63d bf97 e63d 663e c0bc
00000390: a139 cc3e 6395 a5bd 864c 26bd eeed 3bbe
000003a0: a152 18be 323f e93a 33e0 833e e5b8 b9be
000003b0: 0ab2 153f 20d2 68be e81e 023e e84c 87be
000003c0: 422a 713e 0a3f fb3c cbb7 8b3e 2347 a9bd
000003d0: 348e 843c 91fe 0c3e ea48 3bbe 36dc b4bc
000003e0: 8ed3 6e3e 2a11 9e3e 1082 0e3f 37f7 a83e
000003f0: 2828 a5be bfe6 ea3d 0e0b cabe eed7 3abd

critic.2.bias f4 [64]
0.32412848 -0.13691634 0.14293127 0.29605207 -0.29663375 0.37801972 0.286503 0.07237778
-0.29058424 -0.41961724 -0.13723752 -0.15826057 -0.18826428 -0.44055003 -0.36832973 0.18746857
0.60854 -0.09540694 -0.25354996 -0.41924286 -0.27654517 0.21710438 -0.26152575 0.39966086
-0.31868908 -0.19821803 -0.48375434 0.2905203 -0.095150016 -0.31862262 0.2791656 -0.08072716
0.29189497 -0.32299614 -0.22419088 0.1673351 0.38484028 -0.16605635 0.25373897 0.22818443
-0.23448606 0.32329327 -0.31399038 0.44179878 -0.2221134 -0.2946699 -0.11868862 0.40055954
-0.28546172 0.27201483 0.12009031 -0.25577977 -0.32593867 -0.3408855 0.27041852 -0.3116224
-0.31242427 -0.09497572 0.016841091 -0.22509821 -0.26845175 -0.34465426 -0.4262696 -0.2631117
00000000: 2bf4 a53e cc33 0cbe 935c 123e 2394 973e
00000010: 61e0 97be cd8b c13e 85b0 923e cd3a 943d
00000020: 75c7 94be 12d8 d6be fe87 0cbe 0f0f 22be
00000030: 5ac8 40be c68f e1be b795 bcbe c3f7 3f3e
00000040: 47c9 1b3f b764 c3bd 4dd1 81be 00a7 d6be
00000050: 5497 8dbe 9c50 5e3e b4e6 85be 59a0 cc3e
00000060: 372b a3be abf9 4abe a6ae f7be 14bf 943e
00000070: 03de c2bd 8122 a3be cbee 8e3e 4854 a5bd
00000080: 4273 953e c05f a5be 4b92 65be e459 2b3e
00000090: c909 c53e ad0a 2abe 13ea 813e 2ea9 693e
000000a0: 1d1d 70be b286 a53e 59c3 a0be 7333 e23e
000000b0: b271 63be f9de 96be 0513 f3bd 2416 cd3e
000000c0: 0a28 92be 8745 8b3e e9f1 f53d 91f5 82be
000000d0: 6fe1 a6be 8b88 aebe 4c74 8a3e f98c 9fbe
000000e0: 13f6 9fbe a182 c2bd 54f6 893c 2580 66be
000000f0: 8272 89be 8676 b0be 0240 dabe 94b6 86be

critic.4.weight f4 [1, 64]
15.468821 -10.645143 -6.28368 10.486524 -10.568168 10.515091 10.674352 10.788778
-17.196836 -11.251699 6.436018 -10.716536 13.915186 7.3214855 -10.50586 10.560472
-7.75522 14.059213 14.46977 7.6075435 6.5599475 10.8200445 -9.729794 10.854692
-10.781659 -11.187399 -10.791382 10.839736 -15.367534 -10.621913 10.703645 -10.97409
10.777313 -10.841841 -10.866303 10.298475 10.497857 -13.039507 10.823795 10.333863
-10.618941 10.642732 -10.615018 -7.8058624 -10.829124 -10.702833 -10.828177 10.8624325
6.7301655 10.629154 10.600749 7.0963674 -10.529464 -10.624228 10.721833 6.9873114
6.649852 11.472891 -5.268756 -10.550577 -10.564986 -10.53341 -10.617852 -10.703576
00000000: 4a80 7741 8152 2ac1 e813 c9c0 cdc8 2741
00000010: 3717 29c1 d03d 2841 25ca 2a41 d69e 2c41
00000020: 1f93 89c1 f606 34c1 dcf3 cd40 ee76 2bc1
00000030: 9aa4 5e41 9c49 ea40 0118 28c1 b1f7 2841
00000040: c32a f8c0 89f2 6041 2e84 6741 ff70 f340
00000050: 17eb d140 e71e 2d41 3cad 1bc1 d2ac 2d41
00000060: ad81 2cc1 96ff 32c1 80a9 2cc1 8f6f 2d41
00000070: 6be1 75c1 5bf3 29c1 2142 2b41 df95 2fc1
00000080: e06f 2c41 2e78 2dc1 61dc 2dc1 8ec6 2441
00000090: 39f7 2741 d2a1 50c1 442e 2d41 8157 2541
000000a0: 2fe7 29c1 a148 2a41 1dd7 29c1 a0c9 f9c0
000000b0: 1844 2dc1 ce3e 2bc1 3740 2dc1 86cc 2d41
000000c0: 845d d740 0411 2a41 ab9c 2941 7115 e340
000000d0: af78 28c1 d6fc 29c1 a18c 2b41 0e98 df40
000000e0: 96cb d440 f690 3741 a699 a8c0 2acf 28c1
000000f0: 2f0a 29c1 d988 28c1 b9e2 29c1 d941 2bc1

actor.0.weight f4 [64, 4]
0.36490217 0.17971227 0.10225474 -0.15116325 0.13801259 -0.3423187 -0.18901882 -0.30079043
-0.06439498 -0.33889535 -0.2548191 -0.008150738 0.38279077 0.19730406 0.041167203 -0.16859029
0.39806288 0.4789878 0.033012908 0.26385796 0.6644361 -0.63089055 -0.024036095 -0.24560963
0.48839226 0.67939854 0.054358553 0.068265505 0.40204567 0.20879367 0.030374955 0.36154616
0.14532354 -0.017780209 0.6166135 -0.2879538 -0.115130514 -0.17435348 -0.386722 0.22025141
0.97263634 -0.16107276 -0.12383815 -0.32157004 0.5386031 -0.69603455 0.11307569 -0.17645757
-0.6228145 -0.25619933 -0.10115825 0.14109153 0.5914959 -0.6236054 0.034431864 0.4011718
-0.087785624 -0.29863533 -0.10186157 -0.13525875 -0.061607104 0.2949316 0.4430614 -0.046315357
0.25196096 -0.3237144 -0.19049159 0.26607174 0.035095662 -0.03575153 -0.02060756 3.381036
0.44917378 0.21825811 0.041648827 0.56848985 0.0422744 -0.35169178 -0.23475835 -0.17013924
-0.078742996 0.057303853 0.27197754 0.8908749 0.22412308 0.19882263 0.032632865 -0.19438171
-0.2723261 -0.23104534 -0.20885992 0.06691264 0.12606564 -0.19227809 0.48217627 0.68830496
-0.18784297 -0.15009174 -0.4414609 0.13953628 0.70121366 0.11865926 0.05678564 0.070800506
-0.3107785 -0.5728105 0.057212383 0.51150477 0.35254422 0.14601138 0.3967771 -0.4445931
0.34549454 0.057331603 0.119183116 -0.25148258 0.30569386 0.0600909 0.12827 0.45414072
-0.3880216 0.17342022 -0.3960442 -0.19485195 0.34388733 0.00723122 0.39661843 -0.2764187
-0.14161485 -0.19876358 -0.022463504 -0.23863998 -0.31975946 -0.17095587 -0.20878814 -0.1661038
-0.39460823 -0.07626911 0.5588787 -0.21328615 -0.037042446 0.26962316 0.022281973 -0.20188159
0.32813677 0.23477852 0.054669783 -0.11562731 0.6922883 -0.28592467 -0.07772989 -0.36318144
0.12128448 -0.3544968 -0.21000938 -0.2240767 -0.32946882 -0.27526358 -0.14393964 -0.018382624
0.15404224 -0.00216788 -0.45692956 0.45107785 -0.31338814 -0.44195557 0.26837745 0.079953335
-0.5216352 0.5707688 -0.044148978 -0.5908872 -0.13955265 -0.25255153 -0.10132671 0.06993617
0.15447176 0.25053492 0.023983847 -0.037681065 0.031786785 0.22348759 0.025003709 -0.51194465
-0.09941509 0.2798018 0.20728546 -0.095905155 0.013473751 0.008695426 -0.47577217 -0.56405544
-0.21434246 -0.6130138 0.024974022 0.28685448 -0.1938208 -0.30804896 -0.12419633 0.07406596
0.24200131 0.17997545 0.03388635 0.27411067 -0.12636669 -0.39835438 -0.092783965 0.071142025
-0.53715986 -0.14772238 -0.20260817 -0.33814007 -0.5269291 -0.2555833 0.049980953 -0.718236
0.21961166 0.27572143 0.21972759 0.035070594 0.21350294 0.22789195 0.012699857 0.65984124
0.22194022 0.27177396 0.032044448 -0.051265486 0.2578788 -0.23457412 -0.4553053 0.24852094
-0.09686381 -0.43508562 0.0056975153 0.15160164 -0.1818257 0.051485762 -0.49749073 0.38899451
0.10171805 0.24163176 0.4491799 -0.13869062 0.31800023 0.27547505 0.38391194 0.04202322
-0.0869764 0.4393659 0.055609487 0.513188 -0.22909608 -0.35558715 -0.07435257 -0.13563624
00000000: 75d4 ba3e 7e06 383e ef6a d13d 8aca 1abe
00000010: 2c53 0d3e 6644 afbe 268e 41be 3401 9abe
00000020: 84e1 83bd b183 adbe a677 82be ac8a 05bc
00000030: 27fd c33e 130a 4a3e f19e 283d efa2 2cbe
00000040: e6ce cb3e e43d f53e 8b38 073d 6418 873e
00000050: 7c18 2a3f 0b82 21bf 58e7 c4bc 1781 7bbe
00000060: 8d0e fa3e 10ed 2d3f 13a7 5e3d c9ce 8b3d
00000070: eed8 cd3e 02ce 553e e6d4 f83c 941c b93e
00000080: b2cf 143e cda7 91bc 62da 1d3f ae6e 93be
00000090: 8cc9 ebbd b889 32be 6d00 c6be 9689 613e
000000a0: b2fe 783f 42f0 24be db9e fdbd d4a4 a4be
000000b0: e5e1 093f 522f 32bf 3a94 e73d 4bb1 34be
000000c0: c570 1fbf 8f2c 83be 0e2c cfbd 4c7a 103e
000000d0: 466c 173f 9aa4 1fbf 6d08 0d3d 6466 cd3e
000000e0: f3c8 b3bd bbe6 98be cc9c d0bd 4581 0abe
000000f0: bb57 7cbd 4601 973e f2d8 e23e 2cb5 3dbd
00000100: 0701 813e e5bd a5be 3a10 43be 8e3a 883e
00000110: 78c0 0f3d 3270 12bd 30d1 a8bc e562 5840
00000120: 1bfa e53e 0e7f 5f3e f697 2a3d 8d88 113f
00000130: ec27 2d3d f210 b4be 7e64 70be fb38 2ebe
00000140: 0244 a1bd 72b7 6a3d a440 8b3e 6110 643f
00000150: 8580 653e 2998 4b3e 0aaa 053d 000c 47be
00000160: 546e 8bbe 2697 6cbe 60df 55be 7f09 893d
00000170: 5a17 013e 8ce4 44be cfdf f63e c134 303f
00000180: e859 40be a6b1 19be 2a07 e2be 99e2 0e3e
00000190: bd82 333f a003 f33d 0f98 683d dbff 903d
000001a0: 5c1e 9fbe b5a3 12bf 8857 6a3d faf1 023f
000001b0: ad80 b43e 0284 153e 5e26 cb3e b5a1 e3be
000001c0: a9e4 b03e 8bd4 6a3d 4716 f43d 53c2 80be
000001d0: e883 9c3e e021 763d 3659 033e 2285 e83e
000001e0: c4aa c6be 1295 313e 4ec6 cabe 4587 47be
000001f0: 0012 b03e dff3 ec3b 9211 cb3e c086 8dbe
00000200: 7c03 11be ae88 4bbe 6205 b8bc 0a5e 74be
00000210: 83b7 a3be 0e0f 2fbe 8fcc 55be 1d17 2abe
00000220: 170a cabe fb32 9cbd ad12 0f3f af67 5abe
00000230: d2b9 17bd 0c0c 8a3e af88 b63c 0cba 4ebe
00000240: 8b01 a83e c869 703e 6ced 5f3d 03ce ecbd
00000250: ce39 313f b864 92be d930 9fbd ebf2 b9be
00000260: ff63 f83d 9b80 b5be b30c 57be 5d74 65be
00000270: 23b0 a8be 59ef 8cbe ea64 13be 2897 96bc
00000280: 40bd 1d3e fe12 0ebb acf2 e9be adf3 e63e
00000290: 6974 a0be 0048 e2be c568 893e 93be a33d
000002a0: e289 05bf e71d 123f 8fd5 34bd 6244 17bf
000002b0: e4e6 0ebe 6f4e 81be 6184 cfbd b23a 8f3d
000002c0: d82d 1e3e 1d46 803e c679 c43c 7657 1abd
000002d0: dc32 023d eed9 643e 94d4 cc3c ce0e 03bf
000002e0: 249a cbbd 2e42 8f3e a442 543e ec69 c4bd
000002f0: 02c1 5c3c 4377 0e3c 6998 f3be f065 10bf
00000300: 977c 5bbe 79ee 1cbf 5296 cc3c 97de 923e
00000310: f678 46be 98b8 9dbe a55a febd e5af 973d
00000320: 31cf 773e 7c4b 383e 6acc 0a3d 3c58 8c3e
00000330: 4566 01be 1bf5 cbbe 8505 bebd e9b2 913d
00000340: 4f83 09bf 8944 17be 8478 4fbe b220 adbe
00000350: d3e4 06bf d0db 82be d4b8 4c3d 51de 37bf
00000360: e1e1 603e 5c2b 8d3e 4500 613e 2fa6 0f3d
00000370: 84a0 5a3e 825c 693e 1013 503c 5beb 283f
00000380: 4c44 633e f525 8b3e 0a41 033d c2fb 51bd
00000390: b108 843e 3334 70be c71d e9be 467c 7e3e
000003a0: 8960 c6bd 8bc3 debe 39b2 ba3b 763d 1b3e
000003b0: 8430 3abe bce2 523d 1bb7 febe 4a2a c73e
000003c0: 8e51 d03d 516e 773e e8fa e53e ea04 0ebe
000003d0: edd0 a23e 110b 8d3e 1b90 c43e 8a20 2c3d
000003e0: af20 b2bd 91f4 e03e c6c6 633d 4a60 033f
000003f0: 2a98 6abe 850f b6be 2946 98bd 3ae4 0abe

actor.0.bias f4 [64]
0.007910517 0.082876295 -0.10669938 0.09903102 -0.053203933 0.16315138 0.14214826 0.018959593
-0.020695116 0.14470088 0.13129297 0.096355364 -0.07835422 0.1838627 -0.1879036 -0.1054872
0.16506319 -0.88941205 0.21273579 -0.0026464919 -0.19465356 0.052769426 -0.18031652 0.3348146
-0.026630621 0.15221973 0.1959677 -0.14331174 0.20464149 0.20157039 -0.12339179 -0.1474785
-0.17398284 -0.20793664 -0.013590016 -0.029081699 -0.14747494 0.07245989 0.004627282 -0.11967088
-0.11163067 -0.10459508 -0.2530294 -0.051706616 0.1444471 0.04621469 0.028309511 -0.18250921
0.26895583 -0.020919671 0.13969105 -0.23127009 0.037991375 -0.15955885 0.039862808 -0.05151444
0.03655001 -0.018316828 0.25232306 0.01585528 -0.024588035 0.14529793 0.09536143 -0.05709496
00000000: 1d9b 013c 0cbb a93d 3485 dabd c7d0 ca3d
00000010: 5eec 59bd 2811 273e 508f 113e 2651 9b3c
00000020: ce88 a9bc 782c 143e aa71 063e f655 c53d
00000030: 2d78 a0bd 8146 3c3e cd69 40be ac09 d8bd
00000040: 5306 293e 82b0 63bf 69d7 593e c470 2dbb
00000050: 4353 47be c124 583d e5a4 38be d26c ab3e
00000060: 7628 dabc 7ddf 1b3e c2ab 483e 50c0 12be
00000070: 8a8d 513e 7868 4e3e d6b4 fcbd 9b04 17be
00000080: 8f28 32be 58ed 54be a9a8 5ebc be3c eebc
00000090: ac03 17be da65 943d 74a0 973b 0216 f5bd
000000a0: 9f9e e4bd f235 d6bd 128d 81be 51ca 53bd
000000b0: f1e9 133e 9d4b 3d3d 59e9 e73c b2e3 3abe
000000c0: 94b4 893e bb5f abbc 2c0b 0f3e 11d2 6cbe
000000d0: d89c 1b3d 6563 23be 2f47 233d ce00 53bd
000000e0: 77b5 153d 2c0d 96bc 7d30 813e efe2 813c
000000f0: d96c c9bc fbc8 143e da4c c33d 68dc 69bd

actor.2.weight f4 [64, 64]
0.19843492 0.1721987 -0.1073482 0.23461267 -0.40778688 -0.0807727 -0.22580823 -0.3656045
-0.27185905 0.049874566 0.031640675 0.084594734 -0.13430618 -0.110330835 -0.20650645 -0.14420475
-0.040148575 -0.68686223 0.012233754 -0.06147865 -0.08789138 -0.11181299 -0.12137465 -0.17981079
0.044164643 0.18959127 -0.21004869 0.05679181 0.048410736 0.09166091 -0.2860739 -0.08086674
-0.048949033 -0.34385744 0.22094627 -0.13065808 0.26813614 0.19548663 -0.14028588 -0.4390868
-0.18024947 0.13024928 -0.09250861 0.28020933 0.1257015 -0.027451487 -0.18367031 -0.31065652
-0.24509421 0.21182546 -0.20193848 0.1788566 -0.020697607 0.03531637 0.5397146 -0.526406
-0.036902577 -0.13354616 0.13212784 0.15198754 -0.13684617 -0.13390367 -0.123232715 -0.087780595
-0.2793452 -0.1726951 -0.22902785 0.11276596 0.17953491 -0.45791686 -0.054146558 -0.10117988
-0.1592578 -0.17662288 -0.18554252 -0.2975202 0.58754945 -0.3272224 0.39798102 0.06115118
-0.35425925 0.44624665 -0.2599873 -0.0066279513 0.18490137 0.024420463 0.17642933 0.0024710698
-0.21712652 0.051202077 -0.42704433 -0.09171818 -0.07035317 -0.23562339 -0.0368151 -0.12841421
-0.0053707557 0.21334915 -0.08582931 -0.14640798 -0.36296567 -0.08267416 -0.26633215 0.374619
0.089869544 0.37932295 0.30425325 -0.026398653 0.07761454 0.24225223 -0.20392597 0.0043935454
-0.28501004 0.29076493 0.06183539 0.024511632 0.123866886 -0.052618843 0.18405387 0.09870328
-0.017380955 0.3503375 -0.2867574 0.14704329 0.17852998 0.043786403 0.11672176 -0.09121659
0.19304894 -0.29301652 -0.2742561 -0.06988682 0.027678546 0.15769799 0.21927285 0.29832372
0.096080974 -0.0040677376 -0.019863844 0.33198646 0.1585312 0.051986463 -0.12915555 -0.12421137
-0.0014020231 0.038069133 0.4877781 -0.09016625 0.070584714 0.05056892 -0.14392993 -0.41023737
-0.18619238 -0.1363068 0.1553708 0.15632196 0.19730721 -0.17464869 0.15532528 -0.2570805
0.108868815 0.17616148 0.14239521 -0.16552438 -0.10280957 -0.16329375 -0.39513266 0.09154169
0.05773951 0.025286833 -0.12498394 -0.119345315 -0.3495247 -0.015611842 -0.15494072 -0.18172689
0.1154393 0.081591874 -0.22229114 -0.061192296 -0.14734505 0.052903216 -0.04735477 -0.124725856
0.30441368 -0.19615468 -0.022338433 0.04750107 0.14446887 -0.15441652 -0.39739218 0.015470174
-0.1797026 -0.094325356 0.028542643 -0.13744831 -0.10604828 -0.106740244 -0.4325907 0.046501428
0.08061864 -0.063368216 0.20126893 0.10673157 -0.04724256 -0.17804901 -0.04205842 -0.3531592
-0.015515339 0.23348768 -0.008676808 -0.087291345 0.23146829 -0.021709936 -0.03136668 -0.15707362
0.35576388 -0.028084273 0.079735875 0.2314497 -0.07096137 0.047883157 -0.14170916 0.08266752
0.28014687 -0.0029405723 0.10539088 -0.26857924 0.10233772 -0.12157786 0.26534808 -0.0066271806
0.10452743 -0.043346196 0.13089332 0.23528859 -0.12774831 0.24021104 -0.1421012 0.45312455
-0.03578092 0.21364337 -0.535688 0.41984802 0.33450642 0.09149303 -0.0076556546 0.26804265
-0.2586699 0.13137406 0.020047903 0.054682225 -0.22467153 0.07763878 -0.07058147 0.31986037
00000000: 8632 4b3e db54 303e 60d9 dbbd 4e3e 703e
00000010: 71c9 d0be 286c a5bd 463a 67be 8330 bbbe
00000020: 1c31 8bbe 4649 4c3d a799 013d 0140 ad3d
00000030: 8f87 09be 22f5 e1bd 6d76 53be 69aa 13be
00000040: d572 24bd 34d6 2fbf 1570 483c 09d1 7bbd
00000050: 6500 b4bd 35fe e4bd 4693 f8bd 5220 38be
00000060: fce5 343d 3724 423e 0117 57be 879e 683d
00000070: 564a 463d b7b8 bb3d 4778 92be 769d a5bd
00000080: c87e 48bd 150e b0be bd3f 623e 3bcb 05be
00000090: 2449 893e a62d 483e 1aa7 0fbe fccf e0be
000000a0: 5193 38be 1160 053e 2775 bdbd 9977 8f3e
000000b0: e5b7 003e f1e1 e0bc 1214 3cbe 5f0e 9fbe
000000c0: faf9 7abe c6e8 583e f6c8 4ebe 2f26 373e
000000d0: 078e a9bc e6a7 103d bc2a 0a3f 8bc2 06bf
000000e0: 2827 17bd 53c0 08be 854c 073e 9fa2 1b3e
000000f0: 6721 0cbe 0b1e 09be 6f61 fcbd 50c6 b3bd
00000100: 5606 8fbe fcd6 30be 4786 6abe d7f1 e63d
00000110: 00d8 373e 1474 eabe c8c8 5dbd 6637 cfbd
00000120: 7a14 23be a1dc 34be dcfe 3dbe 9154 98be
00000130: a469 163f b289 a7be 2bc4 cb3e a979 7a3d
00000140: 7861 b5be 717a e43e 0e1d 85be 492f d9bb
00000150: c956 3d3e 6c0d c83c e4a9 343e acf1 213b
00000160: 6a56 5ebe 45b9 513d 8ea5 dabe bed6 bbbd
00000170: 5315 90bd 4247 71be 6ecb 16bd 047f 03be
00000180: 2afd afbb 3378 5a3e 47c7 afbd f9eb 15be
00000190: a3d6 b9be 1251 a9bd b05c 88be 10ce bf3e
000001a0: 860d b83d 9e36 c23e 15c7 9b3e fd41 d8bc
000001b0: 5ff4 9e3d f810 783e f8d1 50be bbf7 8f3b
000001c0: d6ec 91be 24df 943e 1b47 7d3d 9ecc c83c
000001d0: ecad fd3d db86 57bd 9e78 3c3e f224 ca3d
000001e0: 8162 8ebc 705f b33e ded1 92be 8492 163e
000001f0: 90d0 363e 5f59 333d d10b ef3d c3cf babd
00000200: 9fae 453e 4306 96be 4c6b 8cbe d220 8fbd
00000210: 1ebe e23c 957b 213e 1089 603e e3bd 983e
00000220: 1ac6 c43d a84a 85bb 80b9 a2bc 21fa a93e
00000230: 0156 223e c2ef 543d 5a41 04be 8862 febd
00000240: 17c4 b7ba 61ee 1b3d 0dbe f93e 15a9 b8bd
00000250: b88e 903d 5b21 4f3d 5e62 13be a20a d2be
00000260: 37a9 3ebe 0394 0bbe 8619 1f3e dd12 203e
00000270: e70a 4a3e 1bd7 32be 970d 1f3e 0ea0 83be
00000280: 9df6 de3d ad63 343e 0dd0 113e 397f 29be
00000290: d38d d2bd 7a36 27be d44e cabe 367a bb3d
000002a0: 4480 6c3d 5526 cf3c 94f7 ffbd 516b f4bd
000002b0: e7f4 b2be d0c8 7fbc c8a8 1ebe 9d16 3abe
000002c0: 716b ec3d a419 a73d 4aa0 63be c6a4 7abd
000002d0: 9fe1 16be 0bb1 583d 13f7 41bd 4570 ffbd
000002e0: 1cdc 9b3e c6dc 48be 17ff b6bc 7b90 423d
000002f0: a6ef 133e 5d1f 1ebe fd76 cbbe 9d76 7d3c
00000300: f503 38be a72d c1bd 43d2 e93c 40bf 0cbe
00000310: d72f d9bd a19a dabd 877c ddbe 4878 3e3d
00000320: 631b a53d 32c7 81bd 7119 4e3e 1596 da3d
00000330: 6a81 41bd 7b52 36be 7345 2cbd 48d1 b4be
00000340: 0c34 7ebc 6517 6f3e 2c29 0ebc cec5 b2bd
00000350: 0606 6d3e 09d9 b1bc 597a 00bd e8d7 20be
00000360: af26 b63e fd10 e6bc 904c a33d 2601 6d3e
00000370: 3254 91bd 2121 443d 351c 11be 974d a93d
00000380: 696f 8f3e 9eb6 40bb 2cd7 d73d 3883 89be
00000390: 7096 d13d d0fd f8bd b4db 873e d228 d9bb
000003a0: 7a12 d63d c88b 31bd e608 063e 7eef 703e
000003b0: 74d0 02be e2f9 753e fa82 11be f1ff e73e
000003c0: 048f 12bd 54c5 5a3e d922 09bf 52f6 d63e
000003d0: 6d44 ab3e b360 bb3d 49dc fabb e33c 893e
000003e0: 6270 84be ec86 063e 803b a43c 78fa 5f3d
000003f0: 4b10 66be 1501 9f3d 058d 90bd bdc4 a33e

actor.2.bias f4 [64]
-0.044949185 -0.038066145 -0.014169026 -0.15719947 0.053458545 -0.038269628 0.008934021 0.05209454
0.051160503 0.11099942 -0.06694444 -0.11956782 -0.059049178 0.03361908 0.0250759 0.04794938
0.046328627 -0.0623534 0.07728469 0.05474314 0.1104575 -0.009310331 -0.051890638 0.07350041
0.06850846 0.05031279 -0.013026844 0.021260615 0.05377572 -0.007658469 0.0164694 -0.078588784
-0.07511155 -0.049848836 0.02688105 -0.18890195 0.017702892 -0.10308377 -0.07425843 -0.111527495
0.029403102 -0.057523824 -0.122252375 0.056819018 0.036662973 -0.057819128 0.04363813 0.02105193
-0.03380467 -0.039944313 0.053896956 0.07321409 -0.01679908 0.035059083 -0.008406417 0.0063060587
-0.08771809 -0.012102808 0.18503004 0.10684114 -0.05735745 0.04864182 -0.014049328 -0.04672676
00000000: a31c 38bd 3feb 1bbd 3425 68bc e6f8 20be
00000010: 59f7 5a3d 9dc0 1cbd 0060 123c 1661 553d
00000020: ad8d 513d aa53 e33d 2b1a 89bd f9df f4bd
00000030: 8ddd 71bd 29b4 093d f96b cd3c 9266 443d
00000040: 16c3 3d3d 4766 7fbd 7047 9e3d 583a 603d
00000050: 8b37 e23d 5c8a 18bc 478b 54bd 6287 963d
00000060: 2a4e 8c3d c914 4e3d 8b6e 55bc be2a ae3c
00000070: ee43 5c3d e5f3 fabb d6ea 863c 28f3 a0bd
00000080: 16d4 99bd 4b2e 4cbd a635 dc3c 836f 41be
00000090: a805 913c 951d d3bd ce14 98bd 8768 e4bd
000000a0: c6de f03c 1a9e 6bbd 745f fabd 0fbb 683d
000000b0: ea2b 163d c0d3 6cbd e5bd 323d 1975 ac3c
000000c0: c476 0abd a69c 23bd 0ec3 5c3d 45f1 953d
000000d0: 399e 89bc 1d9a 0f3d 12bb 09bc 0ea3 ce3b
000000e0: 8ba5 b3bd db4a 46bc 8478 3d3e 87cf da3d
000000f0: a5ef 6abd a53c 473d 272f 66bc 8f64 3fbd

actor.4.weight f4 [3, 64]
0.2917484 -0.207371 0.03455686 -0.12039711 0.07099694 -0.005736168 -0.1845768 0.56806153
0.11778132 0.6767361 -0.7003285 -0.0052237683 -0.46612749 -0.11376189 -0.12849651 -0.15689343
0.09441676 0.12214563 -0.009366965 -0.21752706 0.08261542 -0.09578672 -0.024571285 -0.19503295
0.10431168 -0.099324174 0.27142125 0.27159065 0.36959717 -0.19871618 0.36726484 -0.060854603
0.057275664 -0.029709125 0.037702173 0.0027863581 -0.21476318 -0.6070527 -0.16352205 -0.51408005
-0.073144615 -0.2394166 -0.09925824 -0.076046616 -0.19625229 -0.094303355 0.044551868 -0.20111278
0.101996385 -0.5720391 -0.12682389 -0.08345267 -0.04769684 -0.20263048 -0.25635535 0.17968334
-0.051824227 0.039715778 0.12814215 -0.33245492 -0.05145736 -0.40898472 0.09941754 -0.012240732
-0.3876079 0.36888146 -0.026751941 0.14849761 -0.08991147 0.049131844 0.12368147 -0.5864085
-0.26514828 -0.83155245 0.7951172 -0.02074244 0.5670314 0.37426654 0.15152499 -0.059761018
-0.08079866 -0.115745 -0.01442872 0.03201955 -0.046160612 0.20096406 -0.032256074 0.011446812
-0.1464647 0.23984116 -0.14410748 -0.27211687 -0.24824457 0.17190191 -0.29287383 0.024307372
-0.028036727 -0.009448216 -0.11794243 0.05348933 0.12345037 0.57251173 0.08430544 0.642545
0.19467682 0.40338805 0.10678531 -0.023707915 0.06032747 0.17457302 -0.21146017 0.07858124
-0.07145531 0.57362205 0.01791645 -0.020257948 0.18788996 0.36859983 0.26154423 -0.4473331
0.11690945 0.013786144 -0.14997648 0.26683247 0.010807761 0.49430978 -0.20326145 0.013479457
0.10465997 -0.15571263 0.014958445 -0.054587368 0.039775543 -0.0470187 0.064641155 0.027895357
0.16322076 0.1787928 -0.08792295 -0.018161755 -0.03092853 -0.26789707 -0.004709343 0.18850754
-0.031439126 -0.017181631 0.04818653 0.19997926 -0.036104567 -0.12769985 0.051183037 0.21439411
0.059641473 -0.10356856 -0.1593623 -0.0101204235 -0.12923132 0.048230354 -0.10578438 0.027912084
-0.032198764 0.0282027 0.10473689 -0.086648166 0.116863616 0.057546206 0.06492807 -0.08378531
-0.10450045 -0.14742392 -0.026245588 0.092607304 0.17479102 -0.11358489 0.11814595 0.17251906
-0.056037195 0.03694275 0.14099962 0.11984547 -0.12618993 -0.13489112 0.02738808 0.20895565
-0.08821441 -0.06992482 0.026116569 0.13166568 0.041652467 -0.058068786 0.09150293 0.019473787
00000000: 0c60 953e 1059 54be 7e8b 0d3d c392 f6bd
00000010: d866 913d 77f6 bbbb b301 3dbe 7b6c 113f
00000020: 5537 f13d 943e 2d3f bb48 33bf 252c abbb
00000030: 43a8 eebe fefb e8bd 9794 03be aca8 20be
00000040: 935d c13d 7d27 fa3d e677 19bc 6abf 5ebe
00000050: 4632 a93d d42b c4bd b849 c9bc b8b6 47be
00000060: 5da1 d53d 796a cbbd baf7 8a3e ee0d 8b3e
00000070: d73b bd3e 417c 4bbe 230a bc3e ad42 79bd
00000080: e399 6a3d 8d60 f3bc 986d 1a3d 559b 363b
00000090: e1ea 5bbe ce67 1bbf 5372 27be c09a 03bf
000000a0: d8cc 95bd a029 75be e747 cbbd 54be 9bbd
000000b0: 5cf6 48be 1e22 c1bd 057c 363d 82f0 4dbe
000000c0: 7be3 d03d 2871 12bf 1fde 01be 3ce9 aabd
000000d0: c35d 43bd 5d7e 4fbe 0241 83be e9fe 373e
000000e0: a445 54bd 03ad 223d b237 033e 8837 aabe
000000f0: f4c4 52bd 7266 d1be 6c9b cb3d 5a8d 48bc
00000100: 8b74 c6be 08de bc3e e326 dbbc c20f 183e
00000110: 8123 b8bd 793e 493d b64c fd3d de1e 16bf
00000120: 84c1 87be 9fe0 54bf cd8c 4b3f 0dec a9bc
00000130: f828 113f dd9f bf3e 5e29 1b3e f8c7 74bd
00000140: c579 a5bd b70b edbd 7066 6cbc ef26 033d
00000150: e912 3dbd 86c9 4d3e f21e 04bd 698b 3b3c
00000160: d8fa 15be ec98 753e e990 13be e752 8bbe
00000170: d333 7ebe 0e07 303e 8ff3 95be 4120 c73c
00000180: 47ad e5bc b1cc 1abc cd8b f1bd a117 5b3d
00000190: 8cd3 fc3d 2190 123f 55a8 ac3d d47d 243f
000001a0: 5c59 473e e188 ce3e 42b2 da3d 1a37 c2bc
000001b0: f019 773d 45c3 323e 0489 58be 33ef a03d
000001c0: 2957 92bd e5d8 123f 85c5 923c fff3 a5bc
000001d0: 3a66 403e 1eb9 bc3e 20e9 853e d808 e5be
000001e0: 396e ef3d 47df 613c 6f93 19be 449e 883e
000001f0: 0913 313c 2c16 fd3e c523 50be f1d8 5c3c
00000200: f757 d63d 2273 1fbe 4414 753c 0197 5fbd
00000210: aeeb 223d ae96 40bd 9562 843d ce84 e43c
00000220: 5823 273e 7615 373e f310 b4bd f6c7 94bc
00000230: d45d fdbc ce29 89be d550 9abb 1f08 413e
00000240: 50c6 00bd 7ec0 8cbc 3d5f 453d 5dc7 4c3e
00000250: 62e2 13bd c0c3 02be 4ea5 513d 218a 5b3e
00000260: 9e4a 743d c11b d4bd df2f 23be 22d0 25bc
00000270: 3755 04be 318d 453d 7ba5 d8bd e2a7 e43c
00000280: dae2 03bd 5909 e73c 4b80 d63d 9874 b1bd
00000290: 3156 ef3d 92b5 6b3d 02f9 843d a297 abbd
000002a0: 5504 d6bd 4cf6 16be fd00 d7bc e6a8 bd3d
000002b0: 6bfc 323e 329f e8bd 81f6 f13d d6a8 303e
000002c0: 4287 65bd 4851 173d 3462 103e 8b71 f53d
000002d0: ef37 01be e620 0abe f75c e03c 78f8 553e
000002e0: c2a9 b4bd be34 8fbd 6af2 d53c 5ed3 063e
000002f0: c79b 2a3d 89d9 6dbd e365 bb3d 7e87 9f3c

actor.4.bias f4 [3]
0.13665067 -0.16306654 0.015141192
00000000: 27ee 0b3e eafa 26be c312 783c
