src/Catcher_Flappy_Continuous/wandb/Catcher/run_acc_state_inacc_r/files/agent_acc_state_inacc_r.pt (torch, 40385 bytes, 11 tensors)

critic.0.weight f4 [64, 4]
000000 c6 e1 93 bd d0 17 1e bf 82 1f 84 be 59 8c 59 bf
       -0.07220797 -0.61755085 -0.2580529 -0.8497978
000010 15 a0 36 3f ee 2e 5a 3f 19 00 00 3d 8e 2b c4 3f
       0.71338016 0.8522786 0.031250093 1.5325792
000020 22 a3 10 3e 8a 58 f2 bd f6 01 7a 3c f0 9b 1b bb
       0.1412473 -0.11833294 0.015259257 -0.002374407
000030 fd 4a 28 be a5 05 de 3d 69 0d c3 bc 35 6e e2 3e
       -0.16434856 0.1084092 -0.023810105 0.44224706
000040 ee c4 2e bf e8 f3 5f bf 9b 22 45 3d 3f b7 42 bf
       -0.6826924 -0.87481546 0.048128705 -0.7606086
000050 4f a4 63 3e 8a 15 d4 3e 41 d0 1b bf e5 76 f0 3f
       0.22230648 0.41422683 -0.60864645 1.8786284
000060 25 e2 6c be 2e b9 89 3f f4 28 38 bc 37 9d 93 3f
       -0.23133142 1.0759637 -0.011240233 1.1532353
000070 f5 6f 52 be 51 e2 83 3e 26 c7 8f bc 82 76 e9 3f
       -0.2055052 0.25758603 -0.017551016 1.8239291
000080 d5 b2 ce 3e d9 77 ff 3e 7f 8d 20 3d 3c 95 6d 3f
       0.40370813 0.49896124 0.03919744 0.9280584
000090 fc ca 39 3f 7c 8a 49 bf 6e 51 24 3e 86 9c 95 bf
       0.72575355 -0.78726935 0.16046688 -1.1688392
0000a0 63 54 7d 3f 85 d0 77 3f 72 d2 07 3e 6b 87 7b 3f
       0.9895689 0.9680255 0.13263872 0.98253506
0000b0 7b 95 91 be cf c0 78 bf 2f 35 bc 3e e8 ad ca bf
       -0.28434357 -0.971692 0.36759326 -1.5834322
0000c0 23 89 07 3f 39 98 05 3f c7 1b 21 3d 10 ba 9e 3f
       0.5294363 0.521854 0.03933313 1.2400532
0000d0 24 c3 81 be 34 aa 06 bf 81 1e 12 bc 95 ba 56 c0
       -0.25344193 -0.5260346 -0.0089184055 -3.355138
0000e0 91 76 12 3f fc 69 02 3f fc 1c 05 3e fc 54 73 3f
       0.5721217 0.5094297 0.12999338 0.9505155
0000f0 7f c8 5e 3f a3 9c 1e 3f e1 e1 d7 3c 88 88 4a 3f
       0.8702468 0.6195776 0.026352825 0.7911458
000100 82 ca 9c 3d a5 2b fe bf b8 af 5e bd a2 40 82 3f
       0.07655813 -1.9857069 -0.054366797 1.0175974
000110 7f ad 2e 3e 16 02 ca bd 8e c9 eb bd 0c eb d6 3f
       0.17058371 -0.09863679 -0.11513053 1.6790481
000120 c7 99 21 bf d4 79 17 3f 4b d9 7f 3d 2f c2 b0 be
       -0.6312527 0.5917027 0.062463086 -0.3452315
000130 da aa cf be c2 39 ec be 31 b5 e4 bc 5b 1b a1 bf
       -0.40560037 -0.46137816 -0.02791843 -1.2586473
000140 f2 5b 2a bf ef 82 6b bf fa 8e 15 3d b4 ef 83 bf
       -0.6654655 -0.91996664 0.036513306 -1.0307527
000150 01 8d d2 3e f0 b5 4d 3f de 1c 1e 3d 9a 07 7a 3f
       0.41123202 0.8035574 0.03860175 0.9766785
000160 dd 91 20 3d 4c 88 7c 3f d0 f6 ea bd 97 7d b5 3e
       0.039201606 0.9864547 -0.11472857 0.3544738
000170 d8 18 b8 be 0b be af be 61 94 0f be 8d 63 8c bf
       -0.35956454 -0.3432468 -0.14021446 -1.096788
000180 e7 47 2f bf eb 3b 2b bf df 08 b7 bc 85 23 4b bf
       -0.6846909 -0.668883 -0.022343097 -0.79351074
000190 d3 89 e2 be 57 42 39 bf a8 f5 d8 be f3 60 15 bf
       -0.44245777 -0.7236685 -0.4237492 -0.5835106
0001a0 39 a7 eb 3e b0 a0 06 bf 49 92 95 3d 15 86 d7 bd
       0.46026018 -0.5258894 0.07303292 -0.10523621
0001b0 bd 3e ff bc fd 99 00 3e e1 1d 3a be 5f 80 b5 40
       -0.031157846 0.12558742 -0.1817546 5.6719203
0001c0 2a 1d 07 3e b7 03 00 3f 9d ba df be 46 d7 82 40
       0.13194719 0.5000567 -0.43697062 4.0887785
0001d0 3a ed 08 bf 8f a8 02 bf ec 76 02 3e 91 01 93 be
       -0.5348698 -0.5103845 0.12740678 -0.28712133
0001e0 60 73 b0 3e d8 ea 4f 3f 84 ae 08 3d 23 7b ba 3f
       0.34463024 0.8121772 0.033369556 1.4568828
0001f0 ba 7a bb bf 9d ec 16 bf b3 51 ea 3c 62 91 f8 be
       -1.4646828 -0.58954793 0.02860341 -0.48548418
000200 7e 5d 0d be 80 ad 01 3d 69 ee 29 3e 01 32 6b c0
       -0.13805196 0.031659603 0.16594853 -3.674927
000210 d6 0c d7 3d 5c 4b 0f be 81 2c 84 bd dd e8 16 bf
       0.10500495 -0.13993591 -0.06453801 -0.5894907
000220 8c 03 f1 3e 96 bc ca 3d f7 f3 c5 be cd ec 9c 40
       0.4707302 0.09899251 -0.38662693 4.9039063
000230 a6 f2 10 bd 2c 27 03 3d 0f d8 e7 3d 12 f8 bf bf
       -0.035387658 0.03201978 0.11320507 -1.499758
000240 46 16 68 3f 4e fc 24 3f b4 19 8f bd 05 f5 91 3f
       0.90658987 0.64447486 -0.06987324 1.1402899
000250 63 d7 7d 3f ec a1 fa 3d 20 e3 75 3e 9a 95 1b 3f
       0.9915678 0.122379154 0.24012423 0.6077515
000260 6c 11 33 3e 97 fb 1a bf 69 4e 34 3f 95 a8 08 be
       0.17487115 -0.60540146 0.70432144 -0.13345559
000270 21 fe c5 3e a2 b7 d8 be ef 33 6b bc 21 6a 40 3f
       0.38670447 -0.423276 -0.014355644 0.7516194
000280 84 9c a6 be 2d ac a2 be ac 0d 94 bd a3 83 96 bf
       -0.32541287 -0.31771985 -0.0722917 -1.1758922
000290 bc 4c c6 bc 33 b3 1b 3f 80 89 15 bf 8a e7 26 bf
       -0.024206512 0.6082031 -0.58412933 -0.6519705
0002a0 4b 92 7c bf 97 e1 4b bf 55 f0 dd bc 8c a5 1d bf
       -0.98660725 -0.796411 -0.027092138 -0.6158073
0002b0 d5 fe 6b bf a8 32 fd be 57 57 5d 3b 1b 51 af bf
       -0.9218572 -0.4945271 0.0033773982 -1.3696626
0002c0 b5 f3 d7 3d f0 70 33 be 05 b4 7b 3e 0e d9 82 3f
       0.1054453 -0.17523551 0.24580391 1.022249
0002d0 71 97 1e bf fb 42 0d 3d 22 06 c3 bd b6 50 be bd
       -0.6194983 0.034487706 -0.09522654 -0.09292738
0002e0 81 d1 d5 3e a2 6f 47 3f 34 a8 e6 be 1c 35 58 3e
       0.417614 0.77904713 -0.45050204 0.2111401
0002f0 13 6e ab be d9 47 b1 3e a8 4a f1 3c 0a a5 33 bf
       -0.33482417 0.34625128 0.029454544 -0.70173705
000300 49 5e e8 be 5e cc 39 3f e9 83 6c bd 22 9a 07 40
       -0.45384434 0.72577465 -0.057742987 2.1187825
000310 23 08 8b be 68 a6 1b 3e e1 19 c2 be ee 08 e8 3f
       -0.27154645 0.15200198 -0.3791037 1.8127725
000320 bb 21 98 be e6 16 cd 3f 68 fb ff bc 18 67 ae 3e
       -0.29713234 1.6022613 -0.03124781 0.3406303
000330 af 24 d5 3e f2 28 84 3f 28 88 63 be ea b0 20 3e
       0.4162955 1.0324996 -0.22219908 0.15692487
000340 6b 92 03 3f 7a 18 2b bf ea 93 51 3c 27 6b eb bf
       0.5139529 -0.66834223 0.012791613 -1.8392075
000350 8c d0 42 3e bd b5 75 3f 5a ab 2a bd 53 15 43 bf
       0.19024867 0.95980436 -0.04166732 -0.76204413
000360 88 02 a3 3e 9a cf 8d bf b3 22 5f 3e 33 18 5c 3f
       0.3183787 -1.107898 0.2179058 0.85974425
000370 10 96 82 be 71 7c 80 3e ac aa 70 bd da 93 29 3f
       -0.25505114 0.2509494 -0.058756515 0.6624123
000380 16 d4 0a 3f c1 4a 0e 3f 4f 1f e6 bd eb c0 9c 3f
       0.5422987 0.55582815 -0.112364404 1.2246374
000390 35 31 9c 3e 94 d6 c7 3e 99 ab e2 3d 79 26 90 3f
       0.30506292 0.39030898 0.11067886 1.1261741
0003a0 5e fe e3 be 37 0a 16 bf 23 00 08 bd 87 d0 91 bf
       -0.44530004 -0.58609337 -0.033203255 -1.1391762
0003b0 1b b7 46 3e 4a 77 f8 3e ef d7 af 3d 47 6d a7 3f
       0.19405787 0.4852851 0.08586108 1.3080224
0003c0 9e d1 d6 bf a3 0a 95 bf 99 81 28 bd c0 48 db 3f
       -1.678272 -1.1643871 -0.04113922 1.7131577
0003d0 cf 76 08 3f ef a1 03 3f e8 c4 7b 3d f2 dc 92 3f
       0.5330629 0.51418966 0.06146708 1.1473677
0003e0 fe 6f 88 be 54 a6 1d 3e 3f aa eb bc e6 30 77 bd
       -0.26647943 0.1539548 -0.028767703 -0.060349368
0003f0 c9 b2 66 3d 0d 11 3e be c2 7c ff bc 38 8d 8d 40
       0.056322847 -0.18561192 -0.031187419 4.4234886

critic.0.bias f4 [64]
000000 c7 2d 4f bf 46 1b bd 3f f3 5d 8b c0 ee 1b 8b bf
       -0.80929226 1.4773948 -4.3552184 -1.0867898
000010 e1 93 7b bf 9d 11 45 3f e8 17 0c 40 11 44 4a c0
       -0.9827252 0.7698 2.1889591 -3.1604044
000020 4a b3 9c 3f 00 7a 30 bf 5d f1 dc 3d 7b 89 2c c0
       1.2242215 -0.6893616 0.10788224 -2.6958911
000030 53 f3 89 3f f1 da 0f c0 22 3b 8e 3f e2 c4 4b bf
       1.0777382 -2.2477381 1.1111796 -0.79597294
000040 e6 d7 6b 3f b9 8f 22 c0 7f fc d9 3f b7 20 74 bf
       0.9212631 -2.5400221 1.7030181 -0.9536242
000050 5b d2 f8 bf 77 b4 72 3f 35 fb 0c 3f 84 6d 79 bf
       -1.9439195 0.9480662 0.5507081 -0.9743273
000060 a1 c1 7a bf f3 b0 16 bf dc e1 4e 40 30 28 45 40
       -0.97951704 -0.58863753 3.2325354 3.0805779
000070 84 07 25 3f 43 0f 6b c0 dd e8 d0 3f 3c 0f 58 3e
       0.6446459 -3.6728065 1.6321064 0.21099561
000080 38 bd 40 3f 18 60 7e 40 2b f6 3d 40 3b cd b3 c0
       0.75288725 3.974615 2.96815 -5.6188025
000090 c3 c2 91 3f c5 0e 23 3f 15 f3 9a be e4 7f b7 bf
       1.1387562 0.6369441 -0.30263582 -1.4335904
0000a0 c2 4f 92 bf 9b 76 21 c0 f3 cc 0f c0 ac 6e 85 bf
       -1.143059 -2.522864 -2.246884 -1.0424399
0000b0 60 65 c9 3f dd 97 c7 3f 8f 87 05 40 e8 6d 10 c0
       1.5734062 1.559322 2.0863988 -2.2567081
0000c0 f3 02 1e 40 16 06 a5 bf 51 58 b8 3f c7 33 8a 3f
       2.46893 -1.2892482 1.4401952 1.0797051
0000d0 f8 66 0a 3d 27 a1 b0 3e 59 38 a8 3f c9 7e 4e 40
       0.033789605 0.3449795 1.3142196 3.2264884
0000e0 48 c8 d6 3f 5d a6 91 3f 23 26 7b bf bf 6a 83 3f
       1.6779871 1.1378895 -0.98105067 1.0266951
0000f0 15 cb 49 3f 4b 42 89 3f 30 59 88 c0 7a 42 41 40
       0.78825504 1.0723356 -4.260887 3.0196824

critic.2.weight f4 [64, 64]
000000 fb 0d 76 be 38 e9 86 3e b3 d8 1b 3e ba 6e bb bb
       -0.2402877 0.26349807 0.15219383 -0.0057199867
000010 d8 1b c0 be 2e 85 5f 3e fe f5 a8 3e d1 9f d9 3e
       -0.37521243 0.21828148 0.33000177 0.42504743
000020 8d d5 25 3f 99 a5 49 be 72 06 c1 3e d0 94 8d be
       0.6477898 -0.19692077 0.3770023 -0.27652597
000030 cc 77 99 3e ff 00 22 be 4d 04 8a 3e e6 1e 0f 3e
       0.2997421 -0.15820692 0.26956406 0.1397663
000040 91 1b 42 3d 60 f8 70 bd 88 c1 9f 3e 9c fe ac be
       0.04738957 -0.05883062 0.3120234 -0.33788002
000050 32 36 fc be 0f 6a f1 3d 9a 06 7a 3e 93 b5 e6 bd
       -0.49260098 0.11787807 0.24416581 -0.11265101
000060 15 76 8d be 9e 82 9e be 40 db aa 3d 79 e4 ad bb
       -0.27629152 -0.30959028 0.083426 -0.005306777
000070 25 71 1b 3e 32 a6 84 be 5b f6 4f 3d 4b 66 8b be
       0.1517988 -0.25908047 0.050772052 -0.2722648
000080 d5 b1 6a bc 9e 07 4a 3e 9a d0 f7 bd b8 0c 31 be
       -0.014324625 0.19729468 -0.121003345 -0.17290008
000090 77 f9 a4 3d ef fb 36 3f 04 30 f5 be 51 2f 00 be
       0.08055394 0.7147817 -0.47888196 -0.1251805
0000a0 f1 55 59 be a9 e5 b3 bd dc 3d e5 3d 95 48 e0 bd
       -0.2122419 -0.087840386 0.11193439 -0.10951344
0000b0 f4 4c f4 bd f8 5d 06 be 51 fb 0a 3e 50 9d 06 bf
       -0.1192874 -0.13121784 0.13572432 -0.5258379
0000c0 0b 9c 8f 3d b7 60 05 3d 72 86 71 3e c6 28 f2 3b
       0.07012185 0.032562938 0.23586443 0.0073901145
0000d0 a1 bd 87 be 90 28 5e 3e 81 7f b8 bd 31 34 78 3e
       -0.26511863 0.21695161 -0.090086944 0.2423866
0000e0 63 a8 7a 3e 00 1e 10 3f cc 71 cb bc 4f da 25 3e
       0.24478297 0.56295776 -0.024834536 0.1619656
0000f0 dc e5 88 3d e3 9e ab 3e b3 16 10 3e cd 8e 9a 3e
       0.06684467 0.33519658 0.14071159 0.30187073
000100 de d3 30 3f 81 3a a7 bd 66 e3 9b bd d2 66 41 bd
       0.69073284 -0.081654556 -0.07611732 -0.047217198
000110 d7 1d f8 3d d9 21 aa be 2b 06 a2 be d3 b4 25 be
       0.121150665 -0.3322895 -0.3164533 -0.1618226
000120 af 0c b1 be fd 32 35 be bf 6c c5 be 37 27 47 3e
       -0.3457999 -0.17695232 -0.3855953 0.19448553
000130 5c 46 7a be 8e d6 bd bd 89 de 23 be 8a 66 73 3d
       -0.24440902 -0.09269439 -0.16002859 0.05942396
000140 0e f7 49 3e 38 b3 46 bd dd 1c 42 bd 40 4b fc 3e
       0.1972315 -0.04851076 -0.047390807 0.4927616
000150 07 69 f8 bd 47 49 12 be 65 14 84 3c 80 21 bf 3e
       -0.121294074 -0.14285766 0.016123006 0.37330246
000160 e9 a8 a4 3e b3 86 bd 3e 37 b5 14 3e 7e b3 fe be
       0.32160118 0.3701683 0.14522253 -0.49746317
000170 a9 03 84 be 9e 37 08 3e f7 0f eb be 94 34 c3 3e
       -0.25784042 0.13302466 -0.45910618 0.3812605
000180 34 b4 95 3e 11 00 c2 be 0a e5 b1 3d c4 73 e2 3e
       0.29239047 -0.37890676 0.08686264 0.44228947
000190 c8 94 ff be fa 3f de 3c e0 55 b9 3e 2c 10 aa 3e
       -0.499182 0.027130116 0.3619833 0.33215463
0001a0 d0 e5 76 3e e6 98 16 bd c4 12 ee 3e 43 53 82 bd
       0.24111104 -0.03676691 0.46498692 -0.06363537
0001b0 5f 4c 16 3e 9b c5 04 3f 56 03 fe bd 85 49 4d 3e
       0.14677571 0.5186402 -0.1240298 0.20047577
0001c0 65 2e 0c be f0 54 60 3e b0 dd 14 be 9b 7e ad bd
       -0.13689573 0.21907401 -0.14537692 -0.08471414
0001d0 51 58 43 be 43 46 b2 bd d4 f2 af 3e 69 bb 2f be
       -0.19076659 -0.087048076 0.3436495 -0.17161335
0001e0 04 98 2d 3e b3 11 16 bc 4c 04 c0 bb 70 a8 5c be
       0.1695252 -0.009159493 -0.005859887 -0.21548629
0001f0 b0 db c5 3e c8 1b c7 be 87 af d2 3d 22 1f f9 be
       0.3864417 -0.38888383 0.102873854 -0.48656565
000200 d0 20 14 3f 26 0d 85 bb 41 b9 a9 bd 99 f3 46 3e
       0.5786257 -0.0040604053 -0.082872875 0.19428863
000210 3a 62 af 3e 21 3a cf be e6 15 77 be 82 3b a8 be
       0.34254628 -0.40474036 -0.24129447 -0.328579
000220 78 0e 7a be 4c 8e 90 3d 71 b4 95 bd fb 1b 1e 3e
       -0.24419582 0.07058391 -0.07309807 0.15440361
000230 fb 77 18 bc 5d a7 7a 3d 51 99 cb be 4d 02 ef bd
       -0.009305949 0.061194766 -0.3976541 -0.11670361
000240 09 fd 6b bd 37 b7 fc 3d e4 52 f3 bd 12 17 b0 3e
       -0.05761436 0.12339633 -0.118810445 0.343926
000250 d7 f0 b0 3e 98 13 3b be ff 7c 14 be 5d d1 68 3e
       0.34558746 -0.18269193 -0.14500807 0.22736116
000260 93 42 18 3e fa 02 cc 3e 43 4b 90 bc 0b 5b 04 bf
       0.14869146 0.3984602 -0.017614013 -0.5170142
000270 3a 36 ab be 39 82 aa 3e 49 18 8f be ff d6 a4 bd
       -0.3343981 0.33302477 -0.27948216 -0.0804882
000280 bf 52 33 bd ce bf ee be 9b 98 b8 3d b5 d1 d1 3e
       -0.043780085 -0.4663071 0.09013482 0.40980306
000290 2f 85 cf be b5 5d bc be a9 e1 d9 3d 23 12 ea 3e
       -0.405313 -0.36790243 0.106387444 0.45716962
0002a0 55 dc 1e 3e 60 6d 06 3e 69 af 95 3d c1 44 01 3f
       0.15513737 0.13127661 0.073088475 0.50495535
0002b0 bd 3f a0 3e ef 22 7b 3e ff 8d fa be 8f 08 ce 3d
       0.31298628 0.24525045 -0.4893646 0.10060226
0002c0 a0 28 83 be f1 f2 bd 3d 31 3b e4 bd 5f ce 81 be
       -0.25616932 0.09274853 -0.11144102 -0.2535276
0002d0 80 13 8f 3e ff 7f 1e bf 7c f4 36 be 83 d6 c9 be
       0.27944565 -0.61914057 -0.17866701 -0.39421472
0002e0 fd e8 4a bd aa c4 bd be b0 0f 39 3e d6 4e a0 be
       -0.0495386 -0.37064105 0.1807239 -0.31310147
0002f0 ff e6 a1 3d 63 c3 10 bf 4a 9a 9e 3b f6 23 e5 bd
       0.07905387 -0.56548136 0.00484017 -0.111885
000300 15 2e 05 3e 4f 12 38 3e a7 f3 b5 bd 1c 71 2a 3e
       0.1300586 0.17975734 -0.088843636 0.1664471
000310 a1 c2 f8 be b8 d7 0b 3e 6e 20 c3 3e 94 d0 40 be
       -0.4858599 0.13656509 0.3811068 -0.18829566
000320 9e df c5 3e a0 06 31 bc 0e c9 99 3d e3 0f 20 be
       0.3864717 -0.010804802 0.07509051 -0.1563106
000330 5e 43 22 3e b2 d6 72 be ce e4 06 3e 6d af 47 3e
       0.15846011 -0.23714712 0.1317322 0.19500513
000340 ae a1 e6 3d 36 21 3e 3e 92 cb ae 3e 88 a0 e1 be
       0.11261307 0.18567356 0.34139687 -0.44067788
000350 b7 ef 20 be cf cd 5c 3e a3 92 08 3f 53 16 44 be
       -0.15716444 0.21562885 0.5334875 -0.19149141
000360 31 c3 03 be 82 1e 1e bf 9f 25 a0 bd 8c c1 91 3e
       -0.12867428 -0.617653 -0.07819676 0.28467977
000370 f1 15 51 3e b1 c9 b3 be 98 f4 dc 3e 6f f7 e0 3e
       0.20418526 -0.35114816 0.4315536 0.43938777
000380 e5 c4 82 bb 99 64 9e 3d 5e 54 92 b9 c4 5c 29 3e
       -0.003990757 0.07734031 -0.00027910148 0.16539294
000390 24 80 e8 3e 25 44 40 3d 52 da f7 3d e7 ad a9 be
       0.45410264 0.046939988 0.12102188 -0.3314049
0003a0 e9 c6 2f be 18 56 ac bd 3f 79 41 3e 9f 68 ea be
       -0.17165722 -0.084148586 0.18893908 -0.45782945
0003b0 a3 7a 11 3e f0 7d 91 be bf cb d4 3e 9a f2 b7 be
       0.14206938 -0.28416395 0.41561696 -0.35927278
0003c0 a3 61 ce 3e 05 a6 50 be 32 ac ab 3e d6 3b da bc
       0.40308866 -0.20375831 0.33529812 -0.02663986
0003d0 56 e6 d0 bd 40 5c 1a 3d cb ad c9 bd a5 46 23 3e
       -0.10200183 0.037685633 -0.098476015 0.15944918
0003e0 7e 88 57 3e ff 89 e2 3e da 09 be 3e dc 30 cd 3e
       0.21048161 0.44245908 0.3711689 0.4007634
0003f0 85 8f a2 be b3 51 9b 3e c1 19 a1 be 2b 40 83 be
       -0.31750122 0.3033577 -0.3146496 -0.25634894

critic.2.bias f4 [64]
000000 35 2e b2 3e 7e 47 97 be d8 5b c3 be 87 b5 a2 3e
       0.34800878 -0.29546732 -0.3815601 0.3177912
000010 c5 f4 ab 3e 12 88 da 3e df 0d bb be e8 a7 aa 3e
       0.33585182 0.42681938 -0.3653402 0.33331227
000020 cd 81 90 be 11 fd 6d be 1b 25 b5 3e 57 1b a5 be
       -0.2822403 -0.23241068 0.35379872 -0.3224742
000030 cd 54 98 3e bf ac c7 3e e9 83 b4 be 58 3a b3 3e
       0.29752198 0.38998982 -0.3525689 0.3500545
000040 a2 19 a4 be a8 f6 b4 3e 23 3f 9a 3e 62 d4 db 3e
       -0.32050806 0.35344434 0.30126294 0.42935473
000050 96 71 a1 3e ca 1d aa bd 17 f0 cd bd 2f ea c2 3e
       0.31531972 -0.08306463 -0.10055559 0.38069293
000060 0e 9f af be 79 f5 8b be 8d 65 a9 be a9 b8 b8 3e
       -0.34301037 -0.27335718 -0.3308529 0.36078385
000070 e0 38 b2 be fb 24 b9 be 0b 1d b9 3e c7 2b 1b 3d
       -0.34809017 -0.36161026 0.3615497 0.037883546
000080 e0 cf 13 bd ac 32 8d be c7 4e 0c 3d 19 ef 9a 3e
       -0.036086917 -0.27577722 0.034254815 0.30260542
000090 c7 a1 dc 3e 1c 14 9b be 3c 25 82 3e 03 02 93 3e
       0.43092176 -0.3028878 0.25419033 0.28712472
0000a0 3e 78 b0 be 01 30 aa 3e 7a 1c bf be 93 ba c6 be
       -0.34466738 0.3323975 -0.37326413 -0.3881422
0000b0 31 73 bc be 33 c2 cb be ac bd d6 bd 48 87 93 3e
       -0.36806634 -0.397966 -0.10485396 0.2881415
0000c0 d6 8e a9 3e 75 52 d9 3e d8 85 bd 3e b3 3e aa 3e
       0.33116788 0.42445722 0.37016177 0.3325096
0000d0 6b 0f 55 be 3e cf b3 be b5 36 9a 3e 65 7e 1d 3e
       -0.20806663 -0.3511905 0.30119863 0.15380247
0000e0 26 10 b6 3e 61 8b 47 be db e3 d0 bd 15 6f ae be
       0.35559195 -0.19486763 -0.1019971 -0.34069124
0000f0 bb 22 c6 be 37 f1 4d be 9d d3 9e be 4f 6e 98 be
       -0.38698372 -0.20111547 -0.31020823 -0.2977166

critic.4.weight f4 [1, 64]
000000 4a 44 09 41 84 8e 08 c1 8e 46 07 c1 3f 20 07 41
       8.579172 -8.534794 -8.454725 8.445373
000010 89 74 07 41 42 bf 07 41 ec 74 07 c1 e7 d2 06 41
       8.465951 8.484194 -8.466045 8.42649
000020 0c 7e 08 c1 b0 62 0d c1 94 70 09 41 c5 1a 08 c1
       -8.530773 -8.836594 8.589985 -8.506536
000030 37 2a 09 41 fd 96 08 41 16 4e 07 c1 e3 a0 08 41
       8.572806 8.536862 -8.456564 8.539279
000040 55 50 09 c1 2a 51 08 41 b5 36 0c 41 69 c0 07 41
       -8.582112 8.519815 8.763356 8.484475
000050 9e 89 0a 41 c5 eb a0 41 2b e1 14 c1 4f 08 09 41
       8.658598 20.115122 -9.304973 8.564528
000060 17 09 09 c1 be ea 0b c1 a1 1a 0a c1 29 da 07 41
       -8.564719 -8.74481 -8.631501 8.490762
000070 5e cb 07 c1 71 54 09 c1 a1 4f 07 41 87 8b 72 c1
       -8.48715 -8.583116 8.456941 -15.159064
000080 1f c2 86 41 b8 a1 08 c1 21 ae a3 c1 b3 96 08 41
       16.844786 -8.539482 -20.460024 8.536792
000090 6a 6b 07 41 77 61 09 c1 79 fe 0b 41 84 30 08 41
       8.463724 -8.586295 8.749627 8.511845
0000a0 91 16 09 c1 a7 e0 09 41 6b 13 08 c1 36 ae 1d c1
       -8.568009 8.617347 -8.504741 -9.855032
0000b0 06 e7 07 c1 3f 09 07 c1 80 0c 21 c1 ab 5d 0b 41
       -8.493902 -8.439757 -10.065552 8.710368
0000c0 56 a8 09 41 74 3c 08 41 7f 91 07 41 9d 91 07 41
       8.603598 8.514759 8.4730215 8.47305
0000d0 08 63 07 c1 c3 01 09 c1 c8 c2 08 41 83 47 11 41
       -8.461678 -8.56293 8.547554 9.079959
0000e0 42 f6 06 41 1b 53 b9 41 d1 b4 0d c1 1a 82 08 c1
       8.435122 23.165579 -8.856645 -8.531763
0000f0 fb 6d 07 c1 5c 4e 4f c1 5b a0 07 c1 cd 81 07 c1
       -8.464351 -12.956631 -8.476649 -8.46919

actor.0.weight f4 [64, 4]
000000 2c 9d c1 3e 95 d4 3b 3f 77 8a c5 3e 69 d7 fa 3e
       0.37815225 0.7337125 0.38582203 0.4899247
000010 93 5b 0b 3f 94 53 36 bf ca 31 5e 3e 52 e6 4b be
       0.54436606 -0.7122128 0.2169868 -0.19912079
000020 d2 23 c7 3e 6b 63 29 3e 06 ff 61 bf 8a 44 e5 3f
       0.38894516 0.16541831 -0.8827976 1.7911541
000030 f8 fa 46 3f c4 70 14 3f 51 f9 5c 3e 0e c4 0c be
       0.777267 0.57984567 0.21579482 -0.13746664
000040 b3 97 47 3b 34 98 61 3e 68 9a 88 bf 79 f6 60 be
       0.003045541 0.22030717 -1.0672121 -0.21969022
000050 67 b7 42 3f 45 fa 46 bf fd 92 48 bd 2b ad a5 3f
       0.760611 -0.7772563 -0.048968304 1.2943472
000060 b2 9b 57 3f eb f9 00 3f 1e 8b a1 3d 69 41 34 3f
       0.8422195 0.50381345 0.078878626 0.7041231
000070 62 95 0d 3f 64 4b 39 be 66 6b 36 bf 0e 13 09 3f
       0.55306065 -0.18095165 -0.71257627 0.535447
000080 b4 20 97 be 49 a5 38 3e 91 6b 85 3f 00 cd 1c bf
       -0.29517138 0.18031801 1.0423452 -0.61250305
000090 d3 61 c2 be 5b 25 b3 be 28 81 af be c5 58 48 bf
       -0.3796526 -0.34989437 -0.34278226 -0.7826045
0000a0 c6 4f 27 be 17 81 57 bf 87 2b 4c 3d f4 83 18 3f
       -0.16339025 -0.8418135 0.0498462 0.59576344
0000b0 6b 2c c9 3e f2 bb 79 bf b5 77 d7 bd ea f1 93 bf
       0.392917 -0.97552407 -0.10520879 -1.1558201
0000c0 16 b4 21 bf 4e 9e 1b 3f 19 dc a7 bd df 06 f9 3f
       -0.63165414 0.6078843 -0.08196277 1.9455222
0000d0 f2 2f 9c be 38 66 a9 bf 92 ac 94 3d ea 97 81 3f
       -0.3050533 -1.323432 0.07259478 1.0124485
0000e0 7d 3c 55 3f 3a a3 f4 3e 60 c5 e4 3c d0 ea 73 3f
       0.8329542 0.47780782 0.027926147 0.9528017
0000f0 45 4a 11 bf 3d c6 5f 3f 88 20 06 bd bf dd e7 3e
       -0.5675395 0.8741186 -0.032745868 0.45286366
000100 93 30 26 3f 10 20 5d be 68 a5 17 bf 79 29 8d 3f
       0.6491787 -0.21594262 -0.59236765 1.1028281
000110 6e ba f2 be 75 8a db 3e cf 5b 70 3f 8d 33 19 3f
       -0.4740786 0.42879072 0.9389009 0.59844285
000120 4f 46 04 3f f2 c1 05 be 47 dc fa 3e 6d 73 6c 3e
       0.5166978 -0.13062266 0.48996183 0.23090906
000130 70 85 e2 3e c9 87 a4 3e 8e 2f 1c 3e 40 4f 2a 3f
       0.4424243 0.32134846 0.15252516 0.66527176
000140 6b f9 6b 3c 55 68 59 3f 6c af a4 bd f6 53 9a bd
       0.014402728 0.84924823 -0.080412716 -0.075355455
000150 1d 39 25 3f 9e be 18 3f b7 f5 bb be 48 6c 31 40
       0.6454027 0.5966586 -0.36710903 2.772234
000160 b6 83 02 3f 98 4f 9a 3e eb 2b c2 be 2d eb ef 3f
       0.50982225 0.3013885 -0.37924132 1.8743645
000170 83 e8 2d bf cf 69 51 bf 35 70 c5 3e c7 50 3e bf
       -0.6793291 -0.81802076 0.3856217 -0.74342006
000180 09 4a f1 3e 53 f0 b2 3e 09 b9 a6 3e d0 f1 d6 3d
       0.47126797 0.34948978 0.32563046 0.10495341
000190 5c 48 d4 3e a1 95 3a bf dd 14 1f 3f 05 0b 8f be
       0.41461456 -0.72884566 0.6214121 -0.27938095
0001a0 08 6d 3b bf 67 d2 48 bf c3 66 4f 3d 2f c2 a6 3e
       -0.73213243 -0.7844605 0.05063511 0.32570025
0001b0 74 7e 16 bf 6d db 62 bf 16 55 51 3f 5a 91 a8 be
       -0.587867 -0.8861607 0.81770456 -0.32923394
0001c0 fc 18 37 3f 85 55 ac be 1f e0 6b be 0e 91 25 3f
       0.715225 -0.33658996 -0.23034714 0.6467446
0001d0 4c 7d a4 3d 04 3d 64 bf 40 d9 22 3d a7 40 5f 3f
       0.08031711 -0.891556 0.039757967 0.87208027
0001e0 5b 28 28 bf c7 e3 1a 3f d8 b5 b6 3e 24 f4 d1 bc
       -0.6568658 0.6050381 0.3568561 -0.02562911
0001f0 0b 6c f6 3e 9d a0 e7 3e ba d7 a9 3e 69 a7 1d 3f
       0.48129305 0.45239726 0.331724 0.6158357
000200 df b7 4c be ba 5f 29 bf f4 37 c7 be de b4 67 be
       -0.19992016 -0.6616169 -0.38909876 -0.22627589
000210 12 dd 2a 3e 86 09 1a 3f a0 62 78 bf 52 55 4e 3e
       0.16685894 0.6017078 -0.9702549 0.20149735
000220 aa ed 38 bf 93 97 90 bf 28 9c 37 3f 83 3d 87 be
       -0.72237647 -1.1296257 0.7172265 -0.26414117
000230 38 62 b7 3e 88 2b ad 3e 31 76 0f 3e 6c 85 e4 3e
       0.35817122 0.33822274 0.1400993 0.44633043
000240 49 32 2e 3f 39 7b 51 3e 54 37 18 bf f6 15 e0 3f
       0.6804548 0.20457162 -0.59459424 1.7506702
000250 aa 21 7f 3f 61 a9 31 3f d8 9a 4f be ae e7 34 be
       0.9966074 0.69399077 -0.20273912 -0.17666504
000260 d4 35 5b be 65 f8 5d bf 89 3c 39 bf 6a 54 05 be
       -0.21407253 -0.86707145 -0.72357994 -0.13020483
000270 25 dd 79 3e ec 2a 0b 3f 5b 41 7c 3e 21 e1 0c 3f
       0.24400766 0.5436237 0.24634306 0.5503102
000280 84 f9 22 3f 20 99 2e 3f fd 7c e6 bd 94 15 1b 3f
       0.6366198 0.682024 -0.112543084 0.605798
000290 95 06 cc be 71 8d 1f bf fd 8c 3e be bf 66 5b be
       -0.39848772 -0.623252 -0.1860847 -0.21425913
0002a0 f0 07 56 bd c3 2a 6d 3f 32 c3 08 bf 87 03 1a be
       -0.052253664 0.92643374 -0.53422844 -0.15040408
0002b0 d7 53 4c 3f 19 d8 41 3f 6a b2 3e be 52 28 0d 40
       0.7981543 0.75720364 -0.18622747 2.205586
0002c0 60 d3 20 bf a5 9f 41 3e ab f3 3c 3f 20 f7 cb bf
       -0.6282253 0.18908556 0.7380931 -1.5934792
0002d0 15 83 a2 be 31 98 90 be c9 13 17 bd 6a 21 55 bf
       -0.31740633 -0.28241113 -0.036884103 -0.8325411
0002e0 26 16 1f 3e 96 e9 26 3f 22 6b 69 3e 20 eb 73 3d
       0.15535793 0.65200174 0.22794774 0.059550405
0002f0 4b 8b 2f 3f 3f 76 40 3f 8b 2a 3c be b1 d7 98 3e
       0.6857192 0.7518043 -0.18375604 0.2985206
000300 0a 27 0a bf 3d 55 81 bf 24 02 f0 3d 61 9d 21 3f
       -0.5396582 -1.0104138 0.11719158 0.63130766
000310 3a 43 cb 3e 66 a1 d9 3e 98 45 77 3e 68 f6 1a 3f
       0.39699727 0.4250595 0.24147642 0.60532236
000320 b7 37 1e 3f 1a 30 2a bf a5 89 01 3f b4 d1 0e 3d
       0.61803764 -0.6647965 0.50600654 0.034867957
000330 47 2b 21 be b6 af 51 bf da 26 18 be 73 ba b7 bc
       -0.15739165 -0.8190874 -0.1485857 -0.022427773
000340 98 f6 80 bf 24 46 fc be e5 b1 a4 bc 1a 0c 28 bf
       -1.0075254 -0.49272263 -0.020104358 -0.65643466
000350 58 a9 30 3e 73 85 29 3f db 0e 87 3d 55 76 b6 3e
       0.172521 0.6621925 0.0659463 0.35637155
000360 aa e4 25 3f 36 ca b8 3c ff 70 a1 3e e0 14 05 3f
       0.6480204 0.02255736 0.31531522 0.5198498
000370 d0 3b 11 bf 0c 58 13 bf b3 72 84 bd d8 d6 41 3e
       -0.5673189 -0.57556224 -0.0646719 0.18929613
000380 4b 02 2e 3f fd 6a 37 3f c6 d1 96 3c 7e 7e dc 3e
       0.6797225 0.71647626 0.018410575 0.43065256
000390 e8 7e 58 3f d2 b8 3f 3f 4f 47 1f bd d8 43 76 3f
       0.84568644 0.7489139 -0.038886365 0.9619727
0003a0 31 fc a6 3a af b4 3a be f0 cc 8b 3f d7 8b 48 bf
       0.0012739954 -0.18232988 1.0921917 -0.7833838
0003b0 ef 31 01 bf 90 bb ea 3e 66 53 2d 3f 0c 41 35 be
       -0.5046682 0.45846224 0.6770538 -0.17700595
0003c0 95 55 31 bf b1 5e 1a bf 61 6f a3 3e 6b 43 d9 bf
       -0.6927121 -0.6030074 0.31920913 -1.6973699
0003d0 1d 1b 69 3f 87 89 de be da 21 8b be 60 cc 3f be
       0.91056997 -0.434643 -0.27174264 -0.18730307
0003e0 5e 06 6e bf 29 6b 70 3e 4e b4 38 bd c9 35 16 bf
       -0.92978466 0.23478378 -0.045093827 -0.5867582
0003f0 6f 77 69 bf 27 a7 8d bf 74 a0 0e bd 8e cd 6b 3e
       -0.91197866 -1.1066636 -0.03482099 0.23027632

actor.0.bias f4 [64]
000000 ab 86 22 3f 7a 04 ca 3d ae 20 72 3f bb 9b d1 3d
       0.63486737 0.09864135 0.94581115 0.10234781
000010 a9 2d 9f be f4 e5 28 3f f4 1e 4f 3f bd f0 02 bd
       -0.31089523 0.6597588 0.80906606 -0.031967867
000020 81 16 ee be ec f5 24 bf 11 e7 2b 3d 91 fa e9 be
       -0.46501544 -0.64437747 0.04196841 -0.4569898
000030 48 67 8b 3f 4f d0 df 3e 49 11 96 3f d1 5b 14 3e
       1.0890894 0.43713614 1.1724025 0.1448815
000040 08 86 b0 3f 8a 4a 18 3f 26 e2 c6 3e 9b 94 33 3f
       1.3790903 0.5948874 0.38844413 0.7014863
000050 ab 81 0a 3e 3c d2 c4 3f 2f e3 74 3f 7f 25 3f be
       0.13526027 1.5376658 0.95659155 -0.18666647
000060 79 90 37 3d 78 ef 16 bf 3d 47 02 3f a1 ac 5e be
       0.044815514 -0.5895915 0.5088995 -0.2174554
000070 fc 12 13 3f 39 8d ba 3e 78 62 3b be 51 5d 15 3f
       0.5745084 0.3643587 -0.18299282 0.58345515
000080 2a ba ea be 06 80 31 3e 28 dd 9b be 80 e8 12 3f
       -0.45845157 0.17333993 -0.30442166 0.57386017
000090 75 f2 c1 3f d5 49 c9 bd a0 ce 03 3e 55 94 7a 3e
       1.5152117 -0.098285355 0.1287179 0.24470647
0000a0 cc cd 88 3c 03 d8 f1 be 1c 2a f2 be 3e de d3 3f
       0.016699694 -0.47235116 -0.47297752 1.6552198
0000b0 90 71 22 bf e2 dc e1 be a8 29 78 3e 47 64 72 3f
       -0.6345453 -0.44113833 0.2423464 0.9468426
0000c0 57 93 9e 3e b8 70 18 3f af 82 88 3e 54 6d af be
       0.30971786 0.59546995 0.26662204 -0.34263098
0000d0 20 9c 46 bf 30 8f 0f 3f 3c 4d 15 3e 03 9c 84 bd
       -0.7758198 0.5607786 0.14580244 -0.064750694
0000e0 2a b1 62 3f 20 c8 23 3f e0 59 ed be ee 80 cc 3d
       0.8855158 0.6397724 -0.46357632 0.09985529
0000f0 76 07 96 bf e0 6d ae bd b2 53 6e bf c1 58 29 3e
       -1.1721027 -0.08517051 -0.9309646 0.16537763

actor.2.weight f4 [64, 64]
000000 32 9e 16 3c f7 de 5f 3d fc c7 b3 be 1c b8 a0 3d
       0.00919299 0.054655995 -0.35113513 0.07847616
000010 06 ce dd bd d1 06 57 3f 8e 08 d6 be 9b 07 2d bf
       -0.108303115 0.83994776 -0.41803402 -0.6758973
000020 4c 22 bf be 11 a0 b3 3e 1f 8d af 3e 05 04 d4 3f
       -0.37330854 0.35083058 0.34287354 1.6563727
000030 30 a2 2e bf 98 b0 d9 bc b4 e0 a9 bc 62 9e a3 3e
       -0.6821623 -0.026573464 -0.02073703 0.31956774
000040 54 ac fd 3d 16 6f 99 bf d8 64 c7 bd e0 e0 af be
       0.123863846 -1.1987026 -0.09736031 -0.34351254
000050 5a 3c df be ac 6f bd be c8 0a a3 3e e1 90 ae 3c
       -0.43600732 -0.3699926 0.31844163 0.021309318
000060 44 c8 67 be df e2 6d 3f ed 73 7b bd 30 ca 94 be
       -0.22634989 0.929243 -0.061389852 -0.29060507
000070 29 ba 8a be 92 b4 1a 3f 8c 9b d7 be 75 f4 da be
       -0.27095154 0.6043178 -0.4211086 -0.4276463
000080 de ac 0b be 1f 65 37 bd 9d 0a 54 3e 0f 70 aa be
       -0.13640162 -0.04477417 0.20707174 -0.3328862
000090 84 2f 6c 3e f2 c5 dd bd fd 73 2a 3f 4e 95 84 bf
       0.23065001 -0.10828771 0.66583234 -1.0358064
0000a0 32 07 1f bf c2 d2 9a 3e 04 e3 44 be ce 3e 4f 3d
       -0.62120354 0.3023892 -0.19227225 0.050597005
0000b0 6c 92 75 be 59 40 2a 3e 3e b7 54 bf 72 3b 17 bf
       -0.23981637 0.16626109 -0.83092105 -0.5907508
0000c0 c2 4c fa 3d 77 49 bf be 22 a4 f6 be b5 ca df 3e
       0.12221672 -0.37360737 -0.48172098 0.4370934
0000d0 99 a7 74 bd 41 4a a4 be fd 12 11 3e af 4b 0f 3d
       -0.059730146 -0.320879 0.141674 0.034984287
0000e0 e3 09 b2 be d7 ed b4 3e c2 4b 94 3d a1 03 1c bf
       -0.34773168 0.35337707 0.07241012 -0.6094304
0000f0 71 ba d5 be d6 89 ea be 1e 7c 21 bf b9 8d b1 3d
       -0.41743806 -0.45808285 -0.6308001 0.086696096
000100 83 18 ee be a6 4d 02 bf 6f fe 2d be e8 7b c0 bd
       -0.46503076 -0.5089973 -0.1699159 -0.09398633
000110 31 eb 48 be 70 99 a3 be 86 75 75 be 23 72 c1 be
       -0.19620968 -0.31953 -0.23970613 -0.37782392
000120 66 1c d7 be 3c ae df bd f6 1f a3 3e be 7c d7 bd
       -0.42013854 -0.109219044 0.31860322 -0.105218396
000130 38 ae 25 3e da 40 c4 3d f7 7d 23 3f 3c b8 0e 3f
       0.1617974 0.09582682 0.6386408 0.5574987
000140 72 92 3f bf 7a ac f5 be d5 e6 0c 3d 28 eb 6d be
       -0.7483283 -0.47983152 0.034399826 -0.23234236
000150 fa ab a6 be 3a 67 24 bf 9d b2 fe 3d db 41 b3 be
       -0.32553083 -0.6422001 0.124364115 -0.3501118
000160 8a a6 11 bf ac 37 5e 3e f3 77 20 be 61 7c 4b be
       -0.56894743 0.21700925 -0.15670757 -0.19871666
000170 71 c3 23 bf 17 d5 6e be 66 03 6b be 44 b5 90 be
       -0.63970095 -0.23323475 -0.22950515 -0.28263295
000180 01 c0 2a be 3f ec c9 3e d7 2c 26 be 1d 09 98 be
       -0.16674806 0.39438054 -0.16228043 -0.29694453
000190 cd 80 ee be ad f9 37 be 82 cd e3 bc 9a bf d5 be
       -0.46582642 -0.17966338 -0.027807955 -0.41747743
0001a0 fd 07 1c be 41 b5 1f 3f c3 2b 68 3d a0 f8 fa be
       -0.15237422 0.62385947 0.05668236 -0.4901781
0001b0 7c 8f 51 be f1 e9 ed 3e dd 88 18 bf cf 6d 0c 3e
       -0.20464891 0.46467546 -0.59583837 0.13713764
0001c0 68 a9 4c 3e d1 46 71 bc 86 91 13 be 1a f0 86 3e
       0.19986498 -0.014726357 -0.14410982 0.26355058
0001d0 c6 f7 ab 3e e0 61 55 be a3 fb d2 3e 1b 27 8e 3e
       0.33587474 -0.20838118 0.4120761 0.2776421
0001e0 c9 dc d4 be 70 5d aa 3e eb ab 98 be 96 fd 0d be
       -0.41574696 0.33274412 -0.29818663 -0.13866267
0001f0 da 59 83 3e fe d7 16 be 3c d0 a9 3e 5a 35 06 3e
       0.2565449 -0.14730832 0.33166683 0.1310629
000200 50 9e f4 bc 6a 47 4b 3e b4 44 83 bd 23 9d 8f be
       -0.029860646 0.19851461 -0.064095885 -0.28049573
000210 9c 84 df be ab ac 20 40 38 fc 1c 3d 58 ed 8c bd
       -0.4365586 2.5105388 0.038326472 -0.06881207
000220 30 ea ba 3d f9 38 5e 3e dc 61 34 3e 95 fc 12 40
       0.09126699 0.21701421 0.17615455 2.2966664
000230 1b c9 36 bf 85 c3 14 3e 87 0d 87 3e 6c b1 12 bf
       -0.7140061 0.1452771 0.26377508 -0.57301974
000240 37 ac 48 3f a2 6a 11 bf 86 cd 6b 3f 25 87 a3 be
       0.7838778 -0.56803334 0.9211048 -0.31939045
000250 ec a4 5c be ba 60 12 3f b5 e2 92 3d ee 8e 29 bf
       -0.21547288 0.57178843 0.07172147 -0.6623372
000260 0c 81 0d bd c7 ad f5 be cb 6e 8f 3e 27 33 16 be
       -0.034546897 -0.47984144 0.28014216 -0.1466795
000270 9d 72 31 3f e1 0b a2 3d 89 55 17 bf aa f3 9e be
       0.6931551 0.07912422 -0.5911489 -0.31045276
000280 92 e8 ec 3e 5f 1c 1e be 6a b6 91 3d d1 1d c8 be
       0.46271187 -0.1544051 0.07114871 -0.39085248
000290 45 e6 0b 3f bd 84 87 be 7f 72 a5 be 0b 5e e7 be
       0.5464824 -0.2646846 -0.32313916 -0.45188937
0002a0 33 0c 53 bd 86 81 56 3e 35 b8 1a bf 2a 10 0c 3f
       -0.051525306 0.20947847 -0.6043733 0.54712164
0002b0 b8 3c a9 be 53 a3 ef 3d 6a b9 d9 be 4b 3d a6 be
       -0.33054137 0.117010735 -0.42524272 -0.32468638
0002c0 a0 f5 08 3f 7f e0 64 be 86 6c 33 3e 33 db 4f 3e
       0.53499794 -0.22351263 0.17521867 0.20298462
0002d0 5e cf 6e be 50 2e 57 be 60 a2 ae 3e 3d 72 2b 3e
       -0.23321292 -0.2101376 0.34108257 0.16742797
0002e0 1e 26 3f 3f 89 8a 6b 3d 3a 54 2d 3e 97 ea a9 bd
       0.7466754 0.057505164 0.16926661 -0.082966976
0002f0 ed 41 af 3c 6b c8 25 3d a7 e7 62 bf f5 9b 4e 3e
       0.02139374 0.040474337 -0.88634723 0.2017668
000300 76 c2 ad 3d 78 86 a8 3d d4 22 a2 3e 6b d4 1a 3e
       0.08484356 0.08228773 0.31667197 0.15120094
000310 8c 44 56 be 3a 95 2a be 08 e9 26 be 62 52 67 3e
       -0.20924586 -0.16658488 -0.16299832 0.2259002
000320 e9 f6 7c 3e 9e 4f 1f be d1 9d b2 3d b3 09 24 3e
       0.24703564 -0.15557715 0.08721507 0.16019325
000330 d4 1e 4a be fd ea 0b bf 65 9a 96 3e e1 87 f0 be
       -0.19738322 -0.5465544 0.2941467 -0.46978667
000340 3a 77 91 bd 54 79 e3 3d 6f 3e 08 3d c8 18 05 bd
       -0.07102819 0.11107126 0.033262666 -0.032494336
000350 f3 ac 34 3e 68 41 38 be c5 8d c1 3d f5 c1 0d be
       0.176441 -0.179937 0.094508685 -0.1384352
000360 fb 97 33 3f 8d 08 50 be 6d de 79 be 0f 58 71 3e
       0.7015378 -0.20315762 -0.24401255 0.23568748
000370 e3 0b be 3e ac 61 34 be 32 bc 8f be de ac 65 3e
       0.37118444 -0.17615384 -0.2807327 0.22429225
000380 1a 83 62 3d df 0c 3e be 67 61 b5 3d 03 1c b6 bb
       0.05530081 -0.18559597 0.08856469 -0.0055575385
000390 a1 5c 18 3d e9 e7 21 3e a0 a6 eb 3d 44 d3 7b 3d
       0.037197713 0.15811123 0.115063906 0.061480775
0003a0 cb e8 be 3e ab 57 a6 be 60 c6 a7 3c c1 08 e7 3e
       0.37286982 -0.3248876 0.020480335 0.45123866
0003b0 71 53 1a be 57 60 db 3d f9 e8 51 bd 72 87 3b 3f
       -0.15070893 0.10711735 -0.05124757 0.7325355
0003c0 48 a8 9c be ba b5 e3 3e 55 7c c2 be ec fc d6 3d
       -0.30597138 0.44474584 -0.37985483 0.1049746
0003d0 08 de 8c 3e fc 8a 60 3e 7a 84 dd 3e 45 59 03 3e
       0.27513146 0.21928018 0.43265134 0.12827022
0003e0 1d 17 30 be ee 4c 7d 3e 3a d6 bf 3d 92 a0 1e 3d
       -0.17196317 0.24736378 0.09367032 0.03872735
0003f0 33 f8 a6 be 09 1d 46 3b bc 1c 36 3d 08 fb 12 bc
       -0.32611236 0.0030229709 0.044460997 -0.008970983

actor.2.bias f4 [64]
000000 35 ad 87 be 8e 59 54 be 13 1b 5d be 8c 6e 28 3e
       -0.26499334 -0.20737287 -0.21592359 0.1644842
000010 9f 14 9e 3e ae 00 99 bb f5 c5 31 be 98 5c d2 be
       0.30875108 -0.0046692705 -0.17360671 -0.41086268
000020 fb e6 0f 3e d5 56 10 3d aa 15 b0 bd 8a 8e b5 bc
       0.14052956 0.03523906 -0.08597882 -0.022162694
000030 45 fe 31 bd 09 79 6f be c4 83 2f be 0c bd 02 3d
       -0.04345538 -0.23386015 -0.17140108 0.03191857
000040 74 02 13 3e bc 02 a0 be ee 6f 28 3e 09 76 ec 3d
       0.14356405 -0.31252086 0.16448948 0.11545951
000050 f5 2b a1 be 3a 8b ba 3e db 13 52 be 94 5d e3 bc
       -0.3147885 0.36434346 -0.20515387 -0.027754582
000060 1e 78 d2 3c 17 a1 df be 03 e4 02 bd b7 1e e5 bd
       0.025692042 -0.4367759 -0.03195573 -0.11187499
000070 82 4e 66 3e 0f b5 02 bf 3e 53 5e 3e dc 2b b0 be
       0.22490886 -0.51057523 0.21711442 -0.34408462
000080 88 bf ed be ce e0 51 3e e1 82 db be f1 02 ca be
       -0.4643519 0.20495912 -0.4287329 -0.3945537
000090 a2 21 3e 3e c3 fb 05 3e 03 27 7f be 8a 44 35 3c
       0.18567517 0.1308432 -0.24917226 0.011063704
0000a0 52 65 db bd b2 86 e3 3d 5d 2c 2c 3d ff a1 1d 3e
       -0.10712685 0.111096755 0.042034496 0.15393828
0000b0 7f 3a 6f be a8 1a b6 be 81 c9 c8 3e 71 53 4c bd
       -0.23362158 -0.35567212 0.39216235 -0.049884263
0000c0 15 87 be 3d 5e 72 0c 3e 42 1d a8 3c 1b 4c 94 be
       0.093031086 0.13715503 0.020521764 -0.28964314
0000d0 9a ae e2 3e 65 a3 0c bf 96 60 97 3d ca d4 dc 3e
       0.44273835 -0.5493682 0.07391469 0.43131095
0000e0 e1 a7 06 3e e6 45 c1 be c6 c8 eb 3e 4a 50 6b be
       0.13149978 -0.3774864 0.46051615 -0.22979847
0000f0 1f 65 4d bb 22 b3 7c 3e c2 9a df be 0c 84 d3 be
       -0.003134079 0.24677709 -0.43672758 -0.4131168

actor.4.weight f4 [3, 64]
000000 ae d5 a3 3e 5d cb 09 be b7 c7 1b 3f 98 aa 2d be
       0.31998962 -0.13456483 0.60851616 -0.16959608
000010 40 26 14 3e d7 f7 d6 be f1 e7 bd bd 7e 45 a3 bd
       0.14467716 -0.41985962 -0.09272755 -0.07972239
000020 71 c5 14 3f 08 83 06 be a6 03 bc be a1 66 1f be
       0.5811377 -0.13135922 -0.36721534 -0.15566494
000030 c9 18 15 bf 74 90 1c bd 4e 19 eb be 21 7a 32 bf
       -0.58240944 -0.0382237 -0.45917743 -0.69717604
000040 3e e9 ef 3e 4e 79 04 bf 12 f2 d7 3c f2 f6 89 bd
       0.46857637 -0.51747596 0.026360545 -0.06736554
000050 dc e8 71 3e 48 17 ab 3e 29 d0 f3 bd 90 24 89 3d
       0.23623985 0.334162 -0.11904938 0.06696427
000060 fc 57 a9 3e 50 f6 a4 bc c7 6b 01 3f 1a b1 13 bf
       0.3307494 -0.020136982 0.5055508 -0.5769211
000070 42 a1 29 3e f9 fc 59 bc e4 d8 8b be 61 41 86 be
       0.16565421 -0.013304942 -0.27313912 -0.26221755
000080 60 fb 1c be 5c fd 31 bd a3 d6 d6 bd 39 ed e6 bc
       -0.15330267 -0.043454513 -0.104901575 -0.028189288
000090 23 23 f6 bd a8 d2 23 bd 51 4b bb be 3a 19 52 bf
       -0.120184205 -0.03999582 -0.365809 -0.8206974
0000a0 d2 cb a4 be b2 71 1c bd e8 6e d5 be 4a 4c 46 3f
       -0.32186753 -0.038194366 -0.41686177 0.7746016
0000b0 c2 97 7e 3e 62 f4 e4 bd 73 a7 1c 3e 2d c1 a9 3c
       0.24862579 -0.11179425 0.15298252 0.020721996
0000c0 43 06 51 3d 55 2e 82 b9 86 3a 46 bf 5e 37 09 3f
       0.051031362 -0.00024830052 -0.7743305 0.5360011
0000d0 20 28 06 be 0a 7e 0e bd 07 f8 ef be 50 57 9e 3f
       -0.13101244 -0.03478817 -0.46868917 1.2370396
0000e0 b6 e5 0e be e7 a6 9a bc 71 fb e9 3d 73 f7 db be
       -0.13954815 -0.018878413 0.11424912 -0.42962226
0000f0 73 d9 08 3e 87 63 69 bc 76 42 3b be e9 df 3a bd
       0.133642 -0.014244921 -0.18287072 -0.045623694
000100 60 06 6b be ff 96 55 3e b2 c7 ea be a0 60 ca 3d
       -0.2295165 0.20858382 -0.4585548 0.09881711
000110 76 76 d7 3b c9 6b 69 3e 02 d5 1c 3d f1 d3 2c bd
       0.006575401 0.22795023 0.038289078 -0.04219431
000120 00 9e d0 be 5e 0c bb bd b9 2a d3 3e f1 05 cb 3d
       -0.40745544 -0.09133218 0.41243532 0.099132426
000130 cf ab 34 3f 89 99 26 be b2 54 ae 3e ae 49 4a 3f
       0.7057466 -0.16269507 0.34048992 0.79018676
000140 5c 8a 4b bf 3c 1c 15 3f c0 6a 08 be b4 ee ba 3e
       -0.79507995 0.5824621 -0.13321972 0.3651024
000150 22 67 a2 be ed 96 6b be 19 84 87 be 74 66 a0 bd
       -0.3171931 -0.23006792 -0.2646797 -0.078320414
000160 13 fc 9d be 3c f8 3c bd da 2f 28 bf c9 3d 53 3e
       -0.3085638 -0.046135172 -0.65698016 0.20629038
000170 af 02 ea be 59 8e 51 bd dc 8b 34 3e d5 9e f7 3d
       -0.45705172 -0.051161144 0.17631477 0.12090842
000180 6d d9 75 bb 78 cb 57 3f 55 b7 80 3e 88 8b 6f bd
       -0.003751363 0.84294844 0.2513987 -0.058482677
000190 ad 99 88 bc 26 47 99 ba 97 12 aa 3e 3a 19 d9 3e
       -0.01667484 -0.0011694178 0.33217308 0.4240206
0001a0 34 58 05 3d e7 2d 8e 3d 59 28 c0 3e 76 25 04 bf
       0.03255482 0.06942349 0.37530783 -0.5161966
0001b0 2d b7 69 bf ff aa ef 3d 78 6f e9 3d 00 24 0f 3d
       -0.9129513 0.11702537 0.11398214 0.03494644
0001c0 44 8d a5 3d aa 24 ec bc b9 02 1b 3f f8 3c 88 be
       0.08083585 -0.028826077 0.6055103 -0.26609015
0001d0 3d f5 41 3e 37 8d c2 bc 2f 58 98 3e 6b 4b 7a bf
       0.18941207 -0.023748977 0.2975478 -0.9777133
0001e0 9b 90 7c 3c 1f 77 00 3d ea 8d 1a 3d 90 eb 09 3f
       0.015415336 0.031363603 0.037732996 0.53875065
0001f0 21 11 60 3e df 88 c7 bc a2 55 93 bd da 15 4d 3d
       0.21881534 -0.024357257 -0.071940675 0.050069667
000200 06 67 0f be 6c 1a 51 be 64 e1 15 be 49 b0 8f bc
       -0.14004144 -0.20420235 -0.14636761 -0.017540114
000210 a6 63 76 bc f9 e8 96 be 40 b6 5d bd a3 0c 89 bc
       -0.0150384065 -0.2947462 -0.054128885 -0.016729658
000220 eb 74 8f 3d a1 2f b1 3d f6 1e 4e be 35 5c bb bd
       0.07004722 0.086516626 -0.20128998 -0.091484465
000230 a2 43 b0 be f0 88 4f be 47 f3 aa 3b e5 9b 80 3e
       -0.344266 -0.20267081 0.005216989 0.25118938
000240 45 51 1f 3e b0 fe f0 bd 6c 6c 41 3e 6e e6 b4 be
       0.15558346 -0.11767328 0.18889016 -0.35332054
000250 01 83 b7 bc bf 80 77 3d cf 68 7a 3e cd 46 96 3d
       -0.022401335 0.060425516 0.24454044 0.07337723
000260 77 c6 97 3e 4e ae 7f bd 84 e4 1c 3e de 03 b5 3e
       0.29643604 -0.06242209 0.15321547 0.35354513
000270 0d d0 ec 3c 2c b9 69 bd 45 73 b3 3e b5 ef 60 3a
       0.0289078 -0.05706136 0.3504888 0.0008580641
000280 c9 75 fb 3c 86 c8 14 bf 8d 94 86 be 7f 5a 13 bd
       0.030695813 -0.58118474 -0.2628521 -0.035974976
000290 dd 03 53 3e d2 67 3b 3e 62 25 17 be 31 39 d8 3d
       0.20606942 0.18301323 -0.14760354 0.105577834
0002a0 f4 f9 cf 3e d1 48 d5 be 5a c8 9b 3e 97 17 b0 be
       0.40620387 -0.41657117 0.30426294 -0.34392998
0002b0 71 40 e1 3e 7f db 57 be 9c ee 00 be 52 14 c8 be
       0.43994477 -0.21079825 -0.12591022 -0.39078003
0002c0 be ed 61 bd 1b df 0e 3e f8 00 93 3e 50 b2 37 bd
       -0.05515837 0.13952295 0.28711677 -0.044847786
0002d0 c1 4e d4 3d df c7 9d bd 42 46 a0 3e c8 77 02 3e
       0.103665836 -0.07704138 0.31303602 0.12741005
0002e0 c0 db 8d 3d b5 b0 ea bd ef 12 e2 bc 83 8b 5e be
       0.069266796 -0.114594854 -0.027596919 -0.21732907
0002f0 50 bb 51 be d0 ab 05 3e 01 ac 0e 3e cc 8f 20 be
       -0.2048161 0.13053823 0.13932802 -0.15679854

actor.4.bias f4 [3]
000000 d5 62 e9 3c af 90 f9 3c d1 20 98 3d
       0.02848951 0.030464498 0.07428134
