Upload/src/Catcher_Flappy_Continuous/wandb/Catcher/run_inacc_state_inacc_r/files/agent_inacc_state_inacc_r.pt (torch, 39873 bytes, 11 tensors)

critic.0.weight f4 [64, 3]
0	0x3f332a6c	0.69986606
1	0x3f454742	0.77061856
2	0x3d4c0b86	0.049815677
3	0x3f6dc154	0.9287312
4	0x3f4c6f39	0.7985721
5	0x3d465725	0.04842295
6	0x3e9ecbc5	0.3101484
7	0xbeaf2cc9	-0.34213856
8	0x3d9baa1e	0.07600807
9	0x3f1076b3	0.5643112
10	0x3f09d206	0.53836095
11	0x3d86a594	0.0657455
12	0xbe0537e3	-0.130096
13	0x3f459209	0.77175957
14	0xbf11a436	-0.5689119
15	0xbf7a4f7a	-0.9777752
16	0xbf6accd5	-0.917188
17	0x3e674460	0.22584677
18	0xbe9b7a77	-0.3036687
19	0xbf1ab3d3	-0.6043064
20	0xbd73513c	-0.059403643
21	0x3d9ba3b2	0.07599582
22	0xbda436f1	-0.08018292
23	0x3dd18249	0.10229928
24	0xbef630e9	-0.4808419
25	0xbf9bb5c9	-1.2164851
26	0x3e298390	0.16554093
27	0x3f17eae3	0.59342784
28	0x3ed8fa92	0.4237867
29	0xbe8ac39a	-0.27102357
30	0xbe1d27d8	-0.1534723
31	0xbe195a03	-0.14975743
32	0xbde63516	-0.11240594
33	0xbed5da62	-0.41768175
34	0xbee36fc1	-0.444212
35	0xbd658d20	-0.05604279
36	0xbeeee1bf	-0.46656606
37	0xbefd1f84	-0.49438107
38	0xbd5e40f7	-0.054261174
39	0xbca4a582	-0.020098452
40	0x3e755e7c	0.23961824
41	0xbeb32973	-0.3499256
42	0x3f50e9d6	0.81606805
43	0x3f645aab	0.8920085
44	0x3d13f62b	0.036123436
45	0x3ee17aca	0.44038993
46	0x3efb937a	0.49135953
47	0x3d60207c	0.05471848
48	0x3ef5444f	0.47903678
49	0x3edc0b5d	0.4297742
50	0x3d4e7917	0.05040845
51	0x3f83b94d	1.0290924
52	0x3f83e686	1.0304725
53	0x3d81c82c	0.06337008
54	0xbe7c7bb0	-0.24656558
55	0xbece039b	-0.40237126
56	0x3d4d7524	0.050160542
57	0x3f11b0e0	0.56910515
58	0x3f482860	0.7818661
59	0xbe232b1b	-0.15934412
60	0x3e49c140	0.19702625
61	0xbe217e05	-0.15770729
62	0xbbf4be5d	-0.007468982
63	0xbf259598	-0.64681387
64	0xbedb8e41	-0.4288197
65	0xbd5f3391	-0.054492537
66	0x3e206c8f	0.15666412
67	0x3f2fe52c	0.68709064
68	0x3d7086ce	0.05872231
69	0x3f81da37	1.0144719
70	0x3f2532bb	0.64530534
71	0xbd70247b	-0.05862854
72	0x3ed90fad	0.42394772
73	0x3f4e9195	0.8069089
74	0x3d4cede1	0.050031547
75	0xbf0179a8	-0.5057626
76	0xbf08724e	-0.53299415
77	0xbd65c712	-0.05609805
78	0xbed6e628	-0.4197247
79	0x3f5363c1	0.8257409
80	0x3c7b2805	0.015329366
81	0xbd995c90	-0.07488358
82	0xbfcd268f	-1.6027392
83	0x3e1c8bbf	0.15287684
84	0x3f505cb2	0.8139144
85	0x3eea0ca5	0.45712772
86	0x3e1c75b3	0.15279274
87	0x3dc9051f	0.0981543
88	0xbf874826	-1.0568893
89	0xbda4ee24	-0.08053234
90	0x3ec4c4d7	0.38431427
91	0x3d9b7b00	0.0759182
92	0x3a8d2185	0.0010767436
93	0x3e986480	0.29764175
94	0xbcb63e40	-0.02224648
95	0xbf175c35	-0.5912507
96	0xbe2f472b	-0.17116992
97	0x3fd34169	1.6504337
98	0xbd81c9dd	-0.063373305
99	0xbf78c19a	-0.9717041
100	0xbf2b3246	-0.66873586
101	0xbd5daf1e	-0.054122083
102	0x3f1427b0	0.5787306
103	0x3ecc4382	0.39895254
104	0x3d834645	0.06409887
105	0xbe374497	-0.17897259
106	0xbf142284	-0.57865167
107	0xbd7c2639	-0.06155989
108	0xbd21d716	-0.039511763
109	0xbe17790b	-0.14792268
110	0x3e509050	0.20367551
111	0xbe15372d	-0.14571829
112	0x3e025363	0.12727122
113	0x3cfeb207	0.03109075
114	0xbdcc80a6	-0.09985475
115	0xbf4e4d4a	-0.80586684
116	0x3e751017	0.23931919
117	0x3f198180	0.59963226
118	0x3f17a6a7	0.59238666
119	0xbe0d82c9	-0.13819422
120	0x3f0f3cfe	0.5595244
121	0x3ecf0043	0.40429887
122	0x3d5d13c9	0.053973947
123	0x3e55e05f	0.20886372
124	0xbe05fbbe	-0.13084313
125	0x3b74c940	0.00373514
126	0xbb2dfa52	-0.0026546908
127	0x3b7ec3b9	0.0038873984
128	0xbdd4b96c	-0.10386929
129	0x3f3609a9	0.7110849
130	0xbf1ee700	-0.6207123
131	0xbd66f9d4	-0.0563906
132	0x3f158658	0.5840812
133	0xbf23368d	-0.6375511
134	0xbcfda6c8	-0.030963317
135	0x3f50ef3d	0.8161505
136	0x3f3880f0	0.72071743
137	0x3d6c0b17	0.057627764
138	0x3eb0991a	0.34491807
139	0x3ef3ad2e	0.47593063
140	0x3d7061f9	0.058687184
141	0x3e3021f9	0.1720046
142	0xbe30d289	-0.17267813
143	0x3c4800ed	0.012207252
144	0xbd923ec7	-0.0714088
145	0xbf40605d	-0.7514704
146	0x3dc3481c	0.09535238
147	0xbe9500e8	-0.29102254
148	0xbf007ffb	-0.5019528
149	0xbd6ba768	-0.057532698
150	0xbf4efe35	-0.8085664
151	0xbf776dab	-0.96651715
152	0x3d4be1bd	0.049775828
153	0x3ee3f3af	0.44521853
154	0x3f092c50	0.5358324
155	0x3d3d3a34	0.046198085
156	0xbee7df4e	-0.45287555
157	0x3eea3ebf	0.45750996
158	0xbc600ae5	-0.013674472
159	0xbf05e402	-0.5230104
160	0xbf93b690	-1.1540089
161	0x3df9c0b8	0.12194961
162	0x3e92614c	0.28589857
163	0x3eeff0df	0.46863458
164	0x3d636241	0.055513624
165	0xbed1f1a2	-0.41004664
166	0xbf0b47f2	-0.54406655
167	0xbd275bed	-0.04085915
168	0xbed5e0af	-0.41772982
169	0xbf1d569e	-0.6146029
170	0xbd6148bd	-0.05500101
171	0x3f5a347d	0.8523634
172	0x3f1c47c2	0.61046994
173	0x3d664f85	0.05622818
174	0x3ec58f43	0.38585863
175	0x3f38d93b	0.7220647
176	0x3d7359f4	0.059411958
177	0x3f38a7c4	0.7213099
178	0x3eef7503	0.4676896
179	0x3d3026de	0.043005817
180	0xbd0abf9a	-0.03387413
181	0xbd8711f5	-0.06595222
182	0x3ccf8651	0.025332602
183	0x3f0b71cd	0.5447052
184	0x3f7c3d48	0.9853101
185	0x3e400a9b	0.18754046
186	0xbdfe47bd	-0.12416027
187	0xbedcc8fb	-0.43122086
188	0xbd2934cb	-0.041310113
189	0xbdd95c6d	-0.10613332
190	0x3d3dbbcb	0.04632167
191	0xbdf65d7e	-0.12029551

critic.0.bias f4 [64]
0	0x3fc81599	1.5631591
1	0x3f951925	1.1648299
2	0x3ec67f14	0.38768828
3	0x3f507234	0.8142426
4	0x3dd018ee	0.10161005
5	0xbf855d80	-1.0419159
6	0xbf9dbb30	-1.232275
7	0xc079a512	-3.9007
8	0xbeb30c50	-0.3497033
9	0x3f695f6c	0.9116123
10	0x40448ce0	3.0710983
11	0xbfc08e1f	-1.5043372
12	0xbfa7375e	-1.3063772
13	0x3f721b7f	0.94573206
14	0x3e8b2340	0.2717533
15	0x3fbdf81b	1.4841341
16	0x3fa3ed4e	1.2806795
17	0x3ed1156e	0.40836662
18	0xbfb9a545	-1.4503561
19	0x3f3e8c3c	0.7443273
20	0x3fe3b51d	1.7789646
21	0xbfa65201	-1.2993776
22	0x3eb4dd9f	0.35325333
23	0x3f822905	1.0168768
24	0x3e8223ca	0.2541793
25	0xbfb9c1bb	-1.4512247
26	0x3ff80f8c	1.9379745
27	0x3f0e34aa	0.5554911
28	0x3f655ea0	0.8959751
29	0x3fd21d2b	1.6415151
30	0xbf5af50b	-0.85530156
31	0xbf9901dc	-1.1953692
32	0xbf4e8eda	-0.80686724
33	0xbf9f58da	-1.244899
34	0x3fb300a4	1.398457
35	0xbfa0ce67	-1.2562989
36	0x402828d1	2.6274912
37	0x409f9693	4.9871306
38	0xbf7b4da9	-0.98165375
39	0x40133caa	2.3005776
40	0x3f923f54	1.1425576
41	0x4052c966	3.2935424
42	0x409f0e9a	4.9705324
43	0x3e0e7c9d	0.13914724
44	0xbf46119c	-0.7737062
45	0x3f8463e3	1.0342983
46	0x3faa3f52	1.3300574
47	0xc03563db	-2.8342197
48	0xbf507276	-0.81424654
49	0xbfa13e6c	-1.2597175
50	0x3f51aa86	0.81900823
51	0x3fbff2c7	1.4995965
52	0xbfc5358a	-1.5406964
53	0xbfe7f5e1	-1.8121911
54	0x3fbd1507	1.4772042
55	0xbf6d4c14	-0.9269421
56	0xbfc42770	-1.5324535
57	0x3f8c0bc3	1.0941089
58	0x3fa29dfb	1.2704462
59	0x3fb83d05	1.4393622
60	0x40a1de3d	5.0583787
61	0x3f11598a	0.5677725
62	0xbfa8db70	-1.3191967
63	0x406e569d	3.7240365

critic.2.weight f4 [64, 64]
0	0xbde4b548	-0.11167389
1	0xbd7da3be	-0.061923735
2	0xbd3b496e	-0.045724325
3	0xbe264163	-0.1623588
4	0x3e4cd6f8	0.20003879
5	0x3ee5cb21	0.44881538
6	0x3da86929	0.08223183
7	0x3ecf7fd8	0.40527225
8	0xbd53f194	-0.05174406
9	0xbe91e926	-0.2849819
10	0x3f27cf61	0.6555081
11	0x3e653f2e	0.22387382
12	0x3e4fe84c	0.20303458
13	0xbe341150	-0.17584729
14	0x3b535732	0.0032248017
15	0xbee382fc	-0.4443587
16	0xbe778965	-0.24173506
17	0x3d83b08c	0.06430158
18	0x3e7d54c1	0.24739362
19	0xbdd032ea	-0.10165961
20	0xbd40c7c0	-0.047065496
21	0x3ec8f29c	0.39247596
22	0xbe90186e	-0.28143638
23	0xba99a909	-0.001172335
24	0xbe79161c	-0.2432484
25	0xbd6d0d33	-0.057873916
26	0xbe3b3f2e	-0.1828582
27	0xbd72c20e	-0.059267096
28	0xbd9c4d2e	-0.07631908
29	0x3d1b83db	0.037967544
30	0xbed2c7e6	-0.41168135
31	0xbd0e888c	-0.03479819
32	0xbd3d81fc	-0.04626654
33	0x3e8a9aa8	0.27071118
34	0xbeb6719a	-0.35633546
35	0x3e90528d	0.2818798
36	0x3c66033b	0.014038856
37	0x3d34dc4d	0.044155408
38	0x3eed68e6	0.46369094
39	0xbe04e087	-0.12976275
40	0xbecb9966	-0.3976547
41	0x3e3e97d3	0.18612604
42	0xbeadff91	-0.33984044
43	0x3d17b0b3	0.037033748
44	0xbd5d4603	-0.054021847
45	0xbea22761	-0.3167067
46	0xbeb27d0d	-0.3486103
47	0x3eb11059	0.34582785
48	0x3c99eb50	0.018788964
49	0x3e10717c	0.14105791
50	0xbe279e1d	-0.16368909
51	0x3d55f581	0.052236084
52	0x3e8c646b	0.27420363
53	0x3cb80246	0.022462022
54	0xbecf68d1	-0.40509656
55	0x3cfc48e6	0.03079648
56	0x3ec29cfa	0.3801039
57	0xbe332cc8	-0.17497551
58	0xbe777dfb	-0.24169151
59	0xbeeb7730	-0.4598937
60	0x3e541cbc	0.20714086
61	0xbf1cdc03	-0.6127321
62	0x3e8665cf	0.2624955
63	0x3e076624	0.13222557
64	0x3e974928	0.29548
65	0x3e4a1db5	0.19737895
66	0x3df96b09	0.121786185
67	0x3eba519a	0.36390382
68	0x3e8524ac	0.2600454
69	0xbd7f7a6a	-0.062372603
70	0xbebc9b77	-0.3683736
71	0xbddd6def	-0.10811984
72	0xbedcb1dc	-0.43104446
73	0x3e45c65b	0.19313948
74	0xbe220c17	-0.15824924
75	0xbe58580d	-0.21127339
76	0xbce27eb1	-0.027648302
77	0x3edb3595	0.42814317
78	0x3e3523e3	0.17689471
79	0x3e1f4436	0.15553364
80	0x3d56a935	0.052407462
81	0x3cda945d	0.026682073
82	0xbe73dd2e	-0.23814842
83	0x3e437f52	0.19091538
84	0xbe906985	-0.28205505
85	0xbeb29a3e	-0.34883302
86	0x3ea28a52	0.31746155
87	0x3d19a0ab	0.03750674
88	0xbe20778f	-0.15670608
89	0xbf0ed160	-0.5578823
90	0xbdc72b86	-0.09725098
91	0xbe3c30b9	-0.18377961
92	0x3e023dbc	0.12718862
93	0xbe9fddd0	-0.31223917
94	0x3e13631d	0.14393277
95	0x3e408f42	0.18804649
96	0x3ea53bdc	0.32272232
97	0xbe8f36df	-0.2797155
98	0x3e13f5a8	0.14449179
99	0xbe88125e	-0.26576513
100	0xbe01f63f	-0.12691592
101	0xbe5ab697	-0.21358715
102	0xbe3ce844	-0.18447977
103	0xbe529319	-0.20563926
104	0x3ec942c4	0.3930875
105	0xbebc1f33	-0.36742553
106	0x3c507f0e	0.012725605
107	0x3d9ac4f8	0.075571
108	0xbe7712a4	-0.24128205
109	0x3ec6b018	0.38806224
110	0x3d818734	0.06324616
111	0xbe28d128	-0.16486037
112	0xbe8b7dbc	-0.27244365
113	0xbdc71f63	-0.097227834
114	0x3e65c257	0.22437416
115	0x3ec6c73c	0.3882388
116	0xbe95a293	-0.29225597
117	0xbe1c5494	-0.15266639
118	0x3e96661c	0.29374778
119	0xbe0e6461	-0.13905479
120	0xbe2cee22	-0.16887715
121	0x3f21fe7f	0.63278955
122	0x3f07e66a	0.5308596
123	0x3e695051	0.22784545
124	0x3c39eeb7	0.011348418
125	0x3f07e2e4	0.5308058
126	0xbe8bfd6c	-0.27341783
127	0xbcec71e8	-0.028862908
128	0xbe4ad8ab	-0.19809215
129	0xbdb59805	-0.08866886
130	0x3e0c5fc9	0.13708414
131	0xbe57a6e8	-0.21059763
132	0xbdf3783e	-0.11888169
133	0x3e5d5bf4	0.21617109
134	0x3e704e91	0.2346747
135	0x3e5d59ef	0.21616338
136	0x3f093078	0.5358958
137	0xbea575f9	-0.32316568
138	0x3ebb7045	0.36609092
139	0x3e13b595	0.14424737
140	0x3ecc723a	0.39930898
141	0xbea7d55e	-0.32779974
142	0xbe71d34f	-0.23615764
143	0xbea12a4f	-0.3147759
144	0xbe71edac	-0.23625821
145	0xbdefe7bf	-0.11714124
146	0x3e63f5cc	0.22261733
147	0xbe346dfe	-0.17620084
148	0xbea316a4	-0.3185321
149	0x3ed10a4b	0.40828165
150	0xbdb02a8b	-0.086018644
151	0x3e06e390	0.13172746
152	0xbe9b19b8	-0.3029306
153	0x3e8782c6	0.2646696
154	0xbcf71a09	-0.030163782
155	0x3d93f3f2	0.07224263
156	0xbe3ae727	-0.1825224
157	0x3cb3afa8	0.021934345
158	0xbe3660c7	-0.17810355
159	0xbef6707f	-0.48132703
160	0xbe5fe94c	-0.2186634
161	0x3e2f4a1f	0.17118119
162	0xbec60559	-0.38675955
163	0x3f255379	0.64580494
164	0xbea1b3d1	-0.31582502
165	0x3e9cfc68	0.3066132
166	0xbddd539d	-0.108069636
167	0xbcf42718	-0.029803798
168	0xbdf3a123	-0.11895969
169	0xbe4d9255	-0.20075352
170	0x3dcfc522	0.10145022
171	0x3cc4d5e1	0.024027767
172	0x3e73a845	0.23794658
173	0xbe93a1b1	-0.28834298
174	0xbe228d6f	-0.15874265
175	0xbed91157	-0.42396042
176	0x3dec5b06	0.11540799
177	0x3ed9a37a	0.42507535
178	0xbda33cf2	-0.07970609
179	0xbeea6e20	-0.45787144
180	0x3e1c1fe5	0.15246542
181	0x3e5f4b35	0.21806033
182	0xbec11dbc	-0.37717998
183	0x3e409174	0.18805486
184	0x3e64e3e8	0.22352564
185	0xbcb28d35	-0.021795848
186	0xbe5c3b8b	-0.21507089
187	0xbeb74b9f	-0.35799882
188	0x3dd03cd5	0.10167853
189	0xbebf3a53	-0.37349185
190	0x3f158072	0.58399117
191	0x3dc84edb	0.097806655
192	0x3f19b887	0.6004719
193	0x3e961c07	0.29318258
194	0xbdbb90b2	-0.09158458
195	0x3dc914cb	0.09818419
196	0x3d39f80e	0.04540258
197	0xbef31595	-0.47477403
198	0xbe4c31ed	-0.1994092
199	0xbeab26f2	-0.3342815
200	0xbe9e3e99	-0.30907133
201	0xbe58dd1d	-0.21178098
202	0xbea3bdf8	-0.31980872
203	0xbec5d7cb	-0.386412
204	0xbec4c8e9	-0.38434532
205	0x3dfb0ed7	0.1225869
206	0x3e6a717e	0.22894856
207	0x3e7d1a15	0.24716981
208	0x3eb0e1f1	0.3454738
209	0x3d5be937	0.053689208
210	0xbe8baec2	-0.27281767
211	0x3e81b339	0.2533205
212	0xbe5a5789	-0.21322455
213	0xbe051dea	-0.12999693
214	0x3d986bf8	0.074424684
215	0x3e7f2635	0.24916919
216	0x3e32ca9f	0.17460106
217	0xbd6f49e4	-0.058420077
218	0x3ebe6dfe	0.37193292
219	0xbe66d338	-0.22541511
220	0x3d2b15cf	0.041768845
221	0xbeba26bf	-0.36357686
222	0xbd9d741f	-0.07688164
223	0x3e5da09c	0.21643299
224	0x3ec97ae0	0.3935156
225	0xbe8cfa9f	-0.2753496
226	0x3e9d70b7	0.30750057
227	0xbe074d6a	-0.13213125
228	0xbe0de1c0	-0.13855648
229	0x3e1d0b26	0.15336284
230	0x3e0617a8	0.13094962
231	0x3e1f640f	0.15565513
232	0x3e98ba91	0.2982984
233	0xbe254b1e	-0.16141936
234	0x3d1b87e9	0.03797141
235	0xbe0684d7	-0.13136612
236	0xbe1b4cec	-0.15166062
237	0x3e8b32d6	0.27187222
238	0x3e963526	0.29337424
239	0x3e21bdd7	0.15795074
240	0xbe078de6	-0.13237724
241	0xbe04d24d	-0.12970848
242	0xbd3a93b1	-0.045551006
243	0x3e73c523	0.2380567
244	0xbe073de1	-0.13207199
245	0xbe55f570	-0.20894408
246	0x3f021c31	0.50824267
247	0xbecb1322	-0.39663035
248	0xbdb1bd6c	-0.086787075
249	0x3e1b8279	0.1518649
250	0x3e0798b6	0.13241848
251	0x3ec5868f	0.38579223
252	0x3ea37cc1	0.31931117
253	0x3e54d8b6	0.20785794
254	0xbeae0a39	-0.33992174
255	0xbd7d2cff	-0.06181049

critic.2.bias f4 [64]
0	0xbf0373db	-0.51348656
1	0x3f00cca5	0.5031226
2	0xbee1fa28	-0.44136167
3	0x3eceda86	0.40401095
4	0x3f0b0dc6	0.5431789
5	0x3e5d2439	0.21595849
6	0xbf011e13	-0.50436515
7	0x3f09e35e	0.5386256
8	0x3f0a246c	0.53961825
9	0xbed26178	-0.41089988
10	0x3f066195	0.5249265
11	0x3effa01f	0.4992685
12	0x3ed20c8e	0.41025203
13	0xbf198194	-0.59963346
14	0x3f04414f	0.51662153
15	0xbec6a105	-0.38794723
16	0x3f0f68b9	0.5601917
17	0x3ee20292	0.44142586
18	0xbf12e9af	-0.5738782
19	0xbef1ab6d	-0.472011
20	0xbef336de	-0.47502798
21	0xbf0f15ce	-0.55892646
22	0xbedf8ab1	-0.436605
23	0xbee94904	-0.4556352
24	0xbf084192	-0.5322505
25	0x3ef61d74	0.48069346
26	0xbee245e7	-0.44193956
27	0xbecc2fdb	-0.3988026
28	0x3ecf1035	0.40442052
29	0xbf044f9c	-0.51683974
30	0xbf0145a7	-0.50496906
31	0xbde188fb	-0.11012455
32	0xbf06872c	-0.52550006
33	0x3ed87c13	0.4228216
34	0x3ee105c4	0.4394971
35	0xbefbddf7	-0.49192783
36	0x3ecc7219	0.399308
37	0x3e02100a	0.12701431
38	0xbf0886b6	-0.5333055
39	0xbed61fa1	-0.41821006
40	0x3c8a5798	0.016887471
41	0xbef579cf	-0.47944495
42	0x3ef2be89	0.47410992
43	0xbefe4765	-0.49663845
44	0x3eea312a	0.45740634
45	0x3ee97eff	0.45604703
46	0xbf0b4552	-0.5440265
47	0x3edd428d	0.43214837
48	0x3f0dfa54	0.55460095
49	0xbee666ad	-0.4500021
50	0xbf14a532	-0.5806457
51	0xbecb07b7	-0.39654323
52	0xbf06e02b	-0.52685803
53	0x3ed9cefe	0.42540735
54	0xbf06f217	-0.5271315
55	0x3ebacda3	0.36485013
56	0xbe710302	-0.23536304
57	0x3f1048ef	0.5636129
58	0xbf25a081	-0.64698035
59	0xbef560b5	-0.47925344
60	0x3eb8fdfc	0.36131275
61	0xbefce50c	-0.493935
62	0x3ee261b5	0.4421517
63	0xbecac480	-0.39603043

critic.4.weight f4 [1, 64]
0	0xc10a37da	-8.638636
1	0x410a9b04	8.662846
2	0xc10a43dd	-8.641568
3	0x41087619	8.528832
4	0x41085abe	8.522154
5	0x4131d0fd	11.113523
6	0xc10b44f1	-8.704331
7	0x4108bda3	8.546298
8	0x4107ad1d	8.479764
9	0xc10a47a6	-8.642492
10	0x41084a9e	8.518217
11	0x4108ec45	8.557683
12	0x410e28c0	8.884949
13	0xc108cd2c	-8.550091
14	0x4109bd92	8.608782
15	0xc10a1759	-8.6307
16	0x4109d2fb	8.614009
17	0x410b80af	8.718917
18	0xc108c820	-8.548859
19	0xc10ae114	-8.679951
20	0xc109bb1a	-8.608179
21	0xc108b752	-8.544756
22	0xc1087d81	-8.530641
23	0xc109d057	-8.613364
24	0xc1089d2b	-8.538371
25	0x4108f2c9	8.559274
26	0xc10ae229	-8.680215
27	0xc10a9f3c	-8.663876
28	0x4108df40	8.554504
29	0xc10a4ca4	-8.643711
30	0xc10a9e5c	-8.663662
31	0x41c736f0	24.901825
32	0xc10d5267	-8.832618
33	0x4109cffe	8.613279
34	0x410c6870	8.775497
35	0xc1093707	-8.575934
36	0x4108ed27	8.5578985
37	0xc1db09eb	-27.379843
38	0xc10884a0	-8.532379
39	0xc10986e8	-8.595436
40	0x41a9be0f	21.217802
41	0xc10f2bd9	-8.948205
42	0x410abc45	8.670964
43	0xc1089bd7	-8.538047
44	0x410c629c	8.774075
45	0x410a5e15	8.647969
46	0xc10a09be	-8.627378
47	0x4107570a	8.45875
48	0x41090676	8.564077
49	0xc108de04	-8.554203
50	0xc1099d58	-8.600914
51	0xc109b01a	-8.605494
52	0xc1088d34	-8.534473
53	0x4109191b	8.568629
54	0xc10a4976	-8.642935
55	0x4108de1a	8.554224
56	0xc151e73c	-13.118954
57	0x410873f3	8.528308
58	0xc1090f85	-8.566289
59	0xc10a2cc3	-8.635928
60	0x410a9445	8.661199
61	0xc108361e	-8.513212
62	0x4108eae1	8.5573435
63	0xc1093786	-8.576056

actor.0.weight f4 [64, 3]
0	0x3f8af76e	1.085676
1	0x3ea211d8	0.3165424
2	0x3d2aa0c5	0.041657228
3	0x3f4388e9	0.76380783
4	0xbdfc3711	-0.123151906
5	0x3daea8e3	0.08528306
6	0xbf826ce4	-1.0189481
7	0xbed9e0aa	-0.42554218
8	0xbc9b58bd	-0.018963212
9	0x3ef7c2e1	0.48390868
10	0x3ee4f874	0.44720805
11	0x3ead5a70	0.3385806
12	0xbea499ca	-0.32148582
13	0x3e766ed2	0.24065712
14	0x3fb6e71f	1.4289283
15	0xbe14bffc	-0.14526361
16	0xbf4d8f8e	-0.8029717
17	0xbcce905f	-0.025215326
18	0x3e615bfc	0.22007746
19	0xbdeffcb5	-0.11718122
20	0xbf5544a9	-0.8330789
21	0xbf9f353e	-1.2438123
22	0xbd42037e	-0.04736661
23	0xbdfad354	-0.12247339
24	0xbda16436	-0.07880442
25	0xbf001cd3	-0.5004398
26	0x3f1d5158	0.61452246
27	0x3e7b68cd	0.24551697
28	0x3f6f31aa	0.93435156
29	0xbe7d6d94	-0.24748832
30	0xbfaa29fa	-1.329406
31	0x3e9f209a	0.3107956
32	0x3e94ef99	0.29089049
33	0x3cbbca55	0.022923628
34	0x3e3902e3	0.18067507
35	0x3fb1b0fe	1.3882139
36	0xbec0f310	-0.37685442
37	0x3f8b36b4	1.0876069
38	0x3dd76be2	0.10518624
39	0x3e4d108d	0.20025845
40	0x3f1f71fe	0.62283313
41	0xbf60268d	-0.87558824
42	0x3f7c6286	0.98587835
43	0x3ef4bbb6	0.47799462
44	0xbde61c3c	-0.11235854
45	0xbf67bcd0	-0.9052248
46	0x3cba499a	0.022740174
47	0xbe81201b	-0.25219807
48	0xbf42dd68	-0.7611909
49	0x3daa0b3b	0.08302923
50	0xbdd666b5	-0.104688086
51	0xbf78c936	-0.97182024
52	0xbf2a7b17	-0.6659407
53	0x3ed9de90	0.42552614
54	0x3f0dafab	0.55346173
55	0x3eb2f5f2	0.34953266
56	0xbd683bb0	-0.056697547
57	0xbdec9fe6	-0.11553936
58	0xbf6a8f5c	-0.91625
59	0xbed24952	-0.41071564
60	0x3ea97c50	0.33102655
61	0x39bc4f47	0.0003591722
62	0xbf2db45d	-0.6785334
63	0x3f3e16b5	0.742534
64	0x3ec44338	0.38332534
65	0xbd82f77f	-0.063948624
66	0xbf38fb1c	-0.7225816
67	0xbf369208	-0.71316576
68	0x3d938375	0.07202808
69	0xbf7e8ab0	-0.9943037
70	0xbf8756c2	-1.0573351
71	0x3e228dba	0.15874377
72	0xbf5b7840	-0.8573036
73	0xbf06ca53	-0.5265247
74	0x3dd26372	0.10272874
75	0xbf72828a	-0.94730437
76	0xbefce5cb	-0.49394068
77	0x3e12db89	0.14341559
78	0xbf2b45a2	-0.66903126
79	0xbf5c8a63	-0.8614866
80	0xbd4571ae	-0.048204117
81	0xbf25ad74	-0.64717793
82	0xbeded9db	-0.43525586
83	0x3f67817f	0.9043197
84	0x3f242e75	0.6413339
85	0xbf2ed20e	-0.6828927
86	0x3db82756	0.08991878
87	0xbf3fe7eb	-0.74963254
88	0xbeb3f9b1	-0.35151437
89	0x3cda09c5	0.026615987
90	0xbe2a450f	-0.16627906
91	0xbeeca9c2	-0.46223265
92	0x3f549d66	0.8305267
93	0xbf2c754e	-0.6736649
94	0x3f1ecb08	0.6202855
95	0xbd19ee11	-0.037580553
96	0xbf538ad1	-0.8263369
97	0xbf23a482	-0.63922894
98	0x3eac9349	0.3370612
99	0xbe3665d3	-0.1781228
100	0xbe7d1e92	-0.24718693
101	0xbf3c19c6	-0.7347683
102	0xbf0185a7	-0.5059456
103	0xbe7f3035	-0.24920733
104	0xbf6b65ff	-0.9195251
105	0xbe9e9312	-0.3097158
106	0x3f55ae34	0.8346894
107	0x3d9673af	0.07346284
108	0x3f061095	0.5236905
109	0xbf1b8722	-0.6075307
110	0x3f33b08e	0.70191276
111	0xbf0b4ef8	-0.5441737
112	0xbf50a18e	-0.8149651
113	0x3e22b90b	0.15890901
114	0x3ed07952	0.4071756
115	0x3f30bb30	0.69035625
116	0xbd544d70	-0.051831663
117	0x3f640f80	0.8908615
118	0x3f4d8bfe	0.80291736
119	0xbd5d0ad5	-0.05396541
120	0x3e4af131	0.1981857
121	0xbf0005ad	-0.5000866
122	0x3f44c641	0.7686501
123	0x3f5bfc38	0.8593173
124	0xbd03bdb1	-0.032163326
125	0x3e8ae967	0.27131197
126	0xbe069039	-0.13140954
127	0xbf38aa58	-0.72134924
128	0x3f11305f	0.56714433
129	0x3ed80dac	0.4219793
130	0xbed43d2b	-0.41452917
131	0xbf576810	-0.8414316
132	0x3eaec522	0.34134775
133	0xbbe23606	-0.0069034128
134	0xbf51dd88	-0.81978655
135	0x3f1d9052	0.6154834
136	0xbf39cc4a	-0.72577345
137	0xbf057f7b	-0.52147645
138	0xbf39cf20	-0.7258167
139	0x3f0be5c1	0.5464745
140	0xbe7a711b	-0.24457209
141	0x3f147680	0.57993317
142	0x3e714bd4	0.23564082
143	0x3ea44fe1	0.32092193
144	0x3f449af3	0.76798934
145	0xbf40520e	-0.75125206
146	0xbd87eac1	-0.06636573
147	0x3d470472	0.048588224
148	0x3f03a75a	0.51427233
149	0xbf49e509	-0.78865105
150	0x3f1bba70	0.60831356
151	0x3eac8caa	0.33701068
152	0x3e714a4d	0.235635
153	0x3f231386	0.63701665
154	0x3f02db97	0.5111632
155	0x3e32f026	0.17474422
156	0x3ec69681	0.387867
157	0xbd8e0be0	-0.06935859
158	0xbf93fc4a	-1.1561368
159	0xbf29f322	-0.66386616
160	0xbd88d8a5	-0.06681947
161	0x3f708f93	0.93969077
162	0xbed78e76	-0.42100877
163	0xbfa20bb2	-1.2659819
164	0x3d52ca97	0.051462736
165	0x3f5694f4	0.83821034
166	0x3e8f1779	0.27947596
167	0xbefacf04	-0.48986065
168	0x3d64d55b	0.055867534
169	0xbfa4f8fc	-1.2888484
170	0x3f1f36ca	0.62192976
171	0x3e37de60	0.17955923
172	0xbe4fb5a3	-0.20284133
173	0x3f438625	0.76376563
174	0x3f16acae	0.5885724
175	0x3e8adfc4	0.27123845
176	0xbf6c4bdb	-0.92303246
177	0xbf85c0a1	-1.0449411
178	0x3d97a4ec	0.07404503
179	0xbe8ee47e	-0.279087
180	0xbf276b9d	-0.6539858
181	0xbe9c9c55	-0.30588022
182	0xbe1cae62	-0.15300897
183	0xbf40addd	-0.75265294
184	0xbe608454	-0.21925479
185	0x3f4bc772	0.79601204
186	0xbf676a63	-0.9039671
187	0xbf1898a0	-0.5960789
188	0x3dacd851	0.084396966
189	0x3ef24c8d	0.4732403
190	0x3ed86727	0.422662
191	0x3d61513c	0.05500911

actor.0.bias f4 [64]
0	0x3fc62f6b	1.5483221
1	0x3ef97d46	0.4872839
2	0xbd71d75c	-0.059043273
3	0x3faa858e	1.3322008
4	0xbf7f4dcd	-0.9972809
5	0xbdb4bf94	-0.08825603
6	0x3eb66a70	0.3562808
7	0x3ec5dc28	0.38644528
8	0xbe9b663c	-0.30351436
9	0x3f1a3ae3	0.60246104
10	0xbc779018	-0.015110038
11	0xbe3688a0	-0.17825556
12	0x3d829011	0.06375135
13	0x3f693441	0.9109536
14	0x3e1cf491	0.1532767
15	0xbf05e299	-0.52298886
16	0xbea0453e	-0.31302828
17	0xbfab6ffb	-1.3393549
18	0x3f2b3f0d	0.6689308
19	0x3eb72ab9	0.35774782
20	0xbed2bd12	-0.41159874
21	0x3eff28d8	0.4983585
22	0x3ba70755	0.0050973096
23	0x3e7fa313	0.24964552
24	0xbe48bebd	-0.19604011
25	0xbedf6ac9	-0.43636158
26	0xbc6d4647	-0.014482087
27	0xbfb873aa	-1.4410298
28	0x3e930a67	0.28718874
29	0x3e38f296	0.18061289
30	0xbfa6c3fa	-1.3028557
31	0x3e59da8d	0.21274777
32	0xbea6f541	-0.3260899
33	0xbf737f9f	-0.9511661
34	0xbee60803	-0.44927987
35	0x3e453570	0.19258666
36	0xbf20c9e0	-0.62808037
37	0xbf9fc42b	-1.2481741
38	0xbf5ecb59	-0.87029034
39	0x3ecf55a1	0.40495017
40	0x3d801c26	0.06255369
41	0x3f84999e	1.035938
42	0x3f30c92c	0.69056964
43	0x3f08b7c0	0.5340538
44	0x3ffdef77	1.9838704
45	0xbf7df3ed	-0.99200326
46	0x3e5dce92	0.21660832
47	0x3ed7b6eb	0.42131743
48	0x3f4468b4	0.76722264
49	0xbe92c89c	-0.28668678
50	0x3f528c61	0.8224545
51	0x3ed15342	0.40883833
52	0x3e64e877	0.22354303
53	0xbf977f47	-1.1835717
54	0x3f50315a	0.81325305
55	0xbda8fbc1	-0.08251143
56	0xbd77c412	-0.06048972
57	0x3ed804ff	0.42191312
58	0x3fb38a48	1.4026575
59	0xbf51105e	-0.816656
60	0xbebddcc7	-0.37082502
61	0xbf7e3394	-0.9929745
62	0xbd33598d	-0.043786574
63	0x3f171f13	0.5903179

actor.2.weight f4 [64, 64]
0	0x3d4463af	0.04794663
1	0xbe09b241	-0.13446905
2	0xbec26e40	-0.3797474
3	0x3b4f29c9	0.00316106
4	0x3e9e1b4d	0.30880204
5	0x3bbefdec	0.0058286097
6	0xbd54eed8	-0.05198559
7	0xbe832794	-0.25616133
8	0xbea5bbed	-0.32369938
9	0x3eccd494	0.40005934
10	0x3d246cfc	0.040142998
11	0x3de4b39c	0.1116707
12	0x3f80a847	1.0051354
13	0x3e126d24	0.14299446
14	0xbdafdc2a	-0.08586915
15	0x3e4d68ba	0.20059481
16	0x3e851461	0.2599211
17	0xbf0e8396	-0.55669534
18	0x3e2be00e	0.16784689
19	0xbe9b7f7c	-0.303707
20	0x3f4983c6	0.78716695
21	0x3e96ed88	0.29478097
22	0xbef9e7cc	-0.4880966
23	0xbf8706c7	-1.0548943
24	0x3e482da6	0.19548663
25	0xbe92674f	-0.28594443
26	0xbe5d1da8	-0.21593344
27	0x3ea14300	0.3149643
28	0xbbac7f7d	-0.005264221
29	0xbf3cdfd7	-0.7377905
30	0xbe5c5e75	-0.21520407
31	0x3fb5ac13	1.4193138
32	0xbe4cf1c8	-0.20014107
33	0x3ee5b2ea	0.44863063
34	0xbe9070cf	-0.28211066
35	0x3ffcf530	1.9762325
36	0xbf5af7d4	-0.85534406
37	0xbf0a274e	-0.53966224
38	0x3e852c92	0.26010567
39	0x3e42da9c	0.19028705
40	0x3e1bd747	0.1521884
41	0xbd495ea8	-0.049162537
42	0xbe9dfc06	-0.3085634
43	0xbe8c96ab	-0.274587
44	0xbedb7a10	-0.42866564
45	0x3f27a65f	0.6548824
46	0x3f58460e	0.84481895
47	0xbe2a7b25	-0.16648538
48	0xbf72ee92	-0.9489528
49	0x3f98f90f	1.1951007
50	0x3d0e8a44	0.03479983
51	0x3dbbbf59	0.09167356
52	0xbe8da7cb	-0.27667078
53	0x3eb049ed	0.344314
54	0xbf336818	-0.7008071
55	0x3eac3630	0.33635092
56	0xbe6f0633	-0.23342209
57	0xbf674c9d	-0.9035128
58	0x3ef4aa1d	0.47786036
59	0x3edad4b4	0.42740405
60	0x3d6ba2ea	0.057528414
61	0xbe26e739	-0.16299142
62	0xbe69e3f3	-0.22840862
63	0xbcb6544b	-0.02225699
64	0xbed0492c	-0.40680826
65	0x3f0eafea	0.55737174
66	0xbe562840	-0.20913792
67	0x3eedcaf1	0.46443895
68	0x3e6d1f86	0.23156556
69	0x3e8b4535	0.27201238
70	0xbe471399	-0.1944107
71	0xbeacc7ae	-0.33746094
72	0x3eb6963b	0.35661492
73	0xbeb47981	-0.3524895
74	0xbdf3ea02	-0.11909868
75	0x3e8fa7bf	0.28057668
76	0x3e858020	0.26074314
77	0x3e120f91	0.1426375
78	0x3f30ee03	0.6911318
79	0xbe1b609d	-0.15173574
80	0xbf048a09	-0.51773125
81	0xbe9d0e1a	-0.3067482
82	0x3d4ec171	0.05047745
83	0x3dc9c51b	0.09852048
84	0xbd55c259	-0.052187297
85	0xbd690642	-0.056890734
86	0xbdbc4d9a	-0.09194489
87	0xbd835f8c	-0.064147085
88	0xbcd47cd2	-0.025938425
89	0xbea0ce49	-0.31407383
90	0xbf13827b	-0.5762097
91	0x3e90f4da	0.28311807
92	0x3f4ea25b	0.80716485
93	0xbf580c15	-0.84393436
94	0x3eaeb658	0.34123492
95	0xbf29cfed	-0.66332895
96	0xbe84a5d1	-0.25907758
97	0x3d4d484e	0.050117783
98	0xbe2e5165	-0.17023237
99	0xbda9d4b2	-0.082925215
100	0x3e302aeb	0.17203872
101	0xbed1b5cb	-0.4095901
102	0x3ddc66fa	0.10761829
103	0x3e91bfb2	0.28466564
104	0x3f149f96	0.5805601
105	0x3f9da31f	1.2315406
106	0x3f4b187a	0.79334223
107	0x3f00d9a2	0.5033208
108	0xbc8b31ac	-0.016991459
109	0x3eb00dc3	0.343855
110	0xbda23365	-0.07919959
111	0xbe771b00	-0.24131393
112	0x3e8748e8	0.2642281
113	0x3ee87cc0	0.45407677
114	0x3d8f1112	0.06985678
115	0x3f22bb85	0.6356738
116	0x3df99af9	0.12187762
117	0xbd950417	-0.07276171
118	0xbd12bc82	-0.035824306
119	0xbee67a7d	-0.45015326
120	0xbe4389ec	-0.19095582
121	0xbe45d69c	-0.19320148
122	0x3e22928f	0.1587622
123	0xbf3753af	-0.71612066
124	0xbf09adba	-0.5378071
125	0x3e539c18	0.20665014
126	0x3d51c585	0.05121376
127	0x3f0247ca	0.5089079
128	0x3e8f02bf	0.27931783
129	0xbf4794b7	-0.77961296
130	0x3c8bb8a8	0.017055824
131	0x3ccd5c69	0.025068479
132	0xbec5ae0d	-0.38609353
133	0xbf11cf8d	-0.5695732
134	0xbe9df072	-0.30847508
135	0xbe09641b	-0.13417093
136	0xbeb6b0e8	-0.35681844
137	0xbf5bbd38	-0.858356
138	0x3ecd5efe	0.40111536
139	0xbe656be1	-0.22404434
140	0xbed430e6	-0.41443557
141	0x3ec96ba9	0.3933995
142	0xbe9b5933	-0.3034149
143	0xbd267b85	-0.04064514
144	0x3f031fd1	0.51220423
145	0x3e7aac60	0.24479818
146	0xbee72492	-0.45145088
147	0x3e955650	0.29167414
148	0x3e19f405	0.15034492
149	0xbf19bd83	-0.60054797
150	0xbd55f4d7	-0.05223545
151	0x3ea15ab7	0.31514522
152	0x3edb7b1f	0.4286737
153	0x3dfde548	0.123972476
154	0x3f015ac2	0.5052911
155	0xbedb0724	-0.42778885
156	0x3ec1b8d0	0.37836313
157	0x3d329bb2	0.043605514
158	0x3dab515e	0.08365129
159	0xbedad99a	-0.42744142
160	0x3dfabd4e	0.12243138
161	0xbeb3d8e1	-0.35126403
162	0xbe0018c0	-0.12509441
163	0xbe84f20a	-0.2596591
164	0x3edc46f9	0.43022898
165	0x3db1e3f6	0.08686058
166	0xbe75bea6	-0.23998508
167	0x3d6d9e92	0.058012553
168	0xbea0551d	-0.31314936
169	0x3dbe052e	0.09278332
170	0xbddff772	-0.10935868
171	0xbf26d272	-0.65164864
172	0xbdd4a479	-0.10382933
173	0xbd0c2738	-0.03421709
174	0x3ec910d2	0.39270645
175	0x3e94c201	0.29054263
176	0xbe680b02	-0.22660449
177	0x3e2b3a16	0.16721377
178	0xbdc16b8b	-0.0944434
179	0xbf05f508	-0.52327013
180	0x3f053ca2	0.52045643
181	0x3e51b773	0.20480137
182	0x3e8aa5c4	0.27079594
183	0xbe2b5eea	-0.16735426
184	0x3e06c0b2	0.13159445
185	0x3ccbac4c	0.024862431
186	0xbdee6000	-0.11639404
187	0x3f2f7e24	0.6855185
188	0x3e7bcc41	0.24589635
189	0x3ec7e7c5	0.39044014
190	0x3e2f7005	0.17132576
191	0xbed49393	-0.4151884
192	0x3dc944b2	0.09827556
193	0x3e93cb93	0.28866252
194	0xbeb0ba3d	-0.3451709
195	0x3de0d027	0.10977202
196	0x3e343d1b	0.17601435
197	0x3e8c6d5c	0.27427185
198	0x3ebb9098	0.36633754
199	0xbe811cb6	-0.25217217
200	0x3e4626fe	0.19350812
201	0xbd1d8d37	-0.03846475
202	0xbda33c19	-0.07970447
203	0x3dbbdaee	0.09172617
204	0xbe0ff932	-0.14059904
205	0xbea4f011	-0.32214406
206	0x3e2a326b	0.16620795
207	0x3e74852b	0.23878925
208	0xbedc2bbf	-0.43002126
209	0x3e1e081b	0.1543278
210	0x3f61e701	0.8824311
211	0xbea09497	-0.31363365
212	0x3ddac82f	0.10682713
213	0x3ebdea50	0.3709283
214	0xbe0f52e3	-0.13996463
215	0xbf032a57	-0.5123648
216	0xbf170f46	-0.5900768
217	0xbd64ec90	-0.055889666
218	0xbe95cb30	-0.29256582
219	0x3e3a5a8f	0.18198608
220	0x3f3c0f50	0.73460865
221	0xbe5d6dd9	-0.21623935
222	0xbdd8eec1	-0.10592414
223	0xbb55be16	-0.003261452
224	0xbd97dc7b	-0.074151
225	0x3d2e2dab	0.04252402
226	0x3e323a3a	0.17405024
227	0xbf0d3f64	-0.5517485
228	0xbe827a16	-0.2548377
229	0xbe6855fa	-0.22689047
230	0xbd3db550	-0.04631549
231	0x3e073549	0.1320392
232	0x3f20027c	0.6250379
233	0x3d0f7fbb	0.035033923
234	0x3e9f52ff	0.31118008
235	0x3df2a6aa	0.11848195
236	0x3e52094d	0.2051136
237	0x3d20cd86	0.039258502
238	0xbf19fd8a	-0.60152495
239	0x3ec82208	0.39088464
240	0x3e47ef45	0.19524868
241	0x3ddb86c7	0.10719066
242	0xbd7bb0da	-0.061447956
243	0xbc90a812	-0.017658267
244	0xbef2c6a9	-0.4741719
245	0xbe59b13f	-0.2125902
246	0xbd95d74c	-0.07316455
247	0xbdab6870	-0.08369529
248	0xbef004f0	-0.46878767
249	0xbeef867b	-0.46782288
250	0x3cb847ea	0.022495229
251	0x3e97d679	0.29655817
252	0xbe1da481	-0.15394785
253	0x3d09ca4c	0.03364019
254	0xbde62a25	-0.11238507
255	0xbe06813f	-0.13135241

actor.2.bias f4 [64]
0	0x3e163b17	0.14670978
1	0x3db96b5d	0.09053681
2	0xbf25ffc3	-0.64843386
3	0x3efd6456	0.49490613
4	0x3dcbed1f	0.09957337
5	0x3dec2460	0.115303755
6	0x3e6927ab	0.22769038
7	0xbd7814f1	-0.060566846
8	0x3f134c2b	0.575381
9	0xbd7c92e1	-0.061663512
10	0xbc02d605	-0.007985597
11	0xbe14abbe	-0.1451864
12	0xbf115d54	-0.5678303
13	0x3df22b83	0.118247055
14	0xbe172c1c	-0.1476292
15	0xbd0bee02	-0.03416253
16	0xbeb5a6dc	-0.35478866
17	0xbd9adb66	-0.07561378
18	0x3dcb4f59	0.09927244
19	0x3c8e3475	0.017358998
20	0x3e205835	0.15658648
21	0x3f162281	0.586464
22	0x3e039ba9	0.12852348
23	0xbda9d79b	-0.082930766
24	0x3ec5eb33	0.38656005
25	0xbe5cad2e	-0.21550438
26	0xbf171ce0	-0.59028435
27	0xbe9346c2	-0.2876492
28	0xbef7617b	-0.4831656
29	0xbe27e03a	-0.1639413
30	0xbee20ce9	-0.44150475
31	0x3e3f0dd8	0.18657625
32	0x3d9bf55e	0.076151595
33	0xbdf08a75	-0.117451586
34	0x3e894b23	0.26815137
35	0xbe90189f	-0.28143784
36	0xbd53b974	-0.051690534
37	0x3d333dcb	0.043760102
38	0x3d485125	0.04890551
39	0x3e09d950	0.13461804
40	0xbd888bf9	-0.06667323
41	0x3ed5b743	0.4174138
42	0xbde4f19a	-0.11178894
43	0xbe906fb3	-0.2821022
44	0x3e15a561	0.14613868
45	0xbe41d850	-0.18930173
46	0xbefea048	-0.4973166
47	0xbeddf12b	-0.4334806
48	0x3ed33aa7	0.41255686
49	0xbe8d684e	-0.2761864
50	0xbe3b9066	-0.18316802
51	0x3e39756f	0.18111204
52	0xbdf2efb9	-0.1186213
53	0x3e543e7b	0.2072696
54	0x3e87221b	0.26393208
55	0xbd425512	-0.04744441
56	0x3e9ec338	0.31008315
57	0x3e9424ac	0.28934228
58	0xbebbeddd	-0.36704913
59	0xbe3f8cc1	-0.18706037
60	0x3db2a915	0.08723656
61	0x3dc92ad3	0.09822621
62	0xbea2c309	-0.31789425
63	0x3e1f9be5	0.15586813

actor.4.weight f4 [3, 64]
0	0x3e104290	0.14087892
1	0xbe982fae	-0.29723877
2	0x3e0aeede	0.13567683
3	0xbd84d344	-0.06485608
4	0x3daf64bf	0.08564138
5	0xbc2ebb7e	-0.010664819
6	0x3d134bde	0.035961024
7	0xbe2aa9a1	-0.16666271
8	0xbefdee27	-0.49595758
9	0xbf1d2f7f	-0.614006
10	0xbedff3d7	-0.43740723
11	0xbedcb3c9	-0.43105915
12	0xbe5a750b	-0.21333711
13	0x3cffe691	0.031237872
14	0x3e481618	0.19539678
15	0xbd850a07	-0.06496053
16	0x3e921556	0.28531903
17	0x3d81affe	0.06332396
18	0xbe464f9f	-0.1936631
19	0xbf12f148	-0.57399416
20	0x3f02250b	0.50837773
21	0xbe43e2c0	-0.19129467
22	0x3dbc09d7	0.09181564
23	0x3cebfdb4	0.028807499
24	0x3ce76ecd	0.028251076
25	0x3e06e12e	0.13171837
26	0x3dc672f8	0.09689897
27	0xbdc229c9	-0.09480626
28	0x3ed0c9e1	0.4077902
29	0x3dadacf3	0.08480253
30	0x3f83d15b	1.0298265
31	0xbd416797	-0.04721793
32	0x3ec29e20	0.38011265
33	0xbfa4ba6f	-1.2869395
34	0xbd97b11d	-0.074068286
35	0xbc86da08	-0.016461387
36	0xbea3027d	-0.31837836
37	0xbeea5ce4	-0.45773995
38	0xbd948101	-0.07251168
39	0xbf52d2f7	-0.82353157
40	0xbf766419	-0.96246487
41	0x3ec18444	0.37796223
42	0x3d74ac9b	0.059734922
43	0xbc8d088c	-0.01721599
44	0x3d929aa5	0.07158402
45	0xbd47ba59	-0.0487617
46	0xbd005945	-0.031335134
47	0x3e3e980a	0.18612686
48	0xbdbd1bbe	-0.09233807
49	0xbc66dc3d	-0.014090595
50	0xbedb22df	-0.42800042
51	0x3ddb7fd7	0.10717743
52	0xbe9ce89b	-0.30646214
53	0xbf0f7702	-0.56040967
54	0xbeac9941	-0.33710673
55	0x3f3930ba	0.72339976
56	0xbe25c113	-0.16186933
57	0xbdb688b3	-0.08912792
58	0x3d115606	0.03548243
59	0x3e37b4b0	0.1794002
60	0xbed6dc4c	-0.41964948
61	0xbef6a637	-0.48173687
62	0xbcad9c03	-0.021192556
63	0x3f506801	0.814087
64	0x3e0563d7	0.13026367
65	0x3e52111f	0.20514344
66	0xbd81fed1	-0.063474305
67	0x3e0b6cad	0.13615675
68	0xbe672c0d	-0.22575398
69	0xbe5033cd	-0.2033226
70	0xbe454122	-0.19263127
71	0x3e5eb3cc	0.21748275
72	0x3ecf8713	0.4053274
73	0x3efebf05	0.4975511
74	0x3f083b5f	0.53215593
75	0x3e973347	0.2953131
76	0x3e205f59	0.15661372
77	0x3d42268a	0.047400035
78	0xbe8cab61	-0.27474502
79	0x3d43b87a	0.047783352
80	0xbece04a6	-0.4023792
81	0x3dfeacc8	0.12435299
82	0x3ef9ba25	0.4877483
83	0x3ed4e856	0.41583508
84	0xbf249688	-0.6429219
85	0x3e209d4e	0.15685007
86	0xbe36e305	-0.17860039
87	0x3e3e06cc	0.1855728
88	0xbd56e534	-0.05246468
89	0xbe4ab600	-0.1979599
90	0xbe0a30a0	-0.13495111
91	0x3e1187a7	0.14211904
92	0xbf4af0b5	-0.7927354
93	0xbe3062cc	-0.17225188
94	0xbf83e1e0	-1.0303307
95	0xbe1d308e	-0.15350553
96	0xbe3b7397	-0.18305813
97	0x3f0b2414	0.54351926
98	0xbdf64af0	-0.12026012
99	0xbe406ea0	-0.187922
100	0x3e770bb9	0.24125566
101	0x3f1c93ba	0.6116291
102	0x3e57525a	0.21027508
103	0x3f8c94f7	1.098296
104	0x3f64a82d	0.89319116
105	0xbdc8db6e	-0.09807478
106	0xbc772e34	-0.015086699
107	0x3d04ec7b	0.032452088
108	0xbd35154e	-0.04420977
109	0xbd4f2dd6	-0.050580822
110	0x3e0d2d96	0.13786921
111	0xbdb14efe	-0.08657645
112	0x3de3d060	0.11123729
113	0x3e273533	0.16328888
114	0x3e4e4b55	0.20145924
115	0x3d9b1419	0.07572193
116	0x3d8eba09	0.06969077
117	0x3e67ea50	0.22647977
118	0x3f1d1b3e	0.61369693
119	0xbf37c7b4	-0.717891
120	0x3d9d30c0	0.07675314
121	0x3e5003de	0.20313975
122	0xbd5a585b	-0.05330692
123	0xbee33cfd	-0.44382468
124	0x3e65d3f2	0.22444132
125	0x3e7e8501	0.24855424
126	0xbe3e9b2d	-0.18613882
127	0xbe4ba314	-0.19886428
128	0xbe18d513	-0.14925031
129	0x3e275aea	0.16343275
130	0xbe2cc61e	-0.1687245
131	0x3d6b1639	0.05739424
132	0x3e8f14cd	0.27945557
133	0x3eb890c9	0.36047962
134	0x3e82072b	0.25396094
135	0xbe1ac3d7	-0.1511377
136	0x3e2aa105	0.16662987
137	0x3dde3d12	0.10851492
138	0xbd98f221	-0.074680574
139	0x3ddebd27	0.10875922
140	0x3be2d31e	0.00692214
141	0x3c9086b6	0.01764236
142	0x3d3b3a32	0.045709796
143	0x3dbaf72e	0.09129177
144	0x3ca00b2f	0.019536583
145	0xbe86a85e	-0.2630033
146	0xbeccd831	-0.4000869
147	0x3e56934b	0.20954625
148	0x3e53a081	0.20666696
149	0x3dfaedd8	0.12252396
150	0x3e3e6c8f	0.185961
151	0xbe887b76	-0.26656693
152	0x3e1a697b	0.150793
153	0xbc9c2825	-0.019062111
154	0xbd82de7b	-0.06390091
155	0xbe1e39e3	-0.1545177
156	0x3e9cdddb	0.30638012
157	0xbcbc4342	-0.02298129
158	0xbc1a7c9a	-0.009429121
159	0x3e833127	0.25623438
160	0xbe1a99cd	-0.15097733
161	0x3f2a4a2d	0.66519433
162	0x3eaa4661	0.3325682
163	0x3e0f69eb	0.14005248
164	0xbd9431c5	-0.07236055
165	0xbe163113	-0.14667158
166	0xbd485c66	-0.048916243
167	0xbe9a92e5	-0.30190197
168	0x3da8df4f	0.08245718
169	0xbe5a5d4a	-0.2132465
170	0xbda3ba2f	-0.07994496
171	0xbbf2f0f7	-0.007413979
172	0x3d39f8de	0.045403354
173	0xba2bc4e0	-0.0006552469
174	0xbe65bdde	-0.2243571
175	0xbe3d10c1	-0.18463422
176	0x3d28cc66	0.041210555
177	0xbe69beff	-0.22826765
178	0x3e0109fe	0.12601468
179	0xbdda1209	-0.10647971
180	0x3e4b8b28	0.19877303
181	0x3e5edaa4	0.21763092
182	0xbe084249	-0.13306536
183	0xbd0f0217	-0.034914102
184	0x3e1d390a	0.1535379
185	0xbcf17d77	-0.029478772
186	0xbdc16d5b	-0.09444686
187	0x3e27eefb	0.16399758
188	0x3d2f888b	0.042854827
189	0x3db24a61	0.08705593
190	0x3dc43dd5	0.09582106
191	0xbef8617e	-0.4851188

actor.4.bias f4 [3]
0	0xbe5893a7	-0.21150075
1	0x3ebb7253	0.3661066
2	0xbd184425	-0.037174363
