src/RL_BipedalWalker /inaccurate_models/ppo_bipedalwalker_modified_reward/policy.pth (torch, 52143 bytes, 12 tensors)

log_std f4 [4]
000000 41 f9 13 bf 4d 0a b1 be 1e 43 76 bf 7c 6b fa be
       -0.57802206 -0.3457817 -0.9619616 -0.4891013

mlp_extractor.policy_net.0.weight f4 [64, 24]
000000 0b 45 7e 3e 1d 52 2d bf 1d d4 19 3f ae 38 67 be
       0.24831025 -0.6770342 0.60089284 -0.22580215
000010 29 13 4b be eb 94 8f be 7f a7 8e 3c e7 c7 6a 3e
       -0.19831528 -0.28043303 0.017413853 0.22927819
000020 b6 59 c2 3d e3 31 05 3f 5d 48 ec 3e 98 f3 41 3e
       0.09489767 0.52029246 0.4614896 0.1894058
000030 23 15 07 3e f6 df 82 bc ca ec aa be 52 f6 9b 3d
       0.13191657 -0.015975934 -0.3338378 0.07615341
000040 9b c4 b3 be 67 cc 78 be 26 3e 84 3e 66 00 15 bd
       -0.35110936 -0.24296723 0.25828665 -0.036377333
000050 5a 15 0d 3e 97 26 ad ba 4a 4b 1f be 57 05 fc 3c
       0.13777676 -0.0013210353 -0.15556064 0.030764265
000060 dc a3 94 3d 73 59 15 be d3 ee 31 3d e1 6d 2f 3e
       0.07257816 -0.14584903 0.04344065 0.17131759
000070 4b ca 12 be 0d 1c e1 3e 3c e2 e4 bd 32 e7 ca 3e
       -0.14334981 0.43966714 -0.11175963 0.39629513
000080 93 f9 5c 3c 2b 32 48 be dc fa b6 bd 0f 24 c6 3d
       0.0134872375 -0.19550388 -0.089345664 0.096748464
000090 d1 8b 42 3e ad bb 1d bf c4 dc 80 bd 4e f9 f9 3c
       0.18998648 -0.61614496 -0.06292108 0.030514386
0000a0 ec dc 18 be 4a 6a 88 bd 12 e0 9e bd 68 44 48 3e
       -0.14928025 -0.06660898 -0.07757582 0.19557345
0000b0 a5 e1 e7 bd fc da ac 3d 9a e1 65 bd 29 81 a9 be
       -0.11322335 0.084402055 -0.056123354 -0.33106354
0000c0 38 dd f4 3e 96 c6 01 3f d9 42 13 bf 73 3a e8 bb
       0.47825027 0.50693643 -0.57523876 -0.007087046
0000d0 c4 55 65 3e a4 3c 3c 3e 41 1e 4b 3e 96 41 d1 bd
       0.22395998 0.18382508 0.1983576 -0.10217588
0000e0 a1 9a 6c bb 30 5c bd be a7 96 ad bd 5f b2 40 3e
       -0.0036102908 -0.36984396 -0.08476 0.18818043
0000f0 63 d7 25 bc bb 1c 7d 3c 94 af e6 3d b8 df 28 3e
       -0.010122153 0.015448744 0.112639576 0.16491592
000100 8d aa d1 bc ce f2 59 bd dd 24 02 ba 84 8b 09 be
       -0.02559402 -0.053210072 -0.00049645995 -0.13432127
000110 ad bf ec bd 31 f6 8b be f2 b4 3a be 1b bc 11 3d
       -0.11559997 -0.27336267 -0.18233088 0.035579782
000120 41 d9 96 3d d2 c1 89 3c 92 0c 76 be 0b d7 5e bb
       0.07365657 0.016816054 -0.24028233 -0.0034002687
000130 8f 20 bd 3d 25 93 b7 3d 9a a4 98 be 6a 11 aa 3d
       0.09234726 0.089636125 -0.2981308 0.08304103
000140 66 f5 e8 bd b1 c0 a4 be 71 5b 0e be 56 d8 1f bd
       -0.11374931 -0.32178262 -0.1390207 -0.039024673
000150 c6 82 32 bc 57 58 6c be 38 98 15 3e 71 2e 29 be
       -0.010895437 -0.23080574 0.14608848 -0.16521622
000160 b8 37 3c 3e bb 87 0d 3d ce 22 83 bc ff 05 a1 be
       0.1838063 0.03455327 -0.016007807 -0.31449887
000170 8b be 35 3d c6 d6 72 3e e8 f0 58 3c b8 38 c4 bd
       0.04437117 0.23714742 0.01324103 -0.09581131
000180 56 79 64 3e 27 cb 9d 3d 0a 88 a4 3c f0 69 02 3a
       0.22311911 0.07704764 0.0200844 0.00049748924
000190 87 fa 4d bd f3 15 9d be 8c d1 92 be ef d6 fd bd
       -0.05028775 -0.30680808 -0.28675497 -0.12394511
0001a0 6f 5a 35 be aa 91 2c be a1 98 70 be 41 3a 0d be
       -0.17710279 -0.16852441 -0.23495723 -0.13791753
0001b0 05 96 99 3e 10 50 64 bd b3 a2 0d 3e 1f 16 00 be
       0.29997268 -0.055740416 0.13831596 -0.12508439
0001c0 68 34 0d 3e 6e 85 51 be 42 ae de 3c bf f2 e0 3d
       0.13789523 -0.20461056 0.027182702 0.109838
0001d0 57 4d 62 3d 2c a4 06 be a7 a4 cb be 1e ff 27 3d
       0.05524954 -0.13148564 -0.39774057 0.041014783
0001e0 74 1c bb bc 00 14 0d be 9f 9a a9 3e 1a 37 31 be
       -0.022840716 -0.1377716 0.3312578 -0.17306176
0001f0 36 80 0f bd 25 10 cf bd 40 4c 9c bd 5b d6 5f 3e
       -0.03503438 -0.10110501 -0.07631731 0.21859114
000200 de 69 80 3e 21 68 68 3e 3e ce 7b 3d 8b ce 98 be
       0.2508077 0.22695972 0.061475985 -0.2984508
000210 80 ce 40 3c 45 ea bb bd 70 4c 5d be af 23 b4 be
       0.011767983 -0.09175543 -0.2161119 -0.35183474
000220 dc e5 bc bc 00 31 99 be 19 b5 61 3e e3 30 14 be
       -0.023058824 -0.29920197 0.2204174 -0.14471774
000230 88 c1 53 be e3 e7 99 be 23 36 a9 3d 60 68 28 3e
       -0.20679295 -0.30059728 0.08262279 0.16446066
000240 ac e9 e8 3d 8e bb 4a bd f0 47 a9 3d da da ac 3e
       0.113726944 -0.049495272 0.08265674 0.3376072
000250 69 bc ad be b0 82 80 3e 48 c9 6a 3e 44 54 32 3d
       -0.33932808 0.25099707 0.22928345 0.043537393
000260 97 e8 5d be 1d b6 b0 bc e1 93 1c 3d a7 88 ab 3d
       -0.21670757 -0.021571213 0.038226966 0.08375674
000270 f9 e7 e5 3e bf d7 ad 3e 8a 34 f8 3d a9 80 38 3d
       0.44903544 0.33953664 0.12119396 0.045044575
000280 e1 be 07 3e 59 4f ba be 9c 60 14 3e 35 50 fc bd
       0.13256408 -0.36388662 0.14489979 -0.12319986
000290 a8 75 0e 3e e8 a5 90 3c 31 4c 3a 3e 66 02 e3 bd
       0.1391207 0.017657235 0.18193127 -0.11084442
0002a0 44 45 54 3e 40 9a 04 bf 10 f2 93 bc e9 cf 0e 3c
       0.20729548 -0.51797867 -0.01805976 0.008716562
0002b0 0c dd 3d 3e ad 59 06 be 4b 86 83 bd de c3 0e be
       0.18541354 -0.13120146 -0.06422099 -0.13941905
0002c0 2c 97 f8 3d f0 26 b1 3e 55 e6 22 3c 6c ce 9a 3e
       0.12138209 0.3460002 0.009942611 0.30235612
0002d0 19 03 d2 bd 75 43 68 3e 35 6e 41 be 86 25 5a bd
       -0.10254497 0.22681983 -0.18889697 -0.05325844
0002e0 aa 4f 1b bd ab cd 89 be 84 44 59 be 11 08 0d be
       -0.03791777 -0.26914725 -0.21217543 -0.13772608
0002f0 86 27 88 bd 24 d5 10 bd f6 1a b0 3e f6 d8 18 be
       -0.066481635 -0.035359517 0.3439557 -0.14926514
000300 1a 0d c5 be 27 ae b2 be 25 14 9b 3e 23 40 fc bc
       -0.38486558 -0.34898493 0.30288807 -0.030792302
000310 f2 25 d5 3d b4 a9 f9 bd 06 a7 37 bd b6 82 4f 3d
       0.10407628 -0.121905714 -0.04483702 0.050661765
000320 76 ff 3d be d1 5b 99 3e 80 d3 17 be a6 84 15 bd
       -0.18554482 0.29952863 -0.14826775 -0.036503457
000330 e2 65 07 be 17 11 50 3e ef 38 33 3e f1 a5 d8 bd
       -0.13222459 0.2031902 0.17502187 -0.10578526
000340 16 51 ce 3e 76 1d 53 3e 07 ba b8 3d 23 95 57 3e
       0.4029624 0.20616707 0.09019857 0.21052985
000350 c0 9e 4f 3c 2f e4 41 3e fc 5f e9 bc ab ed ee bd
       0.012672126 0.18934701 -0.028488152 -0.11666425
000360 8a b7 3e bd 0c 33 04 3f 7f fb 81 3d 29 de 8d bd
       -0.046561755 0.5164039 0.06346797 -0.06927139
000370 f5 e8 95 3d 19 c9 c1 be 2a 67 87 be bf 93 89 be
       0.07319824 -0.37848738 -0.26445895 -0.26870534
000380 27 64 94 bd 9f 25 4d 3e 8d b5 38 3e 50 4c 4f 3e
       -0.07245665 0.20033883 0.18038006 0.20243955
000390 7b 99 28 3e 9b 1d 59 be dc 27 7a 3e 44 91 84 bd
       0.16464798 -0.212027 0.24429268 -0.0647302
0003a0 f8 fc b0 bd 1e 23 29 be 39 7f 20 3e 3b dc 10 bd
       -0.08642 -0.16517302 0.15673532 -0.03536628
0003b0 ff ca 9c bc 6b d7 38 3c 5b 7e b1 bc 66 d4 22 3e
       -0.019139765 0.011281828 -0.021666696 0.15901336
0003c0 4f cd e8 3d e9 11 62 be be 09 b9 3e 39 8a 64 be
       0.113672845 -0.22077145 0.36140245 -0.22318353
0003d0 44 d0 9b bd e4 1f 18 be 04 4a e3 bd c7 1d cc bd
       -0.07608083 -0.14855915 -0.11098102 -0.09966617
0003e0 db fb 58 be 3e 43 b3 3d 18 0c c0 3e 2e fc e7 be
       -0.21189825 0.0875306 0.37509227 -0.45309585
0003f0 a7 54 90 3c 61 e0 2f be 8f db 3c 3c d6 00 9a bb
       0.01761849 -0.17175438 0.011526956 -0.0046998067

mlp_extractor.policy_net.0.bias f4 [64]
000000 44 ba 40 3e 1b 5b 0d 3d df c2 fa 3c d6 54 cb bd
       0.18821055 0.034510713 0.0306105 -0.099282905
000010 9a 65 52 bd 31 6b a3 3d 28 b9 73 3c 98 b1 1b 3e
       -0.051366426 0.079794295 0.014875688 0.15204465
000020 62 a4 39 3d 2a 33 22 3d 68 70 ee 3c ee e8 b1 3d
       0.045322783 0.039599575 0.029106334 0.08687006
000030 01 16 14 bd c0 a9 b2 3d f6 5b cf bd 17 91 a3 3d
       -0.036153797 0.087237835 -0.10124962 0.07986658
000040 c1 a9 ae 3d fe 18 bd bc ec ef 5d 3d e9 0b 2c 3d
       0.08528472 -0.023083206 0.054183885 0.042003546
000050 f8 9b 8d 3c 94 2b d5 bd 02 64 73 3d 59 74 b8 3c
       0.017286286 -0.104087025 0.059421547 0.022516416
000060 47 43 34 bd 9f 59 01 3e a2 45 0d be 97 ea bc bb
       -0.044009473 0.12631844 -0.13796094 -0.00576527
000070 c2 99 ba bc 64 07 80 bd 5d 47 e9 bc 5b cc f7 3d
       -0.022778396 -0.0625141 -0.028476411 0.120995246
000080 f2 93 fa 3c 71 5e aa 3d f9 54 9b 3c 1e a8 c0 3d
       0.030588124 0.083187945 0.018961417 0.09407066
000090 3d 07 9c 3d 34 84 06 bd cb ac 0b be 8d 0a 83 3b
       0.07618568 -0.032840922 -0.13640134 0.0039990605
0000a0 ee 22 03 3d 8c 69 3d bd d4 6e 33 be cc a5 04 3e
       0.032015733 -0.046243235 -0.17522746 0.12953871
0000b0 e4 2e 43 3d 35 46 9f bd 82 cb 37 bd f2 37 4e be
       0.04765214 -0.07777063 -0.044871815 -0.20138529
0000c0 0b 33 c4 bd 72 71 c4 3d 63 61 b6 bd 56 5f 14 bd
       -0.09580048 0.095919505 -0.08905294 -0.036223732
0000d0 4d 3a 32 bd 9b 26 09 be 25 55 e1 bd d8 8b 74 bd
       -0.04351263 -0.13393633 -0.11002568 -0.059703678
0000e0 d8 08 35 bd 69 4b a7 3d a0 9f 9f 3d ff 86 98 bc
       -0.044197887 0.0816868 0.07794118 -0.018619059
0000f0 a2 49 0a be 3e ed 04 3e 0c 37 f7 bc 17 9e 1f 3b
       -0.13504651 0.12981126 -0.030177616 0.0024355703

mlp_extractor.policy_net.2.weight f4 [64, 64]
000000 3d 48 1c be 63 7e 07 be 5e c8 3c 3b 72 7e 02 be
       -0.15261932 -0.13231806 0.0028805952 -0.12743548
000010 41 5a 7e 3e 66 53 8f 3e bf 93 a9 3d e3 5a a1 3e
       0.24839117 0.27993315 0.082801335 0.31514654
000020 93 d7 c0 ba 6b cc 98 bd cb 9b e0 bd e4 76 36 3e
       -0.0014712684 -0.07460865 -0.10967215 0.1781879
000030 3c 51 d4 bd cb d8 c4 3c 69 9b 34 3e a2 4f 57 3e
       -0.10367057 0.024029156 0.1763741 0.21026471
000040 89 d7 46 3e f6 15 c3 be d0 47 bc 3e 88 9c ab 3d
       0.19418158 -0.38102692 0.3677354 0.08379465
000050 02 1d 01 3e 5c a1 6c be 85 3d a8 bd 7c 87 87 bb
       0.12608722 -0.23108429 -0.08214859 -0.004136024
000060 48 17 8b 3e 2e 64 bb bc 94 3c 94 bd f9 7a b9 bd
       0.271662 -0.022874918 -0.07238117 -0.09056658
000070 3d 7a 75 be aa d7 2f 3d 7f 23 d2 3d 34 1d bf bd
       -0.23972411 0.042930283 0.102606766 -0.09331742
000080 67 d8 a8 bd 2a e2 63 bd 99 62 11 bc 24 75 eb 3d
       -0.082444005 -0.05563561 -0.008873605 0.11496952
000090 38 eb bc bc c5 54 dd bc 3d ac ba be 1f ac 87 be
       -0.02306138 -0.02701796 -0.36459532 -0.26498505
0000a0 6f 2a 24 3e 29 8b ec 3d 62 8f d1 bb 07 a8 e9 3e
       0.16031812 0.1154998 -0.0063952664 0.45636007
0000b0 34 ad 79 bd f2 53 c2 3d a8 61 01 3e f6 bf 09 3e
       -0.060956195 0.094886675 0.12634909 0.13452134
0000c0 ca 99 96 bc 54 41 c5 bd 24 4b 96 3c 9f dc d3 be
       -0.01838388 -0.09631601 0.018346377 -0.41379258
0000d0 72 65 14 3e d2 53 6c be 2b a5 94 bd f4 3d ca bd
       0.14491823 -0.2307885 -0.07258066 -0.09875098
0000e0 bf 2f 97 be 0a f1 0e 3e 66 40 8e 39 b3 17 71 be
       -0.29528615 0.13959137 0.0002713233 -0.23544197
0000f0 19 ab 1d be fe 06 61 3e 46 c4 c1 3c ee d2 01 be
       -0.153973 0.21975324 0.02365316 -0.1267812
000100 83 b9 bd be ab fa 7f 3e bf 2d 4d 3d a4 3b 03 3e
       -0.37055597 0.24997966 0.050092455 0.1281572
000110 92 74 42 be 5b 43 50 be 25 0a e5 bd 50 f2 11 bd
       -0.1898978 -0.20338194 -0.111835755 -0.035631478
000120 87 30 37 3e 03 e3 17 bd 4c 54 02 3a 4c 1a 84 3e
       0.17889605 -0.03708173 0.00049716677 0.25801313
000130 c7 2a 1f be 05 cd b8 be 99 a5 fa 3d df 8f 26 be
       -0.15543662 -0.36093917 0.122386165 -0.1626582
000140 65 77 c3 bd 73 a3 df 3d 19 52 34 be 37 bf 6e be
       -0.09544257 0.10919847 -0.17609443 -0.2331513
000150 93 93 17 be 7e 35 08 3e 0a 56 81 be 7b e4 14 3e
       -0.14802389 0.13301656 -0.25260955 0.14540283
000160 46 18 b0 3e 37 41 79 3d 81 b8 3a 3e 10 83 08 be
       0.3439352 0.06085321 0.18234445 -0.13331246
000170 36 34 52 3e 72 32 89 3e 6a 3c b2 bd eb 54 40 bd
       0.2052773 0.267963 -0.08702929 -0.046955984
000180 c3 01 21 3e 8c 39 81 be a1 48 3f be 66 24 fc 3d
       0.15723328 -0.25239217 -0.1868005 0.1231163
000190 bf be b7 3c d0 43 94 be ea f9 e7 bd f1 8c a2 ba
       0.022429822 -0.28957987 -0.11326964 -0.0012401623
0001a0 3b 8f 96 be fc 98 1e 3d 70 8f 02 3e 1e c8 2c 3e
       -0.2940615 0.038720116 0.1275003 0.16873214
0001b0 b2 bb 24 be 89 92 ac bd 77 33 39 bd 43 75 77 be
       -0.16087225 -0.08426387 -0.045215096 -0.24165826
0001c0 fc a5 4e 3e 60 02 62 3d 8a 9a 84 3e a2 1a 94 3e
       0.20180506 0.055178046 0.25899154 0.2892657
0001d0 af eb 2d bb 38 82 07 be 47 77 8a be ca 26 70 bd
       -0.0026538183 -0.13233268 -0.27044126 -0.058630742
0001e0 6e 96 51 be 7a 33 21 3b f7 e9 53 be 58 09 90 3d
       -0.2046754 0.0024597333 -0.2069472 0.07033032
0001f0 0a 4e 02 bd ba 51 7e 3c d2 8a aa 3c 4e 92 90 be
       -0.031812705 0.015522415 0.020818148 -0.28236622
000200 bf ec b3 3d cc 26 19 be bb 08 4d 3e b1 53 38 3c
       0.0878539 -0.14956206 0.20022862 0.011250422
000210 10 73 34 3e 6a 8c 05 3e 6f cb f8 3d 10 9b a0 3e
       0.17622018 0.13041845 0.12148177 0.31368303
000220 a1 35 8d 3d 2f 5d 32 3e 95 46 63 3e ab 1e 26 be
       0.068949945 0.17418359 0.22194894 -0.16222636
000230 9d e3 60 3e 22 d8 64 be 3c a8 e9 3d 0a 6a e6 3d
       0.21961828 -0.22348073 0.11409041 0.11250694
000240 bb 13 35 3e 40 78 bb bc bc c3 86 be 89 6c 91 be
       0.17683308 -0.022884488 -0.26321208 -0.28403118
000250 24 a9 25 3d 9e ce ba 3e 19 89 38 be 6e b8 91 3e
       0.04044451 0.3648576 -0.18021049 0.2846102
000260 0b b7 54 3e ad 68 4f be ad b7 31 3e 27 a6 46 be
       0.2077295 -0.20254774 0.17355223 -0.1939932
000270 27 7c 5c bd 07 2b 3d 3e d9 61 fd bd d7 37 78 be
       -0.05382934 0.18473445 -0.123721786 -0.24240051
000280 77 4d fe be 70 3d 91 bd 0c ce bd bd 83 88 d1 3d
       -0.49668476 -0.070917964 -0.09267816 0.10231116
000290 7c 7b 86 3e c7 bd 6b 3e e7 a1 9c 3d d1 c1 ec bd
       0.26266086 0.23021613 0.07648068 -0.11560405
0002a0 bc 0e 8f be 01 04 33 3c f6 d5 a6 bc 98 03 93 be
       -0.2794093 0.010926248 -0.020365696 -0.2871368
0002b0 0f f0 4c bd 35 19 16 be 31 c5 09 be 80 f0 29 3e
       -0.050033625 -0.14658053 -0.13454129 0.1659565
0002c0 a1 5e 2d be 55 a8 9e 3e 9a 58 5e 3e 5f ca 0d 3e
       -0.1693063 0.30987802 0.21713486 0.1384673
0002d0 23 5e f1 3e 16 91 30 3e be 8e 12 3e 8b 42 37 3e
       0.47142133 0.17242846 0.14312264 0.17896478
0002e0 d2 de 06 3b 92 af 7d bc 33 5e 1f be 79 fa 06 bc
       0.0020579589 -0.015483754 -0.15563278 -0.008238428
0002f0 35 80 ac bd 0e e8 7c bd 77 cf 77 3e bf 61 a9 3c
       -0.08422891 -0.061744742 0.24200235 0.020676492
000300 7f 57 79 3d 12 b4 cc bc 03 51 70 3e f3 61 82 3e
       0.06087446 -0.024988208 0.23468404 0.25465354
000310 2b 65 ca bc 08 0f 84 3e ee ef 06 3d b3 00 01 be
       -0.024706444 0.25792718 0.03294366 -0.12597923
000320 9a 24 aa 3e 26 f4 56 bd 6f 01 19 bd 45 c8 04 3e
       0.3323105 -0.05247893 -0.037354883 0.12967022
000330 6d 9e 3e 3e 20 1f 84 3e 3e d5 32 3c e2 aa 9d bd
       0.18615122 0.25804996 0.010915099 -0.07698609
000340 a8 40 5e 3e 3a b3 8c 3d 91 83 41 3d ef 75 54 be
       0.21704352 0.06870122 0.047244612 -0.20748113
000350 8b 01 67 be aa 90 63 be 47 9c 58 bd 4e f7 df 3d
       -0.22559182 -0.22223154 -0.052883413 0.109358415
000360 6b 4a 76 3c 13 d4 48 be bc 10 ff 3c 3c c3 9e 3d
       0.015032391 -0.1961215 0.03113591 0.07752082
000370 2d ab 26 3e 72 de fe 3c 81 5f 10 3e 27 50 8f be
       0.16276236 0.03111193 0.14098932 -0.2799084
000380 a4 fc c9 bd db ab 98 3e 61 67 b6 bd 92 f2 f9 bd
       -0.098626405 0.29818615 -0.08906437 -0.1220447
000390 2f 80 d8 be f8 c6 b7 3e cc d6 0b 3d 7d 65 12 3e
       -0.42285296 0.3589399 0.034140393 0.14296527
0003a0 b0 fa 2a 3e 56 d7 71 3c 5a fd 2a be 3f eb 05 3e
       0.16697192 0.014760813 -0.16698208 0.1307802
0003b0 94 96 84 bd 73 89 c7 bd 60 55 0b bc d1 0a 22 be
       -0.06474033 -0.09743013 -0.008504242 -0.15824439
0003c0 5c 78 d6 3c 21 d3 56 be 8d d9 9f 3e 9e 4b 49 3e
       0.026180439 -0.20978977 0.31220666 0.19657752
0003d0 44 a8 0f 3e 04 eb 01 3e 69 d1 6d be 9e 5e e2 bc
       0.14029032 0.12687308 -0.23224415 -0.027633008
0003e0 1d 6a a9 bd 2b 95 4a be cf 54 46 3d 5d 26 83 be
       -0.082721926 -0.19783466 0.048420724 -0.25615206
0003f0 14 4d 25 3e 7a 2e 01 be 2f bb 91 be 0e 3a 33 3d
       0.16142684 -0.12615386 -0.28463122 0.043756537

mlp_extractor.policy_net.2.bias f4 [64]
000000 f6 94 0e 3d 26 63 97 bd 6e 15 b9 3c 9f 3c 1a bb
       0.03481003 -0.07391958 0.022593226 -0.0023534668
000010 8f f1 04 bd f4 a2 56 3d 76 af 43 3c e0 71 a8 3d
       -0.03245693 0.052401498 0.011943689 0.08224845
000020 a6 26 49 3d 83 0e 35 bd 5c 01 90 bd ad 25 8b 3c
       0.049109124 -0.044203293 -0.07031509 0.016985739
000030 4d c8 c1 3d 9d 99 72 bd e7 88 fd 3d 04 21 81 3d
       0.094620325 -0.05922853 0.12379628 0.06305125
000040 dd cd 2d 3d de a8 ab 3d d9 2a 39 3d 28 70 f1 bc
       0.042432655 0.08381818 0.04520688 -0.029472426
000050 ea df 20 bc 37 0f eb bc 06 c2 9b bd 3b f4 a9 bd
       -0.00981901 -0.028693778 -0.076053664 -0.082985364
000060 fe f9 b4 bc 7a e7 3e bd 2f c4 aa bd 38 b1 93 3d
       -0.022091862 -0.046607472 -0.083382 0.07211536
000070 10 85 7b 3c 10 d6 c6 bc 1a 41 a5 3d 85 9c 4c bd
       0.015351549 -0.024271995 0.08069058 -0.049953956
000080 2b 07 69 bb b8 49 ed 3a fb dd d4 bd 70 c9 d5 bd
       -0.003555725 0.0018103635 -0.10393902 -0.10438812
000090 55 65 99 3b 90 b5 df bd 25 be 7d bd 2e a2 25 3e
       0.004681269 -0.10923302 -0.061948914 0.16175148
0000a0 f2 d4 8c 3d 9a be b4 bc d2 31 7a 3d c8 52 8b 3d
       0.068765536 -0.022063542 0.06108267 0.06802899
0000b0 e0 01 2a bd c9 7e 2c bd 0b 3a 81 3d bc dc 17 bc
       -0.041505694 -0.0421131 0.06309899 -0.009268936
0000c0 bc ad a7 3c b0 cc 73 bc d5 3e 4a bd 3a 29 07 3e
       0.020468585 -0.014880344 -0.049376328 0.1319932
0000d0 ae 31 5b ba da 2f 85 3d fc e4 23 bd 48 f7 8f 3d
       -0.000836159 0.065032676 -0.0400133 0.07029587
0000e0 aa d7 46 bd 9f 92 e0 bc a4 49 f5 3c 0b 71 8f bc
       -0.048545517 -0.027413664 0.029942341 -0.017509958
0000f0 e9 f0 b1 bc bd 1a 82 3b 99 60 da 3d e0 7c d8 bd
       -0.02172132 0.0039704726 0.10662956 -0.10570693

mlp_extractor.value_net.0.weight f4 [64, 24]
000000 f2 56 a4 be 0e 0c 60 bf 57 53 5f 3f b3 1f a0 3f
       -0.32097584 -0.87518394 0.8723654 1.2509674
000010 30 a3 a8 3e 52 9c 3e 3d 54 54 17 3e bb 64 61 bf
       0.32937002 0.046535797 0.14778262 -0.8804433
000020 74 06 ba 3d c5 be 7e 3f 77 75 27 3e 5d bd c5 bd
       0.09083262 0.9950984 0.16353403 -0.09655259
000030 44 dd 9f bd c4 d4 b7 bd bd 09 99 3e ba 58 ec 3e
       -0.07805875 -0.08976129 0.29890242 0.46161443
000040 35 5b 3d bd 93 6c b4 3c 80 f4 f7 3c 2c 95 36 3f
       -0.04622956 0.022024428 0.030267954 0.7132137
000050 1f bd 7a 3f 3e af 8c 3d 7a f7 98 3e 9d 3b 15 3e
       0.97944826 0.06869362 0.2987631 0.14573522
000060 30 68 44 3f d4 4d 43 40 b1 4c 23 c0 99 8f 99 bf
       0.7672148 3.0516253 -2.5515559 -1.1996948
000070 6d 1a 7f be b8 2f da bc c5 0a d0 bd 98 71 eb bd
       -0.24912424 -0.026634082 -0.10158304 -0.11496276
000080 ff 32 35 3e 44 c3 74 3f 3c 57 a1 be 41 c6 09 3e
       0.17695235 0.9561045 -0.31511867 0.13454534
000090 55 ad 44 3d 3e 5d 4c 3d 94 1f b1 3d 4a 6b e8 3d
       0.048016865 0.04989361 0.08648601 0.11348589
0000a0 65 77 7d be 46 89 9e be b0 d3 6b be d1 5d 87 bc
       -0.24752577 -0.30964106 -0.23029971 -0.016524227
0000b0 b0 12 98 3d 31 19 35 be be e2 0c 3e 8e d6 1e be
       0.07425439 -0.17685391 0.1375837 -0.15511534
0000c0 d2 75 7c bf e7 95 78 bf 67 6c 88 3f 73 8f 50 bf
       -0.9861728 -0.9710373 1.0658082 -0.81468886
0000d0 94 ed df be a2 de 16 3d ee 9f 80 be 79 99 d0 be
       -0.43735945 0.036833413 -0.25122017 -0.4074209
0000e0 24 e6 56 be cd d4 8c bf 5e 1b 00 be 0d 48 f3 be
       -0.20986229 -1.1002442 -0.1251044 -0.47515908
0000f0 9b 12 c8 3e 5e fb 12 bd 4a 6e 01 3f 7d 9b 1b 3f
       0.39076695 -0.035884254 0.5055891 0.6078413
000100 1a cb 55 3e 1b 63 3b bd ac e9 a0 3d 16 28 8f bd
       0.20878258 -0.04574881 0.078570694 -0.06990068
000110 85 9d 2f bf bf 7c 34 bf 2a 04 ac be 13 14 40 3e
       -0.6859973 -0.7050285 -0.33596927 0.18757658
000120 70 4d 16 3f 3d ff 2f 3f 0c eb a9 bf 92 7b 97 3e
       0.5871191 0.6874884 -1.3274856 0.29586464
000130 9b 36 0a 3c de c3 2a 3d ec 3a 82 3e 4f b7 31 3d
       0.0084358705 0.0416907 0.2543558 0.043387707
000140 05 75 b0 3c 72 57 59 3f 0c 95 15 3d ca c5 98 3d
       0.021540174 0.84899056 0.036519095 0.074596
000150 46 6a 5c bc 71 24 3c be e0 88 42 3f 84 3f 06 3f
       -0.013453072 -0.18373276 0.75990105 0.5244067
000160 b0 d1 f9 3e cb 0e cf 3e 73 1d 8d be e1 ce 8d bf
       0.4879279 0.40440974 -0.2756153 -1.107876
000170 7e 87 6a bf 49 ed c3 be cd 5c 32 be 9a c1 d2 3c
       -0.91612995 -0.38266972 -0.17418213 0.025727082
000180 4d 21 3c 3f 86 2b d5 3f 83 2f a1 bf 10 22 65 be
       0.7348831 1.6653907 -1.2592624 -0.22376275
000190 26 68 62 bf 72 d3 4d 3e 5e 33 4e 3e ad b1 36 3e
       -0.8844017 0.20100191 0.20136783 0.17841215
0001a0 5c e4 db be ab 6a 0b 3f f1 36 98 3c ae 54 0b 3e
       -0.42947662 0.5445964 0.018580886 0.13606521
0001b0 39 ae 02 bd 3c 0b 02 3e 75 5b b5 3e ab fd ec bd
       -0.031904433 0.12699598 0.3542134 -0.11571821
0001c0 26 b4 37 bf 9d cc d7 be cf 3f 74 bf 0c d0 d4 be
       -0.7175926 -0.42148295 -0.95409864 -0.41564977
0001d0 8a fd 06 bd 18 8c 66 3e 57 78 66 3d 72 49 42 be
       -0.032956637 0.22514379 0.05626711 -0.1897333
0001e0 fb d8 75 bf 34 46 23 bf ba 48 3a bf ce 2b 9a 3f
       -0.9603421 -0.63778996 -0.7276722 1.2044618
0001f0 cf 50 c8 3d e7 ff 46 3e 33 c3 1c bf 42 73 75 3d
       0.09781038 0.19433556 -0.6123535 0.05992437
000200 7e 24 18 bc 7f a5 9d bf dd 5b 7f be 2a 0e 00 3e
       -0.009286044 -1.231613 -0.24937387 0.12505403
000210 47 4f bd bd 91 f9 51 be 35 59 2e 3e d4 67 0b 3f
       -0.092436366 -0.20505358 0.17026217 0.54455304
000220 ab e8 bb 3e bb 02 2b 3f 5e 61 7e 3f ff a6 5a 3f
       0.3670095 0.6680104 0.9936732 0.85411066
000230 2d 20 8a 3e f0 82 25 3d 6d 9d 80 be 01 ee 1d be
       0.26977673 0.040408075 -0.25120106 -0.15422823
000240 31 3d 83 bf d8 16 2b c0 66 97 40 40 f3 78 7c 3e
       -1.0253049 -2.6732693 3.0092406 0.24655513
000250 84 21 0a 3f 75 24 95 bd 0b bb 22 bd c6 5a 77 3d
       0.5395739 -0.07282344 -0.03972916 0.060389303
000260 8d 71 c3 3e 68 e1 9f bf ee a6 71 3e 06 e8 38 bd
       0.3817257 -1.2490664 0.23598835 -0.04514315
000270 57 07 e9 3d 1d f5 2d bd 19 e0 31 be 29 cf ce be
       0.11378353 -0.042470086 -0.17370643 -0.40392426
000280 04 e5 9c 3c ef 83 93 3e b3 0c 33 3e 80 ae 31 3e
       0.019152172 0.28811595 0.17485313 0.17351723
000290 4f 03 c7 3e b6 ec 85 3e 6b f1 df 3e c2 89 1b 3d
       0.38869712 0.2615716 0.43738875 0.037973173
0002a0 ac 3e 41 bf 56 10 76 bf 98 74 e9 3d e3 6b 29 bf
       -0.75486255 -0.96118677 0.113991916 -0.6618025
0002b0 87 91 ac bd 0c 36 30 bd dc a1 9c be e6 f0 b0 bd
       -0.08426195 -0.043020293 -0.3059224 -0.08639698
0002c0 a8 ba a4 3d 1e df a4 be f9 74 f6 3d f3 ca 6f be
       0.08043414 -0.32201475 0.120340295 -0.23417263
0002d0 6a 9b e9 bb 6f a8 3a 3e e2 02 14 bf 26 88 47 bf
       -0.0071291225 0.18228315 -0.578169 -0.7794212
0002e0 4d 4c 3e bf 05 35 a8 be 48 9a 15 bd 07 bc 85 3f
       -0.74335176 -0.3285295 -0.036524087 1.0448006
0002f0 79 73 0d 3f 9f a8 a0 bd 28 35 82 3d bc 6c 80 3d
       0.5525432 -0.07844662 0.06357795 0.062707394
000300 6a be b2 bf fd c8 53 bd 34 71 83 3d ad e1 76 3d
       -1.396436 -0.05170535 0.06418076 0.060273815
000310 a9 60 16 bf 42 90 2a be 4d 43 68 be d6 98 2a 3e
       -0.5874124 -0.16656592 -0.22681923 0.16659865
000320 67 5d f6 bd 74 9c 3c be 43 c5 77 3d de 87 d1 be
       -0.12029534 -0.18419057 0.060490858 -0.4092397
000330 ff 3e 97 bc 00 e2 08 be f4 8b f8 3d 3c c2 06 be
       -0.018462656 -0.13367462 0.12136069 -0.13160032
000340 73 8f 8d 3e 14 a2 d3 3e 99 6c 5d 3f 61 15 f6 3e
       0.27648506 0.41334593 0.8649383 0.48063186
000350 00 36 1a 3f 28 ac 68 3d 13 3e 8e 3e be eb b8 be
       0.6023865 0.056804806 0.27781734 -0.36117357
000360 44 cb 8a be 0a 70 4b bf b3 ce 1e 3f 07 e4 73 bf
       -0.27108204 -0.79467833 0.6203415 -0.9526982
000370 62 bf db be 4c da b2 be b8 72 8e be 0f 47 91 bd
       -0.4291945 -0.34932172 -0.27821898 -0.070936315
000380 dd 1e ee 3d 49 86 4c 3f 22 9b 10 bf a9 4c 22 3f
       0.116269805 0.798924 -0.56486714 0.63398224
000390 20 34 79 be 32 c2 04 bd 59 3f 94 3b 2a 3c 87 3e
       -0.2433629 -0.03241176 0.004524153 0.2641309
0003a0 77 73 b6 3d 02 41 12 3e c9 37 af be a8 32 53 bf
       0.08908742 0.14282611 -0.34222248 -0.8249917
0003b0 16 28 d0 be 0f b0 96 bb 6f 69 4e be 24 ff 9e 3d
       -0.40655583 -0.0045986245 -0.20157407 0.07763508
0003c0 af 50 20 bf 69 3c 95 bf 16 a4 d4 3f 87 80 40 bf
       -0.62623113 -1.1659061 1.6612575 -0.7519612
0003d0 d1 41 6c be e9 dc 81 3e 35 02 b3 bc 8d 51 ca bd
       -0.23071982 0.25363854 -0.021851638 -0.09878836
0003e0 fd a4 92 be b4 4d 11 3d 76 9c 12 be a5 14 8c 3e
       -0.286415 0.035474494 -0.14317498 0.273595
0003f0 bb a6 c8 3d 7b f1 cc 3e 8f 87 71 3e 66 17 19 bd
       0.09797426 0.40027985 0.23586868 -0.03737583

mlp_extractor.value_net.0.bias f4 [64]
000000 6f f9 88 3e 46 21 01 bf 8a d1 40 be c0 7e 9c 3e
       0.26752803 -0.50441396 -0.18829933 0.30565453
000010 40 ed bf be 3d 64 63 be 0c 3a 96 3e b2 01 d2 3e
       -0.37485695 -0.22206207 0.2934116 0.41016918
000020 1e 4a 2e 3e 61 32 54 3f d5 74 2f 3f 1c 36 53 bf
       0.17020461 0.8288937 0.68537647 -0.8250444
000030 74 cf 1c 3e bc 14 89 be 81 7a 5b be b7 5e c0 3e
       0.15313512 -0.26773632 -0.2143345 0.37572262
000040 90 9c 24 3f d2 64 d2 3d 80 a0 2e bd ae e0 d2 be
       0.64301395 0.10273136 -0.042633533 -0.41187042
000050 9d 09 4c bd 99 07 12 bf 5a 38 ce be 80 4f d9 3d
       -0.049813855 -0.57042843 -0.40277368 0.106108665
000060 25 2a 87 bf 8f ab ed 3e 13 09 af be 73 8b 8c be
       -1.0559736 0.4641995 -0.3418661 -0.2745014
000070 c2 b3 c6 be f0 32 fe ba b0 c0 4f be e0 3e d9 3e
       -0.3880902 -0.0019393843 -0.20288348 0.42430782
000080 47 24 a0 be c8 b1 df 3d 65 a4 8e 3f c2 a2 72 3f
       -0.31277677 0.10922581 1.1143919 0.947796
000090 bb a9 80 be e8 b0 44 3f 57 5c 19 3e 35 c7 6f bf
       -0.25129494 0.7683244 0.14976631 -0.9366334
0000a0 7d 90 a9 3e d0 7d ff bd 3e 14 9e be 03 4e dc 3d
       0.33118048 -0.12475169 -0.3087482 0.10757067
0000b0 06 13 5a 3e 41 87 ba be 1d 1b b7 3d e7 7f 9b 3e
       0.2129632 -0.36431316 0.08940718 0.3037102
0000c0 29 17 8b 3e 6d ea 6f 3e 01 c8 85 be ac 7a ad 3e
       0.27166107 0.2342927 -0.26129153 0.33882654
0000d0 dd ed ca bd 55 8b 15 be c2 c5 8f 3c 6f 91 e0 3e
       -0.0990865 -0.14603932 0.017550353 0.43860957
0000e0 46 16 9e bd b1 80 a6 3e 24 57 25 be a2 ad 8b be
       -0.07719092 0.3252006 -0.16146523 -0.2728091
0000f0 08 2a c9 3e 5f 1f d0 3e 26 c1 58 3e 30 b9 8f 3f
       0.3928988 0.40648934 0.2116743 1.122839

mlp_extractor.value_net.2.weight f4 [64, 64]
000000 2a ca 04 bf 4e 80 d2 be b9 58 b1 be eb f1 f3 3f
       -0.5187098 -0.41113514 -0.34638003 1.9058203
000010 55 5a a6 3e 6a 43 9e bc 63 5c 75 be f0 74 c8 bf
       0.32490793 -0.019319255 -0.23961024 -1.5660686
000020 5d 84 06 3f 2b 7e 7a 3f e6 3c 6d 3e e5 7a 15 bf
       0.5254572 0.9784877 0.23167762 -0.5839065
000030 bb e5 02 40 4e 7b 15 be c2 44 b3 be 1b 8a 9e be
       2.0452716 -0.14597818 -0.35013396 -0.3096474
000040 3e 66 57 3f 86 13 af 3f 32 b6 ed 3e 94 8d cb be
       0.84140384 1.3677833 0.46428066 -0.39756453
000050 cc ab 1b bf 44 56 8a be ee 94 a8 bb d7 41 e0 be
       -0.60809016 -0.2701894 -0.005144707 -0.43800232
000060 bf 3a 81 bf e5 56 a0 3f 65 72 c0 bd e7 f0 f7 bf
       -1.0096053 1.2526518 -0.09396819 -1.9370393
000070 b2 52 08 3b 50 f1 94 be 21 81 c0 be b6 5a 8f 3e
       0.0020801243 -0.29090357 -0.37598518 0.27998894
000080 41 09 b1 3e e0 e3 08 bf a4 db 62 40 2e cc 43 3f
       0.34577373 -0.5347271 3.5446558 0.7648343
000090 04 d9 f7 be e2 ca 61 40 b7 1c b4 bd 49 fa 97 be
       -0.48407757 3.528008 -0.087945394 -0.2968314
0000a0 b1 7f 43 be ad d6 9f 3f 38 c0 30 be 5e 47 1f bf
       -0.19091679 1.2487389 -0.17260826 -0.6221827
0000b0 11 9d 8c 3f ba b4 8a bf 72 3c 47 3d c4 00 f0 3e
       1.0985433 -1.0836403 0.04864163 0.46875584
0000c0 21 59 bc 3f d6 7c b6 be 4b b7 4f 3e 00 1e 0d bf
       1.47147 -0.35642117 0.20284764 -0.551239
0000d0 20 85 9c bf 31 90 4b 3f dd 95 8d bf 59 4f 98 be
       -1.2228127 0.79516894 -1.106136 -0.29748037
0000e0 2c 18 9f be f8 be d2 3d 8d 88 bd bc 29 49 62 be
       -0.3107313 0.10290331 -0.023136402 -0.22098221
0000f0 e4 6e 10 3f d2 14 a2 bd 12 58 7f 3d 97 33 37 40
       0.56419206 -0.079141274 0.06233985 2.8625238
000100 96 4f 4d 3e bb 40 01 3e 67 ba 99 3e 21 06 5c be
       0.20049891 0.12622349 0.30025026 -0.21486713
000110 39 e1 60 bf 4d 74 05 3f 22 8e 83 3e 33 4f c9 3e
       -0.8784366 0.52130586 0.25694376 0.39318237
000120 e6 4c 3d 3f b9 8b 30 bf 45 c0 1a bc 94 c7 f9 3b
       0.7394546 -0.689632 -0.009445255 0.0076226685
000130 3f 58 91 3f d5 4f d1 be aa ef 2b bf 77 11 ff bd
       1.1355056 -0.4088122 -0.67162573 -0.12454503
000140 f8 bb 97 bf 65 8e 9a be a6 38 e2 be df 14 1c 3e
       -1.1854239 -0.30186763 -0.44183844 0.15242337
000150 2d 0b 23 bf 00 3f cc be 86 24 87 bf a2 f3 0b 3f
       -0.6368893 -0.39891815 -1.0558021 0.5466863
000160 81 31 2e bd c5 63 7a bf be 2c c0 be 02 8a 42 be
       -0.04252768 -0.97808486 -0.37534136 -0.18997958
000170 c4 00 91 3f 9d b5 45 3f 10 69 a5 bf e9 92 a2 bf
       1.1328359 0.77230245 -1.2922688 -1.2701083
000180 79 89 13 bf 48 aa 03 bf 59 f9 46 bf 77 0e 82 bd
       -0.5763164 -0.51431704 -0.77724224 -0.06350415
000190 8c ea 63 bf b4 d1 3b bf 3d c9 f4 3e f8 91 19 3f
       -0.89029765 -0.73366857 0.47809783 0.59988356
0001a0 ba e7 33 be 82 d1 a7 be 76 53 b2 be cc 3a d0 3e
       -0.17568865 -0.3277703 -0.348293 0.40669858
0001b0 3d 12 da 3f d1 34 3e be f2 86 a9 bd 8c 00 80 be
       1.7036816 -0.18574835 -0.08277692 -0.25000417
0001c0 b4 44 5b 3e 22 e5 e2 3e 94 92 02 bf f4 bd 67 bf
       0.21412927 0.4431544 -0.5100491 -0.9052422
0001d0 11 05 dd 3e e8 b4 35 bf 44 f9 78 bf 1b 13 9f be
       0.43167928 -0.70979166 -0.9725535 -0.31069264
0001e0 5b ae 33 3e 4a c0 3f 3f 5e fd 26 bf 10 e9 94 3f
       0.1754698 0.74902785 -0.6523036 1.1633625
0001f0 a9 a6 75 bd 8b 59 64 3f 8b 35 7f 3e b8 37 87 bf
       -0.059973393 0.8919913 0.24922769 -1.0563879
000200 90 cd a7 bd 2f a4 6e bf ad 43 dd be 38 a8 a2 3e
       -0.08193505 -0.93219274 -0.43215695 0.31768966
000210 ff 91 e6 3d e8 e0 ae 3e 31 61 bc 3e 45 fc 84 3f
       0.11258315 0.34155965 0.367929 1.0389487
000220 63 03 e4 bd b4 d5 cb 3e 24 16 af 3e ac f0 cf bf
       -0.111334585 0.3981148 0.3419658 -1.6245322
000230 a8 d2 19 bb 90 fe eb 3c 0a 4b 38 bf 9a a6 ac 3e
       -0.0023471508 0.028807908 -0.719895 0.33720857
000240 7d 2e 24 3f a1 99 a9 bf b8 6b 7f bd e9 90 7f be
       0.64133435 -1.3250009 -0.062358588 -0.24957623
000250 69 77 23 3f 65 6f 2b be 8a af 1a bf 7f 50 ea be
       0.6385408 -0.16741712 -0.604241 -0.4576454
000260 48 47 d8 bf 08 49 e7 be 0f c4 f2 bd 80 4c c4 3d
       -1.6896753 -0.45172906 -0.118538015 0.09584904
000270 d5 49 4c bf 49 5c 88 3e 23 2c 9e bf ed 9c 99 3f
       -0.7980016 0.26632908 -1.235722 1.2001015
000280 2d de aa be 0b bc f7 bb 64 3f 03 40 14 81 2b 3f
       -0.33372632 -0.0075602583 2.050744 0.6699383
000290 58 13 6d be c0 be 98 3e 9d 01 9b bc 7b 7a b6 bf
       -0.2315191 0.2983303 -0.018921668 -1.4256128
0002a0 78 2d 83 3e aa 9b 7d bf 3b c2 cf be 08 62 f5 be
       0.25620627 -0.9906565 -0.40577874 -0.47926354
0002b0 c5 3a b5 3e 5c 3b 10 bf df 19 8a 3e 11 68 4c 3f
       0.353964 -0.56340575 0.26972863 0.7984629
0002c0 ee bd c4 3e e6 a5 a3 be d0 43 7f be 7b 00 4b 3c
       0.38426155 -0.31962508 -0.24928212 0.012390251
0002d0 8a 1a fd be cc ed c3 be 5b bf 51 3f dc 99 3c bf
       -0.4943431 -0.38267362 0.8193261 -0.7367227
0002e0 28 b9 f5 3d d2 02 14 3f 80 29 25 bf 0a e2 d6 be
       0.119982064 0.57816803 -0.6451645 -0.4196933
0002f0 35 58 45 3f 0d d9 94 3d 75 75 ef 3e cd f9 72 3f
       0.7708772 0.07267962 0.467693 0.94912416
000300 31 b8 5a 3e ae a4 c2 bf 14 1f d9 bd 6a 14 80 bf
       0.21359326 -1.5206506 -0.10601631 -1.000623
000310 09 af 5d bf 1a c5 aa 3f 08 a4 d0 3f bd 56 01 40
       -0.8659521 1.3341401 1.6300058 2.020919
000320 0b 4b 22 40 f0 cb 47 3f c1 45 b1 3f 06 84 b2 bf
       2.5358303 0.7804556 1.3849412 -1.394654
000330 5f 74 58 3f 2e 85 32 c0 a1 4e 28 bf f4 64 3d 3f
       0.8455257 -2.7893786 -0.6574498 0.7398217
000340 d1 cd d6 3e 3f 52 84 bf b9 bf b1 bd 5f 53 5f be
       0.419539 -1.03376 -0.08679146 -0.21809147
000350 4b fc 22 3f db b9 f6 bf 79 96 8a bf 28 96 04 40
       0.6366622 -1.9275469 -1.0827171 2.0716648
000360 2e 82 ac bf 9b f5 f9 be e3 f2 0e c0 d3 be 4f 3e
       -1.3477228 -0.48820195 -2.2335746 0.20287637
000370 93 5d f3 be f2 cd 36 3f 24 18 f8 bd 59 28 90 be
       -0.4753233 0.71408 -0.121139795 -0.28155783
000380 a5 27 28 bf 74 4f 0e bf a0 ac a1 3f 5d c5 08 3f
       -0.6568549 -0.55589986 1.2630806 0.5342615
000390 27 b7 57 bf 8a 4c 06 3f cb 2c fa 3f 79 04 c2 bf
       -0.84263843 0.5246054 1.954492 -1.5157615
0003a0 70 41 30 3e c9 71 78 bf 2b 66 70 bf 38 63 55 be
       0.17212462 -0.9704862 -0.93905896 -0.2083863
0003b0 f8 83 54 3e 4f 5f ce bf 8f 46 08 3e fe 86 32 3f
       0.20753467 -1.6122836 0.13308166 0.6973723
0003c0 1c 9a 0e 3e 43 50 1c be c8 9c ec bf 1a 63 01 3e
       0.13925976 -0.15264992 -1.8485346 0.1263546
0003d0 a8 af 32 3f 10 1d 07 c0 16 02 19 bf 61 5f 1d bf
       0.6979928 -2.1111488 -0.5976881 -0.6147366
0003e0 96 d8 73 be e6 e0 3a 40 5a 63 3c bf 81 36 cc 3f
       -0.2381309 2.9199767 -0.735891 1.5954133
0003f0 b6 f1 7a 3f 71 7e 49 3e 6d ac 2e 3f 07 5b 92 3e
       0.9802507 0.1967714 0.6823185 0.28585073

mlp_extractor.value_net.2.bias f4 [64]
000000 25 f3 60 3f 29 7d c6 bd 13 98 8e 3e b1 b0 59 3e
       0.8787101 -0.09691841 0.27850398 0.21258809
000010 d3 31 8e be 9f c3 d1 be 84 a9 03 3f 55 6f 94 be
       -0.27772388 -0.4096956 0.51430535 -0.2899119
000020 8a cc 34 bc 19 79 b0 bd 0d 92 ed bc 58 17 8f 3e
       -0.011035094 -0.086168475 -0.029000307 0.27947497
000030 a1 d6 18 3e bf 6b 4f 3e ef ec f4 3d 5d c0 00 be
       0.14925624 0.20255946 0.11959254 -0.12573381
000040 cc 76 f7 bd fe a0 06 3e 91 66 3a 3c 02 f6 59 bf
       -0.120832056 0.13147351 0.011376993 -0.85141003
000050 a8 d3 c0 3e 3b 95 b5 3e e5 83 61 bf b3 13 c6 3e
       0.3766148 0.35465416 -0.8809188 0.38686904
000060 4a 12 80 3d 44 ab a7 bc fd cf 01 3e ab 18 61 3d
       0.06253488 -0.020467408 0.12676997 0.054955166
000070 5d c3 62 be d2 85 d3 3d 33 96 57 be d2 60 10 bd
       -0.22144838 0.103282586 -0.2105339 -0.035248585
000080 31 ba b3 be 83 2e 81 be c2 62 df 3e ef a9 6c 3e
       -0.3510299 -0.25230798 0.43630034 0.231117
000090 c5 cc 30 ba 33 0a d9 3e 40 df c8 be 77 1c 33 3e
       -0.000674438 0.42390594 -0.39232826 0.17491327
0000a0 4a 64 04 be df ea e3 3e 24 b2 38 bd f9 9a ef be
       -0.12928882 0.4451513 -0.045091763 -0.46797922
0000b0 65 5e 9e 3e de 6f ad be 6a de ae bd 32 e9 af bd
       0.30931392 -0.3387441 -0.08538516 -0.085894
0000c0 7e cf 8c bd 26 26 53 3e 46 03 9c bd 7d bb cc be
       -0.068755135 0.20620021 -0.07617812 -0.39986792
0000d0 c2 1d 73 3c 96 91 86 be 8a 38 cb bd 11 45 cc 3d
       0.014838638 -0.26282948 -0.09922893 0.09974111
0000e0 67 7f c1 3c 8a 9e e0 3e ad b5 9e 3e b5 e1 4f 3e
       0.02362032 0.43870956 0.30997983 0.20300944
0000f0 88 ec d5 bd d3 d0 93 be e0 87 d6 3d 26 c3 57 bd
       -0.104455054 -0.28870258 0.10475135 -0.052676342

action_net.weight f4 [4, 64]
000000 e4 85 8a bc f9 fe e3 3b 1a b6 93 3d 0a ec 36 3d
       -0.016909547 0.0069578853 0.072124675 0.0446587
000010 0e 4b bf bc 0b c4 f7 bd 46 74 c3 bb 05 5a 70 3c
       -0.023351219 -0.12097939 -0.0059647886 0.0146699
000020 bd 22 94 3d 57 da c3 bc 0a 0f e9 3c 2a 61 a2 3d
       0.07233188 -0.023907823 0.028449554 0.07928689
000030 79 df 7c 3c bc 45 e1 3d 72 18 09 bd 14 f2 1f 3d
       0.015434139 0.10999629 -0.03347058 0.039049223
000040 56 07 8a bd 34 fb 77 3c 42 46 52 bd 2a 4e ee 3b
       -0.067396805 0.015135575 -0.051336534 0.0072725015
000050 9e 94 83 3d 1d f3 90 3d fb 0b 83 3d a8 56 29 3c
       0.06424831 0.0707762 0.063987695 0.010335602
000060 9b bb 9e bd ee 89 17 3c 46 52 fa 3d e5 43 c7 3c
       -0.07750627 0.009249194 0.12222724 0.024324367
000070 7e 2d 5a 3d 1d 2e b0 3c d8 57 17 3c 05 67 f3 3c
       0.05326604 0.021506364 0.009237252 0.02971221
000080 57 19 b3 bd f7 96 16 bd 2c 6a af bd 2e 29 f9 3c
       -0.087450676 -0.036765065 -0.085651726 0.030415144
000090 db 01 ff bb 72 d7 8b 3d 70 1e 53 bd 65 de aa bd
       -0.0077822036 0.06828202 -0.0515427 -0.083432
0000a0 f9 ea 07 be df 1e bb 3c 48 b8 e9 3c 3a 0a 93 bd
       -0.13273229 0.022841869 0.028530255 -0.07179685
0000b0 eb 6b 44 3e 50 ae 0a bd ee bb 20 be 5a 0f ac 3d
       0.19181792 -0.033857644 -0.1569669 0.084013656
0000c0 76 45 58 3d 81 18 60 bd d4 03 c6 3c bd cb 15 bd
       0.052800618 -0.05471087 0.024171747 -0.036571253
0000d0 77 39 63 3d 3f 7e d7 3c 18 7c 32 3e 8d d0 83 3c
       0.055474725 0.026305316 0.1743015 0.016090656
0000e0 79 2a d0 3d 2e 56 7d bc 64 48 06 3c 8a 58 f4 bb
       0.10164351 -0.015462441 0.00819597 -0.0074568437
0000f0 ea 95 db 3d d0 91 06 be 64 78 f6 bd 4b 9b 84 3e
       0.10721953 -0.1314156 -0.120346814 0.2589973
000100 56 a8 81 3c 51 4d 17 3c df 78 2b 3e 78 b2 81 3c
       0.01582734 0.009234742 0.16745327 0.01583217
000110 99 ee 24 3d 33 bb 1f 3e 49 ae 1d be 2f c5 1d bd
       0.040266607 0.15598755 -0.15398516 -0.038518127
000120 5a 21 ef bc ea 6d 85 3d 7c dd a7 3d bf 29 b4 3d
       -0.029190708 0.06515105 0.08196542 0.08797025
000130 ca e2 1a bd 1a 10 24 3d bd 8d 08 3d 73 eb 12 bd
       -0.03781394 0.04005442 0.033338297 -0.035869073
000140 6d 2d 74 3c ab b8 43 bd 8a 98 be 3b 3c 80 97 bc
       0.0149034085 -0.047783535 0.005816524 -0.018493764
000150 d5 6b 16 3d d0 4d 05 3e 7f 7a 8d bd 99 d1 9e 3d
       0.03672393 0.13017964 -0.0690813 0.07754821
000160 9e d8 20 be 6b 1d 89 3d 6c 2c a4 3d 2d a1 bc 3c
       -0.15707633 0.06695064 0.08016285 0.023026073
000170 71 4f b4 3c ba 0a 28 bd 89 55 8d bd be 88 4d 3d
       0.022010537 -0.041025855 -0.0690108 0.050179236
000180 e0 be 95 bd 39 0d a5 bc d6 53 45 3d 93 44 9b 3d
       -0.07311797 -0.020147907 0.048175655 0.07581439
000190 c6 b5 2d 3e d3 61 1a 3e af 77 69 3c 66 07 ad be
       0.16963872 0.1507638 0.014249726 -0.33794707
0001a0 39 b9 fa 3c ac 94 02 3e 0c 5c d3 3c 3b fe b5 bd
       0.0306059 0.12752026 0.025800727 -0.08886381
0001b0 46 36 af 3d eb 01 da bd 3a 0f 7f bc a2 34 8c bd
       0.08555274 -0.10644897 -0.015567595 -0.068459764
0001c0 f5 df 43 3d 79 8a 15 be 70 69 d5 bd 5c 6a 86 bd
       0.047821004 -0.14603604 -0.10420501 -0.06563255
0001d0 7c 2f 93 3b f0 84 b5 bc 39 ad 85 3d b2 d2 8c 3d
       0.0044917446 -0.022158116 0.0652718 0.068761244
0001e0 b3 d0 a8 bd 99 20 49 bc 23 03 8c 3c 8a eb 0e bd
       -0.08242931 -0.012275838 0.01709134 -0.034892596
0001f0 34 f0 a3 bd 14 eb a1 3d 85 c7 5d be e2 9d 82 3e
       -0.080047995 0.07906166 -0.21658142 0.2551108
000200 89 f2 05 bd 81 4f a6 3d 24 c0 2d 3e e5 b6 fb 3c
       -0.032702003 0.08120633 0.16967827 0.03072686
000210 e9 62 ee bc c9 79 a1 3d 3c 29 4b b9 0a 12 a4 be
       -0.029099898 0.07884557 -0.0001937495 -0.32045013
000220 1e 14 cf bd 85 6b 40 3d 90 5b e0 3c 56 b9 77 3d
       -0.10111259 0.04697754 0.02738741 0.060479484
000230 9c 1c 0e bd 78 9c f0 bb 3a 3b 0d ba 8d 1b 55 bd
       -0.034695253 -0.0073428713 -0.00053875486 -0.052028228
000240 d8 3e 79 be df 84 cb bc a3 37 db 3c dd 9d 00 3e
       -0.24340379 -0.024843631 0.026759928 0.1256022
000250 4d e8 95 bc a2 70 2c 3e f6 1b da bc b1 fe fc 3d
       -0.018299246 0.16839841 -0.026624661 0.12353266
000260 61 b6 25 be 17 20 c0 3d a6 9a f9 3d 1b 15 b3 be
       -0.16182853 0.09381121 0.121877 -0.3497704
000270 33 57 b4 3d 3c 51 ff 3c 0f e8 a4 bd d4 8f 03 3d
       0.088056944 0.031166665 -0.08052074 0.032119587
000280 37 8e 6f 3d 6b 33 9f bd c3 f9 67 3d 93 3f 2e 3d
       0.058485236 -0.07773479 0.056634676 0.042541098
000290 fd 76 47 3d 89 cc 56 3e d7 30 85 3b 77 dd 23 be
       0.04869746 0.20976461 0.00406466 -0.16002451
0002a0 fd bb 26 bd 3b cf a3 3d ca 52 be bc 6c ff ee bc
       -0.040706623 0.079985105 -0.023232836 -0.029174529
0002b0 c0 72 e4 3d 15 e4 04 bd e3 37 07 be 92 3d 30 bd
       0.11154699 -0.03244408 -0.13204913 -0.043027468
0002c0 cb 1f b4 bc 8d 57 72 bc 1e 6a 92 bd ea 4d ad bd
       -0.021987816 -0.014791382 -0.071491465 -0.084621266
0002d0 32 87 c7 bd a2 a5 30 bd da c5 2a 3e bb ef f3 3c
       -0.09742583 -0.04312671 0.16677037 0.029777398
0002e0 ea d6 d9 bd 56 bc 10 bc 2c 58 3b bc 0f f8 19 bd
       -0.10636695 -0.008833965 -0.011434596 -0.037590083
0002f0 44 1c 08 be 4d 08 d9 3d 74 ea b3 be 71 c4 60 3c
       -0.13292032 0.105972864 -0.3513981 0.01371871
000300 2a 23 b3 bb 7e 06 8d bd cc 91 58 be d3 f9 25 3d
       -0.0054668384 -0.06886004 -0.21149367 0.040521454
000310 3f fb 13 3e 1d 29 b1 bd cd f8 af 3d 23 9c 1e bd
       0.14451312 -0.0865042 0.08592377 -0.038723122
000320 ae 98 22 3c 40 9c c8 bd 24 1d af 3d aa 12 d4 3b
       0.009924097 -0.09795427 0.0855048 0.0064719515
000330 d4 f9 dd bc 62 9b 20 3d f8 0b 80 bd 72 a1 fc 3d
       -0.027096666 0.039210685 -0.06252283 0.12335481
000340 57 ab 47 3b e6 61 e0 bd cb 69 94 bd 2c 06 9c ba
       0.0030467117 -0.10956173 -0.07246741 -0.0011903695
000350 46 a3 cc 3d 22 2b 45 bd 45 90 23 3c 7a 23 d3 bd
       0.099920794 -0.048136838 0.009983127 -0.10309501
000360 69 28 b1 3c 78 28 02 3d 04 a5 84 3d a9 0b 18 3e
       0.021625714 0.031776875 0.06476787 0.14848198
000370 92 a6 42 3d 5a 67 e5 bd a1 0a 55 3d af 70 2d bd
       0.047522135 -0.11201353 0.05201209 -0.04234379
000380 c2 3a 3b 3d 64 bd 54 3d 8b 93 81 3d dd ed 54 3d
       0.045710333 0.05193843 0.0632697 0.051984657
000390 c5 e5 1a 3d f0 67 1b be 10 86 49 3e 89 fd cd 3d
       0.03781678 -0.15176368 0.19680047 0.100581236
0003a0 15 f4 25 3d e9 84 33 3e 71 ed 4d bb 26 06 5c 3d
       0.040515978 0.1753117 -0.0031422044 0.0537168
0003b0 cf 1c ee bd 9c 07 00 bd 42 cc 39 be 57 d5 3c 3d
       -0.116265886 -0.031257257 -0.18144324 0.046101894
0003c0 5f 3e 05 3d 2c 14 da 3c 8d d6 76 bc 20 75 76 3d
       0.032530185 0.026620947 -0.015065801 0.060170293
0003d0 18 fd 7a 3e 09 56 2d 3d 77 f8 f5 3d e4 ee 1f 3d
       0.2451061 0.042318378 0.120102815 0.039046183
0003e0 8d 59 bd 3d b6 3e 1f 3d e4 d5 70 bd 20 ad 9c 3d
       0.09245596 0.038878165 -0.058797732 0.076502085
0003f0 78 c6 c5 bd 51 2b 08 be 90 ee 45 3e b3 30 a6 3d
       -0.096569955 -0.13297774 0.19329286 0.081147574

action_net.bias f4 [4]
000000 53 83 25 be da 98 27 3d b9 d8 a3 bd cf c8 f6 bd
       -0.16163377 0.040917255 -0.08000321 -0.1205002

value_net.weight f4 [1, 64]
000000 c8 3f ac c1 ba 98 d3 c0 89 8a 9d 41 7f 73 9a 41
       -21.531143 -6.6123934 19.692644 19.306395
000010 a7 54 9b c1 76 17 ed c0 21 bf a0 41 87 5d e0 c0
       -19.416334 -7.409114 20.093325 -7.011417
000020 c3 14 d7 c0 9d 58 9e c1 d7 f9 ee 40 3d c7 e5 40
       -6.7212844 -19.793268 7.467998 7.180571
000030 62 1a cf 40 a3 5a d2 40 b6 d3 1c c1 4e 6d d0 40
       6.4719706 6.573564 -9.801687 6.513343
000040 41 83 d8 c0 0c a6 05 41 55 47 ca 40 ec f2 a8 41
       -6.766022 8.353039 6.3212075 21.118614
000050 c8 53 a1 41 b8 bc dd c0 40 a0 b0 41 ed 76 df c0
       20.165909 -6.929287 22.078247 -6.9832673
000060 3c da d4 c0 87 dc e6 c0 2c 71 db 40 65 e5 ea c0
       -6.65164 -7.21442 6.857565 -7.3405023
000070 d4 71 cd 40 dd ce d8 40 a8 94 05 41 97 a7 dd c0
       6.420145 6.775252 8.348793 -6.9267077
000080 9a 82 07 c1 5a c4 e1 40 c3 87 d4 c0 19 b4 ee 40
       -8.469385 7.0552187 -6.6415725 7.4594846
000090 98 45 95 41 5c 64 06 41 e1 f5 13 41 a1 d8 9a 41
       18.658981 8.399502 9.247529 19.355776
0000a0 11 4a d4 c0 c9 03 1c c1 30 f0 f2 40 31 46 9e c1
       -6.6340413 -9.750924 7.59182 -19.784273
0000b0 e8 50 9b 41 9c a2 9d c1 87 b3 d6 c0 ee c7 db 40
       19.414505 -19.7044 -6.709415 6.8681555
0000c0 92 d1 d4 40 75 48 e7 40 fc 2f db c0 39 c8 e4 c0
       6.6505823 7.227595 -6.8496075 -7.1494412
0000d0 9e ea cf c0 7c 39 9d c1 5b 43 12 c1 d3 d9 dd 40
       -6.49739 -19.653069 -9.141444 6.93284
0000e0 28 f1 d8 40 16 1b eb 40 29 53 a1 41 63 a8 d8 c0
       6.779438 7.3470564 20.165606 -6.770555
0000f0 db 91 99 c1 af 6c e1 c0 a1 be 99 41 d4 87 96 c1
       -19.196218 -7.044517 19.21808 -18.816322
