Catcher_Flappy_Continuous_old/wandb/flappyBird/run_inacc_state_inacc_r/files/flappy_agent_inacc_state_inacc_r_2.pt (torch, 40129 bytes, 11 tensors)

critic.0.weight f4 [64, 4]
00000000: e435 943d 279b 4bbe 62ea 23bc f733 05be
00000010: fe97 8d3e d35c 813d 9a4d eabd 48c4 20be
00000020: f840 333e 1c6e ea3d cb87 5bbe a772 00be
00000030: 5a35 45be 5175 4b3e 1080 08bc cab3 073e
00000040: 9d1b e7bd 9d0b c8bd c0ae ddbd c015 9fbb
00000050: b623 0c3e 2d92 da3c 4d66 0b3d 851e d1be
00000060: 681d 893d 5a04 b53d a607 813e 3d84 6f3e
00000070: 4109 ef3b 62e0 f23d afd8 0e3e aff6 98be
00000080: 34c5 963d 021b 9d3d 9a0e 863e 5f7e 89be
00000090: c03f b2be d940 29bd 5e89 c53e 9fb1 9cbc
000000a0: b1cb 5a3d 81a9 f9bd 4fb6 d7be 262f b3bb
000000b0: ac6b edbe 4941 e83d 20b7 b23c ec18 833e
000000c0: 0b48 cbbd 6452 233e a9c1 4cbc 76bb 7dbe
000000d0: ce0f 12be c187 0e3e 41ae a63e 162a eebd
000000e0: 6203 633e 79fe e3bd a8da 163e 794e c1bd
000000f0: 57c3 023e efa3 9c3d 8376 55be e8e6 153e
00000100: c242 5ebe 06ad b23c fa3a b53e af49 12be
00000110: 2dde 5b3e 888f dcbd 3b1c 953e 0859 c03d
00000120: df24 dcbc 3aac bd3e f345 42bc 3771 403d
00000130: a9c9 ebbd d97a f4bd 722c a0bd 2e32 b2be
00000140: df05 9c3d cdd5 9cbe 4d04 38be 8d62 60bd
00000150: 7293 97bd f450 4c3d 04be eabd 4789 1b3d
00000160: 6501 abbc 75f2 a43e 3d7d d33d 0e6d d6bd
00000170: f77c 8dbe 46af fa3d c279 c3bd 01d1 7b3c
00000180: 3e95 69bd f73e af3d b37b 41bd 377c 183e
00000190: 8c42 8fbd 7388 f0be 8b9c 64be 3702 82bd
000001a0: ee00 35be e5a5 a3be 6581 a63d cbef 4a3e
000001b0: 7a22 1ebd 6e4c 0d3e 008b 963d ebc7 ce3e
000001c0: 76ba 323e faf1 8a3e bb36 923e 1584 393d
000001d0: d056 96be 3494 98bc e149 a93d 85a2 fd3d
000001e0: 75ab f83d 181c 60bd 7941 ac3d 336f a2bd
000001f0: 786a 89bd 634a 7abe d839 cd3e e80f 9bbe
00000200: 3acc ebba 86ae 513d 185f 583d 0929 573d
00000210: 4e3f cbbc 7976 663e 20f7 d53e 0fa0 78bd
00000220: 874d 113e c923 1b3d 30eb 95be 8a55 833e
00000230: cc9d 1bbf d98f fa3d a098 e2be afb3 56be
00000240: e5a1 4b3e c0c3 8b3e c1c9 ad3d 040c 1c3e
00000250: a6dc 513e e269 9fbd e06f 6bbd f843 4f3d
00000260: eb1c f2bc d57a 12be c925 17bd ab1c d6bd
00000270: d5f5 293d f83c 37bd b320 5ebe 8c51 c53d
00000280: baf1 93bd 2064 33bb 173a e8bd 6bc4 e4bd
00000290: 206e 243e e8eb 3b3d ddc9 4dbe 3d36 61bc
000002a0: 3ed5 abbe a03b e7bd 53ac 4bbe e167 6c3e
000002b0: 0154 d1be c020 9b3d eb0a 56bd 59f1 c3be
000002c0: 240b a1be 7cfc 0c3d 8207 b1bd 2e1f 853e
000002d0: 3349 fa3c eb09 82bd 37fd fc3c 9f76 c5bd
000002e0: db53 4e3e f251 083e 69cc df3d 0e3f b83d
000002f0: 8888 22be 4792 b23d dff7 a63d 1375 71bd
00000300: bed5 d63d 917d 843e 7222 6dbd 0719 6b3c
00000310: a84a ebbc 92d6 043e 9cf4 c4bd 9e46 44be
00000320: 12ae b23e db22 d13d 89d1 b8be e61e 89bc
00000330: 431e 803d 4ee1 853d 598d 1cbe 5071 e1bd
00000340: 6f3d 4c3d 4ded 19be c115 2c3e e4cb 663e
00000350: aa7b 9d3d 78ca 6d3e b0ad c63b 818b 903b
00000360: 9bf7 76bd b81d 8b3d 8142 333e 902b 0cbe
00000370: 6bab 9cbe 572a 833e b545 0b3d d0d6 0cbd
00000380: fd69 023d 0c32 683e cc19 883b 632f c9be
00000390: 2e68 013d 7e77 8abd 3ced 0abe 6ab3 073e
000003a0: a3e8 98bd 271a 363e 56b5 2e3e 29d4 c9bd
000003b0: 46ef bfbd a0bc b03e e13d 4e3e 68b8 393e
000003c0: 6eaa f2bd a9f6 2cbe 2464 053e 36f0 cabd
000003d0: aec9 a03e 8b08 b53d 7818 5abd fe81 a8bd
000003e0: 2a03 89bd 4c01 ad3c e2b4 d7bd f419 d53d
000003f0: 3b5c 1c3e cb37 263e 7eb7 b63d f6ce a53d
0.07236841 -0.19883405 -0.010004612 -0.13008104 0.27655023 0.06316533 -0.114405826 -0.15699875
0.17505252 0.11446783 -0.2143852 -0.12543736 -0.19258633 0.19868971 -0.008331314 0.13252178
-0.11284564 -0.0976784 -0.108243465 -0.0048548877 0.13685498 0.02668103 0.03403311 -0.40843597
0.06695062 0.088387206 0.25201148 0.23390289 0.0072948043 0.11859204 0.13949846 -0.29875705
0.07361832 0.07671167 0.26183015 -0.26854226 -0.34814262 -0.04132161 0.38581365 -0.019127665
0.05341691 -0.121905334 -0.42131278 -0.005468267 -0.4637121 0.11340577 0.021815836 0.2560495
-0.099258505 0.15949398 -0.012497344 -0.24778542 -0.14263842 0.13918974 0.3255482 -0.11629121
0.22169259 -0.11132521 0.14731848 -0.094387956 0.12769829 0.07648455 -0.2084599 0.14638865
-0.21705154 0.02181102 0.35396558 -0.1428592 0.21471472 -0.10769564 0.291231 0.09391981
-0.02687305 0.3704546 -0.0118574975 0.04698297 -0.11513073 -0.11937494 -0.07820977 -0.3480391
0.07618307 -0.30631867 -0.1797039 -0.054781485 -0.0740117 0.04988189 -0.11462024 0.037972715
-0.020874688 0.3221623 0.10326622 -0.10470019 -0.27634403 0.12240462 -0.09544708 0.015369655
-0.057027094 0.085569315 -0.04723711 0.14891134 -0.06995115 -0.46979102 -0.22325341 -0.06348079
-0.17676136 -0.31962505 0.08130149 0.19818036 -0.0386071 0.13798687 0.07350731 0.403869
0.17453942 0.27137738 0.2855738 0.04529198 -0.29363108 -0.018625356 0.082660444 0.12384514
0.12142078 -0.054714292 0.084109254 -0.07931366 -0.067097604 -0.24442439 0.40083194 -0.30285573
-0.0017989941 0.05119183 0.052825063 0.05252937 -0.02481046 0.22506131 0.41790104 -0.06069952
0.1418973 0.037875924 -0.29280996 0.256512 -0.60787654 0.12234468 -0.4425707 -0.20966981
0.19885977 0.27297783 0.08485747 0.15238959 0.20494327 -0.077838674 -0.05747974 0.05060193
-0.029554805 -0.14304669 -0.03690127 -0.10454687 0.04149421 -0.04473588 -0.21692161 0.096346945
-0.0722384 -0.0027372912 -0.11339205 -0.11170276 0.16057634 0.045879275 -0.20096536 -0.013745842
-0.33561128 -0.112906694 -0.19889955 0.23086502 -0.40884402 0.07574606 -0.052256506 -0.3827007
-0.31453812 0.034420475 -0.0864401 0.2600035 0.030552482 -0.06349548 0.030882461 -0.09641766
0.20149176 0.1331251 0.1092766 0.08996402 -0.15872395 0.087193064 0.081527464 -0.05894954
0.10489987 0.2587705 -0.057894178 0.014349229 -0.028722122 0.12972477 -0.09616968 -0.19167563
0.3489843 0.10211726 -0.36097363 -0.016738366 0.06255772 0.06537114 -0.15288295 -0.11007941
0.049863275 -0.1503193 0.16805173 0.22538716 0.07689603 0.23221767 0.0060631856 0.0044111614
-0.06029473 0.06792778 0.17505838 -0.13688493 -0.30599532 0.2561824 0.034002025 -0.03438455
0.03183936 0.22675341 0.004153466 -0.39293966 0.031593494 -0.067610726 -0.1356706 0.13252035
-0.07466247 0.17783414 0.17061362 -0.098549195 -0.0937181 0.3451891 0.20140792 0.18136752
-0.11848913 -0.16890968 0.13026482 -0.09909098 0.3140387 0.0883952 -0.05324599 -0.08227919
-0.066900566 0.021118782 -0.105325475 0.10405341 0.15269558 0.16232221 0.08921717 0.08096115

critic.0.bias f4 [64]
00000000: f96c 93ba 8da0 7f3c 699b 933d adf4 e1bd
00000010: 0b98 4b33 b97c 1eba 0000 0000 aa7f 9cbd
00000020: 82ec cabd 3b22 b7bd 263e adbd 11a0 643d
00000030: 40ff 57bd bd3e 1cbd e9df 8abd 6843 3eb2
00000040: 9ad9 9a3c 43be 173c c359 6c3b 0000 0000
00000050: 73b5 d632 9ec2 f73d 27ba 08be 26b7 313d
00000060: 50e4 0c3b 0000 0000 369b b23e 0000 0000
00000070: 0000 0000 387d a6bd 92a4 13bd 0000 0000
00000080: 6ad8 e231 753d 4d3c 0000 0000 0000 0000
00000090: 0000 0000 becb d2bc 0000 0000 745d 8e3c
000000a0: 0000 0000 13b1 7e3e 1e78 e0bb 0000 0000
000000b0: dac1 afba 6cdc f531 0000 0000 449f 5abc
000000c0: 6921 a439 f858 c338 2f73 acbd 8c5f a0bd
000000d0: 493c 1f3d b870 eb3b c053 cebd 9cf8 b3bd
000000e0: 5d46 20bd 5986 d43e 2c47 47bc 0000 0000
000000f0: 0000 0000 2c90 843c 9165 463d 0000 0000
-0.0011247686 0.015602243 0.072073765 -0.11032996 4.7402903e-08 -0.0006045807 0.0 -0.076415375
-0.099083915 -0.08942076 -0.084591195 0.055816714 -0.05273366 -0.03814577 -0.06780989 -1.1074782e-08
0.018902589 0.0092616705 0.0036064244 0.0 2.4995392e-08 0.12097667 -0.13352261 0.043387555
0.002149839 0.0 0.34884042 0.0 0.0 -0.08129352 -0.03604562 0.0
6.602069e-09 0.0125268595 0.0 0.0 0.0 -0.025731917 0.0 0.017378546
0.0 0.24872236 -0.0068502566 0.0 -0.0013409213 7.1554975e-09 0.0 -0.013343636
0.0003130541 9.314896e-05 -0.08420407 -0.07830724 0.03887585 0.007185068 -0.10074568 -0.08787653
-0.039129604 0.4150875 -0.012162965 0.0 0.0 0.016182028 0.048436705 0.0

critic.2.weight f4 [64, 64]
00000000: 1674 983d 9213 2e3e 9048 0abc 1d42 aa3b
00000010: 5824 4cbd 0442 973d b59b b13c b7ec a33e
00000020: f7df 0a3f 9bd1 28be de52 fd3d 5c2a edbc
00000030: 62d0 8d3d 2d4f efbd e7a2 9dba 34b2 ebbd
00000040: 66d4 0bbc c66d 49bd 2839 183d 69be 78bc
00000050: b164 9dbe bbf2 ed3d 7101 6a3e dfed 203e
00000060: e134 e5bb 4041 34bd 532c 6e3e 3b9e 35be
00000070: f830 13bd 2464 d1bd 2a17 32be 41cb 32be
00000080: db6f 98bc 4eab 4cbd 3318 3bbe a15c d23e
00000090: 713a 82be 1df2 b03e eb7a 99be 41df 183e
000000a0: 7181 023e db78 47be aa73 603e 8b8c 533e
000000b0: 3f06 293d d208 b43d 66bf 49bd eb6e 02bf
000000c0: 99f1 bfbc efba 893e 62fe 323e 2758 04be
000000d0: 8fd6 933d eb29 d0bb c14c 46be cc79 3c3e
000000e0: 518c b23c c074 5e3f d3f9 a23c fbfe 2abe
000000f0: d5ea 153e 7b96 aa3d 8de0 043f e8ae 623d
00000100: 8f2d db3e e74e 6bbe aec6 59be 6667 863d
00000110: 6d82 0ebe e535 a7be 8f2d 83bd 564f 55be
00000120: 7792 98be b26c eabd 4b42 bcbe 9448 a53d
00000130: 1f90 c6bd fb21 7ebe 0ebb 64be dd95 213e
00000140: f435 0a3e c1f1 a5bc 588b 033e 9f04 663e
00000150: 473a 9bbe 2e39 e4bc f837 5abc ac56 e53d
00000160: d1dc 993d c9fd 0e3e e06c 9fbd 6849 f6bc
00000170: 87f1 07be 392d 483e 2d2c 3abf b7ff d23d
00000180: dd9d a33e 39d1 32be 4f7f 073e 27a2 943d
00000190: 47b6 40bd e809 863e d53f 2a3e 634f 123f
000001a0: 11a5 0abd 8a89 4bbe 73d9 14be 9525 96be
000001b0: 6c1d 863e 913e 9b3e fd54 873c 5de2 383e
000001c0: d3d0 8bbc eeab f83d a62b cdbd c3e2 353e
000001d0: ee09 a0bd 4b7d f33d 39eb 053f e856 293d
000001e0: 7759 b13e e19e b5bd 61ac 10be 0b0c 6c3d
000001f0: 778c c63e 321d 32be 4a36 ac3e bdc4 9fbd
00000200: 1cff 903e 8aa9 863d bff5 d3bd f498 8d3e
00000210: 44a8 0e3e 3918 b7bd 6fa5 6dba 1e91 303e
00000220: d327 b8be e726 ea3d 7c68 293e 2dc6 d9bd
00000230: 14fa 963e b85d d73e 4b23 6e3e 0afe 023e
00000240: 916f aabd ece0 0bbe 513a 15bd 1737 8f3d
00000250: 3bb4 c23d 5de3 143e 4fb2 3f3f 1e15 51bd
00000260: 6dfe 85be 7607 0b3e 62c1 303f 3c3c adbe
00000270: e8cf 46be c0d5 efbd 5e6c 623e 1932 fa3d
00000280: e852 39be 5699 b1be 4f95 893d 9f25 bc3d
00000290: 84df 15be a7ce cdbd 7d87 abbd 83c0 9fbc
000002a0: 3196 dcbd da3e 6f3e 41e7 efbd 16f3 853e
000002b0: ab49 17be 6256 b0bc 1637 a2be 2d5a b63d
000002c0: bc54 16be f99e 8f3e 286d 0e3e 6ead 6ebe
000002d0: 4ba9 5c3d 3eed ddbe 3c85 e2be 8f20 17bf
000002e0: 8d8b 253d 3857 6c3e 8947 493d 2024 05bd
000002f0: 9591 63bd fc70 9abe 8e10 98bf a2dd 023e
00000300: 7cb7 b83e c6dd 483c 9406 96be 4586 103e
00000310: 226a 94be 54fd 8dbd e834 513e 6b6c ddbe
00000320: 696c 10be 626b 933d 746c cfbd f195 7e3e
00000330: 4137 bcbd 3c9f 9cbe 2407 99be d881 5e3d
00000340: c49b 9cbd ecb2 a43e 5672 413e 7ea4 4ebe
00000350: a256 f73c 3557 ff3d 6992 b53e 30ef 363d
00000360: 925b 413e 20e7 c9be e400 f4bc 2607 f13d
00000370: 4254 e33d cf5c 0e3e 8584 1d3e 5aab 803e
00000380: 2eba 97be 183e e8bd e62e 6a3c f4ad c4bd
00000390: 5626 723e 2e1c 4ebe 4e8c e53d ccf0 87bd
000003a0: de8c 743d 5715 e8bc 7962 a73e 2a15 8dbe
000003b0: 09fb cc3e 88ff 93bd f409 8fbc b18a 4cbe
000003c0: 3823 7a3e 462d 47be 3aaf 383e 8897 edbe
000003d0: 81e0 353e 085d 29bd ac6c 0c3e 80f7 40be
000003e0: b7b0 69be 35c0 a63e f029 b73e b63d 283e
000003f0: a6f7 8ebe e213 bc3d f1c2 8cbd 0874 21be
0.07444017 0.16999653 -0.008440152 0.0051958696 -0.049839348 0.07385638 0.021680692 0.32016537
0.54247993 -0.16486208 0.12369321 -0.028950863 0.069245115 -0.116850235 -0.0012026698 -0.11508599
-0.008534526 -0.049176954 0.037163883 -0.015182116 -0.30740884 0.11618563 0.22852112 0.1571574
-0.006994829 -0.04400754 0.23259096 -0.17736141 -0.035935372 -0.102241784 -0.17391649 -0.17460348
-0.018608024 -0.049968056 -0.1827095 0.41086295 -0.25435212 0.34559718 -0.2997659 0.14928915
0.1274469 -0.19479696 0.21919122 0.20659082 0.041265722 0.08790745 -0.049254797 -0.509505
-0.023430632 0.26900432 0.17479852 -0.12924252 0.07218658 -0.0063526533 -0.19365217 0.18405837
0.021795424 0.86896896 0.019894516 -0.1669883 0.14640363 0.08329483 0.5190514 0.055342585
0.42808196 -0.22979318 -0.21267197 0.065626904 -0.13916941 -0.32658306 -0.06405174 -0.20831046
-0.29799244 -0.11446513 -0.36769328 0.08070484 -0.09695458 -0.2481765 -0.2233698 0.15779825
0.13497144 -0.020256879 0.12846124 0.224627 -0.303179 -0.027859297 -0.013319008 0.11198172
0.075128205 0.13963999 -0.07784438 -0.0300643 -0.13275729 0.19548501 -0.72723657 0.1030268
0.31956378 -0.17462625 0.13232158 0.072574906 -0.047048833 0.26179433 0.16625912 0.57152385
-0.033848826 -0.19876686 -0.14536075 -0.29325548 0.26194322 0.30321172 0.016520018 0.180551
-0.017067349 0.12142168 -0.10018091 0.17762284 -0.07814394 0.11889132 0.52312046 0.041342646
0.3463857 -0.08868194 -0.14128257 0.057628673 0.3877904 -0.1739395 0.3363517 -0.07801197
0.28319633 0.06575306 -0.10349607 0.27655756 0.13931376 -0.08940167 -0.0009065484 0.17242858
-0.35967883 0.11433201 0.16543764 -0.10633502 0.2948767 0.4206369 0.2325565 0.1279222
-0.08322061 -0.1366002 -0.036432568 0.069929294 0.095070325 0.14539857 0.7488145 -0.05104553
-0.26170674 0.13577065 0.6904508 -0.33835018 -0.19415247 -0.117106915 0.22111651 0.122165866
-0.18098032 -0.346873 0.067179315 0.09186863 -0.14636046 -0.100491814 -0.08375452 -0.019500976
-0.10770834 0.2336382 -0.1171403 0.26162022 -0.14774196 -0.021525566 -0.31682652 0.089039184
-0.14680761 0.28050974 0.13908827 -0.23308346 0.053872388 -0.43345064 -0.44242275 -0.59034055
0.04041629 0.23080146 0.049140487 -0.032505155 -0.05555876 -0.30164325 -1.1880052 0.12779859
0.36077487 0.012259906 -0.29301894 0.1411372 -0.28987223 -0.06933084 0.20430338 -0.4324678
-0.14103855 0.07198216 -0.10128108 0.24861886 -0.09190226 -0.30590236 -0.2988826 0.054323047
-0.076468974 0.32167757 0.18891272 -0.20179936 0.030192677 0.12467805 0.35463265 0.0446617
0.18882588 -0.39434147 -0.029785581 0.117689416 0.11100055 0.13902591 0.15382583 0.2513073
-0.2963423 -0.113399684 0.014293408 -0.096034914 0.23647436 -0.20127937 0.112084016 -0.06637725
0.059704654 -0.028330488 0.32692316 -0.2755521 0.40035275 -0.07226473 -0.0174608 -0.19974782
0.24427497 -0.19450864 0.18035594 -0.46404672 0.17761423 -0.041348487 0.1371333 -0.18844414
-0.22821318 0.32568517 0.35774183 0.16429791 -0.27923316 0.0918348 -0.068731196 -0.15766919

critic.2.bias f4 [64]
00000000: d8b3 a7bc b114 093c 8260 acbd 986b 613d
00000010: 7021 a0bd fe82 e0bb 5ad8 3e3d 8e7f ccbb
00000020: e21e ab3d 7159 44bc 2b5a 69bd 53b4 1db8
00000030: 47ed 5bbd 405e 1d3d 22aa 243d 95a4 753c
00000040: d6a6 94bd 1f2b 31bd eb6b 67bd 5406 a4bd
00000050: c164 2ebc 6933 bfbd 6a81 f9bb 4289 75bb
00000060: f203 fd3c b073 093d abd3 a33c a21b 8b3d
00000070: a616 8cbd ddf2 df3c cc28 873b e62d a8bd
00000080: bdf5 433d 4cc3 fabc 89cc 8a3d d907 1ebd
00000090: dd35 b83d b398 ef3b 9787 5bbd 0301 593c
000000a0: e22b d73d dc38 4a3d 398f b83d b8e7 9c3d
000000b0: 7d04 c2bd 66f5 9f3b 6a70 363d 1b17 c5bd
000000c0: dcd3 de3c 5c88 0f3a 292a 9e3d e3cf bbbb
000000d0: c083 85bc 3c7a 0c3d d2e1 243d e019 bcbd
000000e0: a6ce aebd 7aac 4dbd ad24 9c3d 4aab ecbc
000000f0: 438c 1abd 4d4a 5c3d c72c fd3c a0e8 71bd
-0.020471498 0.00836675 -0.08416845 0.05503425 -0.07818878 -0.006851553 0.046593048 -0.0062407916
0.083555 -0.011984215 -0.056970757 -3.7599657e-05 -0.053693082 0.038419962 0.040201314 0.014992853
-0.07258384 -0.043254014 -0.056499403 -0.080090195 -0.010644139 -0.093359776 -0.0076143043 -0.0037465845
0.03088567 0.033557594 0.019998392 0.0679238 -0.06840257 0.027337486 0.0041247364 -0.082118794
0.047841776 -0.030610703 0.06777293 -0.038581703 0.089946486 0.0073119043 -0.053596105 0.01324487
0.10506417 0.04937063 0.090116926 0.07661384 -0.09473512 0.0048815487 0.0445408 -0.09623548
0.027200632 0.0005475336 0.07722885 -0.005731569 -0.016298175 0.03429626 0.04025442 -0.09184623
-0.08535509 -0.050213315 0.07624183 -0.02889027 -0.03773142 0.053781796 0.03090514 -0.05905974

critic.4.weight f4 [1, 64]
00000000: af0a fc3f 834d efbf 946c 0140 1a38 cabf
00000010: 0b88 e33f 7799 f93f 2129 d9bf adfe 0dc0
00000020: ff67 d4bf 58d1 17c0 cf3d 0740 ae92 e33f
00000030: 23b5 f13f 3730 ebbf 2f5d fb3f 50d4 1a40
00000040: a9a1 08c0 292c e73f 8dfa 0840 4504 ea3f
00000050: 96d9 eb3f 295e 0cc0 9857 dabf 49cb e03f
00000060: 7a6c fcbf 336a 22c0 4ef1 18c0 52ec 0540
00000070: 1918 debf 7528 e9bf 6e47 d3bf 3097 d63f
00000080: 7fc8 1840 3451 e8bf ef69 e0bf 4d31 0340
00000090: 2647 cfbf 116b fdbf 39d2 1240 90a9 1140
000000a0: 399c d9bf 5fcb ed3f db4c dabf bf44 d7bf
000000b0: 74f3 06c0 f3f6 f3bf 7710 e0bf 1f85 f53f
000000c0: 8d8d ea3f 74f6 d83f 3ec3 1040 7096 d53f
000000d0: e98b fabf 44e7 03c0 6ee3 2240 4dfd 0640
000000e0: 4b02 ca3f 6f34 0a40 478f 17c0 37c9 04c0
000000f0: 58c2 e73f c530 f8bf 2e33 d6bf 4323 d23f
1.969076 -1.869553 2.022252 -1.5798371 1.7775892 1.9499959 -1.6965677 -2.2186692
-1.6594237 -2.3721523 2.1131475 1.7779138 1.8883404 -1.8374089 1.9637812 2.4192085
-2.134867 1.8060352 2.1402924 1.8282553 1.8425777 -2.193247 -1.7057981 1.7562038
-1.9720604 -2.537732 -2.389728 2.0925488 -1.7351104 -1.8215472 -1.6506174 1.6764889
2.3872373 -1.8149781 -1.7532328 2.049884 -1.6193588 -1.9798299 2.294081 2.2759743
-1.70008 1.8577689 -1.7054704 -1.6817855 -2.1086092 -1.9059738 -1.7505025 1.918125
1.8324448 1.6950212 2.2619166 1.6686535 -1.9573947 -2.0609903 2.5451312 2.1092103
1.578195 2.1594503 -2.36812 -2.0747812 1.8106184 -1.9389883 -1.6734369 1.6417011

actor.0.weight f4 [64, 4]
00000000: ec7a c93d 8a18 12bc f4f6 0d3e bd1b 2bbe
00000010: 1dc6 4b3e 3510 6fbe b442 00be 5052 02bf
00000020: 3187 263e a0b1 fc3c 0c3d 86be 39c3 d93c
00000030: 6151 8a3d 3ce1 993d 8e63 e83c a57e b4be
00000040: 76c8 9b3e 7fa1 8e3e 0338 91be cad5 a63d
00000050: ff8d a83e 3d66 5bbe b662 33be a6aa eebd
00000060: c14e f83e 6446 f53e 8a56 023d 7977 89bd
00000070: 7197 a43e 4f21 163d bab4 b5bd 89c6 593e
00000080: 547e ce3d 8d59 ba3c e374 933e 5479 01be
00000090: 6d1c 8dbd 05b2 e1bd 4674 34be ea47 f7bd
000000a0: c163 a13e 04f1 d2bd 669b c23d bc9c 123e
000000b0: 7403 2a3e 13d6 f8bd 2dcc 313e a021 58be
000000c0: 5733 a5be 2b03 433e bbf5 8ebe af2b 99be
000000d0: c528 a63e d9c5 83bd 8d8c 863d e824 6e3e
000000e0: 4b45 903d f425 84bd fdf9 88be 0919 dbbd
000000f0: 3699 b3bd 5e0a 973e a340 8b3e f4fd af3d
00000100: 2208 853e 34d9 9ebe a19c bd3c c2fc 3fbd
00000110: de9e 95be 4186 c33d 1081 4fbe 397d 44bb
00000120: 62a0 a63d 51b5 59be a6a3 583e f6aa 103d
00000130: 53a8 6e3e d859 34bd e3c7 57be 79d1 423d
00000140: 7d84 33be ea77 eebc bdf9 043d 75b9 593e
00000150: 461e 2f3d 09d7 983d 6fdd 2bbe 6727 06be
00000160: d165 a13d 63ec 1e3e 426e a9bd 3bfa e93d
00000170: b900 7cbc 283f 42be 6a54 d33d 314c 52bc
00000180: afd9 1abe e551 a63d 917f 96be ede3 483e
00000190: ea81 0f3e d5cb 66be 1dab 373e 8c77 503e
000001a0: 942b 40be 6677 b8bd c05b 073e 746e 8f3e
000001b0: 0d58 2f3e 0700 53bb cef3 953e 5537 c8bd
000001c0: 7a95 483d c1d4 b0bd b6d9 58bc 3d62 113e
000001d0: aaf1 4e3e 63fe bcbd 2a7a d1bd a218 613e
000001e0: 3c4f 88be 8cb1 683e b63b 223a cf83 a8bd
000001f0: 5948 9c3e 4739 083e acf7 9d3e f306 19be
00000200: 6f74 c03d f297 ee3d 5309 11bd d56c 1b3c
00000210: 2342 a43a de63 6c3e 30f4 b9bd c1b6 86bd
00000220: 5318 113d f2d8 10bb 185a 543e 2e2d 00bc
00000230: d456 563c 5bbc e73d 241c 493e 10e7 79bd
00000240: 6715 d23d 41c4 033e c2dc d73d 886f 953c
00000250: 4a5f 613e 12ef 6abd 94cb 013d c068 a83d
00000260: 7bbb 873d cf5a 61be b435 73be d107 93be
00000270: d32d 56be 07d6 193e 37b3 98bd 2a90 0d3d
00000280: 95e8 9b3e 8915 acbb 2812 96bd 4879 883e
00000290: 4454 44be 635a 55be 2def 3f3e 4860 7c3e
000002a0: bb8e 04b9 7add 673e 1b85 eabc 672b 973d
000002b0: 65b6 913b 1800 fa3c 4330 64be 61cd 123e
000002c0: b7c4 e3bb 8c3f 05bd 0fe1 a4bd 1bd6 83be
000002d0: 3346 e5bd 3a6d e1bc 8061 303e 947a 96be
000002e0: 3b8d 1ebe 895d 553d dd7b 99bd 1455 2abe
000002f0: a499 153e 7dbb 05bd 0c66 b2be c769 d9be
00000300: e43e 83bd 2a31 85be b2f5 a23e b24a 1d3e
00000310: 55f0 39be 0d1e 54be cbe1 f6bd d936 ca3d
00000320: 40f6 1b3e b121 4e39 20bf e83d 12f6 073e
00000330: 1e09 bebd d68d 9bbe 2b42 5cbe 32fc 6d3e
00000340: 0f57 86be 2b56 bbbd 8c74 a43d f0be 7bbd
00000350: e11d 21bc 7842 943e ddb8 8e3e ae92 58be
00000360: 62d6 31bd 11fc 43be f784 263e f959 25be
00000370: b85d c83c b48f a83d a2fc 0cbe 31fd aa3d
00000380: ae92 1f3d bdd6 db3d cc49 94bd 8e2d 7bbe
00000390: 2609 243e b41c 25bc b9be 6cbe b113 933e
000003a0: 2061 3b3b fd5d 2cbe dbda c73d 3fc4 05be
000003b0: 1add acbd a0f0 86bd e69f a4be 2f7f cb3d
000003c0: 6a13 9a3b 0cf5 7e3c 2597 2f3e ded2 973d
000003d0: 7c72 993c 8de6 f2bd 90b7 753e 25b3 ff3d
000003e0: f11f 50be 0b32 a33e 8e09 a83c e31f b93e
000003f0: f931 5bbe 4a00 6dbe f8c1 26be 0a7a e4bd
0.098378986 -0.008916983 0.13863736 -0.167098 0.19899793 -0.23346026 -0.12525445 -0.5090685
0.16262509 0.030846417 -0.2621845 0.026582347 0.06753803 0.07513663 0.028367784 -0.35252872
0.30426377 0.27857587 -0.28363046 0.08146246 0.32920834 -0.2142572 -0.17518124 -0.11653642
0.48497584 0.47905266 0.03182081 -0.06712241 0.3214679 0.03665286 -0.088723615 0.21267141
0.10082689 0.02274778 0.28800115 -0.1264394 -0.068901874 -0.11020283 -0.1762248 -0.120742634
0.3152142 -0.10299876 0.09502296 0.14317602 0.1660288 -0.121502064 0.17363043 -0.21106577
-0.32265732 0.19044177 -0.27921852 -0.2991614 0.3245298 -0.06434221 0.06569777 0.23256266
0.070444666 -0.064525515 -0.26753226 -0.106981345 -0.08769457 0.29500097 0.2719775 0.085933596
0.25982767 -0.31025088 0.023145976 -0.046871908 -0.2922277 0.09547091 -0.20264077 -0.0029981865
0.08136059 -0.21260573 0.21156177 0.03531929 0.23306398 -0.044030994 -0.21072344 0.04756305
-0.17531009 -0.029109914 0.03246473 0.21262152 0.04275348 0.0746289 -0.16783689 -0.13100968
0.07880748 0.15519862 -0.08272983 0.11424681 -0.015381032 -0.18969405 0.10318835 -0.012835548
-0.15122102 0.08121089 -0.293942 0.19618197 0.14014402 -0.22538693 0.17936368 0.20358104
-0.18766624 -0.090071484 0.13218594 0.28013957 0.17123432 -0.0032196061 0.2928757 -0.09776179
0.048970677 -0.086343296 -0.0132355 0.14197631 0.20209375 -0.09228208 -0.10228379 0.21982053
-0.2662295 0.22723979 0.0006188707 -0.082282655 0.30523947 0.133031 0.3085302 -0.14944057
0.09397208 0.11650075 -0.035409283 0.009486397 0.0012531917 0.23084971 -0.09079778 -0.06577826
0.035423588 -0.0022101966 0.20737493 -0.007823272 0.013082225 0.11315223 0.19639641 -0.061011374
0.102579884 0.12867834 0.10540153 0.018241659 0.22009006 -0.0573569 0.031688288 0.082231045
0.06627556 -0.22007297 -0.23750955 -0.287169 -0.20915918 0.15023051 -0.074560575 0.034561314
0.30450884 -0.0052515906 -0.07327682 0.2665503 -0.1917277 -0.20835261 0.18743582 0.24646103
-0.00012641672 0.2264308 -0.028627923 0.07381325 0.004446792 0.030517623 -0.22284035 0.14336158
-0.0069509405 -0.032531306 -0.08050739 -0.25749287 -0.1119503 -0.027517904 0.17224693 -0.29390395
-0.15483563 0.052091155 -0.07494328 -0.16634017 0.1460939 -0.032649506 -0.3484348 -0.42463514
-0.0640848 -0.26014072 0.31828076 0.15360525 -0.18158086 -0.20714588 -0.12054785 0.098737426
0.15230656 0.00019658242 0.11364579 0.13277462 -0.09279083 -0.3038165 -0.21509616 0.23240736
-0.26238295 -0.091472946 0.08030042 -0.06146139 -0.009833784 0.28956962 0.27875414 -0.21149704
-0.043417342 -0.19139124 0.1626166 -0.16147603 0.024458751 0.08230534 -0.13768247 0.08349074
0.038958244 0.107343175 -0.07240638 -0.24529096 0.16019115 -0.010077644 -0.2311963 0.2872596
0.0028591827 -0.16832729 0.0975854 -0.13063143 -0.08440609 -0.06588864 -0.32153243 0.09936368
0.0047020214 0.015561353 0.17147501 0.074132666 0.018731348 -0.1186038 0.23995805 0.12485341
-0.20324685 0.31874117 0.020512369 0.3615714 -0.21405782 -0.23144642 -0.1628493 -0.111560896

actor.0.bias f4 [64]
00000000: fe3b 30bc 0000 0000 75b7 9bb9 d7f2 fd3b
00000010: 1f6e 5437 4ad3 39bb 85c8 67b3 0000 0000
00000020: fb51 2fbb 0000 0000 7288 cdb4 860d 77bc
00000030: 0000 0000 0000 0000 6ffe 6133 299c 21ab
00000040: 8f12 34ba f364 2cbc e6b2 d7bb d3a9 d8ba
00000050: c17e ea3b 3395 75bc 0000 0000 3fa7 c839
00000060: f513 203b e6dc a2ba e95c 173c 450e ef3a
00000070: d7ab 763a e6b4 70aa 1c2b acbb 34ea 2dbb
00000080: 6344 4036 e60c d13a bd8c bdb6 e153 bcb8
00000090: e6b5 722c 6cb9 c732 0000 0000 91bf 2dbc
000000a0: 0000 0000 c200 693b 3234 f72c d4a3 353c
000000b0: 0000 0000 0000 0000 0000 0000 0000 0000
000000c0: b053 4239 123c 41b9 0000 0000 52be 8fbb
000000d0: d539 00ad 9ddf 69ba 0000 0000 15fe d338
000000e0: be29 1dbb 0000 0000 0000 0000 f411 92bb
000000f0: 0000 0000 7d7f 9e3c fbe8 a735 0000 0000
-0.010756491 0.0 -0.0002970059 0.007749896 1.2661824e-05 -0.0028354698 -5.396625e-08 0.0
-0.0026751745 0.0 -3.8283503e-07 -0.015078908 0.0 0.0 5.26183e-08 -5.7415406e-13
-0.00068692205 -0.010522115 -0.0065826057 -0.0016530104 0.0071562235 -0.014989185 0.0 0.0003827158
0.0024425958 -0.0012425452 0.00923846 0.0018238506 0.00094097614 -2.1379044e-13 -0.0052541625 -0.00265373
2.8650036e-06 0.0015949279 -5.649023e-06 -8.980162e-05 3.4491242e-12 2.325097e-08 0.0 -0.010604755
0.0 0.003555343 7.025957e-12 0.011086423 0.0 0.0 0.0 0.0
0.00018532458 -0.00018428292 0.0 -0.0043867016 -7.288799e-12 -0.00089215656 0.0 0.000101085905
-0.002398118 0.0 0.0 -0.0044577066 0.0 0.0193479 1.2510276e-06 0.0

actor.2.weight f4 [64, 64]
00000000: 1ba4 913e 221a 193e 72ef 04be a6e9 a53e
00000010: b3e9 30be 97f5 bbbd 6a66 47be c043 76be
00000020: 14f5 e5bd 0acd c6bc 9088 cd3c 4217 f53d
00000030: 26db 1dbc b890 5dbe e7de 85be 6a33 cebc
00000040: 2c98 bfbd b496 61be e00e 24be 9520 a03c
00000050: 077d 42be 7b7b cb3c ef17 1abd d9d1 06be
00000060: 6db7 03bd 5e13 853d 19e3 64be c597 013e
00000070: 149b 953d da7f 053e d026 4cbe 1d02 ddbc
00000080: 603e a3bc 8b27 86be e500 8d3e 6728 57bd
00000090: 2ae3 9c3e 6a19 d73d ba2f 46be ee1f b2be
000000a0: 9e9c 6dbe 8da7 cc3d 973d 3dbd 8322 423e
000000b0: 98ca d13d 4805 e4bc 788a 57be 5268 bdbe
000000c0: 3a08 8bbe 54cd 363e f077 2ebe fa7a fd3d
000000d0: fa9c 22be 4891 cf3d 5677 d53e 1d10 b6be
000000e0: f46b 9c3d 5353 753d 8681 c23d 482f 8b3c
000000f0: 3070 94bc 681b 5abe 4e70 98bd 9a33 f6bd
00000100: c98b 4cbe 6b95 23be 4aa8 41be 64e1 2e3e
00000110: 6037 f53d ed08 3abe fc84 56bd cfa2 22be
00000120: b283 d7bd f194 71be 1d6f 9f3d f0ae e5bb
00000130: cb99 993e 71cb 11bc ab99 e93e 144f 663d
00000140: e430 aabe fb83 e9bd 72b3 b9bc 1bdf afbb
00000150: d00e dcbc 7675 a53d 07fc 1d3e ff9a 94bc
00000160: a73a 57be 3d82 203e 617d debe 8d12 9cbd
00000170: 08a3 1ebd 58f0 2abe a7ae ddbc 5897 babd
00000180: 65fe c33c a9cb 3f3e e7df 00bd a092 0dbe
00000190: adac abbe b479 623d 15fc 6abe 20dd a03e
000001a0: cc8e fe3d fa91 bb3e 79be 063e 7746 a3bd
000001b0: a8de 123d 4808 5a3e 258c 97be eb2a d73d
000001c0: 0e8c a7bd eacb 863e 0705 ad3d af71 2c3c
000001d0: 5504 2c3e 9dbe cdbc 11a8 7b3e bd50 a13c
000001e0: 271a 56bb 4421 4b3e eb74 69be d90c 0e3e
000001f0: b7e2 2e3e d83e 4b3d 7175 de3d 6b99 edbd
00000200: 24ea 8d3e c21b 91be 4349 67be 122a 54bd
00000210: 5092 353d 439d 613e 404d 743e 8407 583e
00000220: 6076 143d cf37 20bc a540 613c fcef ca3e
00000230: 58f7 663d 4144 813d d8fe bbbd e6a8 0cbe
00000240: 453b 33bd bfdf 8b3c ad86 e23e bf26 e8bd
00000250: a850 9e3d 70a0 9f3d 4e71 2cbe 0365 e5be
00000260: 9e7c 8dbd de4b 26be ede8 393e 039b e73d
00000270: abf1 1d3e 84de 07be 8adb 2f3e 82e9 77be
00000280: 1812 6a3d 39bf 313e d5bb 953d c834 24be
00000290: 93be f2bd c92d babd 4391 d9be fb5c 1e3e
000002a0: 8537 b43d e0da de3c fee5 43be cd58 56bd
000002b0: 8ed0 aabe fe72 1cbd 2284 52be f9fa b0bd
000002c0: b65f c43d 71dd 9e3d 6442 51be 48af b3bd
000002d0: 3adc 69bd 8e4e 5a3d d65d 893c e49a 26be
000002e0: 4bdc a83e 2ad2 27be 4af9 9cbc b854 f13d
000002f0: c5bd e53d 30aa 20be 5e81 bfbe 1469 6f3c
00000300: d170 7abd 94d9 42be 07b6 7abc 64de 92bc
00000310: eec9 a4bd 9b2f ccbc 1e5a a9be d337 b23d
00000320: 4c12 fb3d 74bc 2cbe 2a3a a73e 63ce 713e
00000330: 48f7 cabd ae6b fdbd c5cb 8dbd eaee 9dbe
00000340: 995e f5bd 6089 1e3e 38ac 39bd bcde 8fbd
00000350: 7fb0 1f3e 75e4 3ebc 5696 193d 89cc 63be
00000360: bead 8e3e 9ad9 90bd c8cf 343d 3807 853e
00000370: 4503 4cbd e856 593d 32bf b9bd b504 133e
00000380: e43b 943e 4c38 6c3c 7112 203e 445a 2fbe
00000390: 2c67 803e 468a 8f3c 9457 493e 5bed 4d3c
000003a0: 6c28 063e 6a01 31be 1dfc 393e db10 453e
000003b0: 9dc1 3bbe a703 663e 17e7 67be 6860 d73e
000003c0: 56fb 9dbd 4f87 773d ec25 b3be 849f 883e
000003d0: 68ea 863e e176 013e 0bd1 e3bc 63b2 a33e
000003e0: c010 60be 65cd 0f3e 7929 f3bc 9675 af3b
000003f0: 0cc6 30be cbe0 4a3d 2018 4c3d 8dff 2a3e
0.28445515 0.14951375 -0.12981966 0.32404822 -0.17276649 -0.09177702 -0.19472662 -0.24049282
-0.112283856 -0.024267692 0.025089532 0.11967327 -0.009634769 -0.21637237 -0.26146623 -0.025171
-0.09355196 -0.22030145 -0.160213 0.019546786 -0.18993007 0.024839154 -0.03762048 -0.13165988
-0.03215735 0.064978346 -0.22352256 0.12655552 0.073049694 0.13037053 -0.19936681 -0.026978547
-0.019927204 -0.26202044 0.27539745 -0.052528765 0.30642062 0.10502894 -0.19354144 -0.34789985
-0.23204276 0.09992895 -0.046201315 0.18958478 0.1024372 -0.02783455 -0.21048915 -0.36993653
-0.27154714 0.17851764 -0.1703794 0.123769715 -0.15880194 0.10135132 0.4169261 -0.35559168
0.07637778 0.059893917 0.09497361 0.016990319 -0.018119901 -0.21299517 -0.074432954 -0.12021561
-0.19975199 -0.15974967 -0.18911853 0.17078167 0.119734526 -0.18167467 -0.052372918 -0.15882419
-0.10523166 -0.23591973 0.07784865 -0.0070093796 0.30000147 -0.008898602 0.45625052 0.05622776
-0.33240426 -0.114021264 -0.022668574 -0.0053671724 -0.026862532 0.080790445 0.15428172 -0.018140314
-0.21018468 0.15674682 -0.43455032 -0.07620726 -0.038729697 -0.16693246 -0.02706082 -0.09110898
0.023925016 0.18730034 -0.03146353 -0.13825464 -0.3353018 0.055291846 -0.22947724 0.31418705
0.1242958 0.3663481 0.13158597 -0.079724245 0.035856873 0.21292222 -0.2959911 0.10506233
-0.0818101 0.2632745 0.084482245 0.010525151 0.16798528 -0.025115306 0.24575831 0.01969182
-0.0032669397 0.19836909 -0.22798507 0.13872088 0.17078672 0.04962048 0.10862244 -0.11601528
0.27717698 -0.2834149 -0.22586541 -0.051797934 0.044328988 0.22032647 0.23857594 0.21096617
0.036245704 -0.009778931 0.013748323 0.3963622 0.05638823 0.063118465 -0.09179467 -0.13736305
-0.043757696 0.017074464 0.44243374 -0.11335515 0.07730228 0.07794273 -0.16840097 -0.44803628
-0.069085345 -0.16239879 0.1815526 0.11308863 0.1542422 -0.13268477 0.17173591 -0.2421017
0.05714616 0.17358102 0.07311217 -0.1603576 -0.118527554 -0.09090764 -0.42493638 0.15465157
0.08799652 0.027203977 -0.19130704 -0.05233078 -0.3336224 -0.038195603 -0.20558217 -0.08641619
0.09588568 0.0775708 -0.20435482 -0.087736666 -0.05709479 0.05329757 0.016768377 -0.16270024
0.3298057 -0.16388765 -0.019161839 0.11783737 0.11217836 -0.15689921 -0.37403387 0.014612455
-0.061142746 -0.19028312 -0.015302188 -0.01792831 -0.080463275 -0.024925044 -0.33076566 0.08702054
0.12259349 -0.16868764 0.32661563 0.23613887 -0.099104464 -0.12374054 -0.069236316 -0.3084634
-0.11980934 0.15482092 -0.045330256 -0.07024905 0.15594672 -0.011651148 0.037496887 -0.22245993
0.2786693 -0.07072754 0.04414347 0.2598207 -0.049807806 0.053061396 -0.09069671 0.14357264
0.28951943 0.014417719 0.15632035 -0.17124277 0.25078714 0.017521989 0.19662315 0.012568797
0.13101357 -0.17285696 0.1816258 0.19244711 -0.18335576 0.22462331 -0.22646748 0.4206574
-0.07713954 0.060431775 -0.3498987 0.266842 0.26350713 0.12643005 -0.02780964 0.31972036
-0.2188139 0.14043196 -0.029682862 0.0053545935 -0.17263049 0.049530786 0.049827695 0.16699047

actor.2.bias f4 [64]
00000000: baea 66bc 0af6 8abc d64a 7bbc 1329 7ebb
00000010: 848a 103b 6ba0 b2bb bb39 243c 9728 e33a
00000020: db1b 943b c15b 1b3c 3a9f ac3c 5c99 f73b
00000030: d774 663b 4c96 aebb 2de4 40bc fdfa 1a3c
00000040: c7ea fdbb 5074 933b 0d59 0d3b 4117 963c
00000050: b0c3 f73b 36d7 28bb d26b b03c 9f1f 87bb
00000060: 06ee 873b 6a58 b63b 8c63 0fbc 0213 253b
00000070: ae4c 7a3c dbbd a03a e680 313c a4d0 32bb
00000080: 2bc2 c23b 1a7c 8439 067e d13b 9224 0bbb
00000090: 571b d0bb 5383 80bc 5570 bf3c c160 3cbc
000000a0: 90bd f43a 2db2 8bbc b289 c53a 7195 04bc
000000b0: 409d b63a 1c9a 69bc b196 573a 90c8 6ebb
000000c0: 28f5 a83b e7ec 363c 5474 9c3a 767e b63b
000000d0: fbf1 c7bb 6b0d 5c3c 2b9c 0b3c 21b7 b7bb
000000e0: 3729 00bd 9072 7e3c ef3f 11bc e004 7dbc
000000f0: 112e 4abc 018f a8bb 4ad6 56bb bb7e 32bc
-0.014094049 -0.016963024 -0.0153376665 -0.0038781806 0.0022055218 -0.005451252 0.01002353 0.0017330822
0.004519922 0.009482325 0.021072019 0.0075561237 0.0035164857 -0.0053279754 -0.011773151 0.009459254
-0.007748935 0.0044999495 0.002156797 0.018321635 0.0075611696 -0.0025763041 0.021535788 -0.0041236426
0.0041482477 0.005564739 -0.008751761 0.0025188331 0.015277071 0.0012263613 0.010833954 -0.0027285004
0.005943557 0.00025269465 0.006393197 -0.0021231514 -0.0063509154 -0.01568762 0.023368994 -0.011497677
0.0018672217 -0.017052734 0.0015070944 -0.00809227 0.0013932362 -0.014257934 0.0008224054 -0.0036435463
0.005156178 0.01116488 0.0011936524 0.0055692745 -0.0061018444 0.0134309335 0.00852112 -0.0056065475
-0.031289306 0.0155302435 -0.008865341 -0.015443057 -0.012340085 -0.0051440005 -0.0032781535 -0.010894473

actor.4.weight f4 [2, 64]
00000000: f44a 923d 79cc 513d 8f09 a43e 24e8 5239
00000010: 2c99 e63e b42c 87bb 919f dbbd 9210 55bc
00000020: fdfe fb3b 992d e23d e3ac 393e 40e1 353e
00000030: dac9 dabd 82e3 b1be d758 f8bb d416 82bd
00000040: 71dd 7ebd 3be6 b1bc 64c7 e23c 0dc5 0f3d
00000050: fb65 c63d af0a fdbd cd41 c53d b52c 143e
00000060: 3072 823c 71b8 03be 1b0f 1c3c 1a7b b73b
00000070: 4a18 923e 447b 98bd 0836 2abc bbac edbc
00000080: c88d adbb 0c91 74bc e720 503e 6871 11bc
00000090: 06da d6ba 00f7 193e 2743 47be 6407 74be
000000a0: d8b8 21bc 46ac 03be 14d4 d1bd d71b 50be
000000b0: 6305 9dbe b469 afbe c8ef e53c 2941 443c
000000c0: 319c a9be 0fc7 7f3d 4373 9b3d 2592 16be
000000d0: 60ee aebc 4488 0c3d 2a7e 0cbc 78e2 673e
000000e0: 17e2 81be cdf4 603e fefd acbc 94d5 353e
000000f0: 0fbe 663e 9c6c eb3a d5fc 273e 9103 4dbe
00000100: 4399 8fbd 48f4 59bd 5a51 a5be 66bb 18bb
00000110: c8ad e7be b236 893b e60b e03d 5cce 2f3c
00000120: 0415 23bc a98a e2bd 31fb 36be f912 36be
00000130: 611d d93d cc20 b03e ff68 003c a405 813d
00000140: 1794 803d 2cd5 a53c b778 f7bc 60dc 11bd
00000150: a97d c4bd c27b fb3d 6176 c3bd ad58 14be
00000160: c330 4dbc 3ff6 063e c6a7 ffbb 9d3f e7bb
00000170: e3ec 91be 64e5 993d 249e 203c 6ad2 dd3c
00000180: 3599 f33b 18ea 613c edeb 51be 533a 963b
00000190: 49a0 483b 0115 19be b697 493e 0bd4 743e
000001a0: 2e60 5f3c 0e4f 053e 766b d03d 7e43 503e
000001b0: efbb 9d3e 55c1 af3e 83ea c9bc 13bc 40bc
000001c0: 454b a93e 910d 82bd 7fff 98bd 6841 153e
000001d0: 8b44 b83c a8ce 06bd a323 013c accf 65be
000001e0: 7d55 833e 28ae 5fbe e7ad a73c 4156 36be
000001f0: 4990 63be 5380 09bb 9c3c 28be 876a 4e3e
0.071432024 0.05122039 0.32038543 0.0002011364 0.45038736 -0.004125202 -0.10723794 -0.013004439
0.007690309 0.11043853 0.18132357 0.17761707 -0.106830314 -0.34743887 -0.00757895 -0.0635201
-0.0622229 -0.021716228 0.027682967 0.03510003 0.0968742 -0.12355553 0.09631691 0.1447018
0.01592359 -0.12863328 0.009525086 0.0055993916 0.28534156 -0.07445386 -0.010388859 -0.029013028
-0.0052964427 -0.01492716 0.20325051 -0.008877136 -0.001639188 0.1503563 -0.1945921 -0.23830944
-0.00987073 -0.12858686 -0.10245529 -0.2032312 -0.30668172 -0.34260333 0.028068438 0.011978426
-0.33126977 0.062445696 0.07590344 -0.14704187 -0.0213539 0.03430964 -0.008575002 0.22644985
-0.25367805 0.21968384 -0.021117207 0.17757255 0.22533439 0.0017961445 0.16405042 -0.20020892
-0.07011654 -0.05321148 -0.3228863 -0.0023305058 -0.45249772 0.0041874284 0.109397694 0.010730352
-0.009953741 -0.110616036 -0.1786926 -0.17780675 0.10601307 0.34400022 0.007837533 0.06299904
0.06278246 0.02024325 -0.030208929 -0.035610557 -0.0959428 0.12279464 -0.09544063 -0.14486952
-0.012523833 0.13179873 -0.0078019826 -0.007057144 -0.28501043 0.07514456 0.009803329 0.027077872
0.007434035 0.013788722 -0.20500155 0.0045845895 0.0030613116 -0.14949419 0.1968678 0.23909013
0.013633771 0.13018438 0.101767465 0.20338246 0.30807444 0.34327188 -0.024647957 -0.01176359
0.3306524 -0.06350244 -0.07470607 0.14575732 0.022493621 -0.032911927 0.007882032 -0.22442502
0.2565116 -0.21843779 0.020468665 -0.17806341 -0.22223009 -0.0020981028 -0.1642937 0.20157824

actor.4.bias f4 [2]
00000000: 6956 ecbb 2a56 ec3b
-0.0072124493 0.00721242
