Upload/src/Catcher_Flappy_Continuous/inaccurate_models/inacc_state_inacc_r.pt (torch, 41362 bytes, 11 tensors)

critic.0.weight f4 [64, 4]
0	0x3e55fcfc	0.20897287
1	0xbd570990	-0.052499354
2	0x3e91779f	0.28411576
3	0xbd6ad4b8	-0.05733177
4	0xbde11816	-0.10990922
5	0xbe3035ed	-0.17208071
6	0xbe3aa8ae	-0.18228409
7	0x3e7316fc	0.23739237
8	0xbd8ae39e	-0.06781696
9	0x3cd02775	0.02540944
10	0xbd7dc966	-0.061959647
11	0x3d880b67	0.066428
12	0xbe2b69d3	-0.16739587
13	0xbd8a841a	-0.067634776
14	0xbe9e71fa	-0.30946332
15	0xbd3e6395	-0.046481688
16	0xbc8f370f	-0.017482309
17	0x3dcf9af1	0.101369746
18	0x3dfc0c81	0.123070724
19	0xbe00df96	-0.12585291
20	0xbbc692fa	-0.0060600014
21	0x3bfcf6f5	0.0077198693
22	0x3dc61dc3	0.09673645
23	0xbd6ce8a7	-0.057839062
24	0xbda1898b	-0.07887562
25	0x3ea986e5	0.3311073
26	0xbe0b90ea	-0.13629499
27	0x3db250f5	0.087068476
28	0x3e8380b4	0.2568413
29	0x3e6c7b68	0.23093951
30	0xbdcad43a	-0.0990376
31	0x3cb4c7ab	0.022067865
32	0x3d882c30	0.06649053
33	0xbd9ccbdf	-0.07656073
34	0xbdd1e5b1	-0.10248888
35	0x3dc2fa79	0.0952043
36	0x3db54320	0.08850694
37	0x3e3a1460	0.18171835
38	0x3d93c2b8	0.07214874
39	0xbe9e54e7	-0.3092415
40	0xbe236745	-0.15957363
41	0x3e897a0d	0.2685093
42	0xbc30e60f	-0.010797038
43	0x3e23b167	0.15985642
44	0x3e430586	0.19045076
45	0x3e5b2e58	0.21404397
46	0xbe00f295	-0.12592538
47	0x3f07928a	0.52957976
48	0x3e0a94bc	0.135333
49	0xbe114bba	-0.14189044
50	0x3e481b40	0.19541645
51	0xbb249c83	-0.0025117702
52	0x3e07d612	0.13265255
53	0xbd78bf9c	-0.060729608
54	0xbe7c11fe	-0.24616238
55	0x3b7d7ae1	0.0038677978
56	0x3e3498d7	0.17636429
57	0xbe26090f	-0.16214393
58	0xbe149afb	-0.14512245
59	0xbe8a61d1	-0.27027753
60	0xbd915fba	-0.070983365
61	0x3caf1499	0.021372126
62	0x3dffe9db	0.12495776
63	0x3dea7eb3	0.11449947
64	0xbd1c5eb8	-0.03817627
65	0x3e90b64a	0.28264076
66	0x3e15fd65	0.14647444
67	0xbefbb396	-0.4916045
68	0xbc85f8a0	-0.016353905
69	0x3c51bd5f	0.012801497
70	0x3eccd8b3	0.40009078
71	0xbdda8327	-0.106695466
72	0x3eb79e2b	0.3586286
73	0xbe7bdcfd	-0.24596019
74	0xbd4b17a0	-0.049583077
75	0x3d4cc414	0.049991682
76	0xbef55578	-0.4791677
77	0x3dc69495	0.096963085
78	0xbd63349c	-0.055470094
79	0x3c70c780	0.014696002
80	0x3e848e8f	0.25890014
81	0xbcc15bb0	-0.02360329
82	0x3e1027db	0.14077704
83	0x3dd33954	0.10313669
84	0x3d9c6c48	0.076378405
85	0xbc9ebc63	-0.01937694
86	0x3e104401	0.14088441
87	0x3dd1c6a9	0.102429695
88	0xbdb277ff	-0.08714294
89	0xbe1029e3	-0.14078479
90	0x3e4578ed	0.19284411
91	0xbe215897	-0.1575645
92	0x3dc1fc14	0.09471908
93	0x3de64b14	0.11244789
94	0xbd9027a5	-0.070388116
95	0xbe4a9ddd	-0.19786783
96	0xbead4334	-0.33840334
97	0x3df52f35	0.11971895
98	0x3e6897a9	0.22714104
99	0x3e44f0a7	0.19232427
100	0x3d6b0afb	0.05738352
101	0x3ee9d765	0.45672145
102	0xbd686952	-0.056741066
103	0xbe232812	-0.15933254
104	0x3e0a9e65	0.13536985
105	0xbe0ccc23	-0.13749747
106	0xbd6d3c49	-0.05791882
107	0x3e7300b4	0.23730737
108	0xbd1ce262	-0.038301833
109	0x3ccb5b5a	0.024823833
110	0x3e93ba6b	0.28853163
111	0xbd7166c5	-0.0589359
112	0x3daceb0a	0.08443268
113	0x3d75eadb	0.06003843
114	0x3d6f3b09	0.05840591
115	0xbe088a8b	-0.133341
116	0x3d487dea	0.048948206
117	0xbccc30fa	-0.024925698
118	0x3e07580c	0.13217181
119	0xbdeeaa43	-0.116535686
120	0xbd54a0df	-0.05191123
121	0x3c93906f	0.018013207
122	0x3e0b4b77	0.13603006
123	0xbba810d6	-0.00512896
124	0xbd10cd8c	-0.035352275
125	0x3cbe81b8	0.023255214
126	0xbeb3fd03	-0.3515397
127	0x3baab1e5	0.005209195
128	0x3d70cb02	0.058787353
129	0xbc642342	-0.013924422
130	0xbd9e051d	-0.07715819
131	0x3c25f9e0	0.010130376
132	0xbc6d3c08	-0.014479645
133	0x3c689ae8	0.014197089
134	0x3eb2ae4a	0.34898597
135	0xbdbd74e5	-0.092508115
136	0x3b84d251	0.004053392
137	0xb9ffa419	-0.00048759652
138	0x3d80e7ae	0.062941894
139	0xbd11de8c	-0.035612628
140	0xbe9ddaec	-0.30831087
141	0x3e18561c	0.14876598
142	0x3eeb6736	0.4597718
143	0xbd4371d3	-0.047715973
144	0xbe5a8319	-0.21339072
145	0x3ca6f493	0.020380294
146	0xbcf8a6c0	-0.03035295
147	0x3e48c82c	0.1960761
148	0xbe9d4ab8	-0.30721068
149	0x3db43549	0.08799226
150	0x3ea2d438	0.31802535
151	0x3d235116	0.03987225
152	0xbda6ecc0	-0.08150625
153	0x3e3d2783	0.18472104
154	0x3cecdc95	0.028913775
155	0x3e3b08a1	0.1826501
156	0x3d8a5ada	0.0675561
157	0x3e6158ed	0.22006579
158	0xbe10d056	-0.14141974
159	0x3e00fa61	0.12595512
160	0x3d996a9a	0.07491036
161	0x3dc4b0b7	0.09604018
162	0xbe903be6	-0.281707
163	0xbe25d3ea	-0.1619412
164	0xbe0ee1b3	-0.13953285
165	0x3d2f458d	0.04279094
166	0xbc13dd9d	-0.009025005
167	0x3e10d95e	0.14145419
168	0x3dca67e9	0.098831005
169	0x3df8c7cb	0.121474825
170	0x3d174eeb	0.036940496
171	0x3e70e0f5	0.23523314
172	0x3d8cea70	0.06880653
173	0x3d8508b1	0.064957984
174	0x3dcbf3ad	0.09958587
175	0x3eb6f50c	0.3573383
176	0xbdccaec8	-0.099942744
177	0xbb7a8748	-0.0038227607
178	0xbe244005	-0.16040047
179	0xbe55b0d3	-0.20868234
180	0xbddea7af	-0.10871827
181	0x3da08cf5	0.078393854
182	0xbe1e8b5b	-0.15482847
183	0xbd5e8d02	-0.054333694
184	0xbe93389b	-0.28754124
185	0x3e9903c7	0.29885694
186	0xbcdb5c14	-0.026777305
187	0x3c1e3f65	0.009658669
188	0xbe28b379	-0.16474713
189	0x3e5cc4c2	0.21559432
190	0xbd3752e7	-0.044756796
191	0xbcbb62aa	-0.022874195
192	0xbd2faa98	-0.0428873
193	0x3d3a15a4	0.045430794
194	0x3d94cf96	0.072661564
195	0x3e087ff2	0.13330057
196	0xbe097037	-0.13421713
197	0xbe08426c	-0.13306588
198	0x3d931e20	0.0718348
199	0xbe83d916	-0.2575156
200	0x3e540910	0.20706582
201	0xbd9888ec	-0.07447991
202	0xbeb9225f	-0.36159036
203	0x3deeaa92	0.116536275
204	0x3e461bf1	0.19346596
205	0x3e9efa83	0.310505
206	0x3dcdfd06	0.10058026
207	0x3e54134a	0.20710483
208	0xbe1fc58d	-0.15602703
209	0xbdff9679	-0.12479872
210	0xbda44704	-0.08021358
211	0x3e9f5800	0.31121826
212	0xbe356dd4	-0.17717677
213	0xbdb8d96f	-0.09025847
214	0xbe68b621	-0.22725727
215	0x3e3dd2d3	0.18537454
216	0x3dae98c4	0.085252315
217	0x3ebd13f1	0.36929277
218	0x3d05ddda	0.032682277
219	0xbe4b0f25	-0.19829996
220	0x3ec12754	0.37725317
221	0xbe850ce8	-0.2598641
222	0x3e8a2ec5	0.26988807
223	0x3d74ddb7	0.059781756
224	0x3e96416e	0.29346794
225	0xbd9b30c4	-0.07577661
226	0xbe1a06e9	-0.15041699
227	0xbdfe989e	-0.12431453
228	0x3e9cdbea	0.3063653
229	0x3e831e78	0.25609183
230	0x3e0e1912	0.13876751
231	0x3d60c287	0.054873016
232	0x3ed11931	0.40839532
233	0xbed9ddb5	-0.42551962
234	0xbbf5f5c7	-0.0075061056
235	0x3bbcd134	0.0057622436
236	0xbc8370fe	-0.01604509
237	0x3e15ef8f	0.14642166
238	0x3ec5a1f4	0.38600123
239	0x3e33ec82	0.1757069
240	0x3e83b780	0.25725937
241	0xbe5aa64c	-0.213525
242	0x3cf22252	0.02955738
243	0xbc28f9dd	-0.010313478
244	0x3dc5b2a3	0.09653213
245	0x3c258c1b	0.0101042045
246	0x3e912586	0.2834894
247	0x3ecbd4f2	0.39810902
248	0xbeaa4be4	-0.33261025
249	0xbde5adbc	-0.11214778
250	0xbd0e32fa	-0.034716584
251	0xbd99c68a	-0.075085714
252	0x3a0e1727	0.000542032
253	0x3d274bc3	0.040843736
254	0x3e27920f	0.1636431
255	0x3e095d1e	0.13414428

critic.0.bias f4 [64]
0	0xbbf5181c	-0.0074796807
1	0xb47f9cc4	-2.3805757e-07
2	0x3d2e5fe8	0.042571932
3	0x00000000	0.0
4	0x00000000	0.0
5	0xbd82b6c2	-0.063825145
6	0x3d84ec77	0.064904146
7	0x3d13e322	0.036105283
8	0x00000000	0.0
9	0x00000000	0.0
10	0xbdc979ce	-0.098376855
11	0x00000000	0.0
12	0x3ad3dae6	0.0016163259
13	0x3d6ca9ad	0.057779003
14	0xba9135e2	-0.001107868
15	0x3adc424b	0.0016804425
16	0x00000000	0.0
17	0xbea328c7	-0.31867048
18	0x3c2b6a26	0.0104623195
19	0x3c083ca7	0.008315242
20	0x00000000	0.0
21	0x00000000	0.0
22	0x00000000	0.0
23	0xb725dcc2	-9.886166e-06
24	0x3e4a9253	0.19782381
25	0xb7a6a1e5	-1.986413e-05
26	0x00000000	0.0
27	0x3e73ab95	0.23795922
28	0xbb710f74	-0.0036782892
29	0x3e128421	0.14308216
30	0xbd425629	-0.04744545
31	0xbbcd3331	-0.006262206
32	0x3e00d25d	0.12580247
33	0xbe8eda47	-0.27900907
34	0xbd5b266e	-0.053503446
35	0xbca7d7f6	-0.02048872
36	0xbdf2d446	-0.11856894
37	0xbdc1b14b	-0.09457644
38	0x2e21bd44	3.6775263e-11
39	0x00000000	0.0
40	0xb7a40201	-1.9551257e-05
41	0xbdfd787e	-0.12376498
42	0x00000000	0.0
43	0x00000000	0.0
44	0x00000000	0.0
45	0x00000000	0.0
46	0xba9da638	-0.0012027686
47	0xb84360b5	-4.658169e-05
48	0x2f80ba93	2.3415633e-10
49	0x00000000	0.0
50	0x3e1985a3	0.14992385
51	0x00000000	0.0
52	0x366f183d	3.5627884e-06
53	0x3dae2d6a	0.08504756
54	0xb72a7759	-1.0160577e-05
55	0x00000000	0.0
56	0x3de61532	0.112345114
57	0x00000000	0.0
58	0xbd0a4bc4	-0.033763662
59	0x00000000	0.0
60	0xbc46d7bc	-0.012136396
61	0x00000000	0.0
62	0x00000000	0.0
63	0x00000000	0.0

critic.2.weight f4 [64, 64]
0	0xbd84a491	-0.06476701
1	0xbe0e0f8f	-0.13873123
2	0xbe62e225	-0.2215658
3	0x3e395714	0.18099624
4	0x3ddbc833	0.10731544
5	0x3ee2109f	0.44153306
6	0xbd58da1b	-0.052942377
7	0x3c6aed6b	0.014338831
8	0x3c45a56b	0.0120633645
9	0x3d3dcb80	0.04633665
10	0x3c9dede5	0.019278476
11	0x3e6f6aa0	0.23380518
12	0x3d975d2e	0.073908195
13	0xbec16f20	-0.37780094
14	0xbe8bd6c2	-0.27312285
15	0xbe752a19	-0.2394184
16	0xbeb48ef2	-0.3526531
17	0xbec8bdce	-0.3920731
18	0x3e6ce7e1	0.2313533
19	0x3e95ea0f	0.29280135
20	0x3ea258f3	0.31708488
21	0xbddca4a4	-0.1077359
22	0x3d303e33	0.043028068
23	0xbd01c510	-0.031682074
24	0x3e79515d	0.24347444
25	0xbc941f9a	-0.018081475
26	0xbe667b47	-0.22507964
27	0x3f3764ae	0.71638
28	0xbdf754d6	-0.12076728
29	0x3ed9bc6b	0.42526564
30	0x3ea0a603	0.31376657
31	0xbd96f23d	-0.07370422
32	0x3df7dae4	0.12102297
33	0x3a04e9c9	0.0005070237
34	0xbb63afc4	-0.0034742216
35	0x3dd2c916	0.1029226
36	0x3e20b898	0.15695417
37	0xbdd9bd79	-0.10631842
38	0xbc98d05e	-0.018654045
39	0xbe765b4a	-0.24058262
40	0x3c24d43e	0.010060368
41	0x3e87f368	0.26552892
42	0xbcb838a6	-0.02248795
43	0x3c84f750	0.016231209
44	0x3d4abd33	0.04949684
45	0xbd8a95f6	-0.06766884
46	0x3e5f7893	0.21823339
47	0x3e776b47	0.24162017
48	0x3de0af14	0.109708935
49	0x3cd08e0d	0.02545836
50	0x3c6efa81	0.014586092
51	0x3da7968d	0.08183012
52	0xbcd372d3	-0.025811588
53	0xbdcf34d2	-0.101174966
54	0xbe9b2c35	-0.30307165
55	0x3e378192	0.17920521
56	0xbedc3ee6	-0.43016738
57	0x3e1ff870	0.15622115
58	0x3c8ea40b	0.017412206
59	0xbd93fdb2	-0.07226123
60	0xbd3de326	-0.046359204
61	0x3de0b80e	0.10972606
62	0xbd70bdf1	-0.058774892
63	0x3d2b3f7f	0.0418086
64	0xbe79d37f	-0.24397086
65	0xbee3048c	-0.44339406
66	0x3e8f4521	0.2798243
67	0xbd01267a	-0.031530835
68	0xbd3f37f9	-0.04668424
69	0xbd5d74d6	-0.0540665
70	0x3e7d9ba5	0.24766405
71	0xbe3c8a26	-0.18412074
72	0x3dd5351b	0.1041052
73	0xbdc57ace	-0.09642564
74	0xbe510c05	-0.20414741
75	0xbce697e9	-0.028148608
76	0x3cdaf9aa	0.026730377
77	0xbdb75374	-0.08951464
78	0x3de7f4b0	0.11325967
79	0xbe28b42f	-0.16474985
80	0xbe0c22fa	-0.13685217
81	0xbd8c6852	-0.06855835
82	0xbe4cc363	-0.19996409
83	0xbdab4805	-0.08363346
84	0xbea7585f	-0.3268461
85	0xbe3621c5	-0.1778632
86	0x3ea36f37	0.31920788
87	0x3f00c37b	0.5029828
88	0xbe7d6ede	-0.24749324
89	0xbdebe87e	-0.11518954
90	0x3cfa9e52	0.030593071
91	0xbda3c211	-0.079959996
92	0x3dabfaf9	0.083974786
93	0xbd84446c	-0.06458363
94	0x3e9214e6	0.2853157
95	0xbcbfcab1	-0.02341208
96	0xbe0cba88	-0.13743031
97	0x3ea68356	0.32522076
98	0xbe0f438f	-0.13990615
99	0x3e9d0ccb	0.30673823
100	0xbe89bae2	-0.26900393
101	0xbe53c2b3	-0.2067974
102	0x3e1bfcbf	0.15233134
103	0xbe62c69a	-0.22146073
104	0x3b8cb3fc	0.0042939167
105	0xbca7fbee	-0.020505872
106	0xbe98036c	-0.2969011
107	0xbea7d913	-0.32782802
108	0x39d41d2e	0.00040457532
109	0x3de20d60	0.11037707
110	0xbe3b454a	-0.1828815
111	0xbd45a1a0	-0.04824984
112	0xbdb0e546	-0.086374804
113	0x3c1d7081	0.009609343
114	0xbe3d6780	-0.18496513
115	0xbb8778a2	-0.0041342536
116	0x3da1dd1b	0.07903501
117	0x3eb11e0f	0.34593245
118	0x3e0cbbbb	0.13743488
119	0xbe82d8da	-0.2555607
120	0x3ec3ff46	0.38280696
121	0xbe0354c9	-0.12825312
122	0x3ebf0d86	0.37315005
123	0xbd995fd9	-0.074889846
124	0xbd09d94c	-0.033654496
125	0xbc99338d	-0.01870134
126	0xbc2a9ce4	-0.010413382
127	0xbe59167b	-0.21199982
128	0xbd04beab	-0.032408398
129	0x3da25374	0.07926074
130	0x3e9d3478	0.30704093
131	0x3f02f273	0.511512
132	0xbdb67624	-0.08909252
133	0x3db4ecc2	0.088342205
134	0x3e276ef4	0.16350919
135	0xbe8e783f	-0.27826115
136	0xbe85ee24	-0.2615825
137	0x3e608f8a	0.21929756
138	0xbe5b15b4	-0.21394998
139	0xbe598ef1	-0.21245934
140	0xbdc480dd	-0.09594891
141	0xbe21b339	-0.15791024
142	0xbd6446f5	-0.055731732
143	0xbc04bb2a	-0.008101264
144	0x3c52fccc	0.012877654
145	0x3ebf947b	0.3741797
146	0xbd4630c6	-0.048386358
147	0xbcf80a02	-0.03027821
148	0x3da5fb6d	0.08104596
149	0xbe41a676	-0.18911156
150	0x3e0e269d	0.13881917
151	0x3cd3eec8	0.025870696
152	0xbe53fdfa	-0.20702353
153	0x3ebe5ea7	0.3718159
154	0xbddfcb30	-0.10927427
155	0xbe826eed	-0.25475255
156	0x3e02306a	0.12713781
157	0xbe3dcf8b	-0.18536203
158	0x3e97f106	0.29676074
159	0xbdc6aaad	-0.097005226
160	0x3e03df28	0.12878096
161	0xbde7207a	-0.11285491
162	0xbe777530	-0.24165797
163	0x3dcbd69f	0.09953045
164	0xbe37644d	-0.17909355
165	0x3df50d2c	0.11965403
166	0xbec123da	-0.37722665
167	0xbe08e5c4	-0.13368899
168	0xbda3c954	-0.07997385
169	0xbe6f6b85	-0.23380859
170	0x3c3bef24	0.01147059
171	0x3e766014	0.24060088
172	0x3e718fa8	0.23589957
173	0x3af2a09d	0.0018511001
174	0xbd695577	-0.05696627
175	0xbe19c4c3	-0.15016465
176	0xbdb2406f	-0.08703696
177	0x3e9b2691	0.3030286
178	0xbdd41d26	-0.10357122
179	0xbdf2aeb4	-0.11849728
180	0x3e8845b8	0.2661569
181	0x3c2d4088	0.0105744675
182	0x3e30e021	0.17272998
183	0xbd69f49d	-0.057118047
184	0x3eba8249	0.36427525
185	0x3e3f7108	0.18695462
186	0x3e61c0d2	0.22046211
187	0x3e2ab443	0.16670327
188	0xbe31fc9c	-0.17381519
189	0x3d63c1b8	0.055604666
190	0x3e401be2	0.18760636
191	0xbe3a3282	-0.1818333
192	0x3ea111af	0.31458804
193	0x3e15cb0d	0.14628239
194	0xbf1d6dc6	-0.61495626
195	0xbe5144e7	-0.2043644
196	0x3e4ea1cc	0.20178908
197	0x3f319381	0.693657
198	0xbe231a34	-0.15927964
199	0xbe9d03d5	-0.30666986
200	0xbeaa74e7	-0.33292314
201	0xbdf8e94e	-0.12153874
202	0x3eae0b3f	0.33992955
203	0x3c937733	0.018001175
204	0x3c5acbd5	0.013354261
205	0xbe553e06	-0.20824441
206	0x3dcbba29	0.099476166
207	0xbe84c1a3	-0.25928983
208	0xbc844303	-0.016145235
209	0x3e079433	0.13240127
210	0x3e208b7b	0.15678208
211	0x3e34c2aa	0.17652383
212	0xb9d7bec3	-0.00041150124
213	0xbe18379e	-0.14864966
214	0x3e7fe00f	0.24987815
215	0xbdfe054a	-0.124033526
216	0x3e0b90f2	0.13629511
217	0xbe7ad3a6	-0.244948
218	0x3cc5c903	0.024143701
219	0xbe59b203	-0.21259312
220	0x3e3707eb	0.17874114
221	0xbe210fda	-0.15728703
222	0xbe349098	-0.17633283
223	0x3cdac313	0.026704347
224	0xbdd58d07	-0.104272895
225	0xbc9da279	-0.019242512
226	0x3bec7c79	0.0072169867
227	0x3ed17a26	0.40913504
228	0x3b901ff7	0.0043983418
229	0xbe386e9c	-0.18010944
230	0xbcd470bc	-0.025932662
231	0xbca2fe26	-0.019896578
232	0xbdf6485d	-0.12025521
233	0xbd941224	-0.072300225
234	0xbdfd4ff8	-0.123687685
235	0xbcd3de1b	-0.025862744
236	0x3b156d55	0.0022800763
237	0x3e9298f9	0.28632334
238	0x3e1a7890	0.15085053
239	0x3e59f4fa	0.21284857
240	0xbd16c180	-0.03680563
241	0x3cf347f6	0.0296974
242	0xbe625347	-0.2210208
243	0x3dadb8a1	0.08482481
244	0x3d2cee91	0.042219702
245	0xbecf23bd	-0.40456954
246	0x3e9abe78	0.3022344
247	0xbed5cc66	-0.41757506
248	0x3df6fc9a	0.12059899
249	0xbe8ad08e	-0.2711224
250	0xbe94c6ca	-0.29057914
251	0x3a8af893	0.0010602645
252	0xbdfa5e92	-0.12225069
253	0xbd025720	-0.03182137
254	0x3a83f46e	0.0010067353
255	0xbd8b4e2b	-0.06802019

critic.2.bias f4 [64]
0	0x3d84489e	0.06459163
1	0xbd0f03f1	-0.03491587
2	0xbd441e79	-0.047880623
3	0xbd238297	-0.039919462
4	0x3ca74dd9	0.020422863
5	0xbd4acb1c	-0.049510106
6	0xbdaff62c	-0.085918754
7	0xbd8239d1	-0.06358684
8	0x3bc8dcb3	0.006129825
9	0xbd92916b	-0.071566425
10	0x3d6f1de6	0.058378123
11	0x3d51d37e	0.051227085
12	0xbd04b921	-0.032403115
13	0xbd577bc4	-0.052608266
14	0xbca38727	-0.019961907
15	0x3d977c50	0.073967576
16	0xbc3593a8	-0.011082567
17	0xbd29c6ad	-0.041449238
18	0x3d4cd48e	0.050007395
19	0xbd72362f	-0.059133705
20	0xbda4934a	-0.08035906
21	0x3d83edfd	0.06441877
22	0xbc9a4d18	-0.01883559
23	0x3d4a4b20	0.04938805
24	0xbc2960d6	-0.010338029
25	0xbd92bd72	-0.0716504
26	0x3da1e5b1	0.07905138
27	0x3da4a4e9	0.080392666
28	0x3d874d95	0.066065945
29	0xbd31b8c6	-0.043389104
30	0x3d3462ec	0.04403965
31	0xbdb22891	-0.08699144
32	0xbd98be9d	-0.074582316
33	0x3dd06e7d	0.10177324
34	0x3cd3d42f	0.025858013
35	0xbd1bd525	-0.038045067
36	0xbc31e5f7	-0.010858051
37	0xbce98e80	-0.028510332
38	0x3d7331db	0.059373718
39	0xbd9d0264	-0.076664716
40	0xbd945e06	-0.07244496
41	0x3c95887d	0.01825356
42	0xbc847841	-0.016170623
43	0x3d5fd54f	0.054646786
44	0x3d21f871	0.039543573
45	0x3d8a0813	0.06739821
46	0xbd97d18d	-0.074130155
47	0xbd69f3b3	-0.057117175
48	0x3c362a3d	0.011118469
49	0x3b271579	0.0025494976
50	0x3d955c04	0.07292941
51	0xbd490121	-0.049073342
52	0x3db08f78	0.086211145
53	0xbd2e411d	-0.042542566
54	0x3d701276	0.058611356
55	0x3d1cc937	0.03827783
56	0x3d31835a	0.043338157
57	0xbc85b95f	-0.016323743
58	0x3bb4f0b9	0.0055218604
59	0xbc0aaf21	-0.008464606
60	0xbb79ae8c	-0.0038098423
61	0x3cd41de7	0.025893165
62	0xbcd9e583	-0.026598698
63	0xbd43e17e	-0.047822468

critic.4.weight f4 [1, 64]
0	0x3f1b3345	0.60625106
1	0xbea87eaa	-0.32909137
2	0xbee15f0c	-0.44017828
3	0x3f0f322a	0.5593592
4	0x3f4836fd	0.78208905
5	0xbf33b1e1	-0.70193297
6	0xbf14025e	-0.5781611
7	0xbeca2a6e	-0.39485496
8	0x3f10411c	0.5634935
9	0xbe83c058	-0.25732684
10	0x3ea692ed	0.3253397
11	0x3f668721	0.9004994
12	0xbf33aba4	-0.7018378
13	0x3e986319	0.29763106
14	0xbeded8cf	-0.43524787
15	0x3eba785c	0.36419952
16	0xbf0e1b28	-0.5551019
17	0xbf507f19	-0.81443936
18	0x3efb5202	0.49086004
19	0xbef943c4	-0.48684514
20	0xbf3febb9	-0.7496906
21	0x3eceed65	0.40415493
22	0xbebed7ee	-0.37274116
23	0x3ed37be2	0.41305453
24	0xbf005cbe	-0.50141513
25	0xbecb19e8	-0.39668202
26	0x3ed69fad	0.41918698
27	0x3e993ef2	0.29930836
28	0x3ec377e1	0.38177398
29	0xbe8c5491	-0.2740827
30	0x3e9323c2	0.2873822
31	0xbedbaf0d	-0.4290699
32	0xbf290c5f	-0.660345
33	0x3ebe52b3	0.3717247
34	0x3ee32aa3	0.44368467
35	0xbeda4e08	-0.42637658
36	0xbf8a1bee	-1.0789773
37	0xbf033ad1	-0.5126162
38	0x3f87f1de	1.0620687
39	0xbf1d4285	-0.61429626
40	0xbf361327	-0.71122974
41	0x3f158769	0.58409745
42	0x3e848644	0.25883687
43	0x3efa6ae6	0.48909682
44	0x3ee10545	0.43949333
45	0x3edef301	0.43544772
46	0xbe810eb9	-0.25206545
47	0xbedbd449	-0.42935398
48	0x3eb57416	0.3544013
49	0x3ea9107e	0.33020395
50	0x3eaaa356	0.3332774
51	0xbec2499d	-0.37946787
52	0x3ebb8767	0.3662674
53	0xbee6c26f	-0.45070216
54	0x3ed47777	0.41497394
55	0x3e70c8db	0.2351412
56	0x3ee4a487	0.44656774
57	0xbf103cb9	-0.56342655
58	0x3e780f82	0.24224666
59	0xbeec4dcf	-0.46153113
60	0x3ec0b389	0.37636974
61	0x3f1d1444	0.6135905
62	0xbec77755	-0.3895823
63	0xbef99fa0	-0.48754597

actor.0.weight f4 [64, 4]
0	0xbe6a46b8	-0.2287854
1	0xbd694c15	-0.056957323
2	0x3da91015	0.082550205
3	0xbdc5c7f3	-0.09657278
4	0xbdb57341	-0.088598736
5	0x3dcbc78c	0.0995017
6	0xbdd5b731	-0.104353316
7	0xbd99657d	-0.074900605
8	0x3da856bd	0.08219669
9	0xbe459e2b	-0.19298618
10	0xbe343f4e	-0.17602274
11	0xbdf8dbdc	-0.1215131
12	0x3e7ad1f9	0.2449416
13	0x3d9e5c1e	0.07732414
14	0x3d864673	0.06556406
15	0x3c6cbcc4	0.014449302
16	0x3e4fc67b	0.20290558
17	0x3e8420c5	0.2580625
18	0xbd990c04	-0.07472995
19	0x3d29cb40	0.0414536
20	0xbd9fb7e7	-0.077987485
21	0x3cbc22b4	0.022965766
22	0xbd2170c4	-0.039414182
23	0xbdb9e90f	-0.090776555
24	0xbe08c054	-0.13354617
25	0xbe42ed13	-0.19035749
26	0xbdcdf5c7	-0.10056644
27	0x3d50737d	0.05089139
28	0x3e8d3bdc	0.27584732
29	0xbe817ef0	-0.25292158
30	0xbe644c00	-0.22294617
31	0x3ed9d0ea	0.425422
32	0xbd6c47f9	-0.057685826
33	0x3e5e8c68	0.21733248
34	0xbec05da9	-0.37571457
35	0xbdd169c9	-0.10225255
36	0x3df81acb	0.12114485
37	0xbe0a0ad7	-0.13480698
38	0x3de36b0c	0.11104402
39	0xbcfdac00	-0.030965805
40	0xbe260665	-0.16213377
41	0xbd1499e0	-0.03627956
42	0xbd99d041	-0.075104244
43	0xbe86b005	-0.26306167
44	0xbe20b92e	-0.1569564
45	0x3f081485	0.5315631
46	0xbcc144bc	-0.023592345
47	0xbd76601b	-0.060150247
48	0x3e2793cd	0.16364975
49	0x3efed8a6	0.49774665
50	0x3e29bb27	0.16575299
51	0xbe3d2fc0	-0.18475246
52	0x3bf6319a	0.007513237
53	0xbf44e40b	-0.76910466
54	0x3d9e734e	0.077368364
55	0xbd1e2c6b	-0.03861658
56	0x3e3b8919	0.18314017
57	0x3e61562e	0.22005531
58	0xbe36308c	-0.17791957
59	0x3e512149	0.20422854
60	0xbe21cacd	-0.15800019
61	0xbcaf3f11	-0.021392377
62	0xbd8f2d71	-0.06991089
63	0x3e256a76	0.16153893
64	0x3ea3fbb8	0.32027984
65	0x3e019007	0.12652598
66	0x3c9ad198	0.01889877
67	0xbb3ac7bb	-0.0028500396
68	0xbe2e370e	-0.17013189
69	0xbd97acd6	-0.07406013
70	0x3d7adc43	0.061245214
71	0xbdf3150e	-0.1186925
72	0x3ea0bb30	0.31392813
73	0x3c7cd9fc	0.015432831
74	0x3e012d99	0.1261505
75	0x3d368f71	0.04457039
76	0x3cc60ce3	0.024176067
77	0x3e141610	0.14461541
78	0xbec7b84b	-0.39007792
79	0x3d7830ac	0.060593292
80	0xbdab2824	-0.083572656
81	0xbe5b24b5	-0.21400721
82	0x37e90c81	2.7781587e-05
83	0xbc65aa5f	-0.01401767
84	0xbe2cdb80	-0.16880608
85	0xbe0d3139	-0.13788308
86	0x3c33956b	0.010960917
87	0x3ee3ddf2	0.44505268
88	0x3d2e5009	0.042556796
89	0xbcb3ffec	-0.021972619
90	0x3cdc64a5	0.02690346
91	0xbe46873e	-0.19387528
92	0x3e556d78	0.2084254
93	0xbca5e2d3	-0.02024976
94	0xbe5b59ec	-0.21421021
95	0xbe0c96ea	-0.13729444
96	0x3e5fea75	0.21866782
97	0xbe0efde0	-0.13964033
98	0xbeca24bf	-0.3948116
99	0x3e898ea2	0.26866633
100	0xbd7f299d	-0.062295545
101	0x3dd00d4b	0.101587854
102	0xbdbf42e0	-0.09338927
103	0x3e0d8d41	0.13823415
104	0xbc1e08db	-0.009645666
105	0x3d8b73d4	0.06809202
106	0xbe82e271	-0.25563386
107	0xbdbd9bf8	-0.09258264
108	0x3d248b5c	0.040171966
109	0xbd6f9f0e	-0.058501296
110	0x3da2b3fc	0.079444855
111	0xbec3cd57	-0.382426
112	0x3d09fe62	0.033689864
113	0x3f05c32b	0.5225093
114	0x3d529012	0.051406927
115	0xbcba477f	-0.02273917
116	0xbc10ce67	-0.008838273
117	0xbe010080	-0.12597847
118	0x3e8d23a9	0.2756627
119	0x3e85baec	0.26119173
120	0xbe5b3ec9	-0.2141067
121	0x3e9cc223	0.30616865
122	0xbe37bf56	-0.17944083
123	0x3e2698ba	0.16269198
124	0x3eda7964	0.4267074
125	0xbe781c03	-0.24229436
126	0x3d901775	0.07035724
127	0xbe4e2632	-0.20131758
128	0xbda0d7d4	-0.07853666
129	0xbe6b76d9	-0.22994556
130	0xbd9a1328	-0.07523185
131	0x3e01245e	0.12611529
132	0x3e0d9645	0.13826855
133	0x3d6e8a36	0.058237277
134	0xbe11e2ec	-0.1424672
135	0x3de026dc	0.10944912
136	0xbe3f2f1e	-0.18670318
137	0xbed97b54	-0.42476904
138	0x3e6939a2	0.22775891
139	0xbdc16255	-0.094425835
140	0x3e17cca0	0.14824152
141	0x3b74c045	0.0037346047
142	0x3dbf9dc3	0.093562625
143	0xbe3bf4c5	-0.18355091
144	0x3c88d34f	0.016702322
145	0x3e0028fb	0.12515633
146	0x3e9f43de	0.31106466
147	0xbe4df55a	-0.20113125
148	0xbd427c84	-0.04748203
149	0x3e030e21	0.12798359
150	0x3ccd91a6	0.025093865
151	0xbded9a07	-0.11601644
152	0x3e3b06c6	0.18264303
153	0xbdc11562	-0.094279066
154	0xbe37f7c9	-0.17965616
155	0x3e223ecf	0.15844272
156	0xbe4824da	-0.19545308
157	0xbe13500c	-0.14386004
158	0xbe73afe0	-0.2379756
159	0xbe6b8e88	-0.2300359
160	0x3c48d8ed	0.01225875
161	0x3dc18933	0.09449997
162	0xbd86826b	-0.06567844
163	0xbe235374	-0.15949804
164	0x3e35b7ee	0.17745945
165	0x3de8bcac	0.11364111
166	0x3e7b2375	0.24525245
167	0xbd7f8f41	-0.062392477
168	0xbe858625	-0.26078907
169	0xbea017ee	-0.31268257
170	0xbdfb70a7	-0.12277346
171	0xbd0c5cf9	-0.034268353
172	0xbe16d1f1	-0.14728524
173	0xbe59da58	-0.21274698
174	0x3d247b15	0.040156443
175	0xbd9db3dc	-0.07700321
176	0x3d990ea8	0.074734986
177	0xbe9d5371	-0.30727723
178	0x3b7e9e2c	0.0038851602
179	0x3e0dbb1d	0.1384091
180	0x3d7beeec	0.06150715
181	0x3e627d76	0.22118172
182	0x3e165383	0.14680295
183	0x3ed4c19e	0.41553968
184	0xbe34cf77	-0.17657267
185	0xbe55df04	-0.20885855
186	0xbd0e287e	-0.034706585
187	0x3e01dc0c	0.12681597
188	0xbcc0ac45	-0.023519645
189	0xbd93cc72	-0.07216729
190	0x3dfac63c	0.122448415
191	0xbdd525ce	-0.10407601
192	0xbe70a4a5	-0.23500307
193	0x3e6abf91	0.2292464
194	0xbd0200d2	-0.031739064
195	0x3ea8c256	0.32960767
196	0x3ea4123c	0.32045162
197	0x3e073978	0.13205516
198	0xbbeb29cb	-0.007176613
199	0x3e07d39f	0.13264321
200	0xbe39a7d1	-0.18130423
201	0xbe1fc752	-0.15603378
202	0xbdfac6f8	-0.122449815
203	0xbda424ac	-0.08014807
204	0x3e919814	0.2843634
205	0x3e07edf9	0.13274373
206	0xbd14e9e4	-0.036355868
207	0x3e343396	0.17597803
208	0xbe308d08	-0.17241299
209	0x3eb9196b	0.36152205
210	0xbeccf8cb	-0.40033564
211	0xbe935493	-0.28775463
212	0x3de1e48f	0.11029922
213	0x3dd6a1cf	0.10480081
214	0xbea5e293	-0.32399425
215	0xbe2f322f	-0.17108987
216	0xbd9683df	-0.07349371
217	0x3d179e4a	0.03701619
218	0x3dccf9f5	0.10008613
219	0x3eb43a9e	0.3520097
220	0x3d7bd7a7	0.06148496
221	0xbed6e335	-0.4197022
222	0xbe06cae8	-0.1316334
223	0x3cf64848	0.030063763
224	0xbdbb7573	-0.09153261
225	0xbe55a0cc	-0.2086212
226	0xbd688b21	-0.05677331
227	0xbc88a922	-0.016682211
228	0xbde8b849	-0.113632746
229	0x3d7e6a8a	0.062113322
230	0x3e45e84b	0.19326894
231	0x3e8f9f8c	0.28051412
232	0x3d6b6c64	0.057476416
233	0xbd6b9872	-0.05751843
234	0xbe546f7b	-0.20745651
235	0xbd9a9935	-0.07548753
236	0xbe31f3b1	-0.17378117
237	0x3d59c2f7	0.05316445
238	0xbd5c89b1	-0.05384225
239	0x3cf62f3d	0.030051822
240	0xbc75bbdf	-0.014998405
241	0xbe904789	-0.28179577
242	0xbec55ea9	-0.38548782
243	0xbc3a0707	-0.0113542145
244	0xbe1860b2	-0.14880636
245	0x3e361a4f	0.17783473
246	0xbd0c956e	-0.034322195
247	0x3e391356	0.18073782
248	0xbf02e816	-0.51135385
249	0x3e4f55d5	0.20247586
250	0x3d14df29	0.036345635
251	0x3e00f281	0.12592508
252	0xbd091d9f	-0.033475515
253	0xbe4beb65	-0.19914015
254	0xbe9965c6	-0.2996046
255	0x3be2113a	0.006899026

actor.0.bias f4 [64]
0	0x00000000	0.0
1	0x00000000	0.0
2	0xba503037	-0.0007941755
3	0x3a0dafa7	0.00054048974
4	0xbaf3d1c3	-0.0018601943
5	0x00000000	0.0
6	0xbb9364fe	-0.004498123
7	0x00000000	0.0
8	0x00000000	0.0
9	0x3ac75adc	0.0015209573
10	0x00000000	0.0
11	0x00000000	0.0
12	0xbc37a45a	-0.011208618
13	0x3c99fe5c	0.018798046
14	0x00000000	0.0
15	0x3b75cdbe	0.0037506665
16	0x3b2ecc7a	0.002667217
17	0x00000000	0.0
18	0x00000000	0.0
19	0x3b1ccb50	0.0023924895
20	0xba754b6e	-0.0009357248
21	0x00000000	0.0
22	0x00000000	0.0
23	0xbc891d9f	-0.016737757
24	0x00000000	0.0
25	0xb3907eb7	-6.728572e-08
26	0x00000000	0.0
27	0x00000000	0.0
28	0x3d16557d	0.03670262
29	0x00000000	0.0
30	0xbbb4d67b	-0.005518732
31	0x3c3dbcb9	0.0115806395
32	0x3b005728	0.00195832
33	0x2e87d58e	6.177024e-11
34	0xbd332139	-0.043732855
35	0xba95c699	-0.0011426985
36	0xbcaef9ed	-0.021359408
37	0x00000000	0.0
38	0x00000000	0.0
39	0x00000000	0.0
40	0x00000000	0.0
41	0xbab56b9a	-0.0013841272
42	0x30f3e1f5	1.7744798e-09
43	0x00000000	0.0
44	0x00000000	0.0
45	0x00000000	0.0
46	0xbc3b50c1	-0.011432827
47	0x00000000	0.0
48	0x39c7c330	0.00038101664
49	0x00000000	0.0
50	0x00000000	0.0
51	0x00000000	0.0
52	0x00000000	0.0
53	0xba62ec52	-0.000865643
54	0x00000000	0.0
55	0x3c2c2026	0.010505712
56	0x37699652	1.3922881e-05
57	0x00000000	0.0
58	0xbbe5ccd1	-0.0070129414
59	0xbc9b6747	-0.018970145
60	0xbbbfec53	-0.0058570295
61	0x3c7cbe1c	0.015426185
62	0xbc428876	-0.011873355
63	0xbacdcb1a	-0.0015700788

actor.2.weight f4 [64, 64]
0	0xbe7301e5	-0.23731191
1	0x3dff25dc	0.12458393
2	0xbdb25ad8	-0.08708733
3	0x3e84d214	0.25941527
4	0xbd5f15bf	-0.054464098
5	0xbe01d072	-0.12677172
6	0x3e06d0b7	0.13165556
7	0x3d14276b	0.036170404
8	0x3cbdb3d6	0.023157042
9	0xbd2e9c9e	-0.04262983
10	0xbcb4de93	-0.022078788
11	0x3e30c110	0.17261147
12	0xbc1d17ae	-0.009588165
13	0x3e9c5a13	0.3053747
14	0x3d85d36e	0.06534468
15	0x3d81f7ec	0.063461155
16	0x3ba95fc8	0.0051688887
17	0x3e27acc9	0.16374506
18	0xbe8ea370	-0.27859068
19	0x3d8b1d8a	0.067927435
20	0x3e338f38	0.17535102
21	0xbdaa7a91	-0.08324159
22	0x3e5bea3e	0.21476075
23	0x3ded20d1	0.11578525
24	0xbdc7756a	-0.09739192
25	0x3db57c44	0.088615924
26	0xbde7af52	-0.113127366
27	0xbe6ffed3	-0.23437051
28	0x3f01f419	0.5076309
29	0x3ece4327	0.40285608
30	0x3dde37c7	0.108504824
31	0xbddd7636	-0.108135626
32	0xbe32e68e	-0.17470762
33	0x3e057e09	0.1303636
34	0x3ebcc21c	0.36866844
35	0x3d9fb072	0.07797326
36	0xbdf88d09	-0.12136275
37	0x3e315aa5	0.17319734
38	0xbc981d62	-0.018568698
39	0x3e3c3f4a	0.18383518
40	0x3eaa1721	0.3322077
41	0x3e52084c	0.20510978
42	0x3d33ea4b	0.04392461
43	0x3e3ffef6	0.18749604
44	0xbe583217	-0.21112858
45	0xbe87da45	-0.26533714
46	0xbdd36b23	-0.10323169
47	0x3d0ce208	0.034395248
48	0xbdf75a3c	-0.12077758
49	0xbcef9068	-0.029243663
50	0x3ce83461	0.028345289
51	0x3e7aaae7	0.24479257
52	0xbd26eb22	-0.040751584
53	0xbea6d84e	-0.32586902
54	0xbeae0b17	-0.33992836
55	0xbe683b5d	-0.22678895
56	0x3e63b5aa	0.22237268
57	0x3d4e2977	0.050332513
58	0x3c30710e	0.010769142
59	0xbd8f51b4	-0.069980055
60	0xbcaabe9d	-0.020842845
61	0xbdb2f9d2	-0.08739056
62	0xbc801e72	-0.015639517
63	0xbe6d2d8c	-0.23161906
64	0x3dd742a8	0.105107605
65	0xbe3718c3	-0.1788054
66	0x3e59459f	0.21217965
67	0xbe159038	-0.14605796
68	0x3dbb2c8b	0.09139355
69	0xbe812dd2	-0.2523027
70	0xbec30aa2	-0.3809405
71	0xbde48eb8	-0.11160034
72	0x3e15dfc6	0.14636144
73	0x3d7dd247	0.061968114
74	0xbdd4a51c	-0.103830546
75	0x3e95135b	0.2911633
76	0xba6aabe7	-0.0008952007
77	0xbd1d3fe9	-0.038391028
78	0xbd11f677	-0.035635438
79	0x3dfe477b	0.124159776
80	0xbcebd08b	-0.028785964
81	0xbb3aeb93	-0.002852176
82	0x3d5ed792	0.054404803
83	0x3e589c95	0.21153481
84	0xbe1ea60a	-0.15493026
85	0xbd37fb56	-0.044917427
86	0xbdd44f2e	-0.10366665
87	0x3e71f4ed	0.23628588
88	0xbe41ec50	-0.18937802
89	0xbe3344cb	-0.17506711
90	0x3e13dd8c	0.14439982
91	0x3e1f3ce1	0.15550567
92	0x3ce99ce3	0.028517192
93	0xbe0074d5	-0.12544568
94	0x3def6d26	0.1169074
95	0xbdba6dac	-0.091029495
96	0xbe6f933f	-0.23396014
97	0xbe30c1cc	-0.17261428
98	0x3e93d118	0.28870463
99	0x3eba62b6	0.36403435
100	0xbd451c66	-0.048122786
101	0xbbcdec34	-0.006284261
102	0x3e0f16c1	0.13973524
103	0xbe005f97	-0.12536465
104	0x3b979346	0.0046257107
105	0xbdc085b7	-0.09400504
106	0xbde4f2e5	-0.11179141
107	0x3ed424c9	0.41434315
108	0x3e1b54a6	0.1516901
109	0xbc769faa	-0.015052715
110	0xbcb65009	-0.02225496
111	0x3d47d9fc	0.04879187
112	0xbdf50b9f	-0.11965107
113	0xbdb5fba5	-0.08885888
114	0xbe6da80a	-0.23208633
115	0x3d3003f4	0.04297252
116	0x3efc39e6	0.49262923
117	0x3df59efb	0.11993214
118	0xbe9c08fb	-0.30475602
119	0xbcea8c3f	-0.028631328
120	0x3e82c562	0.25541216
121	0xbe40b7a3	-0.18820052
122	0x3e30e556	0.17274985
123	0x3e20e5ab	0.15712611
124	0x3e122951	0.14273573
125	0x3e7fa477	0.24965082
126	0xbdfb6c78	-0.12276548
127	0x3d4dc899	0.050240133
128	0xbe807864	-0.2509185
129	0x3eaed76f	0.34148738
130	0xbeaf18c2	-0.34198576
131	0xbd1b1d29	-0.037869606
132	0x3dab2140	0.08355951
133	0xbebdc832	-0.370668
134	0x3df1b4ab	0.11802038
135	0x3d8b470d	0.06800661
136	0x3e276493	0.1634696
137	0x3eb412b1	0.3517051
138	0xbe28ea81	-0.16495706
139	0xbde0f037	-0.10983317
140	0xbf1f7570	-0.6228857
141	0xbe4ddef8	-0.20104587
142	0xbd07ff69	-0.033202562
143	0xbccb301e	-0.024803218
144	0x3e22d9b6	0.15903363
145	0xbe8a91f6	-0.27064484
146	0xbd26a73d	-0.040686835
147	0x3e315b07	0.1731988
148	0x3e4d99f3	0.20078258
149	0xbe186749	-0.1488315
150	0x3d85133a	0.06497808
151	0xbdd98bb9	-0.10622353
152	0xbdeab120	-0.11459565
153	0xbe194e8a	-0.14971367
154	0x3e230dc0	0.15923214
155	0x3e6c7778	0.23092449
156	0x3e86c1ee	0.26319832
157	0xbdb5b0e4	-0.0887163
158	0xbd58fed0	-0.052977383
159	0xbe3f7dc8	-0.18700325
160	0x3da1c286	0.078984305
161	0xbeae2ad1	-0.3401704
162	0xbebe7e3b	-0.3720568
163	0x3e4971c6	0.19672307
164	0x3e6d4127	0.23169385
165	0xbd47e85a	-0.048805572
166	0x3de336eb	0.11094459
167	0xbd37e802	-0.044898994
168	0x3dedc95c	0.11610672
169	0xbcbbe54c	-0.022936486
170	0x3e15a706	0.14614496
171	0x3e363fc0	0.17797756
172	0xbe31291a	-0.17300835
173	0xbc8040ef	-0.015655963
174	0x3dfc3a71	0.12315834
175	0x3d2c19cb	0.042016786
176	0x3e85241f	0.2600412
177	0x3be63a61	0.0070260023
178	0xbe281059	-0.16412486
179	0xbe21c2bd	-0.15796943
180	0xbe843396	-0.25820607
181	0xbe0b542d	-0.1360633
182	0x3cd3489c	0.025791459
183	0xbdaeb04b	-0.08529719
184	0xbe423a8c	-0.18967646
185	0x3de3790b	0.111070715
186	0x3c4666e3	0.012109491
187	0x3e99c2ed	0.3003153
188	0x3dbb7f0d	0.091550924
189	0xbe326a98	-0.17423475
190	0xbe07b9e4	-0.13254505
191	0x3de000ca	0.109376505
192	0xbd12a545	-0.035802145
193	0x3e30b0c2	0.17254928
194	0xbe18c992	-0.14920643
195	0x3dc636be	0.0967841
196	0xbef3545f	-0.47525308
197	0xbdff13b6	-0.124549314
198	0x3cd14328	0.025544718
199	0x3c63d7a4	0.013906393
200	0x3e86f638	0.26359725
201	0xbdea75c7	-0.114482455
202	0xbd71dac7	-0.059046533
203	0xbcb82c88	-0.022482172
204	0xbebe6b16	-0.37191075
205	0xbf01ac39	-0.50653416
206	0x3e24b436	0.1608437
207	0xbcb69d39	-0.022291766
208	0x3d38a316	0.045077406
209	0x3ed1f8a7	0.4101002
210	0x3df8e0f5	0.12152282
211	0x3ced6bff	0.02898216
212	0xbe5b61e6	-0.21424064
213	0xbc95c0e9	-0.018280463
214	0xbe431691	-0.19051577
215	0xbde22cef	-0.11043727
216	0x3ecc516e	0.39905876
217	0xbe813736	-0.25237435
218	0xbed92ad3	-0.42415485
219	0x3e36f3e8	0.1786648
220	0x3ec45e09	0.38352993
221	0xbe1a0c84	-0.15043837
222	0x3df5b143	0.119967006
223	0xbd2c5f91	-0.042083327
224	0xbe298820	-0.16555834
225	0xbd00cc1d	-0.031444658
226	0xbd7c0e78	-0.061537236
227	0x3ca7b1d6	0.020470541
228	0xbc2f84d7	-0.010712824
229	0xbd3ec06f	-0.046570238
230	0xbe13d62c	-0.14437169
231	0xbe223370	-0.15839934
232	0x3e2edef6	0.1707724
233	0xbe602964	-0.2189079
234	0xbe25c774	-0.16189367
235	0xbd33d862	-0.04390753
236	0xbe6a9495	-0.22908242
237	0xbe7fd649	-0.24984087
238	0x3dabe492	0.08393206
239	0xbdd92ae8	-0.10603887
240	0x3ea464a6	0.3210804
241	0xbc600e53	-0.01367529
242	0x3d23db87	0.04000428
243	0xbd9a3002	-0.07528688
244	0x3d48b9a8	0.04900518
245	0x3d9e120e	0.077182874
246	0x3dd76582	0.10517408
247	0xbc9f119e	-0.01941758
248	0x3e29b983	0.16574673
249	0x3d78c0eb	0.060730856
250	0xbe5e4bf4	-0.21708661
251	0xbd02d87b	-0.031944733
252	0x3e81918c	0.25306356
253	0x3e980ffe	0.296997
254	0x3d91cb47	0.0711885
255	0x3e4a9c62	0.19786218

actor.2.bias f4 [64]
0	0xbcabdecc	-0.020980261
1	0xbb0c3ac0	-0.0021397322
2	0x3d062de4	0.03275861
3	0x39a073fd	0.00030603996
4	0xbcc1235f	-0.023576437
5	0xb91bfe14	-0.00014876603
6	0x3c95287c	0.018207781
7	0xbb427f6c	-0.0029678
8	0xbca24206	-0.019806873
9	0x3a7dbc76	0.0009679267
10	0xbd598d3d	-0.05311321
11	0xbc95f2c4	-0.018304236
12	0xbceb416a	-0.028717715
13	0xbb85a0bd	-0.0040779994
14	0xbc073254	-0.008251745
15	0x3bbd3a60	0.005774781
16	0xbc831dda	-0.016005445
17	0x3bc47a2c	0.0059960093
18	0x3d33567c	0.04378365
19	0x3ca2afd6	0.019859236
20	0xbcd9bb1f	-0.026578484
21	0xbb4cccaa	-0.003124992
22	0x3a564e6f	0.00081751397
23	0x3abd8388	0.0014458755
24	0x3718c172	9.104946e-06
25	0x3a910b16	0.0011065926
26	0x3c47585b	0.012167062
27	0x3c859d29	0.016310291
28	0x3c13d956	0.009023985
29	0xbc8f02d3	-0.017457401
30	0x3c8ee798	0.017444417
31	0xbc2753d8	-0.010212861
32	0xbcb6914c	-0.02228608
33	0xbcdc6a79	-0.026906239
34	0x3c6b6b61	0.014368863
35	0xbcd4a131	-0.025955768
36	0x3c70e6c3	0.014703455
37	0xbcd9dbc8	-0.026594058
38	0x3be7a45e	0.0070691546
39	0xbc91ff0e	-0.017821815
40	0x3cd7abab	0.026326975
41	0x3c11258c	0.0088590495
42	0x3cabfe61	0.02099532
43	0xbca99c63	-0.020704454
44	0x3bb7b0b7	0.005605783
45	0x3c354678	0.011064164
46	0xbb347241	-0.002753392
47	0xbc8c0302	-0.017091278
48	0xbc8f4fb9	-0.01749407
49	0x3b315e81	0.0027064385
50	0x3bb28355	0.005447785
51	0x3c3e2f52	0.011607962
52	0xbc2a64ad	-0.01039998
53	0x3c8c27d3	0.017108833
54	0xbcad3d10	-0.021147281
55	0xbc0ed1ba	-0.008716995
56	0x3cc106ba	0.023562778
57	0x3bad0b4f	0.005280889
58	0xbccd0a6b	-0.025029382
59	0x3c9c58fa	0.019085396
60	0x3c99969c	0.018748574
61	0x3b315ea6	0.0027064472
62	0xbd164e77	-0.036695924
63	0x3a23e269	0.0006251694

actor.4.weight f4 [2, 64]
0	0x3cc72093	0.024307525
1	0xbc93016f	-0.01794502
2	0xbe946f26	-0.2899105
3	0xbe7515de	-0.23934123
4	0x3e992148	0.29908204
5	0xbc9d7732	-0.019221876
6	0x3cf736ba	0.030177463
7	0x3e525681	0.20540811
8	0x3cc7949b	0.024362853
9	0x3de429ae	0.11140762
10	0x3e49fad8	0.19724596
11	0x3c3c9de3	0.0115122525
12	0xbe2c382c	-0.16818303
13	0x3e24f7c5	0.16110142
14	0x3a346b48	0.0006882441
15	0xbca1b883	-0.019741302
16	0xbc973803	-0.018459326
17	0xbd0dca85	-0.034616966
18	0xbca8bd27	-0.020598007
19	0x3c8aaec9	0.016929047
20	0xbdd2c23e	-0.10290955
21	0x3e2eb5f3	0.17061596
22	0xbe422010	-0.18957543
23	0x3cc0fa56	0.02355687
24	0xbe12940d	-0.1431429
25	0x3e2621a9	0.16223778
26	0x3d244b93	0.040111136
27	0x3c5840e8	0.013199069
28	0x3c9dd89b	0.019268325
29	0xbe5d1c20	-0.2159276
30	0x3c82aa66	0.015950393
31	0xbda01694	-0.078168064
32	0x3e5c177d	0.21493335
33	0x3e430750	0.19045758
34	0xbd6fc24d	-0.05853491
35	0xbe399240	-0.18122196
36	0xbe4ec73f	-0.20193194
37	0xbe93bc8e	-0.28854793
38	0x3c624a2b	0.013811628
39	0xbc875b6c	-0.016523086
40	0x3be0fb52	0.006865897
41	0xbd5885ed	-0.052862097
42	0x3c6f00ef	0.014587625
43	0xbc51b345	-0.012799089
44	0x3c63acd0	0.013896182
45	0x3c9175d2	0.017756376
46	0x3d629711	0.05531985
47	0xbc4e4881	-0.0125905285
48	0xbe84976c	-0.25896776
49	0x3e8c35a1	0.27384666
50	0x3ddb3a2a	0.10704453
51	0x3c572782	0.013131978
52	0x3e83830a	0.25685912
53	0x3ed189fa	0.4092558
54	0x3de0c091	0.10974229
55	0x3d701410	0.058612883
56	0xbe5a45ce	-0.21315691
57	0x3debad6e	0.115076885
58	0xbe44ddd6	-0.19225249
59	0xbe39fa24	-0.18161827
60	0x3e94ca20	0.2906046
61	0xbc59851c	-0.013276365
62	0xbe2eb161	-0.17059852
63	0xbcc8d907	-0.02451755
64	0xbcc79458	-0.024362728
65	0x3c9f956e	0.019480433
66	0x3e948e93	0.29015025
67	0x3e71b6db	0.2360491
68	0xbe9881be	-0.29786485
69	0x3c8f0666	0.017459106
70	0xbcdffefa	-0.027343262
71	0xbe52bf68	-0.20580828
72	0xbcb62bec	-0.02223774
73	0xbde04d9b	-0.10952302
74	0xbe48f43a	-0.19624415
75	0xbc509e09	-0.012732991
76	0x3e2e7ca8	0.1703974
77	0xbe23023a	-0.15918818
78	0xbafaf440	-0.0019146279
79	0x3c9ec678	0.019381747
80	0x3c9df57f	0.0192821
81	0x3d06f7a5	0.032951016
82	0x3caccff6	0.021095257
83	0xbc5023d3	-0.012703854
84	0x3dd4769a	0.10374184
85	0xbe2a0747	-0.16604339
86	0x3e42db32	0.19028929
87	0xbcd02ca1	-0.025411906
88	0x3e125998	0.1429199
89	0xbe271d17	-0.1631969
90	0xbd231c97	-0.039822187
91	0xbc2f4b4c	-0.0106991045
92	0xbc8b9e43	-0.017043239
93	0x3e5c6858	0.21524179
94	0xbc86cafb	-0.01645421
95	0x3d9c51e4	0.07632807
96	0xbe5ac28a	-0.21363273
97	0xbe41f7cf	-0.18942188
98	0x3d6f7874	0.058464482
99	0x3e396a4e	0.18106958
100	0x3e50a758	0.20376337
101	0x3e92f85f	0.28705117
102	0xbc67b416	-0.014142057
103	0x3c862cbe	0.016378757
104	0xbc0995eb	-0.00839756
105	0x3d4fc002	0.050720222
106	0xbc549474	-0.012974847
107	0x3c615a0d	0.01375438
108	0xbc785061	-0.015155883
109	0xbca276a5	-0.019831965
110	0xbd52d66c	-0.05147402
111	0x3c42c4ec	0.01188777
112	0x3e85d1fd	0.2613677
113	0xbe8c00d4	-0.27344382
114	0xbddb81f1	-0.10718144
115	0xbc6570d9	-0.014003956
116	0xbe832f23	-0.256219
117	0xbed23b8a	-0.4106105
118	0xbddfaff1	-0.1092223
119	0xbd7f2a01	-0.062295917
120	0x3e598b3a	0.21244517
121	0xbded8af1	-0.115987666
122	0x3e491fd6	0.1964105
123	0x3e38bc0b	0.18040483
124	0xbe95eb4e	-0.29281086
125	0x3c4c7c4a	0.012480805
126	0x3e2fd17d	0.17169757
127	0x3cc9967d	0.024607891

actor.4.bias f4 [2]
0	0x3c9eeff0	0.01940152
1	0xbc9eeff5	-0.01940153
