Catcher_Flappy_Continuous_old/wandb/Catcher/run_inacc_state_acc_r/files/agent_inacc_state_acc_r.pt (torch, 39873 bytes, 11 tensors)

critic.0.weight f4 [64, 3]
0	0xbf34b6c7	-0.70591396
1	0x3f30d583	0.69075793
2	0xbd2b2235	-0.04178067
3	0x3ef0bc71	0.4701877
4	0x3f7de9d9	0.9918495
5	0xbd062d72	-0.032758184
6	0xbe26ac90	-0.16276765
7	0xbf6a57fa	-0.9154049
8	0xbefa4dc6	-0.4888746
9	0x3f1e3e4b	0.618138
10	0xbf4077f2	-0.7518302
11	0x3e665e03	0.224968
12	0xbf9328a6	-1.149678
13	0x3e133e51	0.1437924
14	0x3f1569f3	0.5836479
15	0xbf6c8e34	-0.92404485
16	0xbf4ff5bd	-0.8123434
17	0x3e0f9439	0.14021386
18	0x3f012a24	0.50454926
19	0x3f497646	0.78696096
20	0xbe9039ee	-0.28169197
21	0xbf9553e2	-1.1666224
22	0x3f1c4016	0.6103529
23	0xbd9f6397	-0.07782667
24	0x3cb11a0d	0.021618867
25	0xbee67aeb	-0.45015654
26	0xbd84343c	-0.064552754
27	0x3f83e41c	1.0303988
28	0xbf00a576	-0.50252473
29	0xbe25ada6	-0.16179523
30	0x3d030597	0.031987753
31	0xbefd2e7b	-0.49449524
32	0x3ef22f6c	0.47301805
33	0xbdef1754	-0.11674371
34	0xbbea5fe8	-0.007152546
35	0x3d33cf26	0.043898724
36	0xbf3dc3c8	-0.74126863
37	0xbf29d856	-0.6634573
38	0xbca4caec	-0.020116292
39	0x3d2541d7	0.040345993
40	0x3e9d3897	0.30707237
41	0xbf31facb	-0.69523305
42	0x3ecae4e5	0.39627758
43	0xbd85a6f8	-0.065259874
44	0xbecaf23f	-0.39637944
45	0x3f70d805	0.9407962
46	0xbf2977cc	-0.6619842
47	0xbed4188d	-0.4142498
48	0x3ea83b90	0.32857943
49	0x3f4e0517	0.80476516
50	0x3c2a3476	0.010388484
51	0x3f030595	0.5118039
52	0x3e6834de	0.22676417
53	0xbf53004f	-0.82422346
54	0x3eaddd85	0.33958068
55	0xbecdc9cd	-0.40193024
56	0xbdacba20	-0.08433938
57	0x3ec994cd	0.39371338
58	0xbef424b1	-0.47684243
59	0x3f59a3f5	0.85015804
60	0xbf8866e1	-1.0656396
61	0xbfc65306	-1.5494087
62	0x3ea5de93	0.32396373
63	0x3e96b370	0.29433775
64	0xbf2bfdd4	-0.67184186
65	0x3f0b40c1	0.5439568
66	0x3e8afcee	0.27146095
67	0x3f4933c4	0.78594613
68	0x3c99c2e3	0.018769687
69	0x3ef63d0b	0.48093447
70	0x3ef6255a	0.48075372
71	0xbf1b169b	-0.6058137
72	0x3ed8c469	0.4233735
73	0x3f3dc3ca	0.74126875
74	0x3cfe83bb	0.031068673
75	0xbed18676	-0.40922898
76	0xbf6e33b8	-0.93047667
77	0xbcee7c10	-0.029111892
78	0xbeb466bb	-0.35234627
79	0x3fa435e5	1.2828947
80	0x3d735377	0.05940577
81	0x3ddb922d	0.1072124
82	0xbe9ecd0d	-0.31015816
83	0xbeef44bc	-0.46732128
84	0x3f25dc61	0.64789397
85	0x3f136d62	0.5758878
86	0xbe1a6ade	-0.15079829
87	0xbdf39344	-0.11893323
88	0x3e8b347a	0.27188474
89	0xbfe57ff1	-1.792967
90	0x3f7f5f90	0.9975519
91	0xbe98e7b7	-0.29864284
92	0x3f6a4e92	0.9152614
93	0x3f12fb8a	0.5741507
94	0x3f3799db	0.7171914
95	0x3cb8a9ae	0.022541847
96	0xbedadab0	-0.4274497
97	0x3f6f3f49	0.9345594
98	0xbe89d649	-0.269213
99	0xbf682abe	-0.9069022
100	0xbf2fe39e	-0.6870669
101	0xbdd04b94	-0.101706654
102	0xbdf9172a	-0.12162621
103	0x3f6a631b	0.9155747
104	0xbd9e619a	-0.0773346
105	0xbcb97470	-0.02263853
106	0xba00ba5b	-0.00049105816
107	0x3dbd5778	0.09245199
108	0xbfaaeff2	-1.3354475
109	0x3ea3fad5	0.32027307
110	0xbecd019f	-0.400403
111	0x3df49de5	0.119441785
112	0x3c46626a	0.012108425
113	0x3d15b05e	0.03654515
114	0x3ccbb47a	0.024866331
115	0xbf8a7beb	-1.0819067
116	0xbb3b3e69	-0.0028571135
117	0x3ec46661	0.3835936
118	0x3e84a5de	0.25907797
119	0xbf6e1e2b	-0.9301478
120	0x3f890dde	1.0707357
121	0xbf1f1bbf	-0.6215171
122	0xbe46ba8d	-0.19407101
123	0xbf347030	-0.70483685
124	0x3f087d45	0.53316146
125	0xbf8d5e6c	-1.104444
126	0xbe840b30	-0.25789785
127	0xbe194757	-0.1496862
128	0x3eef938c	0.46792257
129	0xbd3b987d	-0.04579972
130	0x3f302be9	0.68817
131	0xbe8495bd	-0.2589549
132	0x3e95c763	0.29253682
133	0xbf339129	-0.7014337
134	0x3edff1cb	0.4373916
135	0x3cc25413	0.02372173
136	0xbdf51e51	-0.11968673
137	0xbc578734	-0.0131547935
138	0xbe9e7e1c	-0.3095559
139	0x3e7ff5e9	0.24996151
140	0x3f972f24	1.1811261
141	0xbf4aa0ba	-0.791515
142	0xbf55f54e	-0.8357743
143	0x3cfa5182	0.030556444
144	0xbef69bcc	-0.4816574
145	0xbe06f14b	-0.13177983
146	0x3f526016	0.82177866
147	0x3eda8463	0.42679128
148	0xbf5570ca	-0.8337523
149	0x3eb84992	0.3599363
150	0xbe7fc59b	-0.24977724
151	0xbe5c9c7c	-0.21544069
152	0x3f89e159	1.0771896
153	0x3e938908	0.28815484
154	0x3eb99fa8	0.3625462
155	0xbf41ebc3	-0.7575037
156	0xbded9a6b	-0.116017185
157	0xbe5b8f65	-0.2144142
158	0x3ca55743	0.020183211
159	0xbeaac219	-0.3335121
160	0xbf718fe4	-0.94360185
161	0x3edb50ac	0.42834985
162	0x3e62d2b6	0.22150692
163	0x3f609d17	0.877397
164	0xbe8f26ed	-0.27959386
165	0xbf41ce3d	-0.7570532
166	0xbf077ea3	-0.5292761
167	0xbd6c8bd8	-0.057750553
168	0x3f191c5a	0.59808886
169	0xbed10ac4	-0.40828526
170	0xbd1f052a	-0.038823284
171	0x3f419254	0.75613904
172	0xbed169c1	-0.40900996
173	0x3e3d714d	0.18500252
174	0x3ed0a887	0.40753576
175	0x3f737a66	0.9510864
176	0x3c7a28a5	0.0152684795
177	0x3f06ced8	0.5265937
178	0x3f3fc2b7	0.74906486
179	0x3cc8be80	0.0245049
180	0xbe4fc921	-0.20291568
181	0x3ce55746	0.027995717
182	0x3d4f354a	0.05058793
183	0xbdf77dcf	-0.12084543
184	0x3fa2f79e	1.2731817
185	0xbecda85d	-0.40167513
186	0xbda476c8	-0.08030468
187	0xbeaac788	-0.33355355
188	0x3d609ae8	0.05483523
189	0xbe5b9d75	-0.21446784
190	0x3e46522e	0.19367287
191	0xbd7d1645	-0.061788816

critic.0.bias f4 [64]
0	0xbf1f671c	-0.6226671
1	0x3fd92645	1.6964804
2	0xbf54bae5	-0.8309768
3	0xbf2391f1	-0.63894564
4	0x3f8e9542	1.11393
5	0xc001f353	-2.0304763
6	0xbfe52d5f	-1.7904471
7	0xbeb373c1	-0.3504925
8	0x409fe8ce	4.9971685
9	0x3febd7a6	1.8425186
10	0xbf34e195	-0.7065671
11	0x408382d0	4.1097183
12	0xbfd61654	-1.6725564
13	0xbe858687	-0.260792
14	0x404cc7d4	3.1996965
15	0x3f8b118c	1.086473
16	0x3fcb0af6	1.586272
17	0xbfebdd62	-1.8426936
18	0x4087bba0	4.2416534
19	0x3f8aa739	1.0832282
20	0xbf1b0879	-0.60559803
21	0x40128e4a	2.2899346
22	0x40093f41	2.1444857
23	0x3f787253	0.97049445
24	0x3ff9704f	1.9487399
25	0xbfda6147	-1.7060937
26	0x40443c2c	3.0661726
27	0x4054ad69	3.323084
28	0x3fc52248	1.5401087
29	0x40051cb1	2.0798762
30	0xbf65b811	-0.8973399
31	0x3ff38757	1.9025677
32	0x3f2d282d	0.6763943
33	0xbfdeb1fb	-1.7398065
34	0xc0875809	-4.2294965
35	0xc086d55b	-4.2135444
36	0x3ea5cde8	0.32383657
37	0xc0803a11	-4.007088
38	0x40b8e34a	5.7777452
39	0xbff31119	-1.8989593
40	0x3f892fd2	1.0717719
41	0xbf57dc5f	-0.84320635
42	0x40835f55	4.105387
43	0xc0442acf	-3.0651128
44	0x40800ab4	4.0013065
45	0x40a85b7c	5.2611675
46	0xc08a528d	-4.322577
47	0xc0005dac	-2.0057173
48	0xbf402996	-0.75063455
49	0xbd0a631e	-0.03378593
50	0x3e0f54d2	0.139972
51	0x3fd81124	1.6880231
52	0x40884e98	4.259594
53	0xbfe5bf3f	-1.7948989
54	0x3fad4430	1.3536434
55	0xbfd59739	-1.6686774
56	0x407c5dc0	3.943222
57	0x3e946979	0.2898672
58	0x3fecd555	1.8502604
59	0x4001ec0c	2.0300322
60	0x40ad6060	5.4180145
61	0xbff66e86	-1.9252479
62	0xc007431f	-2.1134717
63	0x407ab3e6	3.9172301

critic.2.weight f4 [64, 64]
0	0x3f11a661	0.568945
1	0xbe351b2d	-0.17686148
2	0xbd23a5eb	-0.039953154
3	0xbf598bb8	-0.8497882
4	0xbc2ec47d	-0.010666964
5	0x3f174fe9	0.5910631
6	0xbd06fd0f	-0.03295618
7	0xbf0db4a7	-0.5535378
8	0xbf498493	-0.7871792
9	0x3e5b2e87	0.21404468
10	0xbe8d4164	-0.27588952
11	0x40418397	3.0236566
12	0x3e0f28f5	0.13980468
13	0x3e498828	0.19680846
14	0x3e85dbb4	0.26144183
15	0xbe0de43d	-0.13856597
16	0xbd7fda80	-0.062464237
17	0x3e2c5983	0.16831021
18	0xbecc5f93	-0.39916667
19	0x3e65f02c	0.224549
20	0xbe0dd21c	-0.13849682
21	0x3ec47343	0.38369188
22	0xbed39575	-0.41324964
23	0xbd6d71ca	-0.057969846
24	0xbf19cbc0	-0.6007652
25	0x3e14c515	0.14528306
26	0xbe3dcc06	-0.1853486
27	0xbe994220	-0.29933262
28	0xbe5996ca	-0.21248928
29	0xbf80945f	-1.0045279
30	0xbe72f236	-0.23725209
31	0xbeab000d	-0.33398476
32	0xbd889df5	-0.06670753
33	0x3e89747b	0.2684668
34	0x3e2e1cdc	0.17003196
35	0x3f42324d	0.75858
36	0xbe123b73	-0.1428049
37	0xbf49e519	-0.788652
38	0xbe9a1695	-0.30095354
39	0x3e84ed0e	0.25962108
40	0x3e6d19e1	0.23154403
41	0xbe16d02a	-0.14727846
42	0xbe845c9c	-0.25851905
43	0x3d9a36fd	0.075300194
44	0xbe5570a2	-0.20843747
45	0x3f33f47a	0.70294917
46	0x3e894e7a	0.26817685
47	0x3eac7b0b	0.33687624
48	0xbf096942	-0.53676236
49	0xbe21f1ba	-0.15814868
50	0xbe8a1c5f	-0.2697477
51	0x3ee79f62	0.45238787
52	0xbf58283e	-0.84436405
53	0x3e93e459	0.28885153
54	0xbe19910a	-0.14996734
55	0x3dcb8446	0.099373385
56	0xbde59eef	-0.11211955
57	0x3dd16483	0.10224249
58	0xbea7c5a7	-0.32767984
59	0xbf0a5ed4	-0.54050946
60	0x3e7f9842	0.24960425
61	0xbe8d8254	-0.27638495
62	0x3e93957e	0.2882499
63	0x3d0174ac	0.031605408
64	0xbe2997d9	-0.16561832
65	0x3eafbd4b	0.34324107
66	0xbe84f93d	-0.25971404
67	0x3ead0bf3	0.3379818
68	0xba596e82	-0.000829436
69	0xbe76e64c	-0.24111289
70	0x3d9b61a8	0.07586986
71	0xbdb58789	-0.08863742
72	0xbe3c80ef	-0.1840856
73	0x3e9206b9	0.28520754
74	0x3d26ff96	0.04077109
75	0x3e9c7dec	0.3056482
76	0xbcdd98bb	-0.027050367
77	0x3e996dd4	0.29966605
78	0x3d8b0db4	0.06789723
79	0x3dec0ace	0.11525498
80	0x3da280da	0.07934733
81	0xbdd307e5	-0.1030424
82	0xbcb5e9cc	-0.02220621
83	0x3e955b28	0.2917111
84	0xbe8d0df4	-0.27549708
85	0xbe7ad8dc	-0.24496788
86	0x3eed4485	0.4634134
87	0x3ea0148a	0.3126567
88	0x3e839955	0.2570292
89	0xbf5cf26c	-0.86307406
90	0x3d98d7ea	0.07463057
91	0xbc9d2f8e	-0.019187715
92	0x3ec4c13f	0.38428685
93	0xbdac2927	-0.08406287
94	0x3e91dd2a	0.28489047
95	0x3eed083c	0.46295345
96	0x3ed9d671	0.42546418
97	0xbe84eb35	-0.259607
98	0xbdcbeed5	-0.09957663
99	0xbd415576	-0.047200643
100	0xbede25f3	-0.43388328
101	0xbee3639e	-0.4441194
102	0x3deeb603	0.1165581
103	0xbea057e1	-0.31317046
104	0x3e8c6756	0.2742259
105	0xbf0d0061	-0.55078703
106	0x3db93729	0.09043724
107	0xbd8e32f1	-0.0694331
108	0xbd6fdc4a	-0.058559693
109	0x3e8acdeb	0.27110228
110	0xbe1a535a	-0.15070859
111	0xbeaa510d	-0.33264962
112	0xbe39a8ff	-0.18130873
113	0x3d274161	0.040833835
114	0x3d76cc9d	0.06025373
115	0x3ebf5b6e	0.37374443
116	0xbe3e2d2e	-0.18571922
117	0xbe9d6242	-0.30739027
118	0x3ead0303	0.3379136
119	0xbe605fe3	-0.21911578
120	0x3d1639c4	0.036676183
121	0x3f460e22	0.77365315
122	0x3f1efce2	0.6210462
123	0x3ea613e0	0.32437038
124	0xbca3a2f7	-0.019975169
125	0x3ec9ba46	0.39399928
126	0xbeb6e651	-0.35722592
127	0x3e02720e	0.12738821
128	0x3e7055f0	0.23470283
129	0xbd6a5520	-0.057210088
130	0x3e19e4cd	0.15028687
131	0xbe6dea8c	-0.23234004
132	0x3e281466	0.16414031
133	0x3e80a24b	0.2512382
134	0xbf2d47aa	-0.67687476
135	0x3e1d76ae	0.15377304
136	0xbd4c1a0c	-0.049829528
137	0x3e9e60b3	0.3093315
138	0x3cbe4c7e	0.023229834
139	0xbfc367f3	-1.5266098
140	0x3e9aa06c	0.30200517
141	0xbee0505c	-0.4381131
142	0xbefbcb11	-0.49178365
143	0xbdaf505a	-0.08560248
144	0xbe507f20	-0.20360994
145	0xbef9f7b0	-0.48821783
146	0xbeed6fa2	-0.46374232
147	0x3e022bb3	0.12711982
148	0xbe2ecd30	-0.1707046
149	0x3eadf489	0.33975628
150	0xbdaf0463	-0.085457586
151	0x3decaf06	0.115568206
152	0xbcdd02bb	-0.026978841
153	0xba9482de	-0.0011330505
154	0xbdc98c69	-0.09841234
155	0xbe61f892	-0.22067478
156	0xbe2d6de9	-0.16936459
157	0xbedb0ef6	-0.42784852
158	0xbd5e018f	-0.054200705
159	0xbe8560f4	-0.26050532
160	0xbe25849c	-0.16163868
161	0x3e92f3d0	0.2870164
162	0xbe2f47f5	-0.17117293
163	0x3ff69de8	1.9266939
164	0xbe6c1ef6	-0.23058686
165	0x40034cd8	2.0515652
166	0xbf57c48a	-0.8428427
167	0xbe6686b6	-0.22512326
168	0xbe09109d	-0.13385244
169	0x3c8048fc	0.015659802
170	0x3f2507d4	0.6446507
171	0xbecec585	-0.4038507
172	0x3e5d07c4	0.21584994
173	0xbf938621	-1.1525308
174	0x3e81fe53	0.25389346
175	0xbe7dd3f2	-0.24787882
176	0x3f435bcf	0.76311964
177	0xbe5e32fd	-0.21699138
178	0x3ea5cc89	0.3238261
179	0xbf737817	-0.9510512
180	0x3eda28c6	0.42609233
181	0x3e01e01e	0.1268315
182	0x3d681b39	0.056666587
183	0x3d9e9be0	0.077445745
184	0xbe90dfa7	-0.28295633
185	0x3b860be0	0.004090771
186	0xbdefa40a	-0.1170121
187	0xbe9169c3	-0.28401002
188	0x3cf12c0c	0.029439948
189	0xbe9e2bcf	-0.30892798
190	0x3f20fde4	0.62887406
191	0xbf49bb6a	-0.78801596
192	0x3ea638c6	0.3246519
193	0x3efdfb60	0.49605846
194	0xbee4493f	-0.44587132
195	0x3e9864b1	0.2976432
196	0xbd163d9d	-0.036679853
197	0xbf2a8b4a	-0.6661879
198	0x3c65245f	0.013985722
199	0xbea90ef0	-0.3301921
200	0xbd47b49b	-0.048756223
201	0x3d04b110	0.032395422
202	0xbe97d8a4	-0.2965747
203	0x3a964e17	0.0011467364
204	0xbed85d3a	-0.42258626
205	0xbc778b0c	-0.015108835
206	0x3df5096d	0.119646885
207	0x3eab6b35	0.3348023
208	0x3ea9d773	0.33172187
209	0x3d6b86be	0.057501547
210	0x3be46d9a	0.0069710733
211	0x3eb017f4	0.34393275
212	0xbe4d4f24	-0.20049721
213	0xbdcae939	-0.09907765
214	0x3ecb9ee3	0.39769658
215	0x3e7b1efc	0.24523538
216	0x3eee1e59	0.46507528
217	0xbe8f3c2d	-0.27975598
218	0x3ebd8e3c	0.3702258
219	0xbe2c1fc0	-0.16808987
220	0x3e817ce9	0.2529061
221	0xbe8bff2f	-0.27343127
222	0x3d0125e5	0.03153028
223	0x3ebaf9d4	0.3651873
224	0x3ef3a291	0.47584966
225	0xbece146a	-0.4024995
226	0x3e78900d	0.24273701
227	0x3dd86c65	0.105675496
228	0xbe94e776	-0.2908284
229	0x3d9e08f6	0.07716553
230	0x3e8dc75f	0.2769117
231	0xbda7d950	-0.08195746
232	0x3ec09f18	0.3762138
233	0xbe8e3ed9	-0.27782324
234	0x3aa62836	0.0012676779
235	0xbeb33062	-0.3499785
236	0x3dc441cf	0.095828645
237	0x3eb7f690	0.359303
238	0x3e0d7f66	0.1381813
239	0xbdf2205b	-0.118225776
240	0xbda7d9a2	-0.08195807
241	0x3e0aaa8f	0.13541625
242	0xbdd5c560	-0.10438037
243	0x3e158bf3	0.14604168
244	0xbdfb18ee	-0.12260614
245	0xbe99548f	-0.29947326
246	0x3f033fab	0.51269025
247	0xbf0a86b9	-0.5411182
248	0x3dd700cf	0.10498201
249	0x3edd797f	0.43256757
250	0x3e963f75	0.2934529
251	0x3f04c156	0.5185751
252	0x3f05a7a5	0.5220893
253	0x3c9f04ab	0.019411406
254	0xbecf83d6	-0.4053027
255	0xbe87860d	-0.2646946

critic.2.bias f4 [64]
0	0xbef6a9ab	-0.4817632
1	0x3eff8277	0.49904224
2	0xbe9d2bd3	-0.30697498
3	0x3f06a0f9	0.52589375
4	0x3f17491d	0.59095937
5	0x3d933d5a	0.07189436
6	0xbf0ce05a	-0.55029833
7	0x3f226e08	0.63449144
8	0xbf0f134f	-0.5588884
9	0xbf001e4b	-0.50046223
10	0x3f067826	0.5252708
11	0x3f195cb2	0.59907067
12	0x3efa1221	0.48841956
13	0xbf1e2f79	-0.6179119
14	0x3f019e23	0.5063192
15	0xbf02102e	-0.5080594
16	0x3f1b662b	0.6070277
17	0x3f026738	0.5093875
18	0xbf185ddc	-0.5951822
19	0xbeb9ddbe	-0.36301988
20	0xbf0b29a5	-0.5436042
21	0xbf124895	-0.57142
22	0xbeed694e	-0.46369404
23	0xbf183379	-0.5945354
24	0xbdb9749c	-0.090554446
25	0x3f097307	0.5369114
26	0xbeba42dc	-0.36379135
27	0xbf01c664	-0.50693345
28	0x3f10fbaa	0.5663401
29	0xbf0bea4e	-0.54654396
30	0xbee76f7a	-0.45202237
31	0xbd38822b	-0.045046013
32	0xbf02830b	-0.50981206
33	0x3f15ce6a	0.5851809
34	0x3e543459	0.20723094
35	0xbf051c2a	-0.519961
36	0x3f02cc9e	0.5109347
37	0xbefd4b1e	-0.49471372
38	0xbf0972e2	-0.5369092
39	0xbf179033	-0.59204406
40	0x3f20a345	0.6274913
41	0xbf069d3d	-0.52583677
42	0x3ee60535	0.44925848
43	0xbe839cdf	-0.2570562
44	0x3ef55843	0.479189
45	0x3f094484	0.5362017
46	0xbf0a3f9d	-0.54003316
47	0x3efab9a5	0.4896976
48	0x3f0f5474	0.5598824
49	0xbf0f67b9	-0.56017643
50	0xbf1ba400	-0.6079712
51	0xbed3b808	-0.41351342
52	0xbf2806d5	-0.65635425
53	0x3f004d59	0.50118023
54	0xbf20bc10	-0.6278696
55	0x3ee037ce	0.43792576
56	0xbefac705	-0.48979965
57	0x3f14d526	0.5813774
58	0xbf097ea2	-0.5370885
59	0xbf1e993e	-0.6195258
60	0x3eecf803	0.46282968
61	0xbf23b4ea	-0.6394793
62	0x3ee55086	0.44787997
63	0xbeedd149	-0.46448734

critic.4.weight f4 [1, 64]
0	0xc1a61e13	-20.764685
1	0x40bf6009	5.980473
2	0xc11e3f52	-9.890459
3	0x40ba1159	5.8146176
4	0x40b9928e	5.79914
5	0x42181b89	38.02689
6	0xc0be958f	-5.9557567
7	0x40b9f3e3	5.8110213
8	0xc0b89c91	-5.769112
9	0xc0bebc0f	-5.9604564
10	0x40baab23	5.8333907
11	0x40b93953	5.7882476
12	0x40c265c9	6.074925
13	0xc0b9a9fe	-5.802001
14	0x40bd1058	5.908245
15	0xc0bb36e4	-5.8504505
16	0x40bc94dc	5.8931713
17	0x40c39a77	6.1126056
18	0xc0ba6bc0	-5.825653
19	0xc0c09382	-6.0180063
20	0xc0bb713f	-5.857574
21	0xc0bad317	-5.838268
22	0xc0bacd50	-5.8375626
23	0xc0bc631e	-5.8870993
24	0xc18150af	-16.164396
25	0x40ba5120	5.822403
26	0xc0bd4339	-5.914456
27	0xc0be1330	-5.939842
28	0x40b887c3	5.7665725
29	0xc0bdbe0d	-5.9294496
30	0xc0bde924	-5.9347095
31	0x41c32efe	24.397945
32	0xc0c12ec2	-6.0369577
33	0x40bc8043	5.890657
34	0x4141b90b	12.1076765
35	0xc0bb898b	-5.86054
36	0x40be10b9	5.9395413
37	0xc0c0ee31	-6.029076
38	0xc0ba4258	-5.8205986
39	0xc0b9661d	-5.793715
40	0x40be41c4	5.945528
41	0xc0bf73a0	-5.9828644
42	0x40bdb7d7	5.9286914
43	0xc0caf1e7	-6.342029
44	0x40c11fae	6.035117
45	0x40bd836d	5.922293
46	0xc0bd28a3	-5.9112105
47	0x40b85a88	5.761051
48	0x40ba3acc	5.8196774
49	0xc0baccf3	-5.837518
50	0xc0bcb46c	-5.897024
51	0xc0c1415d	-6.039229
52	0xc0b90275	-5.78155
53	0x40bad667	5.838672
54	0xc0ba4800	-5.821289
55	0x40bcfdaf	5.905967
56	0xc0bb8ca4	-5.860918
57	0x40b93ac4	5.7884235
58	0xc0baeeb3	-5.841638
59	0xc0bbbb61	-5.8666234
60	0x40bd512a	5.9161577
61	0xc0b9890a	-5.7979784
62	0x40b9c293	5.8050017
63	0xc0c0b312	-6.021859

actor.0.weight f4 [64, 3]
0	0xbf09e830	-0.53869915
1	0xbe83e863	-0.25763234
2	0xbeb1fea4	-0.34764588
3	0x3baf1df6	0.005344148
4	0xbf5258ef	-0.8216695
5	0xbe5c9c01	-0.21543886
6	0xbefb991a	-0.49140245
7	0xbe9799e4	-0.29609597
8	0x3f1dd2e9	0.6164995
9	0xbf0d62ae	-0.552287
10	0xbe1ad8e8	-0.15121806
11	0x3ecc6433	0.39920196
12	0xbf885538	-1.0651007
13	0x3e304f7f	0.17217825
14	0x3e2e0d57	0.16997276
15	0x3eec9283	0.4620553
16	0x3d6652d3	0.05623133
17	0x3e1bc5e7	0.15212213
18	0xbe4fad86	-0.20281038
19	0xbf15fd02	-0.58589184
20	0xbe8890c8	-0.2667296
21	0xbf1ef4f5	-0.62092525
22	0xbeb0e631	-0.34550622
23	0x3ea28d12	0.31748253
24	0x3e037325	0.12836893
25	0xbe927040	-0.28601265
26	0x3f49f771	0.7889319
27	0x3ce6f4bc	0.02819287
28	0xbda902ee	-0.08252512
29	0xbf83e869	-1.0305301
30	0xbefd8170	-0.49512815
31	0x3f3ef1ac	0.7458751
32	0xbd1be6f5	-0.038062055
33	0xbe5af748	-0.21383393
34	0x3e05a340	0.13050556
35	0x3f58ee43	0.8473856
36	0xbf16c725	-0.5889762
37	0x3de0a338	0.109686315
38	0xbe4fd73b	-0.20296948
39	0x3ea1f84d	0.3163475
40	0x3f25a244	0.6470072
41	0xbf75d00b	-0.96020573
42	0xbc9698b2	-0.018383358
43	0xbe647df0	-0.22313666
44	0xbfb32714	-1.3996301
45	0x3e556a01	0.20841219
46	0x3f3e7907	0.74403423
47	0xbf371b12	-0.7152568
48	0x3e2ebe9b	0.17064898
49	0x3ee5b5c5	0.44865242
50	0xbea7a6d6	-0.32744473
51	0x3ecf0309	0.40432003
52	0x3eb0f0f8	0.34558845
53	0x3f0732da	0.5281197
54	0x3d71e38d	0.0590549
55	0xbf43f690	-0.765481
56	0xbe061de7	-0.13097344
57	0x3eb15e73	0.34642372
58	0xbd5b1cf0	-0.053494394
59	0xbf9905de	-1.1954916
60	0x3ee8ae3f	0.4544544
61	0xbcf586a7	-0.029971434
62	0x3f302a34	0.68814397
63	0x3edd21aa	0.43189746
64	0xbe9e1052	-0.30871826
65	0x3f7dee65	0.99191886
66	0xbeb263ba	-0.3484171
67	0xbebed9aa	-0.3727544
68	0xbdc485f7	-0.09595864
69	0x3ecf943d	0.40542784
70	0xbb3b7d21	-0.0028608518
71	0xbf72b937	-0.94813865
72	0x3dc3c648	0.095593035
73	0xbd519012	-0.051162787
74	0xbf8e42c4	-1.1114125
75	0x3e6f888c	0.23391932
76	0x3eb6dc2f	0.35714862
77	0xbf768bf2	-0.9630729
78	0x3f451cf0	0.7699728
79	0xbe4db32a	-0.20087877
80	0xbbbaffbe	-0.0057067564
81	0x3f0a53e5	0.5403426
82	0x3ed1217e	0.40845865
83	0x3f3ce8b0	0.7379255
84	0x3f44d95c	0.76894164
85	0xbe137a2c	-0.14402074
86	0x3e282a16	0.16422305
87	0xbf217b96	-0.630792
88	0x3d6d4547	0.057927396
89	0x3f713b62	0.94231236
90	0xbe291e94	-0.16515571
91	0x3e26ba11	0.16281916
92	0x3f7625b6	0.9615129
93	0xbead1f09	-0.3381274
94	0x3f3a552b	0.72786206
95	0xbf2dd7d0	-0.6790743
96	0xbf0931a4	-0.5359137
97	0xbf3567c9	-0.7086149
98	0xbd012353	-0.03152783
99	0x3f56cf3a	0.8390995
100	0x3e2f06fc	0.17092508
101	0xbe5256cf	-0.20540927
102	0xbf12240f	-0.5708627
103	0xbd871a17	-0.06596773
104	0xbef12a81	-0.4710274
105	0xbe88a2da	-0.26686746
106	0x3e417b54	0.18894702
107	0x3f63139e	0.8870181
108	0x3f51bc8f	0.8192834
109	0xbd717ec8	-0.0589588
110	0x3e54a438	0.2076577
111	0x3e96a7fb	0.29425034
112	0x3e95ba45	0.29243675
113	0x3e12c543	0.14333062
114	0xbee5d67c	-0.448902
115	0xbee74a98	-0.45174098
116	0x3ea3dffe	0.3200683
117	0x3f1c02e4	0.6094191
118	0x3d878c13	0.06618514
119	0xbf3127a3	-0.69201106
120	0x3f0503da	0.51959
121	0x3eed46ce	0.46343082
122	0xbf009392	-0.50225174
123	0x3ede2371	0.43386415
124	0xbf35c86d	-0.7100895
125	0x3f7d655b	0.9898278
126	0x3ed2538d	0.4107937
127	0x3f36d138	0.7141299
128	0x3cb65229	0.022255974
129	0x3f0418f1	0.5160056
130	0x3ed19530	0.40934134
131	0x3d88f6c4	0.06687692
132	0xbe72bd93	-0.2370513
133	0xbf20d546	-0.6282543
134	0xbe8d1b53	-0.2755991
135	0x3f11af69	0.5690828
136	0x3e09e7e0	0.1346736
137	0x3f202ac0	0.6256523
138	0xbf0bdb3a	-0.5463139
139	0x3da01ec7	0.0781837
140	0xbe907b96	-0.2821929
141	0x3f26cc2c	0.6515529
142	0x3e146ec2	0.14495376
143	0x3e0671d4	0.1312936
144	0xbe527024	-0.20550591
145	0xbe7761e8	-0.24158442
146	0xbf620cb7	-0.8830065
147	0x3eaa5891	0.33270696
148	0x3ee5e3f7	0.44900486
149	0x3e9e8a1c	0.30964744
150	0x3e01ec69	0.1268784
151	0x3eb21dc8	0.34788346
152	0x3f24dfd7	0.6440405
153	0x3eadde25	0.33958545
154	0x3f695dab	0.9115855
155	0x3dc5ca6a	0.09657748
156	0x3e0442b9	0.12916078
157	0xbf6e6001	-0.9311524
158	0x3d8d3007	0.06893926
159	0x3eb351da	0.35023385
160	0x3f1ca3de	0.6118754
161	0x3d09eaa2	0.03367103
162	0xbdda2d78	-0.10653204
163	0xbf0326e4	-0.5123122
164	0xbe644b31	-0.22294308
165	0x3e40db05	0.1883355
166	0xbe7d0e5f	-0.24712513
167	0x3f8f5e7c	1.1200709
168	0xbdeb9f82	-0.11505033
169	0xbf61d130	-0.8820982
170	0xbf557f13	-0.83397025
171	0x3f181821	0.5941182
172	0xbf33cee5	-0.7023757
173	0xbf3e2d3f	-0.7428779
174	0x3c8abe56	0.016936462
175	0x3df18332	0.11792602
176	0xbfa95603	-1.3229374
177	0x3eb011b3	0.34388503
178	0x3ee99015	0.45617738
179	0x3ed85ace	0.42256778
180	0xbf0ef89c	-0.558481
181	0x3d55535f	0.052081462
182	0xbe3a16f8	-0.18172824
183	0xbf2806fd	-0.65635663
184	0xbdb9632d	-0.090521194
185	0xbe85ee96	-0.2615859
186	0x3f1535e4	0.58285356
187	0x3ec8bc43	0.39206132
188	0x3d2d5129	0.04231373
189	0x3f098788	0.5372243
190	0x3e0d84e4	0.13820225
191	0x3f1e1778	0.6175456

actor.0.bias f4 [64]
0	0xbdb2ca46	-0.08729987
1	0x3e224d07	0.15849696
2	0xbe085d93	-0.13316946
3	0xbe5e1d5a	-0.21690884
4	0xbea68d31	-0.32529595
5	0x3da6a79e	0.08137439
6	0xbe613329	-0.21992172
7	0xbd318680	-0.04334116
8	0x3e501bbc	0.2032308
9	0xbe840005	-0.25781265
10	0x3c7d09af	0.015444203
11	0xbe437670	-0.19088149
12	0xbdfb974d	-0.12284718
13	0x3d45dcd0	0.048306286
14	0x3e311b64	0.17295605
15	0x3d6ce707	0.057837512
16	0x3e87001b	0.26367268
17	0x3ec3fddb	0.38279614
18	0xbe81748c	-0.2528423
19	0x3ebec223	0.3725749
20	0x3e97e72a	0.29668552
21	0x3f1d31a2	0.6140386
22	0xbe753313	-0.23945265
23	0x3e7a0a41	0.24417974
24	0x3ec79985	0.38984314
25	0xbb99d5ab	-0.0046946607
26	0x3e93f8b3	0.2890068
27	0x3e82f8fd	0.25580588
28	0x3f409f6f	0.75243276
29	0xbe813c07	-0.2524111
30	0xbdd95e88	-0.106137335
31	0xbefa920f	-0.4893956
32	0x3e8feb04	0.2810899
33	0x3e4a5a4a	0.19761005
34	0xbe3792b5	-0.17927058
35	0xbe79f6b6	-0.24410519
36	0x3e4eea0d	0.20206471
37	0x3ec6d179	0.3883169
38	0x3c46ad42	0.012126269
39	0x3d5070e8	0.050888926
40	0xbe7551d5	-0.23956998
41	0x3e12328c	0.14277095
42	0xbe77d291	-0.24201418
43	0x3e081b09	0.13291563
44	0xbe783e6a	-0.24242559
45	0xbdce5a6f	-0.100758426
46	0xbe55a04f	-0.20861934
47	0x3d46eb6e	0.048564367
48	0x3dd5994d	0.104296304
49	0x3e8ae351	0.27126554
50	0x3e59259d	0.21205755
51	0xbdcdd10f	-0.100496404
52	0x3f12403e	0.57129276
53	0x3eb9387c	0.36175907
54	0xbea2f8b6	-0.31830376
55	0x3e371584	0.17879301
56	0x3e0b7680	0.13619423
57	0x3eae2b42	0.34017378
58	0xbe8143db	-0.25247082
59	0x3eb42fa6	0.35192603
60	0xbec7a05f	-0.3898954
61	0x3da5f873	0.081040286
62	0x3e97148f	0.29507872
63	0x3e160321	0.14649631

actor.2.weight f4 [64, 64]
0	0xbef8b514	-0.48575652
1	0x3ea63af3	0.3246685
2	0xbe0d8423	-0.13819937
3	0x3db42e11	0.08797849
4	0xbe8cdd20	-0.27512455
5	0x3dbe85d1	0.09302867
6	0xbe085d76	-0.13316903
7	0x3e508fa5	0.20367296
8	0xbdf11127	-0.1177085
9	0xbe356f8b	-0.17718332
10	0xbddf9e4c	-0.109188646
11	0x3ca6adbe	0.020346519
12	0xbd3720f8	-0.044709176
13	0xbe979b2f	-0.29610583
14	0xbe3c8237	-0.18409048
15	0xbe8d33be	-0.2757854
16	0xbd9bca54	-0.076069504
17	0x3e279b20	0.16367769
18	0x3e65891f	0.22415589
19	0x3e5d89a7	0.21634541
20	0x3e458bdd	0.19291635
21	0x3ec5b4c6	0.38614482
22	0x3dd3b4a7	0.10337191
23	0xbe497a2e	-0.19675514
24	0x3eb8bfb3	0.36083755
25	0xbef0ad20	-0.47007084
26	0x3e3358d6	0.17514357
27	0x3e810d06	0.2520525
28	0x3f28facd	0.6600769
29	0xbc8f7114	-0.017509975
30	0xbc3aa387	-0.011391527
31	0xbd5c5607	-0.05379298
32	0xbc8192bb	-0.015817037
33	0xbe3f16ed	-0.18661089
34	0xbb81ae82	-0.0039575705
35	0x3f282aac	0.6569011
36	0x3f01f071	0.5075751
37	0xbe7abc66	-0.24485931
38	0x3ea9a2f8	0.33132148
39	0xbdb0260d	-0.086010076
40	0xbeb365f3	-0.3503872
41	0x3ebfbeee	0.37450355
42	0xbf022076	-0.5083078
43	0xbe0535ad	-0.13008757
44	0xbeb04ad3	-0.34432086
45	0x3e257078	0.16156185
46	0xbe82a348	-0.255152
47	0x3e48818b	0.19580667
48	0xbdcbfefa	-0.09960742
49	0x3e3489be	0.1763067
50	0x3f041423	0.51593226
51	0xbee6a82e	-0.45050186
52	0x3e3e3522	0.18574956
53	0x3e0b3d16	0.13597521
54	0xbe3a9e05	-0.18224342
55	0x3e25b67d	0.16182895
56	0x3e294909	0.16531767
57	0xbda29c40	-0.079399586
58	0x3e47f2cc	0.19526213
59	0x3f345178	0.7043681
60	0xbde9a643	-0.11408665
61	0x3d214fcc	0.03938274
62	0x3eaf4e46	0.34239405
63	0x3e9f75cc	0.3114456
64	0xbf00f517	-0.5037398
65	0xbecfc5b7	-0.40580532
66	0x3d26ef0e	0.040755324
67	0xbdf54956	-0.11976878
68	0x3d68e6a7	0.056860592
69	0xbe1f1dbb	-0.15538685
70	0xbd29cd02	-0.041455276
71	0xbed0c13b	-0.40772423
72	0xbd2182a6	-0.039431237
73	0xbec40226	-0.3828289
74	0xbd486384	-0.04892303
75	0x3e7b5992	0.24545887
76	0x3e66d084	0.2254048
77	0x3d21bff6	0.03948971
78	0x3ebaf2bf	0.36513326
79	0x3e4343e1	0.19068862
80	0xbe84a09c	-0.25903785
81	0x3ea201ea	0.31642085
82	0xbec30814	-0.380921
83	0x3e42723c	0.1898889
84	0xbed22468	-0.410434
85	0xbebbde8f	-0.36693236
86	0xbe98902b	-0.2979749
87	0x3e46d454	0.19416934
88	0x3c99f44c	0.018793248
89	0x3c972b55	0.01845328
90	0x3e2c803b	0.16845791
91	0xbe00dcd1	-0.12584235
92	0xbf28623e	-0.65774906
93	0xbeeca528	-0.46219754
94	0x3e8030fe	0.25037378
95	0x3d6fae37	0.058515754
96	0x3ef35b75	0.47530714
97	0x3bcdb711	0.0062779267
98	0x3e02f0d8	0.12787187
99	0x3e7e29e7	0.24820672
100	0x3f0cc8a0	0.5499363
101	0xbd5d3883	-0.054008972
102	0xbdc22b98	-0.09480971
103	0xbe96b3be	-0.29434007
104	0x3d8b2831	0.06794775
105	0x3eeb2c0d	0.45932046
106	0x3de448d2	0.11146702
107	0x3dc42541	0.09577418
108	0xbdf2ff18	-0.118650615
109	0x3de55c86	0.11199288
110	0x3ed0d6d4	0.407889
111	0xbf047280	-0.51737213
112	0x3e15e9c8	0.14639962
113	0x3e65b39e	0.224318
114	0xbd46095d	-0.048348773
115	0x3e66db45	0.22544582
116	0x3dbdbd1d	0.09264586
117	0x3cc17377	0.023614628
118	0x3c01e84d	0.00792892
119	0xbedaa281	-0.42702106
120	0x3afe837b	0.0019417846
121	0xbf0ff772	-0.56236947
122	0x3e837704	0.2567674
123	0x3e6d158a	0.23152748
124	0xbd65f198	-0.056138605
125	0x3d92b87f	0.07164096
126	0x3d8702c3	0.06592324
127	0x3f4a8dda	0.791227
128	0x3d4f9b57	0.050685253
129	0xbed0f4cc	-0.40811765
130	0xbebf8673	-0.37407264
131	0x3e04af70	0.12957549
132	0xbb937a8e	-0.0045006936
133	0xbdd88ac0	-0.105733395
134	0x3e3daa8f	0.18522094
135	0xbe600de6	-0.21880302
136	0x3f11ef92	0.5700618
137	0xbe3df53e	-0.18550584
138	0x3ef5dd50	0.4802041
139	0x3ea0b7b0	0.31390142
140	0xbe791b75	-0.2432688
141	0x3d1ce462	0.03830374
142	0xbef189d4	-0.47175467
143	0x3ce36da9	0.027762251
144	0x3efe93f1	0.49722245
145	0xbb02ca51	-0.0019957016
146	0xbdd115f0	-0.10209262
147	0xbe919321	-0.28432563
148	0x3f75c54f	0.96004194
149	0xbe1c2686	-0.1524907
150	0xbe561118	-0.20904958
151	0x3c556fc6	0.013027137
152	0xbd809434	-0.062782675
153	0x391a74d3	0.00014730105
154	0x3df4e829	0.119583435
155	0x3f096ea0	0.53684425
156	0x3e33f473	0.17573719
157	0x3e9b9923	0.30390272
158	0xbcbc7d0d	-0.023008848
159	0xbccc06e0	-0.024905622
160	0xbbdbaa37	-0.006703641
161	0xbe1872d9	-0.14887561
162	0xbf76c0d5	-0.9638799
163	0xbdd92e4b	-0.10604533
164	0x3e4f2de8	0.20232356
165	0x3e0f70bd	0.1400785
166	0x3e732366	0.23743972
167	0x3ecdcd81	0.4019585
168	0x3e8a9d36	0.27073067
169	0xbd7da027	-0.06192031
170	0x3d18f22c	0.037340328
171	0x3e28be53	0.16478853
172	0x3d5d845e	0.054081313
173	0xbd6c9e24	-0.057768002
174	0xbe589daf	-0.21153902
175	0x3eac5ca5	0.33664432
176	0xbebe497f	-0.37165448
177	0x3ec5d8af	0.3864188
178	0xbe4c78d2	-0.19967964
179	0x3d3e2a1e	0.046426885
180	0x3dc0b120	0.09408784
181	0x3eab6016	0.33471745
182	0xbd21c6f7	-0.03949639
183	0x3e1be395	0.15223534
184	0xbe98ca91	-0.29842046
185	0xbe7e0df6	-0.24810013
186	0xbf45435b	-0.770559
187	0x3d02f5b3	0.0319726
188	0xbece0210	-0.4023595
189	0x3dd74896	0.105118915
190	0x3e7d8432	0.2475746
191	0xbe4aa5ad	-0.19789763
192	0xbd56054a	-0.052251138
193	0x3dcb9137	0.09939807
194	0x3e23b496	0.15986857
195	0xbd14ccbc	-0.036328062
196	0x3e155392	0.14582661
197	0x3d96389a	0.07335015
198	0xbe1f8060	-0.15576315
199	0xbc93aeda	-0.018027712
200	0xbd371776	-0.04470011
201	0xbe81d12f	-0.25354907
202	0xbe1c1705	-0.15243156
203	0xbd518fca	-0.05116252
204	0xbda976fa	-0.08274646
205	0xbde1f248	-0.110325396
206	0xbd24d7d7	-0.040244903
207	0x3e27e558	0.16396081
208	0xbeec5354	-0.46157324
209	0xbcc6c096	-0.024261754
210	0x3ede1bf8	0.43380713
211	0xbd9a4c58	-0.07534093
212	0x3da7c691	0.081921704
213	0xbd73c395	-0.059512693
214	0x3e6ecd93	0.23320608
215	0xbe681d69	-0.22667469
216	0xbe07db5a	-0.1326727
217	0xbe32a49c	-0.17445606
218	0xbe08541e	-0.13313338
219	0x3e9799d6	0.29609555
220	0x3e8eb136	0.27869576
221	0xbe382c54	-0.1798566
222	0x3d383cc3	0.044979822
223	0x3e843a48	0.25825715
224	0xbd8af509	-0.06785018
225	0xbe11bf2c	-0.14233083
226	0x3d6bf029	0.05760208
227	0xbe67ffb7	-0.22656141
228	0xbf2a0e91	-0.66428477
229	0xbeaf765c	-0.3426999
230	0xbe65d36d	-0.22443934
231	0xbe4a10af	-0.19732927
232	0x3e6fdd45	0.23424251
233	0xbe848ee7	-0.25890276
234	0x3e5462a5	0.20740755
235	0xbe81bb7f	-0.2533836
236	0x3e9ec13a	0.31006795
237	0xbd3fa614	-0.046789244
238	0xbdda3497	-0.10654562
239	0x3e4b55fc	0.19857019
240	0x3dd5bff9	0.104370065
241	0xbd637951	-0.05553562
242	0xbd92cd63	-0.07168081
243	0xbeb014b7	-0.34390804
244	0xbf06bbd3	-0.52630347
245	0xbe84b279	-0.25917414
246	0x3e3e4e49	0.18584551
247	0xbde994e6	-0.11405353
248	0xbeb8d12d	-0.36097088
249	0xbeb02991	-0.34406713
250	0xbcae6fea	-0.0212936
251	0x3ed64410	0.41848803
252	0x3e8c5a02	0.2741242
253	0x3e8bca9f	0.27303025
254	0xbcfde3cd	-0.030992413
255	0xbef0c5d3	-0.47025928

actor.2.bias f4 [64]
0	0xbd03631f	-0.03207695
1	0x3e0829f3	0.13297252
2	0x3e312542	0.17299369
3	0xbe596c4c	-0.21232718
4	0x3e2a881b	0.16653483
5	0xbe608e1d	-0.21929212
6	0x3e05ce83	0.13067059
7	0xbe226485	-0.15858658
8	0x3d9b7ff7	0.07592767
9	0x3c0ba714	0.008523721
10	0xbe06a8d1	-0.13150336
11	0x3e012c2c	0.12614506
12	0xbe88e20a	-0.26734954
13	0xbd691dab	-0.05691306
14	0x3e8cf8a3	0.27533445
15	0xbcbcb909	-0.02303745
16	0xbe5f3b8b	-0.21800058
17	0x3e928740	0.28618813
18	0xbe4a28ca	-0.19742122
19	0x3de0ac6e	0.10970388
20	0xbbf73c0d	-0.0075450004
21	0xbdb5edb8	-0.08883232
22	0xbd6f6ea0	-0.05845511
23	0x3d3c3e1f	0.04595768
24	0x3d444915	0.04792126
25	0xbec5d15a	-0.38636285
26	0x3dbd0439	0.09229321
27	0xbc0977c9	-0.008390375
28	0x3c3d9233	0.011570501
29	0xbd88db3c	-0.06682441
30	0x3d384293	0.044985365
31	0xbd973a26	-0.07384138
32	0x3d89c800	0.067276
33	0x3e18a28a	0.14905754
34	0x3b974fc5	0.0046176636
35	0x3dde0f79	0.10842795
36	0x3d89ff7a	0.067381814
37	0xbe871d98	-0.26389766
38	0xbd070425	-0.032962937
39	0x3ab5b375	0.0013862686
40	0x3dfa5efe	0.122251496
41	0x3c5de7b7	0.013544015
42	0x3de26b02	0.11055566
43	0xbd9e2965	-0.07722739
44	0x3d369f18	0.044585317
45	0xbe2c25e1	-0.16811325
46	0x3d24bc9f	0.040218946
47	0x3e0c153f	0.1367998
48	0x3d122511	0.03567988
49	0x3dd0adb0	0.10189378
50	0x3d31c983	0.043405067
51	0x3d8ba18f	0.06817924
52	0xbdccf0ef	-0.10006892
53	0x3dbb45ca	0.091441706
54	0xbe4b6559	-0.1986288
55	0x3cb8e116	0.022568267
56	0x3d699e3d	0.057035673
57	0x3ce5b036	0.028038125
58	0x3df7e15b	0.1210353
59	0xbd958824	-0.073013574
60	0xbd14884a	-0.036262788
61	0x3b0e6183	0.0021725602
62	0x3bc96f2a	0.006147285
63	0x3e54b8b0	0.20773578

actor.4.weight f4 [3, 64]
0	0x3e4c0386	0.19923219
1	0xbdced26e	-0.1009873
2	0xbe174ee3	-0.14776187
3	0xbddc6ec4	-0.10763314
4	0xbb921789	-0.004458372
5	0x3da91f5c	0.082579345
6	0xbe424d3e	-0.18974778
7	0xbc1d2310	-0.009590879
8	0x3eb1007b	0.3457068
9	0x3dd73d54	0.10509744
10	0x3cbdc943	0.023167258
11	0xbe988683	-0.29790124
12	0xbe19a579	-0.15004529
13	0x3e679991	0.22617175
14	0xbd1951f2	-0.037431665
15	0xbe410921	-0.18851139
16	0x3d5348b2	0.051583
17	0xbb82162f	-0.0039699296
18	0x3d766b11	0.0601607
19	0xbdaea02c	-0.08526644
20	0xbddade34	-0.10686913
21	0x3dc54ee2	0.09634186
22	0x3f1cbf60	0.61229515
23	0x3e7488c6	0.238803
24	0x3e81ab8f	0.253262
25	0xbbc2ef88	-0.0059489645
26	0xbda3f5e1	-0.08005882
27	0xbe96e549	-0.29471806
28	0xbe429ce4	-0.19005162
29	0xbe5c092b	-0.21487872
30	0xbd053c5d	-0.03252827
31	0x3ab0ba87	0.0013483324
32	0x3ea9747f	0.33096692
33	0xbe2b794c	-0.1674549
34	0xbdbc27d5	-0.09187285
35	0xbc9f401a	-0.019439746
36	0xbd8fd49c	-0.07022974
37	0xbccf7a80	-0.025326967
38	0x3e8549fb	0.26033005
39	0xbef66351	-0.48122647
40	0xbcb4a2c8	-0.022050276
41	0x3d54274f	0.0517953
42	0x3e701251	0.23444487
43	0xbd79c1d1	-0.060975853
44	0x3e2376fe	0.1596336
45	0xbcdd9af5	-0.027051428
46	0xbeb86748	-0.36016297
47	0xbb006578	-0.001959173
48	0x3e90623e	0.28199953
49	0xbe4a49ab	-0.19754665
50	0x3e9772bf	0.29579732
51	0xbdc6d20e	-0.097080335
52	0xbd228153	-0.039674114
53	0xbec3eee3	-0.38268194
54	0x3e020901	0.12698747
55	0x3da90b93	0.08254161
56	0xbec3fea2	-0.38280207
57	0xbdd2660d	-0.10273371
58	0x3f25a030	0.6469755
59	0xbeeddd2e	-0.4645781
60	0xbe9a9f43	-0.30199632
61	0xbe2ad8ff	-0.1668434
62	0x3d7c25ae	0.06155937
63	0xbe54e378	-0.20789897
64	0xbdd6614a	-0.10467775
65	0xbe99767f	-0.29973218
66	0x3e7abce4	0.24486119
67	0x3d276aaf	0.040873226
68	0x3cdbdb87	0.026838077
69	0xbe581fa2	-0.21105817
70	0x3dddedd2	0.10836376
71	0x3e151f84	0.14562804
72	0xbdf04375	-0.117316164
73	0xbd64ae78	-0.05583045
74	0xbdb91f8b	-0.090392195
75	0x3ef5d35b	0.48012814
76	0xbe3dd23f	-0.18537234
77	0xbe2424c8	-0.16029656
78	0xbd8ae37c	-0.067816705
79	0xbc73d4ed	-0.014882308
80	0x3d7da61b	0.06192599
81	0xbcac1541	-0.021006228
82	0x3c37c24c	0.011215758
83	0x3db384ed	0.08765588
84	0x3cc7deb3	0.024398183
85	0x3dd71f58	0.10504025
86	0xbeedfc62	-0.46481615
87	0xbe412a05	-0.18863685
88	0xbe5d7fd8	-0.216308
89	0x3e4b6786	0.1986371
90	0xbdeed806	-0.11662297
91	0x3e9e5492	0.30923897
92	0x3ead1cfd	0.3381118
93	0x3c2c58f6	0.010519257
94	0x3e5422d2	0.20716408
95	0xbe41b47f	-0.1891651
96	0xbe81015d	-0.25196353
97	0x3e923511	0.2855611
98	0x3eaa8d45	0.33310905
99	0x3dd27bbc	0.10277507
100	0x3e956ed3	0.29186115
101	0x3d35d840	0.044395685
102	0xbea833f6	-0.32852143
103	0x3eefa87b	0.46808228
104	0x3e25de78	0.16198146
105	0x3e9ec004	0.3100587
106	0xbe79673d	-0.24355789
107	0xbb3b8c0e	-0.0028617415
108	0xbd2fa145	-0.042878408
109	0xbe02adac	-0.12761563
110	0x3edcf46a	0.43155223
111	0xbd3a04ab	-0.045414608
112	0xbf2bb94b	-0.6707961
113	0x3d534aa5	0.05158486
114	0xbefea84c	-0.49737775
115	0x3e4251aa	0.18976465
116	0x3e16eb4d	0.14738198
117	0x3da04381	0.07825375
118	0xbe3de37e	-0.18543813
119	0xbe70d3f7	-0.23518358
120	0x3e38b1c0	0.18036556
121	0x3e4d7308	0.20063412
122	0xbee05176	-0.4381215
123	0x3f3bb815	0.7332776
124	0x3eab3b9f	0.33443925
125	0xbd53f158	-0.051743835
126	0xbe52d123	-0.20587592
127	0x3e044ba3	0.12919478
128	0xbdbdb35f	-0.09262728
129	0x3e994b3e	0.29940218
130	0xbdfc10e2	-0.12307908
131	0xbd99686f	-0.07490622
132	0x3c5deea4	0.013545666
133	0x3de994d0	0.11405337
134	0x3dca6fc7	0.09884601
135	0xbc80c862	-0.01572055
136	0xbe813b85	-0.25240722
137	0x3d8e1d97	0.069392376
138	0x3d12c656	0.03583368
139	0xbe7083b5	-0.23487742
140	0x3ee210d9	0.4415348
141	0xbde90a20	-0.11378884
142	0x3e16ded6	0.14733443
143	0x3d2a0d74	0.041516736
144	0xbdc75da4	-0.097346574
145	0x3def0c44	0.11672261
146	0xbe2a0381	-0.16602899
147	0x3ccb09dd	0.024784977
148	0xbd6bed4f	-0.057599362
149	0xbdbef1c1	-0.09323455
150	0xbe672d37	-0.22575842
151	0xbbc45b86	-0.0059923558
152	0x3d1eb6c8	0.038748533
153	0xbe8bda1a	-0.27314836
154	0x3e5c46bf	0.21511362
155	0xbd0f9088	-0.035049945
156	0xbe16b090	-0.14715791
157	0x3e1b371f	0.15157746
158	0xbe58e973	-0.21182804
159	0x3c31e558	0.0108579025
160	0xbdd18532	-0.10230483
161	0x3c12c65d	0.008958426
162	0xbea8cfc2	-0.32971007
163	0xbcd14016	-0.025543254
164	0xbe94aedf	-0.29039666
165	0xbda4c146	-0.080446765
166	0xbe366b23	-0.17814307
167	0x3cb8aa8e	0.022542264
168	0xbe2ee461	-0.17079307
169	0xbe8b44db	-0.2720097
170	0x3cff44eb	0.031160792
171	0x3de9a801	0.11408997
172	0xbe3726c7	-0.17885886
173	0x3e5b3b74	0.21409398
174	0xbe1b3c5e	-0.15159747
175	0x3d55fde8	0.052244097
176	0x3e676a9a	0.22599259
177	0x3da8924e	0.082310304
178	0x3de954ba	0.113931134
179	0xbd2200dc	-0.0395516
180	0xbe1362f8	-0.14393222
181	0x3eabd75d	0.33562747
182	0x3d302c3d	0.04301094
183	0xbcf29d59	-0.029616045
184	0x3e5f9499	0.2183403
185	0xbda26865	-0.07930068
186	0xbe558d9a	-0.20854798
187	0xbeb9ccdc	-0.36289108
188	0xbaacd4cd	-0.0013185978
189	0x3e90f219	0.28309706
190	0x3e6158cb	0.22006528
191	0x3ded6e50	0.11593306

actor.4.bias f4 [3]
0	0x3ca51d63	0.020155614
1	0xbd8ff5e6	-0.07029323
2	0x3e03a6fa	0.12856665
