src/Catcher_Flappy_Continuous/inaccurate_models/acc_state_acc_r.pt (torch, 43378 bytes, 11 tensors)

critic.0.weight f4 [64, 8]
00000000: d6d3 263c 849e d23d 125f 0dbe 686e 2e3e
00000010: 5ca5 6a3e 2acd 3eba 5034 5a3d 45d2 433e
00000020: 2fb0 a33d f421 15bc f85d ec3d b41c 7d3e
00000030: 6db0 cdbc 404b 84bd 0d7e c03d 79bc 253d
00000040: 57ba 0abe 1c35 babd ebc3 b03c 1811 e83c
00000050: e715 02bf d431 f4bd f411 843e 6fe3 113d
00000060: bf6b 97be 9482 d43c 98b0 1ebe 3d94 d1bd
00000070: 5b60 b93d 98b9 833e 0fc5 cd3d 495e a63d
00000080: 2415 723f a2b7 90be 19d6 8abe 792f 0cbd
00000090: 65dd 49bc 0d19 153e 5b8b 73bd c4f6 e13c
000000a0: 195e 86bd ec79 553d 329c e2bd c76a d53d
000000b0: 248e a0be 297d 09be cfdf a8bd 07c6 83be
000000c0: f3e3 583b 4c78 1c3e c03f 54be ac8e 0ebe
000000d0: 772d e53e f97e 02bd d530 08be 769f 7e3e
000000e0: 55c8 ba3d cdad 29be 5c50 c1bd 9dd6 c63d
000000f0: ba7e 95bd e55c a13c 8f79 253e 6b0a e83d
00000100: 37c7 a8be e674 ed3d f3fc db3d 7549 bb3a
00000110: bded 093e 16d6 223e 0f32 89bc ea5a a3bd
00000120: 0161 c0be 77ff fcbd 815c 823a bcf8 853d
00000130: 5531 d23d d0cf d0be 34a3 63be dbd5 38bd
00000140: 04c5 b63d 66a0 403e 5792 babd 3bbc 4d3e
00000150: 3017 a9be 14c4 063e 5c51 edbe 9f38 3dbe
00000160: 3157 b4bd 65e8 4cbe e26f cb3c e3d2 d0bc
00000170: 7ea0 823d b9b2 963c 3bf6 ddbd 79fc 6d3e
00000180: bb85 913e 16c1 ac3e 7efc 22be b613 3ebe
00000190: 0a33 cabd 719a e03d d84c 583d 966e 62bd
000001a0: a8b0 473e 5757 a73e 3bcc 443e 69c4 4d3d
000001b0: c40c a5bd f225 603e 8c30 b7be 406c 273e
000001c0: 5645 713d 548e 63be f091 3cbe 4d5b 18bd
000001d0: 2b3d 923c 82c5 19be b750 1abe 31eb 003d
000001e0: b8bc 8a3d 06ed a2bd 94e0 833d caed 913e
000001f0: e07f 17be e6c5 82bd f867 8c3d 53a0 e4bc
00000200: 2624 113e a256 42bd 7b8b 4dbd c4c4 443d
00000210: d3d1 a2bd d53f 85bd 858d f83c f05b 86be
00000220: e29f 13be e46f 8bbd a355 093d fbb2 863e
00000230: 2ac0 79bd 6106 4c3e 9d0a cd3a e716 b83e
00000240: daed 1d3e be46 c6be be8b d6be 1ee6 6e3d
00000250: 3eb0 153e 1ab0 cb3d 4357 74bd 42cc b5bd
00000260: 65c7 01be d3db 16be c0b9 b4bd a7d7 7c3e
00000270: db72 303d 9c0c bbbd 40f2 29bd 7eb7 6dbd
00000280: bfc8 c4be 676e 843d 76e1 5fbd 9a10 01be
00000290: cab2 1dbe feb7 e03b 5d93 8dbd 5a05 34be
000002a0: d453 2bbc d13f 38bd 2aec c6be e34e 19be
000002b0: 89c1 183e 60b3 f1bb af1b d5bd 5910 e63d
000002c0: e056 f4bd 8d18 babd 96a3 64bd 46d4 ec3d
000002d0: 15de 0d3e dca4 8e3d 2cac 933e 7245 ab3d
000002e0: 4d61 853e bdaa 043f e0e8 8b3d 07a6 88be
000002f0: c8cb 483d 53a6 643d c935 303e bf6d 4dbe
00000300: 6f43 7b3d 114c 04bd eb62 333d 4e18 8a3e
00000310: 220c aa3b 2909 393b 38dc 643e 5cc6 72be
00000320: dbc4 41be 05a5 02bd 6d7e 21be ef34 6ebe
00000330: 954a febd d7f9 c6be a74b c0bc 5d61 d33d
00000340: 49e0 aebe 69da c33d 2e7d d73e 0224 003e
00000350: d6fc 25be 45b9 d939 daa8 1e3d b28f 043e
00000360: 4ef2 0cbc 3cf4 70bd 0b61 8b3d a9d7 8cbe
00000370: c80f a4bb afda 09be e179 933c 2b00 25be
00000380: b55b cfbd fcee 963e c134 cb3e 542c 59be
00000390: e079 a63c b25f c03c 0108 2abd c00f 69bc
000003a0: c539 b0bc a4cb 76be 83de cf3c fba0 233e
000003b0: 9ace a83e 2889 6f3d dd6b 303e 2c62 503e
000003c0: dc3d 233e c251 a33e 046a 193e 0c6f 9c3d
000003d0: 91c5 cd3c d7f6 59bd 7108 643e 02bc df3d
000003e0: d16a 0fbd 01b0 ab3e 49a8 3c3e 7921 fbbc
000003f0: d4ab 873e a220 0dbe afea dbbc bcd8 d7be
0.010182342 0.10284141 -0.13805798 0.17034304 0.22914642 -0.00072784966 0.053272545 0.1912318
0.07992589 -0.009102333 0.115413606 0.2471798 -0.02510854 -0.06459665 0.09399042 0.040462945
-0.13547646 -0.09092161 0.021577796 0.028328463 -0.5081467 -0.119235665 0.25794947 0.03561729
-0.2957439 0.02594117 -0.15497053 -0.10233352 0.090515815 0.25727534 0.100473516 0.08123452
0.9456351 -0.282651 -0.2711647 -0.03422496 -0.012320851 0.14560337 -0.05945907 0.027583487
-0.065609165 0.052118227 -0.11064948 0.10420757 -0.31358445 -0.13426651 -0.08245813 -0.2573702
0.0033094853 0.15280265 -0.20727444 -0.13921613 0.4476125 -0.03185937 -0.13299878 0.24865517
0.091202416 -0.16570206 -0.094391555 0.09708903 -0.07299562 0.019697616 0.16159652 0.11330112
-0.3296449 0.11594562 0.107416056 0.001428886 0.13469596 0.1590198 -0.016747503 -0.07976325
-0.37574008 -0.123534136 0.0009945781 0.06541583 0.102633156 -0.40783548 -0.22230226 -0.045125823
0.089242965 0.18811187 -0.09109943 0.20091335 -0.33025503 0.13160735 -0.46351135 -0.1847863
-0.08805693 -0.20010526 0.024833623 -0.025491184 0.06378268 0.018395768 -0.1083798 0.23240842
0.2842234 0.33741063 -0.1591663 -0.18562207 -0.09873016 0.10966957 0.05280766 -0.055281244
0.19500983 0.32683823 0.19218533 0.05023614 -0.080590755 0.21889475 -0.35779226 0.16349888
0.058904015 -0.22222263 -0.18415046 -0.037196446 0.017851433 -0.1501675 -0.15069853 0.031474296
0.067742765 -0.07955365 0.06439319 0.2850173 -0.14794874 -0.063854024 0.06855768 -0.02790848
0.14173946 -0.0474459 -0.050181847 0.048039213 -0.07950177 -0.065063156 0.03034092 -0.26242018
-0.14416459 -0.06808451 0.033528935 0.26308426 -0.060974278 0.19924308 0.0015643422 0.35954973
0.15422764 -0.38725847 -0.4190349 0.058324926 0.14618012 0.09945698 -0.05965353 -0.0887685
-0.12673719 -0.14732294 -0.088244915 0.2469164 0.043078285 -0.091332644 -0.041490793 -0.05803632
-0.38434407 0.0646637 -0.054658376 -0.12603989 -0.15400234 0.006857871 -0.06912873 -0.17580166
-0.010456998 -0.044982735 -0.38852054 -0.14971499 0.14917578 -0.0073761195 -0.10405671 0.11233587
-0.119306326 -0.09086714 -0.05582007 0.115639254 0.13854249 0.06965038 0.28842294 0.08362855
0.26050797 0.51823026 0.06831527 -0.2668917 0.049022466 0.05582268 0.17208017 -0.20061396
0.061343607 -0.032299105 0.043795507 0.26971668 0.0051894346 0.002823422 0.22349632 -0.2370848
-0.1892275 -0.031895656 -0.15770884 -0.2326238 -0.12416569 -0.38862488 -0.023473574 0.10321305
-0.3415549 0.09563143 0.42087692 0.12513736 -0.1620973 0.00041527502 0.03873525 0.1294544
-0.008602692 -0.05882667 0.06805619 -0.27508286 -0.005006764 -0.13462327 0.018002452 -0.16113345
-0.101249136 0.29479206 0.39688686 -0.21208316 0.020321786 0.023483131 -0.04151154 -0.0142249465
-0.021511922 -0.2410112 0.025374657 0.15979378 0.32970124 0.05848041 0.17228647 0.2034995
0.15941566 0.31898314 0.14981848 0.07638368 0.025118621 -0.05321392 0.22268845 0.109245315
-0.035013977 0.33532718 0.1842357 -0.03065561 0.26498282 -0.1378198 -0.026845304 -0.42157543

critic.0.bias f4 [64]
00000000: 0000 0000 4248 723b 0000 0000 7575 403b
00000010: a72a 91bd 0000 0000 5b20 c73c 950b c337
00000020: 7763 cbbd 0000 0000 0000 0000 d529 2734
00000030: dc53 a5bc f294 3ab5 d50b 73ad ed8a 4bbc
00000040: 3864 f030 0000 0000 5400 403d c133 ab3c
00000050: 0000 0000 4b9d d83d 0000 0000 7053 f83c
00000060: 5339 09be 0000 0000 45db 223d 0000 0000
00000070: 36e5 b3bd 0000 0000 0000 0000 397d b8bb
00000080: 0000 0000 a5d8 e23d 6691 7d3b 1385 43be
00000090: 7398 2d3c 889f 51bb a7ae 743c 0000 0000
000000a0: 182d 01b8 0000 0000 d1f1 9bbc 0000 0000
000000b0: f052 bfb9 0000 0000 0000 0000 3ab0 213c
000000c0: 613d 90bc f4fd 4f3c fe69 973d 0000 0000
000000d0: cfac c0bd 0000 0000 702f 643c 1980 0cbc
000000e0: 0009 513d 0000 0000 0000 0000 8784 1b3e
000000f0: 0000 0000 5606 10bd d7b1 703d bccb 45bc
0.0 0.0036969339 0.0 0.0029366885 -0.070882134 0.0 0.02430742 2.3251205e-05
-0.09931081 0.0 0.0 1.5568305e-07 -0.020181589 -6.9507144e-07 -1.3815578e-11 -0.012423259
1.7490782e-09 0.0 0.046875313 0.020898702 0.0 0.10576876 0.0 0.030313224
-0.13400774 0.0 0.039759893 0.0 -0.08783953 0.0 0.0 -0.005630162
0.0 0.11076478 0.00386914 -0.19093733 0.010595429 -0.0031985957 0.0149342185 0.0
-3.0797994e-05 0.0 -0.019036205 0.0 -0.00036492152 0.0 0.0 0.009868676
-0.017607393 0.0126948245 0.07393263 0.0 -0.094079606 0.0 0.013927326 -0.008575463
0.051033974 0.0 0.0 0.15187274 0.0 -0.035162292 0.05876335 -0.0120725

critic.2.weight f4 [64, 64]
00000000: be0b 8d3d 7e63 55be 05e8 76be 0c1a 43bd
00000010: 6317 a73d 4b25 ab3e 3cf6 953d b6f8 823e
00000020: 070a 8ebe 9716 05bf 19d7 c6bd e30e 3fbe
00000030: 160c e93e c30e 62bd 6658 26be e2ab 13bd
00000040: 3123 3d3e 72b3 18be d22c d6be 77b0 71be
00000050: 29cf 823c 6a76 cb3e 2fc6 95bd cfa7 9d3d
00000060: df84 bcbc 0718 26be 7641 953e 3a13 b33e
00000070: 9311 80be 8e6f 4bbd 0c53 c0bd e334 95bb
00000080: c5c6 4d3e 524a 373e 015e bc3e 3dbf 89bd
00000090: 358a 6a3f 3edd b93d f602 5fbe a0eb b43c
000000a0: 96bd 4cbe 637a a23d 2bb3 9a3e 7519 c43d
000000b0: a5d1 983d 6f4a 0b3d 9cdf 29be 7339 833d
000000c0: 9d97 d6b8 e417 9ebd 07f7 3bbe 6b54 b03c
000000d0: fb43 abbe 3472 5bbd ca29 eabe e2c1 cfbd
000000e0: 6e70 bf3e a52e ca3d 30e2 893c 6a6b aebe
000000f0: 6692 133e 9594 d4be 9d65 36be 2bfb fa3c
00000100: 0913 91bd b95d 273e c6e9 f8bd 31e5 5f3d
00000110: 94b5 81be dfda ffbd 1e8d a23d f755 0c3e
00000120: 6f67 a83e 8888 bb3d c772 bcbd 466d 573e
00000130: b670 83be 8bdf 043d 688e 63be ed87 a03d
00000140: f46b 01be c8c4 e6bd 0043 103f 0986 1cbe
00000150: 3acd 303d ca8f 093d 5b61 253e f17d 883e
00000160: a408 393d 7612 1ebe aeaa d5be 4e34 e8bd
00000170: 0c5d e7be c2db 68bc d879 933c eebc 6ebe
00000180: 6bd3 823e cb66 ddbe fc0c 863e bd14 863d
00000190: a634 8bbd 9f07 823d 5b4c b8be 56bf a1bd
000001a0: c538 9ebd eadd 043e 8072 643e 570b 6dbe
000001b0: 0afd 14be 09b4 1a3e ee2c 323d 3309 4a3f
000001c0: 608f 1cbd 6197 0cbe b25f 4b3e 83d5 b73e
000001d0: b435 d83e 615b dbbd 8895 bcbd 4539 8cbc
000001e0: b51c 5d3e 16d2 e73d d026 f53d 2d58 dbbe
000001f0: c3a3 203d ef6c d6be 5710 a43e c29f 71be
00000200: 804d 0a3f d060 d63d 0315 0cbd 0e70 8b3e
00000210: 40bd 1dbe 4daf 65be ecee 353e 5dc9 01be
00000220: 1078 813d 5fe0 673e bcc8 aabd f0e8 cf3c
00000230: 74e5 aa3e ab3c 7e3d 0b54 073d 7ff4 6f3e
00000240: 3207 ef3c dad7 d53e 6cdf cebe 22fe e5be
00000250: 586c 7abe 164c 253f 898e 90bb c2cd e4bc
00000260: 5e68 143e 8d58 21be b9a5 7e3e 75ec 03be
00000270: fb1e c4be e0be 1cbe b107 863d 37f0 24be
00000280: e839 363e 670a 22be cd67 55bd 2bc6 82bd
00000290: b54a fe3e ea2b eb3e 7934 03bf 81ff 97be
000002a0: eadf 06be 30b5 893d b879 183e 8ce0 35bc
000002b0: 406c a33e c941 d7bd f33d 173e d13f 633e
000002c0: 2d51 253d 694e 6e3e d840 413d d1bb dcbc
000002d0: 3fd1 3d3c 3d12 a03d d1c2 48be 8ed2 323e
000002e0: e057 503f abad 213d a630 3d3e d17b 44bf
000002f0: 5610 4bbe 92c1 dabe 56b0 0e3e bacd 013e
00000300: 1f0c 963e 9a7e 5f3e 35f4 793d 3aa1 953c
00000310: 7f85 babe 3517 79be 11d2 11bc d43d 10be
00000320: 49bd b3bd 717f 78be 2cf5 a43d 294f d83d
00000330: 2431 843e 4327 a73e e2bd a63d bf03 63bd
00000340: c3be 29be fa5c 9e3e 50d0 8cbe 4bc4 4ebe
00000350: 1f0f 933d 19af e33e 8c80 353e a202 923d
00000360: 0d72 93bd 24b5 98be c44c e63d fba5 8a3d
00000370: 0bb4 57be 40bc 00be 7849 c43c 7588 09be
00000380: 0556 333e 29dc 613d 55a0 c43d 1ba5 833e
00000390: f5c4 a43e c1f1 603e c42b 1a3e 6100 8c3e
000003a0: 6e07 ebbe 97f4 39bd 571f 16be 438b 55be
000003b0: 9543 43be f8ec a5be b44e 9bbe e33c 34be
000003c0: a519 7b3e c890 85be 8f5a 3ebe c4f5 85be
000003d0: 294d 45bd bb21 ad3b 32a3 1b3a 2ccb 6bbe
000003e0: 3eb1 f93e dbd9 3b3e f44e dd3d 59e8 2cbe
000003f0: 2a96 bcbe 4d50 a7be bf4f 40be 0ad2 823d
0.06887005 -0.20838735 -0.24111946 -0.047632262 0.081587575 0.3342689 0.07322356 0.25580376
-0.27742025 -0.51987594 -0.09708995 -0.18658023 0.45517033 -0.05518986 -0.16244659 -0.036052592
0.18470456 -0.14912203 -0.4183107 -0.23602472 0.015967922 0.3973878 -0.07313191 0.076980226
-0.023012577 -0.16220103 0.29151505 0.34975606 -0.25013408 -0.049666934 -0.0939084 -0.0045534237
0.20095356 0.17899445 0.3679047 -0.06725929 0.9161714 0.09075402 -0.21778473 0.022085011
-0.19994196 0.079335 0.3021482 0.09575168 0.074618615 0.034006532 -0.16589206 0.06407442
-0.00010232555 -0.077194005 -0.18355952 0.021524629 -0.33450302 -0.05357571 -0.45735008 -0.10144402
0.37390465 0.09872178 0.016831487 -0.34066325 0.14411315 -0.4151961 -0.178122 0.030637344
-0.07083709 0.16344346 -0.12153964 0.054661933 -0.25333846 -0.12492918 0.07937072 0.13704668
0.32891414 0.09156901 -0.092015795 0.21037778 -0.2567193 0.03243975 -0.22222292 0.07838426
-0.12638837 -0.11268002 0.56352234 -0.15285505 0.04316447 0.033584394 0.1615042 0.26658586
0.045174256 -0.1543673 -0.4173178 -0.11338101 -0.45188177 -0.014212551 0.018002436 -0.23314258
0.25551924 -0.43242487 0.2618178 0.06546924 -0.06797151 0.0634911 -0.35995755 -0.078978226
-0.07725672 0.12975278 0.22309303 -0.23148857 -0.14549652 0.1510774 0.04349988 0.78920287
-0.03822267 -0.13729621 0.19860724 0.35905084 0.42228472 -0.107107885 -0.09208208 -0.017117152
0.21592982 0.113193676 0.119702935 -0.4284071 0.039218675 -0.41879985 0.32043716 -0.23596099
0.54024506 0.10467684 -0.034199726 0.27233928 -0.15404224 -0.22430153 0.17766923 -0.1267447
0.06321728 0.22644185 -0.08339068 0.025379628 0.33378184 0.062069576 0.033039134 0.23433112
0.029178236 0.41766244 -0.40404832 -0.4492045 -0.24455392 0.6456922 -0.0044115228 -0.027930144
0.14492938 -0.15756436 0.24867906 -0.1288317 -0.38304886 -0.15307188 0.06544436 -0.1610726
0.17795527 -0.1582428 -0.052100945 -0.06385454 0.49666372 0.4593194 -0.5125194 -0.29687122
-0.13171354 0.06724012 0.14890182 -0.011100899 0.31918526 -0.105105944 0.14769726 0.22192313
0.04036062 0.23272099 0.04718098 -0.026945027 0.011585533 0.07815979 -0.19605567 0.17463133
0.81384087 0.039472263 0.18475589 -0.7675143 -0.1983045 -0.42725807 0.13934454 0.12676135
0.29306123 0.21825638 0.06102391 0.018265355 -0.36429974 -0.24325259 -0.008900181 -0.14086086
-0.08776338 -0.24267365 0.08054575 0.105619736 0.2581874 0.32647142 0.08141686 -0.055423494
-0.16576676 0.3093031 -0.2750268 -0.20192067 0.071806185 0.44469526 0.17724818 0.071294084
-0.07199488 -0.298257 0.11245111 0.067699395 -0.21064775 -0.12571812 0.023960814 -0.1343096
0.17513283 0.0551416 0.096008934 0.25711903 0.32181516 0.21967222 0.15055758 0.2734404
-0.45904106 -0.045399275 -0.14660393 -0.20853905 -0.19068749 -0.32407355 -0.30333483 -0.17601351
0.24521501 -0.26087022 -0.18589233 -0.26164067 -0.04816929 0.005283562 0.0005937099 -0.23026723
0.48768038 0.18344824 0.10806075 -0.16885509 -0.36833316 -0.32678452 -0.1878042 0.06387718

critic.2.bias f4 [64]
00000000: 906b 69bb f9ba 5d3d 6f0c 1f3d 84c9 8b3d
00000010: 500c c7bd 8568 93bc 264f edbd b76e bc3c
00000020: 425a be3d 1083 203d 5be9 5fbd 8990 f73c
00000030: f443 85bd 6b21 3dbd 29b9 a43d 5cd1 2cbd
00000040: 1818 be3c 0689 293d 5433 923d 075a 72bd
00000050: f846 283e dba0 97bd 1253 87bd 88ae 44bd
00000060: d91d 9c3d 4e20 8fbc 9b7c 89bd 929d 7fbd
00000070: 5740 92bd e8bf 5b3c b065 62b9 9ed5 9f3d
00000080: c1d5 83bd 4e04 ee3a 974e ed37 7b71 23bd
00000090: 6ea7 953d 2932 96bc 0f59 763d d716 903d
000000a0: 964b c33d f620 10bd 6732 223c 8d65 a3bd
000000b0: 801f adbd daf9 1abc fb37 9cbc 1ab3 fabd
000000c0: b50b 85bd e4d3 5c3d 1b86 223d b295 f3bb
000000d0: aa8d dbbd 2fdc b7bd 6ac2 5dbd be5b a6bc
000000e0: 65fb 003d fa61 d5bd 5e94 86bc c40f c7bd
000000f0: 12df 96bd 21d7 053d c17b ae3d cb0e 57bd
-0.003561709 0.05413339 0.038830217 0.068255454 -0.09719145 -0.017994175 -0.11587362 0.023002012
0.09294559 0.03918749 -0.054665904 0.030220287 -0.06507102 -0.046174448 0.08043129 -0.04219185
0.023204848 0.04139044 0.07138696 -0.059167888 0.16433322 -0.074037276 -0.06607641 -0.04801801
0.076228805 -0.017471459 -0.0671322 -0.06240613 -0.07141178 0.013412453 -0.00021590921 0.07804416
-0.06437255 0.0018159242 2.8289198e-05 -0.039903145 0.07307325 -0.018334465 0.060143527 0.07035606
0.09535901 -0.035187684 0.009899712 -0.07978354 -0.08453274 -0.009458983 -0.019069662 -0.12241192
-0.064963736 0.053913012 0.039678674 -0.0074336166 -0.1072038 -0.089775436 -0.054140486 -0.020307418
0.03148975 -0.10419078 -0.016428169 -0.09719804 -0.07366766 0.032675866 0.08519698 -0.052504342

critic.4.weight f4 [1, 64]
00000000: 9b06 443f 168c 3b3f 250b 6d3f 6f85 463f
00000010: 3241 4dbf 783a 6bbf 24df 6abf 50f2 0f3f
00000020: f67e 483f d342 523f d3f5 74bf 8c20 563f
00000030: 88fd 3ebf 43bb 65bf 1480 843f 2196 3fbf
00000040: c5f7 4fbf 0a47 7f3f c51d 373f 242f 4dbf
00000050: 9605 813f 0607 37bf c47d 72bf 10b2 7abf
00000060: e890 6a3f af9b 07bf d7c6 55bf 25f0 40bf
00000070: 5f99 3dbf a165 afbe 1f72 1a3f bbe5 353f
00000080: 7a19 62bf a3c3 34bf 9eb9 62bf b9a7 4bbf
00000090: 5ac8 383f a448 5dbf 1425 8b3f 933e 793f
000000a0: 1d4e 213f 46a8 5dbf 25a4 513f ad97 59bf
000000b0: dd86 34bf 7b44 57bf 0b62 51bf ea59 4dbf
000000c0: 488c 3fbf 68b3 703f 68e2 823f 03b8 373f
000000d0: c729 3ebf 0450 46bf bea2 49bf 4e35 233f
000000e0: 5bff 633f a04d 59bf 1b36 0cbe dea2 3bbf
000000f0: 877e 0fbf 9e2e 523f 5fd2 463f cf71 5fbf
0.7657258 0.7326063 0.9259513 0.77547354 -0.80177605 -0.9188609 -0.91746736 0.56229115
0.78318727 0.82133216 -0.956876 0.8364341 -0.7460561 -0.89738864 1.0351586 -0.74838454
-0.8123744 0.9971777 0.715298 -0.80150056 1.007983 -0.7149509 -0.94723153 -0.9792795
0.9162736 -0.5297193 -0.8350653 -0.7536643 -0.7406215 -0.34257224 0.60330385 0.71053666
-0.88320124 -0.7061102 -0.8856448 -0.795528 0.7218071 -0.86438966 1.087069 0.97361106
0.63009816 -0.8658489 0.8189109 -0.84997064 -0.70518285 -0.8408887 -0.81790227 -0.8021532
-0.7482343 0.9402375 1.0225344 0.71765155 -0.742825 -0.77465844 -0.7876395 0.6375321
0.89061517 -0.8488407 -0.13692515 -0.7329539 -0.5605244 0.8210238 0.7766475 -0.87283033

actor.0.weight f4 [64, 8]
00000000: b994 f93d b49b a1be dae5 273d 4461 65be
00000010: 7976 21be e1a1 d53d b9d4 bdbd a222 f8ba
00000020: c0d1 b13c 45ae 873e 3a61 a9be ecda 94bd
00000030: 701d c0be 311a 98bd c517 983e 2d43 923e
00000040: d122 c93d c0eb d83d 8b63 9c3e 8184 813d
00000050: 5000 9cbe ecc1 593c 6f09 94bd 59ba c9bd
00000060: 7e7c 703e 8452 003f aab3 5ebe 031d b0bd
00000070: d370 c9bd 51b2 533e 8afd 9dbc abb4 39bd
00000080: d857 12bd 4749 01bf 17ad ed3d c41b f33d
00000090: 9476 4c3e 990d 0ebe 47f9 ac3c 027d ce3e
000000a0: 94cf db3d 31f3 03be cb62 22be 3f70 90bd
000000b0: 414a 273c 3420 77bd b390 a23d 5f8b b2bd
000000c0: a05c 453b 69a9 163d 8ce6 763d 87a7 053e
000000d0: f537 ad3c a266 5c3e 15cd 6ebd 77f9 593e
000000e0: 091e 77bc 1529 893f 4a4e f73c f2de a7be
000000f0: 3828 7b3e ca33 4abd 19a0 37bd 0a1a 263d
00000100: 191c fbbd 0a73 a9bd 528e 493e 5ca1 b2bd
00000110: b4aa 893e b0e5 973d 78be 9ebd 0658 ca3d
00000120: 546e 283c 9712 1abe ab99 5bbe 94cb 35be
00000130: fbfe 15be 652a 173e c734 9ebe 5b9c f33c
00000140: 60f8 ff3d 264f 7abe d7e0 7cbe ed7e 54bb
00000150: ecb0 943e d09e 9d3d 7862 d7bd 75f0 73be
00000160: 84bd 003e ac83 7ebc 7d41 37be 283e 923d
00000170: c85c 273e 38cf fe3d 002b fabd 250b 0ebd
00000180: 04d4 453e 8a5f 06be 22ed 443e 6357 893d
00000190: be4e e03b 7911 773e c2ee 623d bbdd 203e
000001a0: 4fdc 9d3e e58b 0f3f b394 a73d c1a9 883c
000001b0: aad6 973d f466 39bd bf27 e43d b64a 09be
000001c0: 867b 0bbd 551b 91bd 2cb1 9dbe fdfc c33d
000001d0: 06b2 2ebe b339 a4be b3b6 d2bc 351a 183e
000001e0: bea2 b5bc 9b2d 983d 20c1 4abe 45ad 513e
000001f0: 65e3 ef3c baa1 11be 6175 5b3c 86a0 4ebe
00000200: 3099 41be 4850 0abe 4287 0c3d 5cc5 253e
00000210: 2d29 bb3d 2fbc 87bd f1ef e43d c153 803d
00000220: a591 cfbd c4fb 0c3d 3df5 b9bd cf16 993d
00000230: a1e2 2d3e 8212 85be 1d20 0d3e a83d 32be
00000240: f3b7 993d 013d b83e 49bd 01bd c04d f6ba
00000250: a799 96be 2e4f 033e 3632 49be 5312 79be
00000260: 7ac5 ebbd 2c65 57be 8e20 653e eeba fc3c
00000270: e7c4 103e d377 f63d 2861 e23d 20c5 05be
00000280: fbfe 68be f2b7 583e 4578 01be 3eec 7e3e
00000290: 82de 5ebe 9f6f 843e 552f fc3d 2d9d 963d
000002a0: e6eb fbbd 1eb2 29be 341c ab3d 1010 8b3e
000002b0: a1f3 153e 2433 803c e0bd 333e 93af c43d
000002c0: c7f3 64be edcd 81be 2ee5 86be 37f3 10bd
000002d0: dd15 64be bb78 9abd eab2 a5bc 9026 423e
000002e0: 390e 8cbd 9e1c 3f3e b51c 9ebe 6bc6 8c3d
000002f0: 112e 853a ade2 e13d ce8f e53e eb91 623d
00000300: 32ad db3d 3751 b83e 7c8e 6dbe 41c3 80bd
00000310: 2871 753e 8e4a 95be 5f76 673e 0905 8bbc
00000320: c8e2 173e 5eb7 313e 2117 b33c bd80 933c
00000330: 609b 5b3d fd56 66bd 113a b5be 0654 9bbd
00000340: 29dc 5b3c 2e5b a43e 8a54 b5be bcba bb3d
00000350: a501 e53d b414 123e 83ff a6be a38a 453e
00000360: 979e 1e3e 8716 91be 0689 853d 81d1 1abd
00000370: 0338 313e b469 4fbe 8efb a0bd e93b 713c
00000380: 6d23 48be 26ef bc3c 4470 adbc aaf3 023f
00000390: 5722 88be 0664 463d 5077 e93d 68f3 9bbe
000003a0: 0072 b6bc 2884 853d 3642 41be a3fd 963e
000003b0: 717e db3d 2a00 b83d 6a9b 5abe b47d 85bd
000003c0: 58f1 a23e 186d 52bd fa07 f13d f364 f3bd
000003d0: 2870 34bd 71ac d33d 04c6 943e 945a 51be
000003e0: bede f33e 08a4 813e 2541 2abe 1eac 7d3e
000003f0: c1ed 783d 44fb 65be b6b1 19be 1cfe aabd
0.1218657 -0.31564105 0.040990688 -0.22400385 -0.1576785 0.104312666 -0.09269089 -0.001893122
0.021706462 0.26500145 -0.3308199 -0.072683185 -0.3752246 -0.074268706 0.29705635 0.28566876
0.09821094 0.10591841 0.30544695 0.06324101 -0.30468988 0.0132908635 -0.07228362 -0.09849996
0.2348499 0.5012591 -0.21748224 -0.085992835 -0.09835973 0.20673491 -0.019285936 -0.045338314
-0.035728306 -0.5050244 0.1160528 0.1187053 0.19967109 -0.13872375 0.021114958 0.40329748
0.10732952 -0.12885739 -0.15857999 -0.07052659 0.010210575 -0.060333446 0.079377554 -0.08717989
0.0030115023 0.036782656 0.06027846 0.13052188 0.021144846 0.21523526 -0.05830105 0.2128657
-0.0150828445 1.0715662 0.030188698 -0.3278728 0.24527061 -0.049365796 -0.044830415 0.040552177
-0.122612186 -0.08273895 0.19683197 -0.08722183 0.2688805 0.07416856 -0.07751173 0.098800704
0.0102802105 -0.15046154 -0.21445338 -0.1775344 -0.14648049 0.14762266 -0.3089964 0.029737642
0.12498546 -0.24444255 -0.24695145 -0.0032424286 0.2904123 0.07696307 -0.10516828 -0.23822196
0.12572294 -0.015534323 -0.17896076 0.071407616 0.16343987 0.124418676 -0.12215233 -0.034678597
0.19319159 -0.13122383 0.19231084 0.06706121 0.0068453243 0.24127759 0.05540348 0.15709583
0.30832145 0.5607284 0.08182659 0.016682507 0.07413991 -0.0452642 0.111403935 -0.13407406
-0.034053348 -0.07085291 -0.30799234 0.09569738 -0.17060098 -0.3207527 -0.025721883 0.14853747
-0.022172328 0.074305736 -0.19800234 0.20476253 0.029283235 -0.1422185 0.0133946845 -0.20178422
-0.18906093 -0.13507187 0.03430868 0.16188568 0.09138713 -0.0662769 0.11178578 0.06265975
-0.10135201 0.03441979 -0.090799786 0.074750535 0.16980983 -0.25990683 0.13781781 -0.17406332
0.07505789 0.35984042 -0.031674657 -0.0018791482 -0.29414102 0.12823173 -0.1964806 -0.24323396
-0.11512275 -0.21034688 0.223757 0.030850854 0.14137612 0.120345734 0.11053687 -0.13063478
-0.22753517 0.2116392 -0.12643535 0.24894807 -0.21764567 0.2586641 0.12313715 0.07354198
-0.123008534 -0.16571853 0.08354989 0.27160692 0.14643718 0.015649386 0.175529 0.096038006
-0.22358619 -0.2535242 -0.26346725 -0.035388198 -0.22273965 -0.07542559 -0.020226914 0.18960023
-0.0683865 0.1866326 -0.30881277 0.06873783 0.0010160824 0.11029563 0.44836277 0.05531494
0.10726394 0.35999462 -0.23198885 -0.06287242 0.23968947 -0.29158443 0.22603749 -0.016970174
0.14832604 0.17355105 0.021861615 0.018005723 0.053614974 -0.056235302 -0.35395864 -0.075843856
0.0134191895 0.32100815 -0.3541606 0.09166476 0.11181954 0.1426571 -0.32616815 0.19291167
0.15490185 -0.283375 0.06520276 -0.037797455 0.17306523 -0.20255166 -0.0786048 0.014723756
-0.19544764 0.023063254 -0.021171696 0.5115305 -0.265887 0.048435234 0.1139971 -0.30459142
-0.022271156 0.065193474 -0.18872914 0.29490384 0.10717476 0.08984406 -0.21348348 -0.065181166
0.31824756 -0.05137357 0.117690995 -0.11884489 -0.044052273 0.10335625 0.29057324 -0.20444709
0.47630876 0.25320458 -0.16626413 0.24772689 0.060773615 -0.22459131 -0.15009198 -0.08349249

actor.0.bias f4 [64]
00000000: 5c13 c7bc 6db0 a6bc d893 cbbc 59a9 8539
00000010: 0000 0000 2c86 02b9 0000 0000 343c 81bd
00000020: 0000 0000 ca48 debc a3cc ee3b 0d4b 113c
00000030: 0000 0000 59a2 8e3c 0000 0000 df22 18ba
00000040: 96e3 073c 0000 0000 a068 01b7 f96c 9737
00000050: 5cc7 b73b 0000 0000 565a dabb 6666 fc3b
00000060: 7357 e9bc 6c53 79bc 2e9b 0e3d 0f91 c83b
00000070: 556c c9b4 2a00 763c 6aca 9d3b 4d20 03bc
00000080: 0000 0000 0000 0000 36a8 e13a 6836 a23b
00000090: 7842 bdbb 0000 0000 0000 0000 fe28 fe3c
000000a0: a5a2 353a dacf 6b3a b11a c3bb 0000 0000
000000b0: 0000 0000 9106 1538 806e 963c a8ea 4cb6
000000c0: 9cba 893c 1125 42bd 880f 02bb 957d 5cbb
000000d0: b721 003d da21 cd3b 0000 0000 8d9f ae3b
000000e0: 672f 8aba 0000 0000 0000 0000 6ee0 973b
000000f0: 0000 0000 0000 0000 403d 74bb 4981 9f39
-0.024301223 -0.020347798 -0.02485077 0.0002549391 0.0 -0.00012447749 0.0 -0.06310311
0.0 -0.027134318 0.007287578 0.008867991 0.0 0.017411398 0.0 -0.0005803536
0.008294007 0.0 -7.713359e-06 1.8051347e-05 0.0056084823 0.0 -0.006663601 0.0077026365
-0.028484082 -0.015217643 0.03481596 0.006120808 -3.751799e-07 0.015014688 0.0048153894 -0.008003307
0.0 0.0 0.0017216268 0.0049503334 -0.005775746 0.0 0.0 0.031025406
0.0006928838 0.0008995511 -0.0059541096 0.0 0.0 3.5530484e-05 0.018363237 -3.0534957e-06
0.016812615 -0.04739863 -0.0019845683 -0.0033644189 0.031282153 0.006260139 0.0 0.0053290785
-0.0010542691 0.0 0.0 0.0046349084 0.0 0.0 -0.0037267953 0.00030423168

actor.2.weight f4 [64, 64]
00000000: 3854 0f3e b6c4 fa3c 5894 cb3e 9358 82bc
00000010: d61c e13c 119c 153e 1c65 a73d 55cd aa3d
00000020: 26ca 5f3d 97d7 2fbe eede 16bc cf57 0cbd
00000030: 4ec9 28bd d719 adbd 1c00 18be d5c8 9cbc
00000040: 1cef 34be 168d 9fbe 202d de3d 6dc4 fc3d
00000050: 6901 9539 2163 f3bd 2251 2e3e 7315 af3d
00000060: 86ea 6abe 9252 0e3e ac3b cfba ad17 0a3e
00000070: 62d1 c4be fd2b 3dbe 8c87 943e f959 333e
00000080: e126 cebd 1c89 96be e9e0 623e 1cba 24bd
00000090: f3f7 803d efcb 85be 4191 2a3e 5e6d d93e
000000a0: fb3d 54be 5142 3e3e 15a7 81bd 021f f8bd
000000b0: e8d7 303e 4a18 04be cb84 81be 4c07 b23e
000000c0: de76 8bbe 7910 7abd 5165 963d 34de 70be
000000d0: 910b 153e 6acd 053e 674f b0bd 406d b7be
000000e0: 1a24 0b3d 58a4 dcbd 87ae 8dbd 957c e53d
000000f0: b458 fbbd e5e1 ac3c e6b6 5ebe 8b09 98bc
00000100: 0e52 17be 1184 1abd 63ef a83e d3c8 293e
00000110: 236f 3c3e 7e6c 14be 15f4 853c 752e 4fbf
00000120: b01e 24be 49fd babd 317d c0bc 193f 3cbd
00000130: 9730 113e 6872 76be bb54 563d af49 40bd
00000140: 81f7 6e3d afe1 613e 93bc 9f3d 366f 9dbd
00000150: b4a7 42be 47ed 8f3d da87 60be 1325 8bbe
00000160: 525f 8b3d 1d54 b93d 7524 eb3d 5773 b8bd
00000170: 823a bebb 1af3 87be 4a6a 60be fab5 503d
00000180: e9d2 be3d e9c4 783e 6c79 a03e 2410 46be
00000190: e43f 87be 3054 8fbc 499b 57be 23a4 133d
000001a0: 772a 6dbd 5807 883e 8229 fc3d 76d2 54bc
000001b0: 1215 923c 5027 d3bc ef17 9a3d 4581 fb3d
000001c0: 10d2 ef3c 3043 99be 128f 1fbe 5967 38be
000001d0: d799 74be fca7 173e 3038 f83e ccb4 f8bd
000001e0: cbc3 9fbe 8a90 753e 5a38 0c3e 30e3 84be
000001f0: 116c bd3d 6173 94be 4b8e f6bd 1d55 8cbd
00000200: c62e 6a3d 852a 18be 4de9 babe 5947 fe3d
00000210: 3962 6abe 5ddb 18bd 926d 373d 8683 9d3e
00000220: c9b6 e6bd 969a 3fbc 86b4 d6bd b454 883d
00000230: 1be4 1dbe ccc2 2bbe 9cff 5a3e bcf1 0a3d
00000240: 2418 313e b87b 80bd 01c0 a83d a032 9d3d
00000250: 6d34 93bd 5f5e 493e 8c06 52be 38ac b93d
00000260: a648 0c3d 2edf a93d 4b92 5b3e 212c 29be
00000270: 9c24 0c3e 09aa 95bd c43c 4ebe 5ec9 673e
00000280: 85e9 9bbe 2211 393e 48ac 88bd 70ff 073e
00000290: b73b c43e 2984 7b3e 7138 f93d c4db b13e
000002a0: b43a e23c f4a4 58bd 4f49 66be 150f 2ebe
000002b0: eb16 733e 5b83 00be 8809 cfbe 9e11 603e
000002c0: d7b3 c4bd cb76 033f 45e0 72bd e7b5 e1bc
000002d0: d01c 153d 9eb8 393e 2e96 56bd ef4a 63ba
000002e0: 96c1 b73e 26fe 793e 9053 a33d 81e5 e03d
000002f0: 9485 203e a543 043e 8b8d bebd c926 f0be
00000300: 0a68 583d b4cf 153c bba9 47bd 9461 873d
00000310: f8a3 aa3a ed43 2e3e b1af dbbd ec65 5a3f
00000320: 28c0 01bd cf10 ef3d 05b7 97bc c22a 48be
00000330: 2b7d e9be b689 8d3e abb5 cb3d 05e5 b6bd
00000340: f8c6 89bd 274e 46be 0cee bb3e 5423 983d
00000350: 4f77 a43d 066e 4abe 7422 99be 9337 ec3d
00000360: 4f44 39be 6735 153e b478 af3d 8f29 ce3e
00000370: 73cf 0abc 5ff4 d23d 2e43 c4be 3548 8ebd
00000380: 5c98 013e f72a 4a3d 639d 0f3e 3a36 16bd
00000390: 2305 7d3e bbe0 3a3d 6b2c a83d 03ef 7e3d
000003a0: 73de d43e c8d6 313e 76a4 6f3e 9a1d 373e
000003b0: 9554 f93d 4fc1 64be d02a ee3d 7c5a 67bd
000003c0: 94fb 933d 55db 473f dffe f93d ca40 64bc
000003d0: 1db2 c53d 9062 683d 0147 a93e 5be2 bfbd
000003e0: ca14 293d 6e14 3f3d 88de 07be 5a3a 393d
000003f0: 2b96 23be 9a93 903c f34f 3fbc 9a32 01be
0.1399697 0.030611377 0.39761615 -0.015911376 0.02747957 0.14610316 0.08173582 0.08339945
0.054636143 -0.17172085 -0.009208424 -0.03426343 -0.041207604 -0.08452194 -0.14843792 -0.019138733
-0.17669338 -0.31162328 0.10848451 0.12342153 0.00028420545 -0.11884142 0.17023137 0.08549013
-0.22941026 0.13898686 -0.001581063 0.13485594 -0.38440996 -0.18473811 0.29009664 0.1751479
-0.10066009 -0.2940148 0.22156109 -0.04021655 0.062972926 -0.2613215 0.16656972 0.42466253
-0.20726769 0.18579985 -0.063306965 -0.12115289 0.17269862 -0.1289989 -0.25296625 0.34771192
-0.27239126 -0.061050866 0.07343543 -0.23522264 0.14555193 0.1306664 -0.08608895 -0.3582554
0.033969976 -0.107735336 -0.06918054 0.11205403 -0.12272778 0.021103809 -0.21749458 -0.018559238
-0.14777395 -0.037723605 0.32995138 0.16580515 0.1840177 -0.14494511 0.016351739 -0.8093026
-0.16027331 -0.091303416 -0.023497196 -0.045958612 0.14178692 -0.2406708 0.0523269 -0.04694527
0.058341507 0.22058748 0.077996396 -0.076872274 -0.19009286 0.07027679 -0.21926823 -0.27176723
0.0680529 0.090492465 0.11481563 -0.09006374 -0.0058053145 -0.2655266 -0.21915546 0.050954796
0.09317572 0.24293865 0.31342638 -0.19342095 -0.26415932 -0.017496198 -0.2105533 0.036045205
-0.057901826 0.26568103 0.123126045 -0.012989631 0.017832313 -0.025775582 0.07524096 0.122805156
0.02927497 -0.29934072 -0.1558192 -0.18008174 -0.2388681 0.14810175 0.48480368 -0.12143859
-0.31204066 0.23980919 0.13693371 -0.2595458 0.09249128 -0.28994277 -0.12038859 -0.068521716
0.057173513 -0.1485997 -0.3650612 0.12415952 -0.22889031 -0.037318576 0.04478223 0.30764407
-0.11265332 -0.011694571 -0.10483651 0.06656781 -0.15419047 -0.16773528 0.2138657 0.033921942
0.17294365 -0.062735975 0.08239747 0.076756716 -0.07187734 0.19664906 -0.2051031 0.09066051
0.03424897 0.08294521 0.21442525 -0.1652074 0.1368584 -0.07307822 -0.20140368 0.22635409
-0.304516 0.18072942 -0.06673485 0.13281035 0.3832681 0.24562134 0.121689685 0.3473798
0.027615882 -0.052891687 -0.22488903 -0.16997941 0.23739211 -0.12550108 -0.4043696 0.2188172
-0.09604614 0.5135314 -0.05929591 -0.027552558 0.03640443 0.18136832 -0.052389316 -0.0008670529
0.35889882 0.24413356 0.07974923 0.109812744 0.15675956 0.1291643 -0.09304341 -0.4690459
0.052833594 0.009143759 -0.048745852 0.066104084 0.0013018837 0.17018099 -0.1072687 0.8531177
-0.031677395 0.11673128 -0.018519888 -0.19547561 -0.45603308 0.27644128 0.0994676 -0.08930401
-0.067274034 -0.1936575 0.36705053 0.07428613 0.08030569 -0.19768533 -0.29909098 0.115340374
-0.18092464 0.14571153 0.08567944 0.40266082 -0.008472311 0.10300516 -0.38332504 -0.06947366
0.12655777 0.04935738 0.14024882 -0.03667281 0.24708991 0.045624476 0.08211597 0.062239658
0.41575965 0.17367089 0.2340258 0.17882386 0.12174336 -0.22339366 0.116292596 -0.056482777
0.07225719 0.7806905 0.12206816 -0.013931463 0.09653113 0.05673462 0.33061984 -0.09369346
0.04127959 0.046650343 -0.13268483 0.045221664 -0.15975253 0.017648507 -0.011676776 -0.12616959

actor.2.bias f4 [64]
00000000: 489d 733c 207d c339 e410 85bd ac4d 46bc
00000010: 39fe bebb 1bef 9cbb 349b 473c 1d35 8fbb
00000020: 13f8 b5bc 79a4 92bb 218e f0bc 7c04 b23c
00000030: 36bd cf3c 26f9 da3c 023f 373c 11af 29bc
00000040: 07c3 963c 7dbc b03b 19c5 71bd d987 c5bc
00000050: 2001 6d3d b060 673b 52cd fd3b 11a7 9b3d
00000060: 3b1e 09bd 9049 973b e906 2fbc d61a 2abc
00000070: d13b 61bc 6ad4 a5bc 70fe 64bc 8e76 443d
00000080: 5e04 40bc ee61 8bba be5d 49bc 6f5d 0f3b
00000090: 3f29 1ebd dde3 f03b 9223 f13b 8af0 0fba
000000a0: f3b1 873c ad45 17bb a9ad 863a 062c 4e3b
000000b0: dbea 01bd 1596 7d3c 8c16 8f3b 1378 9abc
000000c0: 9f17 eabb 9c77 073c b700 27bd dc6b 18bc
000000d0: b913 d139 fa78 213d 1b21 b7b9 e78c be3c
000000e0: d7de 443c 9345 833b c6c8 283d 0632 7e3b
000000f0: c804 d33c ab06 a33c e052 fbbb 6659 7abc
0.014869042 0.00037286524 -0.06497362 -0.012103479 -0.0058286455 -0.004789246 0.012182999 -0.0043703453
-0.022213018 -0.004475173 -0.029364647 0.021730654 0.025358777 0.026730131 0.011184456 -0.0103566805
0.018403543 0.0053935633 -0.059025858 -0.024112629 0.0578624 0.0035305433 0.0077454234 0.07600225
-0.033476096 0.0046169236 -0.0106828 -0.010382375 -0.0137471715 -0.020242888 -0.013976678 0.047964625
-0.011719791 -0.0010634044 -0.012290416 0.002187576 -0.038613554 0.007351382 0.0073589766 -0.000549086
0.016564345 -0.0023082301 0.0010275143 0.0031459345 -0.031718116 0.015477677 0.0043667015 -0.018856084
-0.007143929 0.008268263 -0.040772166 -0.009303059 0.0003987828 0.039422013 -0.00034929145 0.023260547
0.01201602 0.0040060966 0.041207097 0.003878714 0.025759116 0.01990064 -0.0076697916 -0.015280103

actor.4.weight f4 [2, 64]
00000000: c19b 6cbc 88e3 a33e 36d8 47be a4e0 07bf
00000010: ebb0 a43c 982b 4e3e de35 243e a1cb 1cbd
00000020: 5513 e1bd 3587 86be ca55 9dbe cd15 513d
00000030: 42e5 a63e a299 59be f5d3 02be 4a1f 7f3e
00000040: be9a 2fbe 2939 1e3c ace3 eabe a57f 58be
00000050: 68e0 68be 2b41 f93c 8a79 993e 2a72 633e
00000060: b7c7 a23c 7444 22bc 4be2 c93d ca0a a53e
00000070: 4eab 32bc 8992 10bc 3a6d a7be 49a4 4d3e
00000080: da0e 9b3d 737a 48bc eb64 223c ea0f 58be
00000090: a76d 40be a8a2 953e e5f6 0bbe 9a2e 7f3c
000000a0: b010 813c fb36 13bc b69b c9bd d4c9 d83e
000000b0: b51c 7bbe 67b5 f73d 69da 483e ad73 a6bd
000000c0: c41c 243c 6c55 deb9 81b0 653e b22f ce3c
000000d0: 8978 1cbe f195 5c3e ab85 d93d ec6e b13e
000000e0: c6d1 55be 93ea f7bc 615e f53e c8a9 943b
000000f0: 38a8 913e cdc5 d53c eda1 823e c43d 853e
00000100: 123e 6a3c 1ec8 a2be c56d 493e 465a 083f
00000110: a448 afbc 3966 4dbe f614 25be 81e2 203d
00000120: ee4f e43d 0e9f 863e 0fba 9c3e 61ca 4bbd
00000130: 0f51 a6be 9be4 583e 5fc4 003e 8ba5 80be
00000140: bd3c 2e3e ddac dfbb 97c6 ec3e ef2e 593e
00000150: bf7d 6d3e 1caa 02bd 75cc 97be ab23 62be
00000160: 272e 9dbc 3d7d 233c b436 cfbd 4bdc a4be
00000170: dda6 3a3c c867 fb3b 1814 a73e 4237 50be
00000180: c14d 99bd c4d9 653c 6435 40bc 4bec 533e
00000190: 7710 403e e6e1 94be e652 0c3e 5a8b 51bc
000001a0: 9315 67bc 66bc 133c 46a0 c53d 9f95 d8be
000001b0: 746a 793e fcd1 febd cf4b 48be c24c a83d
000001c0: f49e 18bc 0863 b9ba c29f 64be 2ad6 d1bc
000001d0: a841 1b3e a1d8 5dbe f9cb d5bd 0767 b1be
000001e0: 2c5d 543e b9e1 fe3c 302b f6be 7420 84bb
000001f0: 1cce 90be 0ef0 bdbc 97fb 80be e895 85be
-0.0144414315 0.3200953 -0.19516072 -0.5307715 0.020103892 0.20133817 0.16036174 -0.038280133
-0.109900154 -0.2627503 -0.30729514 0.05104618 0.32596785 -0.21250013 -0.12776168 0.2491428
-0.17148873 0.009657183 -0.45876825 -0.21142443 -0.22741854 0.030426582 0.2997554 0.22211519
0.019870622 -0.009904016 0.09857615 0.32234794 -0.0109051 -0.008823999 -0.3270052 0.20082201
0.07571192 -0.012236225 0.009911756 -0.2109982 -0.18791829 0.2922566 -0.13668402 0.0155750755
0.015755028 -0.008985276 -0.09844153 0.42341483 -0.2452267 0.120951466 0.19614567 -0.08127532
0.010016624 -0.00042406784 0.22430612 0.025169227 -0.15280356 0.21541573 0.10621198 0.3465494
-0.20880803 -0.03026322 0.47923568 0.004536841 0.28448653 0.026095295 0.25514165 0.26023686
0.014297025 -0.31793302 0.1967078 0.53262746 -0.021396942 -0.20058526 -0.16121277 0.03927851
0.11148058 0.26293224 0.306107 -0.04975355 -0.32483718 0.21180956 0.1257491 -0.251263
0.17015357 -0.006826027 0.46245262 0.2120931 0.231925 -0.03190051 -0.29648176 -0.22083919
-0.019187046 0.00997859 -0.10117856 -0.3219932 0.011392322 0.007672284 0.32632518 -0.20333579
-0.074855335 0.01402897 -0.011731479 0.20695607 0.18756281 -0.29078597 0.13703498 -0.012789572
-0.014104265 0.009017086 0.0964971 -0.42301652 0.24357015 -0.12442395 -0.19560169 0.082177654
-0.009315241 -0.0014143893 -0.22326568 -0.025614817 0.15161765 -0.21664669 -0.10439295 -0.34648916
0.20738667 0.031113492 -0.48079824 -0.004032189 -0.2828225 -0.023185756 -0.25191948 -0.26090932

actor.4.bias f4 [2]
00000000: 6220 223c 4d20 22bc
0.009895416 -0.009895396
