src/Catcher_Flappy_Continuous/inaccurate_models/acc_state_inacc_r.pt (torch, 43346 bytes, 11 tensors)

critic.0.weight f4 [64, 8]
0	0x3baf8820	0.0053568035
1	0xbcbca100	-0.02302599
2	0xbd007130	-0.031357944
3	0xbe1ca2c7	-0.1529647
4	0xbbd55763	-0.0065106614
5	0x3df1e45c	0.11811134
6	0xbe108941	-0.14114858
7	0x3e3a8750	0.1821568
8	0xbe01082e	-0.12600777
9	0xbd59ec0e	-0.053203635
10	0x3ed87629	0.4227765
11	0xbd9a8a0d	-0.07545862
12	0xbce1c8d3	-0.02756158
13	0xbc126222	-0.0089345295
14	0xbdaf9a14	-0.0857431
15	0x3d5bd23a	0.053667285
16	0xbb54b8cb	-0.0032458778
17	0xbca59296	-0.0202115
18	0xbdde0c61	-0.10842205
19	0xbea222ec	-0.31667268
20	0x3de1556d	0.11002622
21	0x3dbded82	0.09273817
22	0x3e26048f	0.16212676
23	0x3dab0fbc	0.083526105
24	0xbe20b952	-0.15695694
25	0xbea5632b	-0.32302222
26	0x3c62c7a1	0.013841541
27	0x3ee090af	0.43860385
28	0xbe50cbe9	-0.20390286
29	0xbe19ac6f	-0.15007184
30	0xbe391c8c	-0.18077296
31	0x3e4cce7d	0.20000644
32	0x3e76b8bb	0.24093907
33	0xbe61b0b5	-0.22040065
34	0x3e972321	0.2951899
35	0xbdc5c0f3	-0.09655943
36	0x3da147dd	0.07875035
37	0x3e3f53fa	0.18684378
38	0xbd6a0435	-0.05713292
39	0x3e1400fb	0.14453499
40	0x3dd24c85	0.10268501
41	0x3e92c606	0.28666705
42	0x3e85dfa0	0.26147175
43	0x3c7d3f7b	0.015457029
44	0xbe022601	-0.1270981
45	0xbd373d86	-0.044736408
46	0xbd65099f	-0.05591738
47	0x3d53ae03	0.051679622
48	0x3e63363b	0.22188656
49	0x3e8bea29	0.27327088
50	0x3cb569b3	0.022145128
51	0x3e4747b0	0.1946094
52	0xbd923865	-0.07139663
53	0xbe08183b	-0.13290493
54	0xbe666987	-0.22501193
55	0xbe5294f4	-0.20564634
56	0x3e16c878	0.1472491
57	0x3cdca47a	0.026933897
58	0x3de9bcac	0.114129394
59	0xbea20ff7	-0.31652805
60	0xbd15ae07	-0.03654292
61	0x3dad644a	0.08466394
62	0xbcc6740b	-0.024225255
63	0xbe5c16c7	-0.21493064
64	0xbd00f89a	-0.031487085
65	0x3daed8ef	0.085374705
66	0xbc216fd3	-0.009853321
67	0x3e43a2b8	0.19105041
68	0x3df030c1	0.11728049
69	0xbd9715a1	-0.07377172
70	0xbd2ae57d	-0.041722763
71	0x3e79a947	0.2438098
72	0xbe676e0d	-0.22600575
73	0x3cd4b213	0.025963819
74	0x3e51de06	0.20494851
75	0x3de69f6a	0.112608746
76	0xbe2191fd	-0.15778346
77	0x3d88620f	0.06659328
78	0x3de7d2ad	0.1131948
79	0xbcbf93ea	-0.02338596
80	0xbe7b658c	-0.24550456
81	0xbe362210	-0.17786431
82	0xbd4308a6	-0.04761567
83	0xbc19a82b	-0.009378473
84	0x3dda58bf	0.10661458
85	0xbd183635	-0.03716107
86	0xbcef9699	-0.029246615
87	0x3cbfe069	0.023422437
88	0xbd5dfcdf	-0.054196235
89	0x3c719c29	0.014746704
90	0x3d46c544	0.04852797
91	0x3e8d3586	0.27579898
92	0xbc4baf4d	-0.012431932
93	0x3ea2b9a7	0.31782266
94	0xbe21bbbd	-0.15794273
95	0x3e7f84d8	0.2495302
96	0xbe352fec	-0.17694062
97	0xbcd34db5	-0.02579389
98	0x3e863e68	0.26219487
99	0xbe4b4799	-0.19851531
100	0x3dc6bfcb	0.0970455
101	0xbcb734f6	-0.02236412
102	0x3db3f140	0.08786249
103	0xbccddc07	-0.025129331
104	0xbe24befc	-0.1608848
105	0x3e07ea28	0.13272917
106	0x3ea5837c	0.32326877
107	0x3ce87216	0.028374713
108	0x3e185a82	0.14878276
109	0xbe1273cf	-0.1430199
110	0x3b8146ec	0.003945222
111	0xbeccbb48	-0.39986634
112	0xbce2c730	-0.02768287
113	0xbbccfd11	-0.006255754
114	0xbe27a438	-0.16371238
115	0x3e372a51	0.17887236
116	0x3f00586a	0.5013491
117	0x3e34d887	0.17660724
118	0xbe9eb957	-0.31000778
119	0xbe0f78b7	-0.14010893
120	0xbe1ccfd4	-0.15313655
121	0x3e17e274	0.14832479
122	0x3dd1afdc	0.10238621
123	0x3d8dfcaa	0.069329575
124	0x3d5e44ca	0.05426482
125	0x3ebd172d	0.36931744
126	0x3f0d0e24	0.550997
127	0xbed367ea	-0.41290218
128	0x3c91fbe6	0.01782031
129	0x3e441146	0.19147214
130	0x3e5129b3	0.20426063
131	0xbc9174bc	-0.017755859
132	0x3ebeb37b	0.37246308
133	0xbd6b631a	-0.057467557
134	0x3d190a11	0.037363116
135	0xbd3440be	-0.044007055
136	0x3e03f3bf	0.1288595
137	0x3d58107f	0.052750107
138	0xbd3b5d34	-0.045743182
139	0xbdcde11f	-0.10052704
140	0xbe9f82ed	-0.31154576
141	0x3d84eec5	0.06490854
142	0xbd9a7ee2	-0.07543732
143	0xbd6c2c6d	-0.057659555
144	0xbd12b162	-0.035813697
145	0x3a8a6cab	0.001056095
146	0x3d2e93dc	0.04262148
147	0xbbf92b30	-0.0076040253
148	0x3e2db453	0.1696332
149	0xbd312b8e	-0.043254428
150	0xbe870795	-0.26372972
151	0xbe6893c4	-0.22712618
152	0xbe5c0965	-0.21487959
153	0xbcdc2251	-0.026871832
154	0xbc2080da	-0.009796346
155	0xbcd9ef34	-0.026603319
156	0xbe550d3f	-0.20805834
157	0x3cbac83c	0.022800557
158	0xbd0f9b01	-0.035059933
159	0xbe604d23	-0.21904425
160	0x3ced2eb3	0.028952932
161	0xbe9f5c58	-0.3112514
162	0x3d34060d	0.043951083
163	0xbe239ecd	-0.15978546
164	0x3dd74c26	0.10512571
165	0xbe606287	-0.21912585
166	0xbe125947	-0.14291869
167	0xbe5bfb64	-0.21482617
168	0xbe5fa98e	-0.21842024
169	0x3dd55631	0.1041683
170	0x3c303557	0.010754905
171	0x3e03bad4	0.12864238
172	0xbd373d14	-0.044735983
173	0xbe0b5e6d	-0.1361024
174	0xbd9ae236	-0.075626776
175	0x3d84285e	0.06453012
176	0x3eb0f136	0.3455903
177	0xbe4a13ef	-0.19734167
178	0xbeae92c9	-0.34096363
179	0xbe5094fc	-0.20369333
180	0x3e111351	0.14167525
181	0xbe16c114	-0.14722091
182	0xbd43a453	-0.047764134
183	0x3d24e7a4	0.040259972
184	0xbe999664	-0.2999755
185	0xbc9c7077	-0.019096596
186	0x3d24afd1	0.040206734
187	0xbd8d592d	-0.069017746
188	0xbe8a3528	-0.2699368
189	0xbd9f61da	-0.077823356
190	0xbdca2c19	-0.09871692
191	0x3e80010a	0.25000793
192	0xbd8a96bf	-0.06767034
193	0xbdd57988	-0.10423571
194	0xbe347844	-0.17624003
195	0xbe89ee86	-0.2693979
196	0x3ea0c884	0.3140298
197	0x3c7ebaff	0.015547513
198	0x3e1c691d	0.15274473
199	0x3b32224e	0.0027181092
200	0x3b4ede8c	0.0031565754
201	0x3c6c4712	0.014421241
202	0x3d9237ea	0.07139571
203	0xbbdbb130	-0.006704472
204	0x3cc9d7e5	0.02463908
205	0xbd9ec624	-0.07752636
206	0x3d276ca0	0.040875077
207	0xbcbd1831	-0.023082824
208	0x3e187764	0.14889294
209	0xbef0961f	-0.46989533
210	0x3db32480	0.08747196
211	0x3e4df154	0.2011159
212	0x3aa33bb5	0.0012453707
213	0xbf04abc8	-0.5182462
214	0xbe36ff40	-0.17870808
215	0x3e1cd9ed	0.15317507
216	0xbea8c37c	-0.32961643
217	0x3e034ac4	0.1282149
218	0x3e806732	0.25078732
219	0x3e55f0ab	0.20892589
220	0x3e2e8d55	0.17046101
221	0x3bc6b8ad	0.0060644955
222	0x3d335938	0.043786258
223	0x3b831f5e	0.004001542
224	0xbdd46a1a	-0.103718
225	0xbe1c7f49	-0.1528293
226	0xbe143776	-0.14474282
227	0x3d46b6c6	0.04851415
228	0x3da9b93d	0.082872845
229	0x3c9db4e9	0.019251304
230	0xbbf62e99	-0.007512879
231	0xbea0c09f	-0.31396958
232	0x3ecb72ba	0.39735967
233	0xbdc16855	-0.09443728
234	0x3d27c807	0.040962245
235	0xbc74be20	-0.014937907
236	0xbb267aa0	-0.002540268
237	0xbb9e2c4f	-0.0048270593
238	0x3e9e68d5	0.30939355
239	0x3c84eb5b	0.016225507
240	0xbe2943ca	-0.16529766
241	0xbd24bdef	-0.040220197
242	0x3ea2b5c4	0.317793
243	0x3c5b7fe2	0.013397189
244	0x3e2e0f8c	0.16998118
245	0xbdb958ce	-0.09050141
246	0x3d5df187	0.054185417
247	0xbd7c6076	-0.06161543
248	0x3dece38e	0.1156684
249	0x3e52336f	0.20527433
250	0xbdfa48c6	-0.12220912
251	0xbde9d4bc	-0.11417529
252	0x3e902b42	0.28158003
253	0xbcb95787	-0.022624744
254	0xbe53ad7e	-0.20671651
255	0x3df53325	0.11972646

critic.0.bias f4 [64]
0	0x3b43ff92	0.002990697
1	0xbe004ee3	-0.12530093
2	0xbb7d2f51	-0.003863294
3	0x3d83dd6b	0.064387165
4	0x00000000	0.0
5	0xbe02b3c0	-0.12763882
6	0xbd563ff0	-0.05230707
7	0xbdc867c7	-0.09785419
8	0x35a9c246	1.2648022e-06
9	0x3b13ecdc	0.00225716
10	0xbce7f8cd	-0.02831688
11	0x00000000	0.0
12	0xbd86ef22	-0.0658858
13	0x39e8540e	0.00044313114
14	0x3c429ba9	0.011877933
15	0xb1b08847	-5.137767e-09
16	0x00000000	0.0
17	0xbc7d649f	-0.0154658845
18	0xbda2381d	-0.07920859
19	0x00000000	0.0
20	0x00000000	0.0
21	0xb308a57d	-3.181548e-08
22	0x3d88d401	0.066810615
23	0xbcbc24d8	-0.022966787
24	0x3e80a185	0.2512323
25	0x3d61cb8c	0.055125758
26	0xbceda552	-0.029009495
27	0xbd9495a1	-0.07255102
28	0x00000000	0.0
29	0x3c73dc40	0.014884055
30	0xbdadfb10	-0.08495152
31	0x3c2ecc75	0.010668864
32	0x3b61e672	0.0034469632
33	0xbd94a259	-0.07257528
34	0x00000000	0.0
35	0x00000000	0.0
36	0x3c15e5f6	0.009149065
37	0x00000000	0.0
38	0x00000000	0.0
39	0x00000000	0.0
40	0x333f21d2	4.4501412e-08
41	0x00000000	0.0
42	0x00000000	0.0
43	0x3b8f6b49	0.004376803
44	0x34b697b0	3.401051e-07
45	0x3d98a5b6	0.07453482
46	0x3c88d6c9	0.01670398
47	0xbd94bf9d	-0.0726311
48	0xbd31d5a0	-0.04341662
49	0x00000000	0.0
50	0x00000000	0.0
51	0x39ee0052	0.00045395136
52	0x00000000	0.0
53	0xbc87220d	-0.016495729
54	0xbd94ba71	-0.072621234
55	0x3d9d336b	0.07675823
56	0x2c573641	3.0583455e-12
57	0x3d740a1e	0.05957996
58	0x3d8de81f	0.06929039
59	0xbd88c1c8	-0.06677586
60	0x00000000	0.0
61	0xbd1b2a7e	-0.03788232
62	0x00000000	0.0
63	0xb46b0081	-2.1886264e-07

critic.2.weight f4 [64, 64]
0	0x3ef25950	0.47333765
1	0xbe892897	-0.2678878
2	0xbdaa4325	-0.08313588
3	0xbed4b49e	-0.4154405
4	0x3dee6941	0.11641169
5	0x3f246962	0.642233
6	0x3db15782	0.08659269
7	0xbc846424	-0.016161032
8	0x3d8a218b	0.06744679
9	0x3d7ca500	0.061680794
10	0xbe8d6b8e	-0.2762112
11	0x3e06b949	0.13156618
12	0x3e627a03	0.22116856
13	0xbe242b9e	-0.16032264
14	0x3ef090e5	0.46985546
15	0x3cc5fe4c	0.02416911
16	0xbcf66005	-0.030075083
17	0xbb833b5a	-0.004004878
18	0xbee1cc2f	-0.44101092
19	0x3d139c2b	0.036037605
20	0x3e18d541	0.149251
21	0xbd9064f9	-0.07050509
22	0x3e5f38db	0.21799032
23	0xbe35ca7e	-0.17753026
24	0x3d0c1b58	0.034205765
25	0x3db60185	0.088870086
26	0xbe8ab44c	-0.2709068
27	0x3e2efb38	0.1708802
28	0xbdf8d5ec	-0.12150177
29	0x3de8d4d2	0.11368717
30	0xbe23de04	-0.16002661
31	0xbe2058a1	-0.15658809
32	0x3ed63e66	0.4184448
33	0xbe50850a	-0.2036325
34	0xbdaa5a37	-0.08317988
35	0x3ea65bba	0.32491857
36	0x3df176fd	0.11790273
37	0x3e8e5dd2	0.27805954
38	0xbd396060	-0.045257926
39	0x3d95b26a	0.073094204
40	0x3dba0d7e	0.09084605
41	0xbedee132	-0.43531185
42	0xbd927ca8	-0.071526825
43	0x3e9bec69	0.30453804
44	0x3e0521bd	0.13001151
45	0xbe9719e6	-0.29511946
46	0xbbaddff4	-0.0053062383
47	0x3ef98c72	0.48739964
48	0xbe52c37a	-0.20582381
49	0xbe48b830	-0.19601512
50	0x3ce67331	0.0281311
51	0x3ed9eb4d	0.42562333
52	0x3e9c0be9	0.30477837
53	0x3e735ba8	0.23765433
54	0xbe30f29e	-0.17280051
55	0xbe2b312b	-0.16717975
56	0xbeaba394	-0.33523238
57	0x3f3b6cfd	0.7321318
58	0x3e0b2654	0.1358884
59	0xbda093f4	-0.0784072
60	0xbe100311	-0.1406367
61	0x3eb6e299	0.35719755
62	0x3daf9d78	0.08574957
63	0xbca9b45c	-0.020715885
64	0xbe3d539b	-0.18488924
65	0x3c82f39c	0.015985303
66	0xbe101611	-0.14070918
67	0xbe25fd9d	-0.16210027
68	0x3e362fe5	0.17791708
69	0x3d042e6b	0.03227083
70	0xbdad6173	-0.084658526
71	0xbeed7c35	-0.46383825
72	0x3da7f4c8	0.08200985
73	0xbe21a2c3	-0.15784745
74	0x3e735891	0.23764254
75	0x3e6237df	0.22091626
76	0x3e0ca12a	0.13733354
77	0xbea3eec1	-0.32018092
78	0xbd9cba81	-0.0765276
79	0x3e664082	0.22485545
80	0xbe7c0d05	-0.24614342
81	0x3c0749ae	0.008257313
82	0xbe17850e	-0.1479685
83	0xbe511332	-0.20417479
84	0xbe25dafd	-0.16196819
85	0xbe0a0423	-0.1347814
86	0x3e091991	0.13388659
87	0x3d53d8bc	0.051720366
88	0x3e0da294	0.1383155
89	0xbe0e4b45	-0.138959
90	0xbe3617b4	-0.1778248
91	0xbdec414b	-0.11535891
92	0xbe475064	-0.1946426
93	0x3e5ab623	0.21358542
94	0xbd85d6d9	-0.065351196
95	0x3e0f8be1	0.14018203
96	0xbec9b8e6	-0.3939888
97	0xbe577fa4	-0.21044785
98	0x3cfeb0bf	0.031090138
99	0x3e451f26	0.19250163
100	0x3e82440e	0.25442547
101	0x3dddb6fb	0.108259164
102	0xbf00f8dc	-0.5037973
103	0x3eb1ed58	0.3475139
104	0xbd224633	-0.03961773
105	0xbda2b96f	-0.07945525
106	0xbe2fee89	-0.17180838
107	0x3e97081c	0.29498374
108	0x3d85b205	0.06528095
109	0xbe4529d8	-0.19254243
110	0x3e14dcd7	0.14537369
111	0x3e3b172d	0.1827056
112	0x3e5f91ef	0.21833013
113	0x3e594d70	0.21220946
114	0x3dbb30ba	0.09140153
115	0x3dbdd539	0.092691846
116	0xbe19f1e8	-0.15033686
117	0x3da3d631	0.07999838
118	0x3d6c81e4	0.05774106
119	0x3e8157cc	0.25262296
120	0x3db92622	0.090404764
121	0xbe8a8f0c	-0.2706226
122	0xbdab715f	-0.08371233
123	0xbdd84187	-0.10559373
124	0xbcf68a31	-0.030095192
125	0xbe0af342	-0.13569358
126	0xbd039f30	-0.032134235
127	0x3edd39cb	0.43208155
128	0x3de808a2	0.113297716
129	0x3e082d7d	0.13298602
130	0x3e219a21	0.15781452
131	0xbebd7087	-0.36999914
132	0x3e59fd17	0.21287952
133	0x3f025a9f	0.50919527
134	0xbeaee76a	-0.3416093
135	0xbdd7afb7	-0.10531562
136	0x3cc20a23	0.023686474
137	0xbd9f743a	-0.0778584
138	0xbe28c59e	-0.16481635
139	0x3eb745c6	0.3579542
140	0x3e097345	0.13422878
141	0xbd901987	-0.07036119
142	0xbe65ff3a	-0.22460642
143	0x3e097490	0.13423371
144	0xbe4c3e4d	-0.19945641
145	0xbd70a8da	-0.05875478
146	0xbe81dbe2	-0.2536307
147	0x3e32d8ae	0.17465469
148	0x3e153374	0.14570409
149	0xbe10ae26	-0.14128932
150	0x3e1a06ae	0.1504161
151	0x3cab3760	0.020900428
152	0x3e7f7f10	0.24950814
153	0x3eec91d9	0.46205023
154	0xbb6a1069	-0.0035715348
155	0x3efa6b02	0.48909765
156	0x3e0dcb54	0.13847095
157	0x3dc7e2c8	0.09760052
158	0x3e5acc7a	0.21367064
159	0x3e518848	0.20462143
160	0xbd709480	-0.05873537
161	0xbd905acd	-0.07048569
162	0x3d276808	0.040870696
163	0xbd963f4d	-0.073362924
164	0x3e00193a	0.12509623
165	0xbe53aca5	-0.20671327
166	0xbd9bcd93	-0.076075695
167	0x3ea0edf9	0.3143156
168	0x3e54a3fe	0.20765683
169	0xbdd1e47b	-0.10248657
170	0x3e578a8f	0.2104895
171	0xbe75d06c	-0.24005288
172	0xbeb10fc4	-0.3458234
173	0xbed12872	-0.4085117
174	0xbeb24c6a	-0.34823924
175	0x3cc3d682	0.023905996
176	0xbe7b917a	-0.24567214
177	0x3e5a8409	0.2133943
178	0xbe3deb13	-0.18546705
179	0x3e314140	0.17310047
180	0x3df7e286	0.12103753
181	0xbe8cb65e	-0.27482885
182	0xbea134d7	-0.31485626
183	0x3e163c44	0.14671427
184	0xbd753b0f	-0.059870776
185	0x3f18f5d6	0.59750116
186	0x3ddf32d6	0.10898368
187	0xbe63f360	-0.22260809
188	0x3eae4653	0.34038028
189	0x3e6a78d3	0.22897653
190	0xbdb2aff0	-0.08724964
191	0xbd49435d	-0.04913651
192	0x3e85ff6e	0.2617144
193	0x3edf7bc6	0.4364912
194	0x3d9c77bf	0.07640027
195	0xbdae6950	-0.085161805
196	0x3d5f5636	0.054525577
197	0xbd85f1b8	-0.06540245
198	0x3e684809	0.22683729
199	0x3e0cadbf	0.13738154
200	0x3c903188	0.017601743
201	0x3e1ef2b5	0.15522273
202	0x3e175768	0.14779437
203	0x3eb2c89e	0.34918684
204	0xbc7d16ab	-0.015447299
205	0xbe5a537c	-0.2132091
206	0x3cec8fd6	0.02887718
207	0x3ebba2a4	0.36647522
208	0x3d8631b5	0.065524496
209	0xbda9b946	-0.08287291
210	0xbd43e761	-0.047828082
211	0xbe2aa13b	-0.16663067
212	0xbe92f9d4	-0.2870623
213	0xbd50c5eb	-0.05097
214	0xbbb80e39	-0.00561693
215	0xbee612ba	-0.44936162
216	0xbdc944a4	-0.09827545
217	0xbd81e066	-0.06341629
218	0x3d190ecc	0.037367627
219	0xbe7f553e	-0.24934861
220	0xbef4a1b2	-0.47779614
221	0x3e71b5a7	0.23604451
222	0x3cb1d925	0.021709988
223	0x3e6e544c	0.23274344
224	0x3e0ba7af	0.13638185
225	0x3d89e0ae	0.067323074
226	0xbc9e7e3d	-0.019347304
227	0x3e3a639d	0.18202062
228	0x3e7d1e04	0.24718481
229	0x3d998372	0.07495774
230	0x3e2882af	0.16456102
231	0xbd078cbb	-0.033093195
232	0xbd79238c	-0.060824916
233	0xbe418bcd	-0.18900986
234	0x3c8b3c5a	0.016996551
235	0x3e2dd9e8	0.16977656
236	0x3d3c837a	0.046023823
237	0xbe8b622c	-0.27223337
238	0xbe1be374	-0.15223485
239	0x3e108472	0.14113024
240	0x3da6d518	0.08146113
241	0x3ebff9fd	0.37495413
242	0x3e2416ce	0.16024324
243	0x3e134dcf	0.1438515
244	0x3c0d7c05	0.008635526
245	0xbe0b0405	-0.13575752
246	0x3e30a946	0.17252073
247	0xbe144ea3	-0.14483123
248	0xbe536762	-0.20644906
249	0xbe36df80	-0.17858696
250	0x3e442ca5	0.19157656
251	0xbddb0ab7	-0.10695403
252	0x3df6dc12	0.12053694
253	0xbe73df80	-0.23815727
254	0xbeb2936e	-0.34878105
255	0x3dcdcec5	0.10049204

critic.2.bias f4 [64]
0	0x3daa265a	0.08308096
1	0x3df3a71d	0.11897109
2	0x3d87221e	0.06598304
3	0x3d975269	0.07388765
4	0xbdcef6be	-0.10105656
5	0x3d7209f7	0.059091534
6	0xbce6fd0c	-0.028196834
7	0x3d82ec00	0.0639267
8	0xbda0c521	-0.07850099
9	0xbde69578	-0.11258978
10	0x3d64795e	0.055779807
11	0x3dd8eb1c	0.105917186
12	0xbd6b42af	-0.05743664
13	0x3cb1d128	0.021706179
14	0xbd762e06	-0.060102485
15	0x3d9d8dfd	0.07693098
16	0x3dcdbe50	0.10046065
17	0x3c3aace5	0.01139376
18	0x3cbb2b31	0.022847744
19	0x3e015885	0.12631424
20	0xbdbc6c79	-0.09200377
21	0xbdbb0db6	-0.091334745
22	0xbd371fdd	-0.04470812
23	0x3dc0ec6a	0.094200924
24	0xbd6c9cf7	-0.05776688
25	0xbd984d2c	-0.07436594
26	0x3cda62f5	0.026658515
27	0xbd4a3428	-0.049366146
28	0xbdffb8bc	-0.12486407
29	0xbd7ef3f4	-0.06224437
30	0x3dde1837	0.10844462
31	0x3dcc18a6	0.09965639
32	0x3d2c6a1d	0.042093385
33	0xbdd701c6	-0.10498385
34	0xbd99294d	-0.074785806
35	0x3d608a57	0.05481943
36	0x3df17c28	0.11791259
37	0xbda4cf9b	-0.0804741
38	0xbc6ff889	-0.014646658
39	0xbd640bc8	-0.055675298
40	0x3d77b7ca	0.06047801
41	0xbd5e04b9	-0.054203723
42	0x3dbab53a	0.091165975
43	0xbda3c599	-0.07996673
44	0xbdae8570	-0.08521545
45	0x3da8c78a	0.08241184
46	0x3d87c6c2	0.06629707
47	0xbd403fca	-0.046935834
48	0x3dd625d7	0.10456436
49	0x3d813f7e	0.06310938
50	0xbcf62a50	-0.030049473
51	0x3c969019	0.018379258
52	0xbd67941e	-0.05653774
53	0x3d7f2acb	0.06229667
54	0x3dc347f7	0.095352106
55	0x3d376d8b	0.044782203
56	0x3d88b771	0.06675614
57	0xbcb1b96e	-0.021694865
58	0x3d0eccf7	0.03486344
59	0x3d9d013a	0.076662496
60	0xbd805b76	-0.06267445
61	0xbe0f6b62	-0.14005807
62	0xbd4da19c	-0.05020295
63	0x3b1000a9	0.002197305

critic.4.weight f4 [1, 64]
0	0x3f4949ef	0.7862844
1	0x3f2bd4e8	0.67121744
2	0x3f4b98ce	0.79530036
3	0x3f062d50	0.5241289
4	0xbef04cb8	-0.46933532
5	0x3f6e995e	0.9320277
6	0xbf85e5b5	-1.0460726
7	0x3f4eccbb	0.80781144
8	0xbef3746a	-0.47549754
9	0xbf55f49b	-0.83576363
10	0x3f7cdb27	0.987719
11	0x3f56da5c	0.8392694
12	0xbf4de7a4	-0.8043158
13	0x3f488d4e	0.78340614
14	0xbf8127c2	-1.0090258
15	0x3f650c89	0.8947225
16	0x3f3f971f	0.7483997
17	0xbea20119	-0.31641462
18	0x3f2d85f8	0.67782545
19	0x3f57680f	0.84143156
20	0xbf583adc	-0.8446481
21	0xbf8250eb	-1.0180944
22	0xbf61f47d	-0.88263685
23	0x3f3193e0	0.69366264
24	0xbf620578	-0.88289595
25	0xbf6f5d44	-0.9350169
26	0x3f7b50b5	0.98170024
27	0xbf65a787	-0.8970875
28	0xbf730c82	-0.9494096
29	0xbf3bda4c	-0.7337997
30	0x3f5532c9	0.83280617
31	0x3f516195	0.81789523
32	0x3f67e695	0.90586215
33	0xbf6a38a0	-0.9149265
34	0xbf582384	-0.8442919
35	0x3f00f931	0.50380236
36	0x3f3d3748	0.7391248
37	0xbecb3ca0	-0.3969469
38	0xbf3e08fa	-0.7423245
39	0xbf756303	-0.95854205
40	0x3f8cc7e1	1.0998498
41	0xbf80a181	-1.0049287
42	0x3f28217d	0.656761
43	0xbf8506e0	-1.0392723
44	0xbf73c6e1	-0.9522534
45	0x3f4fd4ff	0.8118438
46	0xbf19110b	-0.5979163
47	0xbf3ca581	-0.7369004
48	0x3f175649	0.59116036
49	0x3f7dd02d	0.99145776
50	0xbf504896	-0.8136076
51	0x3f7be894	0.9840176
52	0xbf527753	-0.82213324
53	0x3f4bb70b	0.79576176
54	0x3f9af245	1.2105185
55	0x3f831989	1.0242168
56	0x3f711dff	0.94186395
57	0x3f3ae31c	0.7300279
58	0xbec89cc4	-0.39182103
59	0x3f4ae951	0.7926226
60	0xbf5dc438	-0.8662753
61	0xbf3fccf2	-0.74922097
62	0xbf732125	-0.9497245
63	0x3f37b0b8	0.71754026

actor.0.weight f4 [64, 8]
0	0x3e835d5e	0.2565717
1	0x3f279c78	0.6547313
2	0xbc641181	-0.013920189
3	0xbd829aca	-0.0637718
4	0xbe86b1e9	-0.2630761
5	0xbe5320bf	-0.2061796
6	0xbdfcbaad	-0.12340293
7	0x3e9d0fe0	0.30676174
8	0x3c443d1a	0.011977458
9	0x3bc4b97f	0.006003558
10	0xbe870065	-0.26367489
11	0xbcc276f2	-0.023738358
12	0x3e017277	0.12641321
13	0x3ebc1c08	0.36740136
14	0xbcbbdaef	-0.022931544
15	0x3d7b20ca	0.061310567
16	0xbe0e7dea	-0.1391522
17	0xbe1e2d1d	-0.15446897
18	0x3e4d17f1	0.20028664
19	0x3cb5ef6f	0.022208897
20	0xbe61be09	-0.22045149
21	0xbe839d24	-0.25705826
22	0xbd2b956c	-0.041890547
23	0x3e0d4ca3	0.13798766
24	0x3edf2670	0.43584013
25	0x3dfa08d8	0.12208718
26	0xbe263da0	-0.16234446
27	0xbeadf016	-0.33972234
28	0xbd9e1da1	-0.07720495
29	0x3c2855bc	0.010274347
30	0xbdd353e6	-0.10318737
31	0x3dd5ccef	0.104394786
32	0xbcbed516	-0.023294967
33	0x3e095b5c	0.13413757
34	0xbe6141de	-0.21997783
35	0x3ec0f649	0.376879
36	0xbe723def	-0.23656438
37	0xbde1dfcc	-0.11029014
38	0x3e3ec9f9	0.18631734
39	0xbbb89d9a	-0.005634022
40	0x3c940bde	0.018072065
41	0xbeb77b15	-0.35836092
42	0x3e79b0c3	0.24383835
43	0xbe92ced9	-0.28673437
44	0x3e11587e	0.14193913
45	0x3df2f32d	0.11862788
46	0xbd44959a	-0.047994234
47	0xbe0a2805	-0.13491829
48	0xbe58ab69	-0.21159138
49	0x3ee220aa	0.44165546
50	0xbddefdec	-0.108882755
51	0xbde31ba8	-0.110892594
52	0x3d494be5	0.049144644
53	0x3d0b7d35	0.034054954
54	0xbdce9762	-0.10087468
55	0x3e3c32ac	0.18378705
56	0xbcbec371	-0.023286553
57	0x3b5fda42	0.0034157191
58	0xbe1f139f	-0.15534829
59	0x3ec5d52a	0.38639194
60	0xbd4008ed	-0.046883512
61	0xbda80c8d	-0.08205519
62	0xbd25d82c	-0.04048936
63	0x3c96a563	0.01838941
64	0xbec7b6e7	-0.3900673
65	0x3e799245	0.24372204
66	0xbea29e4d	-0.317614
67	0xbe04359f	-0.1291108
68	0x3e7df8ce	0.24801943
69	0xbd89b7d3	-0.06724515
70	0xbe5634bc	-0.20918554
71	0x3cb07981	0.021542313
72	0xbe1fec6a	-0.15617529
73	0xbedcfba1	-0.43160728
74	0x3e109ba1	0.14121868
75	0x3d021a1f	0.031763192
76	0xbdc229ec	-0.09480652
77	0xbe56f218	-0.20990789
78	0x3e9f7c79	0.31149653
79	0xbdf7fe17	-0.12109011
80	0x3e6241eb	0.22095458
81	0x3e25f3a7	0.16206227
82	0xbe92cf72	-0.28673893
83	0x3e8af0d2	0.27136856
84	0xbda81f82	-0.08209135
85	0x3d5df615	0.05418976
86	0xbe996307	-0.29958364
87	0xbe227d15	-0.15868028
88	0x3e8ff12c	0.28113687
89	0x3e249720	0.16073275
90	0x3db810e3	0.08987596
91	0xbaa08fe4	-0.0012249914
92	0x3d812bbb	0.06307169
93	0xbd7f9472	-0.062397428
94	0x3e1c896e	0.152868
95	0x3deda3fb	0.116035424
96	0xbed54c84	-0.4165994
97	0x3de2ce0a	0.11074455
98	0x3d88572c	0.06657252
99	0xbe6a8536	-0.22902378
100	0xbe95c8ef	-0.29254863
101	0xbe17ef65	-0.14837416
102	0x3e276c07	0.16349803
103	0x3d708d4f	0.058728512
104	0xbceb2f13	-0.02870897
105	0xbdb6dab0	-0.0892843
106	0x3e7c1e57	0.24620949
107	0x3e3a9777	0.18221842
108	0x3a96ad01	0.0011495651
109	0x3e353096	0.17694315
110	0xbc6083e7	-0.013703323
111	0xbb712b40	-0.003679946
112	0x3d991a09	0.07475669
113	0xbe42bccd	-0.19017334
114	0xbe5a3a2a	-0.2131125
115	0x3e4f9232	0.20270613
116	0xbde00080	-0.10937595
117	0xbdb38391	-0.08765329
118	0xbd923a8c	-0.07140073
119	0xbde38409	-0.11109168
120	0x3e168281	0.14698221
121	0xbd2956c5	-0.041342515
122	0x3cff09ad	0.031132543
123	0xbe21c103	-0.15796284
124	0xbf010719	-0.50401455
125	0xbd43d272	-0.04780812
126	0xbe85c938	-0.2613008
127	0xbcf08d4c	-0.02936425
128	0xbe9cde47	-0.30638334
129	0xbd1534db	-0.03642736
130	0xbe2c4d3b	-0.16826336
131	0xbdc68184	-0.09692672
132	0xbe4f95f2	-0.20272043
133	0x3d238933	0.039925765
134	0xbde36998	-0.11104125
135	0xbce3c101	-0.027801992
136	0x3ec76f9a	0.38952333
137	0x3dc6257d	0.09675119
138	0x3d894c4b	0.06704005
139	0xbe06e854	-0.13174564
140	0xbdd33d42	-0.103144184
141	0xbe73f827	-0.23825131
142	0xbd889f86	-0.06671052
143	0x3e3381e7	0.17530023
144	0xbe5c52f5	-0.2151602
145	0x3e8b3cd4	0.27194846
146	0xbde4f6c7	-0.111798815
147	0xbea9e6c9	-0.33183888
148	0x3da03f0c	0.07824525
149	0x3df23e65	0.11828307
150	0x3ddb2540	0.10700464
151	0x3cbec041	0.023285033
152	0xbe4da2f4	-0.20081693
153	0x3d2182cf	0.03943139
154	0xbdff7ad7	-0.12474602
155	0xbdf940d5	-0.12170569
156	0x3de6b240	0.11264467
157	0x3e4bd711	0.1990626
158	0xbe0708ac	-0.13186902
159	0x3e2c397f	0.16818808
160	0x3eaad7a6	0.33367652
161	0x3d9e1c86	0.07720284
162	0xbdf9df68	-0.122008145
163	0xbdb4e361	-0.088324316
164	0x3da71d26	0.081598565
165	0xbe3a53c5	-0.18196018
166	0x3c3e8323	0.011627945
167	0x3dccd061	0.100006826
168	0x3d4e1872	0.05031628
169	0xbe6ca84a	-0.23111072
170	0x3db0ba34	0.086292654
171	0x3e610e0c	0.21978015
172	0xbe8b39cc	-0.27192533
173	0x3d92d81b	0.07170125
174	0x3e272b6e	0.16325161
175	0x3d222d34	0.03959389
176	0x3d2366a7	0.03989282
177	0xbde0b1f7	-0.10971444
178	0xbe456d3f	-0.19279955
179	0xbdf41be2	-0.11919381
180	0x3dd8c27b	0.10583969
181	0x3da5aec0	0.080899715
182	0xbd05b760	-0.032645583
183	0x3e147542	0.14497855
184	0x3e51e6ca	0.20498195
185	0xbe76812a	-0.2407271
186	0xbe070d69	-0.1318871
187	0xbdc11e43	-0.094296
188	0x3d2303db	0.0397986
189	0xbe298580	-0.16554832
190	0x3e26b172	0.16278628
191	0xbe82b00a	-0.25524932
192	0xbe8029b2	-0.2503181
193	0x3eddf450	0.43350458
194	0xbe8dbf9e	-0.27685255
195	0xbd137268	-0.03599778
196	0x3e870201	0.26368716
197	0xbe3f0797	-0.18655239
198	0xbe940ed9	-0.28917578
199	0x3ec39c7b	0.38205323
200	0x3bbbebb0	0.0057348832
201	0x3ddebfee	0.108764514
202	0xbce4ddbc	-0.027937762
203	0xbe2160a1	-0.15759517
204	0x3c747f25	0.014922892
205	0xbe9173b9	-0.28408602
206	0x3d752fd0	0.05986005
207	0x3e82b48f	0.2552838
208	0x3ea30652	0.3184076
209	0x3f2a39c8	0.6649442
210	0xbe9c55ba	-0.30534154
211	0xbde91b1d	-0.113821246
212	0xbe036115	-0.12830003
213	0x3d28ce25	0.04121222
214	0x3dd2675e	0.10273622
215	0xbe0b2134	-0.13586885
216	0x3dc27fe7	0.09497052
217	0xbe947d22	-0.2900172
218	0xbe0e27d2	-0.13882378
219	0x3e56fb68	0.20994341
220	0x3ed0bf8e	0.40771145
221	0x3c6d168f	0.01447071
222	0x3e83dd75	0.25754896
223	0x3e9a1913	0.30097255
224	0x3e902b43	0.28158006
225	0x3f1311aa	0.5744883
226	0xbda450b5	-0.08023206
227	0xbe2e9db1	-0.17052342
228	0xbd66a562	-0.056310065
229	0xbe4d39e8	-0.2004162
230	0xbd7685d5	-0.060186226
231	0x3e004a42	0.12528327
232	0x3ecb228f	0.39674804
233	0xbe17f17b	-0.14838211
234	0x39f714d7	0.00047127038
235	0xbdd9d653	-0.10636582
236	0x3e5ff862	0.21872094
237	0x3c9491fa	0.018136013
238	0x3e802773	0.25030097
239	0xbd91a166	-0.071108624
240	0xbd1b56af	-0.037924465
241	0x3e20251c	0.15639156
242	0x3d390982	0.045175083
243	0xbe6a3c47	-0.22874556
244	0xbdd793d1	-0.105262406
245	0x3e8f4a80	0.27986526
246	0x3dd96f80	0.1061697
247	0xbae9dc45	-0.0017842135
248	0xbeb02284	-0.34401333
249	0xbe20ff09	-0.15722288
250	0x3e03a070	0.12854171
251	0x3ebd57bd	0.36981001
252	0x3e6985a5	0.22804888
253	0xbd9a4ae7	-0.07533818
254	0xbd46fbe9	-0.048580084
255	0xbe24e6a2	-0.16103604

actor.0.bias f4 [64]
0	0xbaa87a18	-0.001285377
1	0x00000000	0.0
2	0x00000000	0.0
3	0xbcdeb97c	-0.027188055
4	0xbcc61a26	-0.02418239
5	0x3ba3bd1a	0.004996908
6	0x3be9ec02	0.00713873
7	0x3bad2e81	0.0052850847
8	0xbc7a792e	-0.015287681
9	0x00000000	0.0
10	0xba7c9617	-0.0009635402
11	0x00000000	0.0
12	0x00000000	0.0
13	0x00000000	0.0
14	0xb4e7c853	-4.3172858e-07
15	0x00000000	0.0
16	0x00000000	0.0
17	0x3c6697fc	0.014074322
18	0xbc7ba598	-0.015359305
19	0x3ca96c66	0.020681571
20	0x3cdd7e05	0.02703763
21	0x3c813722	0.01577336
22	0x00000000	0.0
23	0xb924f1e1	-0.00015730366
24	0xbca80f50	-0.020515114
25	0xbc5faf39	-0.013652616
26	0x3ce36ea5	0.02776272
27	0x00000000	0.0
28	0x3d05aa27	0.032632973
29	0x00000000	0.0
30	0x3b4d7f6e	0.0031356472
31	0x3c2f0f1c	0.010684755
32	0x00000000	0.0
33	0xbb2edc75	-0.0026681696
34	0xbd3bae97	-0.0458208
35	0x3b929493	0.004473278
36	0x00000000	0.0
37	0xbaebe418	-0.0017997054
38	0x3b3fdc0f	0.0029275452
39	0x00000000	0.0
40	0x3c2997ac	0.010351103
41	0x3b507b3e	0.003181174
42	0x00000000	0.0
43	0x3b27d88a	0.0025611245
44	0xb0a593b8	-1.2047314e-09
45	0x00000000	0.0
46	0x00000000	0.0
47	0x00000000	0.0
48	0x00000000	0.0
49	0x00000000	0.0
50	0x3bb1a3d0	0.0054211393
51	0xbc0387b9	-0.008027964
52	0x00000000	0.0
53	0x3baa6d8c	0.0052010473
54	0x3a81c78e	0.0009901391
55	0x2e0e91b5	3.2416476e-11
56	0x2f2dae63	1.5796213e-10
57	0xbcc63361	-0.024194421
58	0x3c4d9168	0.012546875
59	0x00000000	0.0
60	0xbccd355c	-0.025049858
61	0x00000000	0.0
62	0x00000000	0.0
63	0x3bce265f	0.0062911953

actor.2.weight f4 [64, 64]
0	0x3ec00dff	0.37510678
1	0xbe282d59	-0.16423549
2	0xbe447984	-0.1918698
3	0x3e07458f	0.13210128
4	0xbe74b10d	-0.23895665
5	0x3e2a7c73	0.16649036
6	0xbe04d8cf	-0.12973331
7	0x3c2784be	0.010224519
8	0xbeaedec7	-0.3415434
9	0xbe2a2e12	-0.16619137
10	0x3e05363d	0.13008972
11	0x3e96afbd	0.29430953
12	0xbe520fde	-0.20513865
13	0xbd928e72	-0.071560755
14	0xbd1ab9f3	-0.03777499
15	0x3d6dc0ac	0.058045074
16	0xbdc9bb7c	-0.09850213
17	0x3e89c92e	0.269113
18	0x3df4c278	0.119511545
19	0xbd59ff44	-0.053221956
20	0xbe7d9745	-0.24764736
21	0xbeae1baa	-0.3400548
22	0x3e6a0ee5	0.22857244
23	0xbddb81cb	-0.107181154
24	0xbe86b4a5	-0.26309696
25	0xbe0f0b69	-0.13969196
26	0x3f2af007	0.667725
27	0xbc18de5e	-0.00933036
28	0x3ea1783e	0.3153705
29	0xbed314f7	-0.41226932
30	0x3ec84ee1	0.3912268
31	0xbe9a1f8d	-0.30102196
32	0xbc6ba357	-0.014382205
33	0x3e073e67	0.13207398
34	0xbdea263b	-0.11433073
35	0xbe9b20c7	-0.30298445
36	0xbcd5d7ab	-0.026103815
37	0xbd09e14a	-0.033662118
38	0x3e89986f	0.2687411
39	0x3e4b2e6f	0.19841932
40	0x3e37d169	0.17950977
41	0x3ccc1302	0.024911407
42	0xbddf39da	-0.10899706
43	0x3d59dcf6	0.05318924
44	0xbe35f057	-0.17767464
45	0xbd9157e2	-0.070968404
46	0xbe07410e	-0.1320841
47	0xbcfc59af	-0.030804483
48	0x3deb66c9	0.11494214
49	0xbe17c82c	-0.14822453
50	0xbdcdf5a8	-0.10056621
51	0x3e7c551c	0.24641842
52	0xbe145762	-0.14486459
53	0x3e2a1b45	0.16611965
54	0x3e07f6f9	0.13277806
55	0xbe6f16b9	-0.23348512
56	0xbd07dd55	-0.033170063
57	0x3e575da8	0.21031821
58	0xbd87cfc3	-0.06631424
59	0x3df6083f	0.120132916
60	0xbc488c5b	-0.012240495
61	0x3e2f5a17	0.1712421
62	0x3dd744ee	0.10511194
63	0xbe23a21a	-0.15979806
64	0x3e0bbcf4	0.13646299
65	0x3c560b5e	0.013064234
66	0xbe2a750f	-0.16646217
67	0xbe24b6eb	-0.16085403
68	0x3d9ba263	0.07599332
69	0x3dc948d1	0.09828342
70	0xbec54767	-0.38531038
71	0x3dff0ba1	0.1245339
72	0xbd7134ad	-0.058888126
73	0x3da41e6a	0.080136135
74	0x3ed59426	0.4171459
75	0x3ddb677a	0.10713096
76	0x3d362fed	0.0444793
77	0x3de6f20c	0.112766355
78	0x3dd71441	0.1050191
79	0xbdb0538b	-0.086096846
80	0xbd740d1f	-0.059582826
81	0xbdb8d767	-0.0902546
82	0x3d78b328	0.06071773
83	0xbde43d25	-0.11144475
84	0x3e8873a6	0.26650733
85	0x3ddb47df	0.10707068
86	0x3e339eb1	0.17541005
87	0x3e036ce1	0.12834503
88	0xbd7826eb	-0.06058399
89	0x3e71e0ca	0.23620906
90	0xbf07725c	-0.52908874
91	0xbbaa26a7	-0.005192596
92	0x3e7ccf8b	0.24688546
93	0x3e0f90e6	0.14020118
94	0x3e71243c	0.23548979
95	0x3dea4a1a	0.11439915
96	0x3efe6b87	0.49691412
97	0x3c112b37	0.008860401
98	0xbdaab60f	-0.08335506
99	0xbe0ba85d	-0.13638444
100	0xbd015f31	-0.031584922
101	0x3d56ef34	0.052474216
102	0xbd3fe24b	-0.04684667
103	0x3ded81b4	0.115970045
104	0xbe7eb4b6	-0.24873623
105	0x3e3d8e1a	0.18511239
106	0xbe39894d	-0.18118782
107	0x3e9e3e3f	0.30906865
108	0x3d12b006	0.0358124
109	0xbe1c6b00	-0.15275192
110	0x3e8c39da	0.27387887
111	0xbe2fc803	-0.17166142
112	0x3d8a1325	0.06741933
113	0xbacccd4c	-0.0015625148
114	0x3e8d7947	0.2763159
115	0xbdb27833	-0.087143324
116	0x3e5f0be6	0.21781883
117	0xbd57d7e0	-0.05269611
118	0x3d28c6ba	0.041205145
119	0xbe22d618	-0.15901983
120	0xbdf9bc76	-0.12194149
121	0xbd8b783c	-0.06810042
122	0x3e237bd1	0.15965201
123	0xbd26c88c	-0.0407186
124	0xbebcaaf5	-0.3684918
125	0xbd626918	-0.055276006
126	0x3ca5109d	0.020149523
127	0xbd1cec64	-0.038311377
128	0xbe30c9fe	-0.17264554
129	0x3c72e84d	0.014825893
130	0xbdf310ba	-0.11868425
131	0x3e7c2fcb	0.24627607
132	0x3e1c625e	0.15271899
133	0xbd842f40	-0.06454325
134	0x3d4c2bee	0.049846582
135	0xbe2611fd	-0.162178
136	0x3deed6ae	0.11662041
137	0x3dde0865	0.10841445
138	0xbdb40e67	-0.087918095
139	0x3d6924e1	0.056919936
140	0xbd2e0ca0	-0.04249251
141	0x3e9b5ddb	0.30345044
142	0xbd450513	-0.048100542
143	0x3eb077b9	0.3446634
144	0x3e111749	0.14169039
145	0x3d8756cd	0.06608353
146	0xbd03a1cb	-0.03213672
147	0x3d9fec54	0.07808748
148	0xbd909975	-0.070605196
149	0xbd39f994	-0.045404032
150	0x3e4c5b4f	0.19956706
151	0x3e7113a7	0.23542653
152	0xbe8d668b	-0.27617297
153	0x3e1298d8	0.14316118
154	0x3ec80226	0.3906414
155	0xbeb95b05	-0.36202255
156	0x3eeb1216	0.45912236
157	0x3ddea3c5	0.1087108
158	0x3d98d7cc	0.07463035
159	0x3e896683	0.26836023
160	0xbe0f7d1f	-0.14012574
161	0xbdbf3a2d	-0.09337268
162	0x3ece721e	0.4032144
163	0x3d9799ac	0.074023575
164	0xbe412513	-0.18861799
165	0x3df30194	0.118655354
166	0x3d48517b	0.04890583
167	0xbc0690f8	-0.008213274
168	0x3d865375	0.06558887
169	0xbda3c4bb	-0.07996508
170	0x3e447249	0.19184221
171	0x3d7e6a5b	0.062113147
172	0xbebbbcbe	-0.36667436
173	0x3dac654f	0.084177606
174	0xbe5fd3aa	-0.21858087
175	0xbe442edc	-0.191585
176	0xbb696396	-0.0035612336
177	0xbebc90e0	-0.3682928
178	0x3e1e8d2c	0.1548354
179	0xbe76e0b7	-0.2410916
180	0x3d6f2abb	0.05839036
181	0x3d540910	0.051766455
182	0x3e6e30eb	0.23260848
183	0xbd5c344b	-0.053760808
184	0xbed8f8a6	-0.42377204
185	0x3ea27fca	0.3173812
186	0xbdc95d54	-0.09832254
187	0xbdafa393	-0.08576121
188	0x3d851008	0.06497198
189	0x3dfb1edc	0.12261745
190	0x3d94c156	0.072634384
191	0xbe8b243b	-0.2717608
192	0x3dede974	0.11616793
193	0xbe9c76e7	-0.30559465
194	0x3ee8859f	0.45414445
195	0xbe1280ee	-0.14306995
196	0x3e99b0c5	0.30017677
197	0xbd2a0a88	-0.04151395
198	0xbef4a861	-0.47784713
199	0x3e0435d8	0.12911165
200	0xbe06b593	-0.13155203
201	0xbd95c1cc	-0.073123544
202	0x3db86e5f	0.090054266
203	0x3e8156f1	0.25261644
204	0xbd8d24a6	-0.06891756
205	0x3c2c8d80	0.010531783
206	0x3e06d646	0.13167676
207	0x3cacf4e1	0.021112861
208	0x3dab437c	0.08362481
209	0xbe385982	-0.18002895
210	0xbd1903df	-0.037357207
211	0x3cd9a031	0.026565643
212	0xbdc7f259	-0.09763021
213	0x3d9503b8	0.072761
214	0xbe6613ab	-0.2246844
215	0x3e00c6d8	0.12575853
216	0xbcec5908	-0.028851047
217	0x3e4d2357	0.20033012
218	0x3ee4b5eb	0.44670042
219	0x3d33b262	0.04387129
220	0x3d8ac882	0.06776525
221	0x3e9ff20a	0.3123935
222	0x3d21d289	0.039507423
223	0xbd38a882	-0.045082577
224	0xbde41680	-0.11137104
225	0xbd9000b1	-0.07031382
226	0x3ef780a8	0.48340344
227	0x3da6efce	0.08151208
228	0x3e3194d9	0.17341937
229	0xbc63d79f	-0.013906389
230	0x3e18ace0	0.14909697
231	0xbdd63d69	-0.10460932
232	0x3dd33452	0.10312714
233	0xbe1c6f73	-0.1527689
234	0xbe8cd767	-0.2750809
235	0x3e79fcb5	0.24412806
236	0xbda0d6ec	-0.07853493
237	0x3d919456	0.07108371
238	0xbbe4a033	-0.006977105
239	0x3e941188	0.28919625
240	0x3d6b4c3c	0.05744575
241	0xbe900a65	-0.2813293
242	0x3e2df0f2	0.16986445
243	0xbcb07e4f	-0.021544604
244	0xbee3dc40	-0.44503975
245	0xbe3e7792	-0.186003
246	0x3e40db11	0.18833567
247	0x3dd0707f	0.10177707
248	0x3d4a7541	0.04942823
249	0xbe8fe3b3	-0.28103408
250	0x3da29aaa	0.07939656
251	0xbdf85e05	-0.12127308
252	0x3d884e59	0.06655569
253	0x3d0534e8	0.03252116
254	0x3dbecc6b	0.093163334
255	0x3e29f271	0.1659639

actor.2.bias f4 [64]
0	0x3d60a904	0.054848686
1	0x3d06d1a4	0.032914773
2	0xbbae904b	-0.0053272597
3	0xbce0e2b4	-0.02745185
4	0x3b496eb0	0.003073614
5	0xbc7f50cb	-0.015583227
6	0x3cad65c5	0.021166692
7	0x3c993aa7	0.018704725
8	0x3c5f507d	0.01363003
9	0xbc175521	-0.009236605
10	0x3c428e39	0.011874729
11	0xbd10d348	-0.035357744
12	0xbcb4ec31	-0.022085281
13	0x3cc1e82c	0.023670278
14	0x3cbe9e58	0.023268864
15	0xbcc01c5d	-0.023451025
16	0x3b258b29	0.0025259948
17	0xbca4e6bb	-0.020129552
18	0x3c56ce41	0.013110698
19	0x3d62b13e	0.055344813
20	0xbd2d34e9	-0.042286787
21	0xbb2312cf	-0.0024883037
22	0xba8e7c35	-0.0010870757
23	0x3c91a165	0.017777154
24	0x3c924663	0.017855829
25	0x3ba3473c	0.004982857
26	0x3cad7221	0.021172585
27	0x3d12e915	0.035866816
28	0x3a6d6f5d	0.0009057427
29	0xbc8ce4b4	-0.017198898
30	0x3c802e22	0.015646998
31	0x3d48a9d3	0.048990082
32	0xbc546717	-0.012964032
33	0x3d084f0b	0.033278506
34	0x3cb7b31a	0.02242427
35	0x3c037555	0.00802358
36	0x3ccbf8e3	0.024898952
37	0xbc54c79f	-0.0129870465
38	0x3beda899	0.0072527644
39	0x3d0118ad	0.031517673
40	0xba2c7100	-0.00065781176
41	0xbc314c90	-0.010821477
42	0x3bfe0e1e	0.0077531477
43	0xbc9690fe	-0.018379685
44	0x3c904fe3	0.017616218
45	0x3c35d573	0.011098254
46	0xbd840911	-0.06447042
47	0x3c8518cc	0.016247176
48	0x3aa45a3b	0.0012539098
49	0xbbb3761a	-0.0054767253
50	0x3d45f737	0.048331466
51	0xbc1be890	-0.009515896
52	0xbc22dbe7	-0.009940124
53	0xbd62ca8f	-0.055368956
54	0x3c998662	0.018740837
55	0xbc804cb7	-0.01566158
56	0xbd3e85bc	-0.046514258
57	0xbb7b1ac9	-0.0038315526
58	0x3b9ede7f	0.004848301
59	0x3ccc8be2	0.024969045
60	0xbcdb1189	-0.02674176
61	0xbc19bb9d	-0.009383109
62	0x3c82da19	0.015973138
63	0x3cac1fec	0.021011315

actor.4.weight f4 [2, 64]
0	0x3e899c9d	0.268773
1	0xbde4001e	-0.11132835
2	0x3e640f58	0.22271478
3	0x3e1ecf7f	0.15508841
4	0xbcaf263c	-0.021380536
5	0x3c345bca	0.011008212
6	0x3ea87246	0.32899684
7	0x3ac9ec35	0.0015405478
8	0xbc1ea09e	-0.009681849
9	0xbe90b656	-0.2826411
10	0xbd9494fd	-0.0725498
11	0xbed50516	-0.41605443
12	0x3e8dc8eb	0.2769235
13	0xbe5554f4	-0.20833188
14	0xbe19a7b4	-0.1500538
15	0x3b7babaf	0.0038401892
16	0x3cf06389	0.029344337
17	0x3ec6edd1	0.38853315
18	0x3ebdb12a	0.37049228
19	0xbe2e9042	-0.17047217
20	0xbe47fa11	-0.19528987
21	0x3de79f04	0.11309627
22	0x3e2c4390	0.16822648
23	0xbd529217	-0.051408853
24	0xbca05dad	-0.019575918
25	0xbc1cc4ed	-0.009568435
26	0xbe5fe662	-0.21865228
27	0x3dcf8159	0.10132093
28	0x3b190289	0.0023347458
29	0xbcea14f4	-0.028574444
30	0xbd338fd6	-0.043838345
31	0xbe71223b	-0.23548214
32	0x3e1f0053	0.15527467
33	0xbe120ee5	-0.14263494
34	0xbc06a428	-0.008217849
35	0xbc2bef0c	-0.010494005
36	0xba3c493b	-0.0007182543
37	0x3be9d793	0.007136294
38	0x3e41e01e	0.1893315
39	0x3e921a51	0.28535703
40	0x3e8bc696	0.27299947
41	0x38ef52e8	0.000114118506
42	0x3ea1d083	0.31604394
43	0xbe2fb3ad	-0.17158385
44	0x3eb0d005	0.34533706
45	0xbe90bb8a	-0.2826808
46	0xbea7b069	-0.32751778
47	0x3ddb64f4	0.10712615
48	0x3c3c3fdb	0.011489834
49	0xbc901baa	-0.017591316
50	0xbdf2f02e	-0.11862217
51	0x3ecda0d0	0.40161753
52	0x3dd0513e	0.10171746
53	0x3e7721ff	0.24134062
54	0xbc2bbbcf	-0.010481789
55	0xbea7cf9f	-0.3277559
56	0x3df95d65	0.12176017
57	0xbdcaf2b5	-0.09909574
58	0xbe027bb2	-0.12742499
59	0x3ee58d27	0.44834253
60	0xbea188f7	-0.31549808
61	0xbbf07130	-0.0073377118
62	0xbe7c2f72	-0.24627474
63	0xbe44b783	-0.19210629
64	0xbe89e972	-0.26935917
65	0x3ddf26ab	0.10896047
66	0xbe620fb6	-0.22076306
67	0xbe1efef1	-0.1552694
68	0x3cae2224	0.021256514
69	0xbc53b0a0	-0.012920529
70	0xbea83d66	-0.32859343
71	0xbb067233	-0.0020514845
72	0x3c1e7dcc	0.009673547
73	0x3e913b11	0.28365377
74	0x3d987454	0.07444063
75	0x3ed4eb38	0.41585708
76	0xbe8c7e21	-0.2743998
77	0x3e5408d7	0.20706497
78	0x3e1be2e3	0.15223269
79	0xbb15817f	-0.0022812781
80	0xbcdcd568	-0.026957229
81	0xbec6d2b5	-0.38832632
82	0xbebe39a5	-0.37153354
83	0x3e2d584a	0.16928211
84	0x3e476beb	0.19474761
85	0xbde85a94	-0.113454014
86	0xbe2ae106	-0.16687402
87	0x3d5569b5	0.052102763
88	0x3c992549	0.018694537
89	0x3c14e971	0.00908886
90	0x3e5db15c	0.21649688
91	0xbdd05b54	-0.101736695
92	0xbb970ebb	-0.0046099103
93	0x3cd532cc	0.026025198
94	0x3d21958e	0.039449267
95	0x3e727a43	0.23679452
96	0xbe1ebc9c	-0.15501636
97	0x3e11b371	0.14228608
98	0x3bc3746b	0.005964806
99	0x3c1d0ca9	0.009585538
100	0x37014799	7.705669e-06
101	0xbb9fa4b2	-0.004871928
102	0xbe4316c6	-0.19051656
103	0xbe935d9c	-0.28782356
104	0xbe8cd416	-0.2750556
105	0x3a85196c	0.0010154671
106	0xbea1ee1b	-0.31626973
107	0x3e30f7e4	0.17282063
108	0xbeb19211	-0.34681752
109	0x3e91239b	0.28347477
110	0x3ea7d18c	0.3277706
111	0xbdd50e23	-0.10403087
112	0xbc1ab534	-0.009442616
113	0x3c865ef5	0.0164027
114	0x3df31087	0.11868387
115	0xbecbd14a	-0.39808112
116	0xbdcd0d1d	-0.10012267
117	0xbe766748	-0.24062836
118	0x3c33b8ce	0.010969354
119	0x3ea7e17e	0.32789224
120	0xbdfc1f04	-0.12310603
121	0x3dc644a8	0.09681064
122	0x3dfce920	0.123491526
123	0xbee464d9	-0.4460819
124	0x3ea07d0e	0.3134541
125	0x3c2bb298	0.010479592
126	0x3e7844ad	0.24244948
127	0x3e457289	0.19281973

actor.4.bias f4 [2]
0	0x3b908a5d	0.0044110254
1	0xbb909765	-0.004412579
