src/Catcher_Flappy_Continuous/inaccurate_models/inacc_state_acc_r.pt (torch, 41330 bytes, 11 tensors)

critic.0.weight f4 [64, 4]
00000000: 2afa 6cbd e490 043d e5ef 9a3e afae 53bd
00000010: 237f c83d 6829 423e 494a 6a3e 8280 c63c
00000020: 8ff3 0dbe 6d31 1e3d a34f 213e 2d1c 203d
00000030: 063a 223e 4331 24be ad05 693e f875 91be
00000040: 39a1 5abd 3726 3dbe 637f 6f3e bbf1 6b3e
00000050: b646 cd3d 483b 133e 4900 2dbe e76b 673e
00000060: aa63 a0be 9128 313e 0334 86bd a49a 603e
00000070: b824 02bc 3bb1 7f3c ad27 adbe 1420 2f3e
00000080: 7ae6 58bd bfc8 20be 8dd6 c03d dd3a c83d
00000090: 6287 0bbe 3546 983e 03e5 c3be a11d bebc
000000a0: 788f 9a3e 20ed 623e 644d c9bd bc19 3bbe
000000b0: 884a 21bd 093f 343e 6d6a 4c3e 1a02 543e
000000c0: a436 ef3d beea b839 e607 553d fdab bc3d
000000d0: ab1b 6ebe b784 a83d d128 dc3d c6fa 04be
000000e0: 5fac 25be 2e4d 93be 0c9f 21be f6fa 19bd
000000f0: c1bc 5dbd 1b77 34be e9b0 59be 8aab 15bd
00000100: 60b3 093d f3bd d0bb 47d1 053e 02a0 82bd
00000110: ff1b 5d3d f718 a13d fe18 8c3d cf4d cb3d
00000120: b4b4 55bd 33c8 d03d 055a ff3d bdd7 2a3d
00000130: cbd3 023c 6895 11bd dc25 13be 6fa6 433e
00000140: d471 8fbe e5b4 6e3b f211 24be f395 1dbe
00000150: 8ba0 aebd 7a30 24be 0f63 333e 13bf 2a3e
00000160: ca9f 48bd 18f4 663d 61ac 843e 9d3c bcbd
00000170: 4719 f93d 455a d83d b331 68be aff5 80bd
00000180: 9f57 76be 263c 113e c72f 083e 1e25 eb3d
00000190: ee13 863e 4b90 c33e 3411 403e a95c 28be
000001a0: b1af 4f3e abd9 18be 69e7 91bd 6963 01be
000001b0: b8f5 86bc 7643 c9bd a87e 1b3d 89e7 eabd
000001c0: 925a a13e 7907 09be cbed 2c3d 74b2 c03d
000001d0: 6491 d7be e5fd 9cbd fe14 113e cd84 2bbe
000001e0: be71 523d 3e8a 8f3e 6556 603d 4dfa cdbe
000001f0: a15e c83d 4b2d 51bd ea80 c2be 2e02 4e3d
00000200: 4111 83be 5d26 d53e b930 24be 7c59 fcbc
00000210: 8c73 ae3d c9d5 e33c a42a e73d ea6b 98bd
00000220: 20c7 c138 7f84 e0ba b07f a2bd 73f5 3e3d
00000230: e429 8c3e fd30 aebd 521c bdbd eff3 ecbd
00000240: 1f7b 9cbc bba2 033e 46d6 49bd 061f b23d
00000250: 3c6f 433e 6503 b03d 0be5 853e 9bbf bd3e
00000260: 57b8 85be fd36 283e 7159 7b3c a680 e3bb
00000270: 2449 2b3e 3f32 08be 5328 b03e 0164 a6ba
00000280: f071 69be 9c07 1ebd c5e7 48be 3e08 973d
00000290: be18 85be 8c1a 67be 3f94 7d3d e393 3bbe
000002a0: ce4d 10bd 0123 103d 0f9b c5bc 26b0 41be
000002b0: baa7 d53e ea5c 543e f343 763d 437e a6be
000002c0: 4f3c f13d c46c 41bd 171b 8fbd 3973 4ebd
000002d0: 9788 88be 4be7 8e3e 9c87 38be e6ca 95bd
000002e0: 83d6 c7bc b7f0 11be 926f 06bd 868c 54be
000002f0: 0f2a 2dbe a1c7 333e 1eba 563e 5d51 bfbe
00000300: 4673 b5bb 88e8 7a3a e2ef 003e 29f2 a2bd
00000310: d711 fabc 64b9 733d 1d38 cabd bf80 483e
00000320: 888d c3be c94a 02be 8d50 3ebd c6cb cfbe
00000330: 6fdb 6ebc 6b55 c43d e3c0 8f3d 2bb9 60bd
00000340: 8c3e 37be a5d7 91be 1f10 b5bd b574 a33d
00000350: 5f09 42be 1141 9e3c 62dc 323e b20f cbbc
00000360: f25d e13a 1d35 9b3e ac24 a4be 97f3 8fbe
00000370: cc12 043e 833f 8abd 1164 1cbe 8f7c 513e
00000380: 4f76 cabd 3a50 523e be00 b9bd e6ad 9cbd
00000390: d15c 163d 87c4 843e 9edd 5a3e b094 b83e
000003a0: efcd 00bb bb2d 89bb 6bb2 8a3e 6b2b a1bd
000003b0: 7318 c33e 5127 2cbe 1414 a2be dd40 2dbe
000003c0: 33e8 a63d 3fab 0f3e 5f6b 163e d938 e63c
000003d0: 1541 01bc 552f 313c bcb5 dbbe cb13 703e
000003e0: a0d3 b3bc 85f6 393e 911c 62bd 49c5 833e
000003f0: c74e 133e 9b2a 853e 49ac 313d 730c 08be
-0.057855763 0.03236474 0.3026115 -0.051680263 0.097898744 0.18961108 0.228799 0.0242312
-0.13862441 0.038621355 0.15753035 0.03908937 0.15842447 -0.16034417 0.22756071 -0.28410316
-0.05337641 -0.18471609 0.23388438 0.23041432 0.10023253 0.14378083 -0.1689464 0.22599755
-0.31326038 0.17300631 -0.06552889 0.2193399 -0.007943325 0.01560622 -0.33819333 0.1710208
-0.052954175 -0.15701579 0.09415922 0.09776852 -0.13625863 0.29741064 -0.3826066 -0.023207488
0.30187583 0.22160769 -0.09829214 -0.18271536 -0.03937772 0.17602171 0.19962473 0.20703927
0.11680344 0.0003527011 0.052009486 0.09212492 -0.23252742 0.08228438 0.107499726 -0.12986287
-0.16179036 -0.2876982 -0.15783328 -0.03759285 -0.054135088 -0.1762356 -0.21258892 -0.036540546
0.03361833 -0.0063703 0.13068114 -0.06378175 0.053981777 0.0786609 0.068407044 0.0992695
-0.052174285 0.10194435 0.12468342 0.04170965 0.007985066 -0.035542876 -0.14369911 0.19106458
-0.2801653 0.003642374 -0.1602247 -0.15389232 -0.08526715 -0.16034117 0.17518257 0.16674452
-0.04898051 0.05638513 0.25912765 -0.091912486 0.121630244 0.105640925 -0.22675209 -0.062968604
-0.24056862 0.14183101 0.13299476 0.11481689 0.2618708 0.38196024 0.18756562 -0.16441597
0.20281865 -0.14926784 -0.07124216 -0.12635578 -0.01647459 -0.0982732 0.037962586 -0.11469943
0.31514412 -0.13381757 0.042218965 0.09409037 -0.42103112 -0.07665614 0.14168164 -0.16749878
0.051378004 0.28035158 0.054769892 -0.40230027 0.09783674 -0.051068585 -0.3798898 0.050295047
-0.255991 0.4163083 -0.16034211 -0.030804388 0.085181326 0.027811902 0.1128743 -0.07442458
9.240047e-05 -0.0017129331 -0.07934511 0.046620797 0.2737571 -0.085054375 -0.09233917 -0.11569964
-0.019101677 0.12855045 -0.049276613 0.086973235 0.19085401 0.085943975 0.26151308 0.37060246
-0.26117203 0.16427226 0.015341149 -0.0069428263 0.1672712 -0.13300417 0.34405765 -0.0012694598
-0.2279737 -0.038581476 -0.19619663 0.07374619 -0.2599544 -0.2256872 0.061908957 -0.18318133
-0.03523045 0.035189632 -0.02412179 -0.18914852 0.41729528 0.20738569 0.060123395 -0.32518205
0.11779081 -0.047222868 -0.06987589 -0.050402854 -0.2666671 0.27910838 -0.18020481 -0.073140904
-0.02439428 -0.14251982 -0.032821245 -0.2075673 -0.16910575 0.17556621 0.20969436 -0.37366763
-0.0055374233 0.0009571393 0.12591508 -0.07956345 -0.030526085 0.059502974 -0.09873984 0.19580363
-0.38193917 -0.12723841 -0.046463538 -0.40585154 -0.014578684 0.09586605 0.07019212 -0.05486409
-0.17894953 -0.28484836 -0.088409655 0.079812445 -0.18948887 0.019318135 0.17466882 -0.024787758
0.0017194136 0.3031396 -0.32059228 -0.28115532 0.12897795 -0.06750395 -0.15272547 0.20457672
-0.09885847 0.20538417 -0.09033345 -0.07650356 0.03670961 0.25931188 0.21373603 0.3605094
-0.0019653996 -0.0041863597 0.27089247 -0.078696094 0.3810459 -0.16811873 -0.31655943 -0.16919275
0.08149757 0.14030169 0.14689396 0.028103279 -0.007889052 0.0108145075 -0.4291209 0.2344505
-0.021951497 0.18160446 -0.055203024 0.25736454 0.1438552 0.26009068 0.043377195 -0.13285999

critic.0.bias f4 [64]
00000000: 0bcd 85be 2457 373a 0717 613e 0185 64bc
00000010: 0000 0000 0000 0000 c0c8 85bd ced4 14bd
00000020: 14a0 ca3b fc1a 8cb2 755f 0ebc 0000 0000
00000030: 0000 0000 0000 0000 4366 8135 650b 2ab7
00000040: f98f b3bd 0000 0000 8383 5bbc 0000 0000
00000050: 0000 0000 7c5e c43a 06d9 dabd 56d4 2f3d
00000060: 40a0 1e3e d2fc c13b 788c 073d 0000 0000
00000070: 0000 0000 0000 0000 0000 0000 d7f4 9e3e
00000080: 0000 0000 8a28 88bd a41a c73d 36f1 873d
00000090: e5fa 6bb3 0000 0000 a0a2 953d 351e a939
000000a0: 1705 23bc 0000 0000 0000 0000 fb79 703d
000000b0: 1553 c5bd 0000 0000 0000 0000 0000 0000
000000c0: f4bc 9abd 0000 0000 0000 0000 973f a1bb
000000d0: 0d58 c93c b135 dc3c 0000 0000 0000 0000
000000e0: 0000 0000 0000 0000 1913 a1be c502 933d
000000f0: de98 6b38 63f7 9abd 0000 0000 2b35 353d
-0.26132998 0.0006993881 0.2198144 -0.013947726 0.0 0.0 -0.06532431 -0.03633576
0.0061836336 -1.6310416e-08 -0.008689751 0.0 0.0 0.0 9.641011e-07 -1.0135443e-05
-0.08767695 0.0 -0.013398054 0.0 0.0 0.0014981772 -0.10685925 0.04292711
0.15490818 0.005920031 0.033092946 0.0 0.0 0.0 0.0 0.31046173
0.0 -0.06648357 0.09721878 0.06637804 -5.494339e-08 0.0 0.07306409 0.00032256698
-0.009949944 0.0 0.0 0.05871008 -0.09634987 0.0 0.0 0.0
-0.07555571 0.0 0.0 -0.0049209106 0.024578119 0.02688107 0.0 0.0
0.0 0.0 -0.31459883 0.071782626 5.6170735e-05 -0.075667165 0.0 0.044240158

critic.2.weight f4 [64, 64]
00000000: 023d 2e3e 632f a4be 2373 8dbe 877a a3bd
00000010: b5e9 22be 7b3a 6dbd e63e a03d 0944 d4bc
00000020: dd7e 0cbe a30a 233e 6af0 463e 0b15 4c3e
00000030: a9e2 cfbe 65db 1a3e 0272 6e3e b859 7b3e
00000040: 9a02 503e 2334 a3bd 44fc ca3b e8a7 dcbb
00000050: 5bf1 f93d 96d5 34be c513 25be 900f 863d
00000060: b792 88be 3deb 3cbe 3d13 9d3e da7f 243e
00000070: b5df 83be 9bf6 1dbe e8a3 95bc d09f acbd
00000080: 8043 0f3e 70f4 a4be f46f c43d ac1d 273d
00000090: 6b1a 183e c1bc 7c3e d11d 8abd 8ea4 6ebc
000000a0: de6e ca3e c0be 563d c5f7 98be 2b21 093e
000000b0: 1daf ef3d 420c a03d 9ef0 dd3d 1fab d43d
000000c0: 35a6 b1bd e03e 76bd e046 4a3d 297f 07be
000000d0: 2d64 af3d d2f4 4dbd dae4 433d ea13 78be
000000e0: 55c3 1b3d e8d8 f2bc cb1a 8d3e 2e20 803c
000000f0: c521 c6bd a026 0fbf 3695 1d3e 2669 283e
00000100: 2d72 a13d 3abe 923d 6b6d 133e dcef ef3e
00000110: 98c7 caba 2da7 fdbd 0482 a93e f106 bd3c
00000120: fb72 0a3c fd78 453e ee0e debd 3b87 b9be
00000130: ab11 d8bc a1f0 483e 71fd 633d fa16 82ba
00000140: 17e4 a6bd 2aa0 c7bc e390 93be e65f d9be
00000150: 5010 26be 36ca a0bd 13bd 5a3e 7664 2f3e
00000160: d9e6 b0bd 073a 1c3c 40d7 3abd 7a8a 4bbd
00000170: 6e41 bb3d 152e 1fbe b57f 0e3e 7c9a b93e
00000180: eaf5 973e 5ad6 b6be 3ad0 7b3d a668 2d3e
00000190: eb08 123e dd8e cf3c bf19 afbe fba6 9fbe
000001a0: 7533 653e dbba 85be ff26 31bd 9296 9d3e
000001b0: 2812 403e a717 2c3e 8916 0e3d 3215 ec3b
000001c0: a80a 8a3d 2a33 4dbe a8b7 ab3d ac53 cabd
000001d0: 1828 e33d fa58 88bd ef5c 513e f693 933c
000001e0: 0731 713e b08f 4d3e 4a9a 573e 66b3 42be
000001f0: 32c4 cdbd caca 533e ca1c 78bd 0e8d c23d
00000200: 90b3 e5be 144a 603e 63e1 a0be 400a c9bd
00000210: 1975 27be 9088 c73d 1ef7 f43d a49d acbe
00000220: bebb 9bbe 5dfb 773d 8b59 123d aa61 55bc
00000230: 4e77 5abe c2c1 f83d 21b6 14bc fdc3 05be
00000240: 6d8d 033e 2622 ad3d df14 3c3e 2e14 fd3d
00000250: 6550 72be 8859 883e e23f 1b3e be61 02be
00000260: 19f6 803d d35f 123e c188 c5bd 707c e83b
00000270: d750 123d 0cb4 fa3b 6e47 75be 0e9c 383f
00000280: df1b 4dbe cfac 8e3d 0832 65be 699f b9be
00000290: 3a88 153e 12de af3e 14b8 173e b034 97bd
000002a0: ff56 613e c766 83bc 0083 10be 610d 553d
000002b0: 2efc 39be 2049 dd3e 94c7 f9bd 82c4 0ebe
000002c0: 07a1 6d3e b43d 043e 3766 26bd 872e 02be
000002d0: 20c3 90be 0ae6 e7bc 3105 903e 2cc7 893e
000002e0: 2693 363e a37f fc3c 9c98 b7bf 284a 283e
000002f0: f0aa 9b3e c8a4 a03a d53f 11bd 04d2 22be
00000300: 0dd4 ec3d d374 8abc f2ab 84bd c099 513e
00000310: 62e5 c43e 6d46 f7be 467a 7bba 68a9 af3e
00000320: 619c de3d 96de a93e 6fc0 2a3e 69aa 853e
00000330: 8528 ccbd e3ab a43e c680 93bc ea95 cc3d
00000340: 5da6 113e d6d4 6fbc 9979 6ebc 88cb 08be
00000350: 82a4 98bc cac7 cbbc bf3f 06bf d217 c33d
00000360: 3980 623a 07e5 8cbe c4cc 4abc e075 683e
00000370: d23d 0d3e 66b1 0e3e c31c e73d 7f01 133e
00000380: 74e7 de3d 3cd8 143e 2330 a3bd 382d bbbd
00000390: 599e 98be 5ba2 143e 0bc7 d9bd dc31 6b3d
000003a0: 6e5c a13d 8cc1 193d 4526 c13d 9b30 6dbd
000003b0: ea48 a5bd 5c9f 6f3e bd10 3e3e a719 493d
000003c0: 75ca 92be f100 953d 17c8 e03e b333 5d3e
000003d0: 716a a4bd 75ab 303d 9143 123e 9bbc 4abd
000003e0: 3d22 273d 746d 4bbd f47a bf3e 4560 8dbd
000003f0: 6011 e5bd 3924 333e 46b9 a9be 688a 8b3e
0.1701546 -0.32067403 -0.27626905 -0.079823546 -0.15909465 -0.0579171 0.07824497 -0.025911348
-0.1372027 0.15922026 0.19427648 0.19929902 -0.40602615 0.15122755 0.23285678 0.24545944
0.20313492 -0.07968929 0.006194623 -0.006733883 0.12204238 -0.17659602 -0.16120823 0.06545937
-0.26674435 -0.18449111 0.3067874 0.16064397 -0.25756612 -0.15426104 -0.018266633 -0.08428919
0.13990593 -0.3221774 0.09591666 0.04079978 0.14853828 0.24681379 -0.06743968 -0.0145656
0.3953771 0.052428007 -0.29876533 0.13391559 0.11703322 0.07814838 0.1083691 0.10384201
-0.086742796 -0.060118556 0.049383998 -0.13232102 0.08564029 -0.050282307 0.04782567 -0.24226347
0.03802808 -0.029644445 0.27559504 0.015640344 -0.0967441 -0.5591831 0.1538895 0.16446361
0.078831054 0.07165189 0.14397208 0.46862686 -0.001547086 -0.12385402 0.33107007 0.023074599
0.008450265 0.19284435 -0.10842691 -0.36235985 -0.026375612 0.19623043 0.055661622 -0.000992506
-0.081489734 -0.024368364 -0.28821477 -0.42455977 -0.1621716 -0.07851069 0.21361189 0.17128167
-0.08637781 0.009535319 -0.045615435 -0.04969261 0.09143339 -0.15544923 0.13915904 0.36250675
0.29679805 -0.35710412 0.061477877 0.16934451 0.14261214 0.025336677 -0.3419933 -0.31182083
0.2238291 -0.26119122 -0.04325008 0.3077894 0.18756926 0.16805898 0.03468946 0.007204675
0.06740314 -0.20039049 0.08384639 -0.098792404 0.11091632 -0.06657596 0.20445608 0.01801489
0.23553859 0.20074344 0.2105495 -0.19013748 -0.10047187 0.20682827 -0.06057433 0.0949956
-0.44863558 0.21903259 -0.31421956 -0.09816408 -0.16353263 0.09742844 0.11961196 -0.3371402
-0.30416673 0.060542453 0.035729926 -0.013023773 -0.21334574 0.12146331 -0.009076626 -0.13063045
0.12846918 0.08453779 0.18367337 0.123573646 -0.2366348 0.26630807 0.15161088 -0.12732598
0.062969394 0.14294367 -0.09645224 0.007094912 0.035721626 0.007650858 -0.2395303 0.7211312
-0.20030163 0.069665544 -0.22382367 -0.36254433 0.14602748 0.34349114 0.14816314 -0.07383096
0.22005843 -0.016040219 -0.14112473 0.052014712 -0.18162605 0.43219852 -0.1219627 -0.1394215
0.23205958 0.12914163 -0.040624823 -0.12713061 -0.2827387 -0.028307933 0.2812896 0.2690977
0.1782957 0.03082258 -1.4343448 0.16434538 0.30403852 0.001225614 -0.035461266 -0.15900427
0.11563883 -0.01690141 -0.064781085 0.20468807 0.38456255 -0.48295918 -0.00095931103 0.34308934
0.10869671 0.33177632 0.1667497 0.26106575 -0.09968666 0.3216239 -0.01800574 0.09989531
0.14223619 -0.014638146 -0.014555358 -0.13358891 -0.018633131 -0.02487554 -0.5244102 0.09526028
0.00086403225 -0.27518484 -0.0123779215 0.22701216 0.13793114 0.1393486 0.11284783 0.1435604
0.1088399 0.14535612 -0.07968166 -0.09139484 -0.2980831 0.14515059 -0.106336676 0.057420596
0.07878958 0.037538096 0.094311275 -0.057907682 -0.08070548 0.23400635 0.18561073 0.04909673
-0.28670087 0.0727557 0.43902656 0.21601753 -0.080281146 0.043132264 0.14283587 -0.049496274
0.040804137 -0.04966493 0.37398493 -0.069031276 -0.11184955 0.17494287 -0.33149165 0.27254033

critic.2.bias f4 [64]
00000000: 0288 44bd 6a92 cdbd 4093 283d 6690 c8bd
00000010: 6fdb 4dbd 469d 243d e9d6 13bd 2ed7 8bba
00000020: 505c dfbc c530 a7bd 702c 563d 1c1b 473d
00000030: b741 22bc 0d77 b13d 758c 353b d1ba d43c
00000040: d09b c93c 1218 87bd b7d6 9b3c 7ce6 5cbd
00000050: 7b37 9f3b 3d8f 84bd 8457 0d3d dd9d 873d
00000060: ee30 273d 7807 45bc 9ab0 e7bc d1c0 053d
00000070: 34e2 1b3d f14f 203d e265 67bc a242 f5bc
00000080: 2e05 39bd 712c 64bd f6dd 4fbd 0a3f 90bd
00000090: 3feb 813c 2754 313d 6502 9fbd 275c a93c
000000a0: 79d1 313d f56b 84ba dc08 2ebd 7def b93b
000000b0: 2436 803d 9a8f a73d 33aa 813c 9376 693d
000000c0: ba0f 89bd c0c3 e03c 85da 15bd 6fa9 0dbd
000000d0: 220c 7abd 5763 e53c b8aa 2bbd baa0 18bd
000000e0: da58 7b3c 3984 de3c 3720 3d3d 7df8 30bc
000000f0: 7101 12bd 32e7 bcbc d65f 8a3c 5d73 0ebd
-0.04798127 -0.10037692 0.041156054 -0.09793167 -0.050258096 0.04018905 -0.036093626 -0.0010668987
-0.027265698 -0.08163599 0.052288473 0.048609838 -0.009903363 0.08665285 0.0027702127 0.025967987
0.02461043 -0.06596388 0.019023282 -0.053930745 0.0048589087 -0.06472633 0.03450729 0.06621907
0.040818147 -0.0120257065 -0.028282452 0.032654587 0.03805752 0.039138738 -0.014123412 -0.029939
-0.045170955 -0.055706445 -0.050748788 -0.07043274 0.015859244 0.043293145 -0.077641286 0.020673824
0.04341266 -0.0010102974 -0.042488918 0.005674301 0.062603265 0.08181687 0.015828228 0.056997847
-0.06692453 0.02743709 -0.03658535 -0.034585413 -0.061046727 0.02800147 -0.041910857 -0.037262656
0.015341008 0.027162658 0.0461733 -0.010801432 -0.035645906 -0.023059461 0.016891401 -0.034777988

critic.4.weight f4 [1, 64]
00000000: 5cb1 f0be 69f2 b1be cfb3 883f d73c 9ebe
00000010: 6aff a0be cc71 8f3e 427f 01bf c1c8 b53e
00000020: eeb6 aebe b17a 77be 239d 993e dd2c 493f
00000030: acac 38bf 9d0d b63e 94c5 b23e ed26 e33e
00000040: 4478 203f e443 22bf 6661 1a3f 190d bebe
00000050: b7aa 073f f028 1dbf 4f56 423f 0c94 e23e
00000060: 115c ca3e eb40 acbe 5c67 e0be 3b6a 273f
00000070: aba7 d43e da5c 633f c79d efbe f302 2fbf
00000080: 4222 17bf 9b11 bcbe a536 2bbf 5a66 ecbe
00000090: 4f40 8f3e 21ea 113f 6216 e9be 4d81 47be
000000a0: 38bb 003f 0b73 07bf 1143 c9be 01e8 093f
000000b0: 6b47 ea3e ea8e 1a3f 73c9 d0be 269c d43e
000000c0: f954 01bf 3c38 0f3f eee7 51bf da25 c7be
000000d0: 5b7f ecbe 350b b63e ed0d 03bf fdd1 a83e
000000e0: 140f ca3e 4c92 183f 530d 153f c162 07bf
000000f0: 576c 0fbf 1484 edbe e626 203f 7aad ebbe
-0.47010314 -0.34755257 1.0679873 -0.30905792 -0.31444865 0.28016508 -0.50584805 0.35504726
-0.3412394 -0.24167897 0.30002698 0.7858408 -0.72138476 0.3555726 0.34916365 0.44365636
0.6268351 -0.6338484 0.6030487 -0.37119368 0.52994865 -0.6139059 0.75912946 0.44253576
0.39523366 -0.33643278 -0.43828857 0.6539647 0.4153417 0.88813555 -0.46800062 -0.68363875
-0.5903665 -0.36732182 -0.66880256 -0.46171838 0.2797875 0.5699788 -0.4552489 -0.19482918
0.50285673 -0.52909917 -0.3930898 0.53869635 0.45757613 0.6037432 -0.40778694 0.41525382
-0.50520283 0.5594518 -0.8199452 -0.38896066 -0.46190915 0.35555425 -0.51193124 0.32972708
0.3946463 0.5959823 0.58223456 -0.5288506 -0.5602469 -0.4638983 0.62559354 -0.4603079

actor.0.weight f4 [64, 4]
00000000: 0b93 293e 1c4f bfbd 1d5f c3bc 817e 85be
00000010: 83f4 193d 9d65 1bbe e7c7 8e3d fac6 a13d
00000020: de8f 55bd 0f4a eaba 357f 423e 6249 763d
00000030: d5c1 eb3c c466 35be 65b8 9b3d ee6c bb3e
00000040: 5cb5 813e d187 81be db62 54bd 71f1 593e
00000050: d5d3 1dbe 370f 92be 5d98 353e b268 ae3c
00000060: 3306 83bd d4fe 90be 3bb6 b7bd d5d2 3a3e
00000070: a5eb b43e 427b 23bc 2060 b6be ccf4 d23c
00000080: 2540 c2bd e1ba a0be 18b0 bdbd 0abb 8e3e
00000090: b002 f83b 7f1d 12bc f3ba 8a3e d36e c3bd
000000a0: a44d 153e 9070 ff3e 9902 103e a9bf 15be
000000b0: 75d7 653d 699e 933e 55d0 32be 70fb da3d
000000c0: 270b a7be 8bbd 873d b51d 483b 345e c7bb
000000d0: 7a84 98bc 78e0 1d3e ed56 36be 1bd1 673e
000000e0: 3c00 ce3d bc7b a93d 20e2 013f f973 3d3e
000000f0: 8f93 d9be 5955 013e ef1b 2ebe c71b d03d
00000100: 53e7 813a e812 023e 97fd bf3d 9cf0 843d
00000110: 33cd 15be 0f0d 273e 5679 3f3e bf75 8cbc
00000120: 41c3 b9bc d7f7 d43d 1c3d e23c 9087 e1bc
00000130: f930 25bd 6c00 623e 0d8c 0f3e 04c1 82bd
00000140: 8df1 763e 3642 4fbe 9401 653e 0f45 a3bd
00000150: aa23 423e 5920 ed3d 92ed 833e 2af6 ad3e
00000160: 88aa 1ebe 5ef7 82bb a462 103e edd9 973e
00000170: 2a69 17be 9151 82bc ed71 6cbe 0229 df3e
00000180: b959 d6bd 16d9 a43d 195e 4e3e 4688 db3c
00000190: 6b30 553d 69aa 3abe 6d82 b4be bb72 1a3c
000001a0: 6a5b 03be 61c0 ce3d dd5a 823e 17d9 1a3e
000001b0: 3356 27be 60f1 94be b31e 943d 1d20 283d
000001c0: 410a bf3d 06a5 be3d 6912 6b3e ecbe 1bbe
000001d0: c9bb 2ebe 1ecd 84be 53f4 2f3e 2359 4e3d
000001e0: f2fb 923e cd64 14be e0b2 2abe 1dd3 99bd
000001f0: 0cfd 05be 99d6 44be 096d 8d3e a94d f4bc
00000200: f2a8 3fbd db41 85be 250f 25bd 433d 87be
00000210: 0cbc 2d3e b1d0 133f 0751 283e 375b 10be
00000220: 2865 9c3d 6f74 593e 5a73 33be e827 cc3d
00000230: 1d38 863c 52bb 353e 6977 97be 3aeb bb3d
00000240: 545b bd3e 57c4 8ebe 78e6 ea3d ff0f 423e
00000250: 5413 5abc 8ffb 5bbe e679 50bb e7bc 01be
00000260: 9ab7 afbc 44eb 443e 922b 49bd 0ea0 663e
00000270: 5db4 86be 9049 9abd abb0 86be 152b 67bd
00000280: 58f3 d0bd 7fdd 3f3d c221 42be 4182 843b
00000290: 5162 aa3d 4608 c63d be00 9b3d ae64 473e
000002a0: 4679 383e 5e88 c53d 14c8 733d ef57 85be
000002b0: 35d9 44be 15aa 8bbd b4a2 5dbd 65e8 143e
000002c0: 45f6 bf3d 4e1c 82be d820 e0bd 9f1a 123e
000002d0: f7ef a8be e04e 38be 9a44 4ebe 7ced 6abd
000002e0: 0bec 18be c8b4 a63c 113d 203e c2d7 2abe
000002f0: 42fc af3c dcc6 0a3f e977 373c a74e 76bb
00000300: c2ac aabd d62a 81bd 7dd3 02be c607 bb3d
00000310: 8dcd 983e c430 0e3e 2262 393d 6c7e 7f3d
00000320: 2e66 d9bc 7208 83bd 874b 36bd 683b af3e
00000330: ca78 15bd 0896 d8bc bab6 bb3d 7814 0ebe
00000340: f34b aebe aaf6 17be e88e 203d f5aa 9dbe
00000350: 398d 3e3e 76ae d6be 6e09 a9bd bded b3bd
00000360: c3ce 23be d32e 8d3d 4f24 7fbe 0d06 19be
00000370: 9306 d9be 1b02 0cbf 04d5 2c3e c3c7 553e
00000380: 64d0 5c3e 5588 103c d161 c9bd cbb2 113e
00000390: 0236 56be 626e 8f3c 20be 643e 7407 5fbe
000003a0: 97ad a93c 03b8 563c edf0 e83d 69e2 353e
000003b0: 53e1 9e3b e37a 5a3e c31f dc3d e00e 6a3e
000003c0: b899 503d 01ef e6bd 0286 4dbd 85d1 aabe
000003d0: 4184 57be 2284 c83e 27b0 b7be 89d2 0abd
000003e0: cbf5 d83d 16f6 a13a 3230 5dbe b1e7 49be
000003f0: c9dd bcbd 039c 703c 3a3e 3d3d 070f 213d
0.16559999 -0.09341261 -0.023849064 -0.26073077 0.0375867 -0.15175481 0.06971722 0.0789928
-0.052139156 -0.0017874854 0.18993838 0.060128577 0.02877895 -0.17714983 0.0760353 0.36606544
0.2533368 -0.25298932 -0.05185209 0.21283509 -0.15412839 -0.28527233 0.17733903 0.021290157
-0.06397667 -0.28319418 -0.089703046 0.18244489 0.35336033 -0.009978117 -0.35620213 0.025751494
-0.09484891 -0.31392577 -0.09262103 0.27877074 0.0075686797 -0.008918165 0.27095756 -0.095426224
0.14580399 0.49890566 0.14063491 -0.14623894 0.05611368 0.28831795 -0.17462285 0.10692489
-0.32625696 0.06627949 0.0030535285 -0.006084228 -0.018617857 0.1541766 -0.17806597 0.22638361
0.100586385 0.082755536 0.50735664 0.18501271 -0.4249539 0.12630214 -0.17002843 0.10161548
0.0009910859 0.12702525 0.0937454 0.06491205 -0.14629059 0.16313575 0.1869863 -0.01714599
-0.022676112 0.10398834 0.02761703 -0.027530462 -0.040329907 0.22070473 0.14018269 -0.06384471
0.24115582 -0.20240101 0.22363883 -0.07972156 0.18958917 0.115784355 0.2576719 0.3397687
-0.1549474 -0.0039967736 0.14100128 0.29658452 -0.1478621 -0.015908035 -0.23090334 0.43585974
-0.10466332 0.08049218 0.20153083 0.026798379 0.052048128 -0.18229069 -0.35255757 0.009426768
-0.1282784 0.10095287 0.25459948 0.15121876 -0.16341476 -0.29090405 0.07232418 0.04104625
0.09328128 0.093088195 0.22956242 -0.1520955 -0.17063822 -0.25937742 0.17183046 0.050377976
0.28707844 -0.14491577 -0.16669798 -0.0751097 -0.13084811 -0.19222488 0.2762225 -0.029822187
-0.04679198 -0.26026806 -0.040297646 -0.26413926 0.16966265 0.5774031 0.1643716 -0.14097296
0.076364815 0.21235822 -0.17524472 0.09968549 0.016384179 0.17747238 -0.2958329 0.09175725
0.3698374 -0.2788417 0.1146974 0.18951415 -0.013310272 -0.2148268 -0.0031810938 -0.12669717
-0.021449853 0.19230372 -0.049113818 0.22521994 -0.2630948 -0.07533562 -0.26306662 -0.05643757
-0.10202664 0.046842095 -0.1895819 0.004043848 0.083195336 0.09669547 0.07568501 0.19472
0.18015012 0.096451506 0.05951698 -0.2604365 -0.19223483 -0.0681955 -0.054110244 0.14541776
0.09373144 -0.2541222 -0.109437644 0.14267968 -0.3299558 -0.17998838 -0.20143357 -0.05735539
-0.14933793 0.020349875 0.15648295 -0.16683868 0.02148259 0.54209685 0.011198022 -0.0037583502
-0.08333732 -0.063069984 -0.12775989 0.09132342 0.29844323 0.1388579 0.045259602 0.062376425
-0.02653798 -0.06398095 -0.044505622 0.3422501 -0.036492147 -0.026438728 0.09165712 -0.13874996
-0.3404232 -0.14840189 0.039198786 -0.30794492 0.1860856 -0.41929978 -0.08253752 -0.08785579
-0.15996842 0.06893697 -0.24916194 -0.14943714 -0.42387828 -0.5469071 0.16878134 0.20876984
0.2156387 0.008821567 -0.0983311 0.1422836 -0.2091904 0.01750869 0.22338152 -0.21780187
0.020712657 0.013105395 0.11374078 0.1776215 0.004848638 0.2133594 0.107482456 0.22857237
0.050927848 -0.11276055 -0.050176628 -0.33362976 -0.21046545 0.3916331 -0.3587658 -0.03389219
0.10593756 0.0012356665 -0.21600416 -0.1971729 -0.0922199 0.014685634 0.046201922 0.03932097

actor.0.bias f4 [64]
00000000: 2043 8eba 0000 0000 d407 f53a 0000 0000
00000010: 0000 0000 e1da a4bc 35c1 8131 2efa a73a
00000020: 0000 0000 e366 46bc 9e07 813c 1b5a 5ebc
00000030: fe08 ec3a 0000 0000 0000 0000 0942 bfbb
00000040: e77d 5a2d 1d93 d5ba 2826 4b37 ad45 86bc
00000050: 50cd ec3a 0000 0000 c712 26af 0000 0000
00000060: dba6 4ebc 906a 0bbb e315 9f3a 3729 3f3b
00000070: 0237 ca38 9717 6f3c 10c8 79bc b3af c13b
00000080: 0000 0000 1130 f03c 87b5 debb 603a 883b
00000090: 0000 0000 0000 0000 0000 0000 0000 0000
000000a0: fdf2 b3bb 0000 0000 5e7e ee39 f65b a4ba
000000b0: 0000 0000 0000 0000 0000 0000 d965 72bd
000000c0: c113 10bc 0000 0000 0000 0000 0000 0000
000000d0: 0000 0000 d599 63bd 0000 0000 ba05 2e3c
000000e0: 0000 0000 0000 0000 0000 0000 0000 0000
000000f0: 0000 0000 0000 0000 40ce bdb4 0244 013d
-0.0010853745 0.0 0.001869435 0.0 0.0 -0.0201239 3.7763592e-09 0.0012815648
0.0 -0.012109491 0.015750702 -0.0135712875 0.0018008051 0.0 0.0 -0.0058367294
1.2419821e-11 -0.0016294454 1.2108627e-05 -0.016390646 0.0018066559 0.0 -1.5104283e-10 0.0
-0.012613024 -0.0021273233 0.001213726 0.0029168853 9.6423566e-05 0.014593027 -0.0152454525 0.0059108376
0.0 0.029319795 -0.006796542 0.0041573495 0.0 0.0 0.0 0.0
-0.005491613 0.0 0.00045489048 -0.0012539614 0.0 0.0 0.0 -0.05917916
-0.008793772 0.0 0.0 0.0 0.0 -0.055566628 0.0 0.0106214825
0.0 0.0 0.0 0.0 0.0 0.0 -3.535406e-07 0.031558998

actor.2.weight f4 [64, 64]
00000000: 6942 fd3d 4ec3 80be e523 423c a476 71bd
00000010: ce15 40bd b1b6 183d acbd 123e c489 1e3e
00000020: 74a5 e9bb 5469 5abe 8bd6 c6bd b455 38be
00000030: 4237 57be 65ba 35be bd6d 94bd e70e cc3d
00000040: e2f3 28be 2ad8 0c3e ff18 ea3b afe4 d33d
00000050: f6c6 883d b38f d8ba 6ceb bebd ef34 8abe
00000060: 2771 dd3c 2ed3 adbd b3f1 99be 36ee 1fbd
00000070: 6680 d73d 65c8 30be 6c2c e73d 7d6f 64bd
00000080: 0185 2fbe 2016 2fbe 5436 813d 2ffd 513e
00000090: d84a 58be cfb5 7f3c ed5e a93d 8cf9 40be
000000a0: 4a3d 373e 007a c43e 11cc d6bd 200b 5bbe
000000b0: becb 703d 68f4 a8bd 4dfe ca3c 7406 f03e
000000c0: dde5 cb3e ae91 683d 6ee6 42be d819 8d3e
000000d0: 0929 293d c362 8cbd 9dbb 04bd e3c0 133e
000000e0: 0f33 89be b1a7 5b3e 51fb aa3c 8b5a a63e
000000f0: 13f0 0cbd dcfe d9be 5b30 a5be af0c 0e3d
00000100: 0e8a d9bc 38b8 533d e62a 08be 5bf4 4e3e
00000110: 1eb2 a7bb 5e79 d73d a9eb b23d a62e 8d3d
00000120: 51fa 863c db5a e73d b18c 073f f825 a6bd
00000130: 49b8 d43d eafc b03d 84c2 87be 9bf6 82bc
00000140: 54b9 ba3e 9916 413d 8a9e 9cbd 0d3d 1b3e
00000150: e5e6 ae3c 3943 24bd c6bc 18bd 6d29 8e3d
00000160: 7788 ca3d fc89 90be 9521 68bd 68e7 36be
00000170: 64da 1ebe dfac 803e ce13 b1bd 35a2 4bbd
00000180: 960b 40be 7a0e 9b3d f85d 76bc cf28 293e
00000190: 2439 cd3c d486 e5be 7398 b63d 0722 cabc
000001a0: fc49 c93d 615f a63d e952 b13d ad72 213e
000001b0: 700a bb3e b5e9 a23e 6a25 fe3d 4231 a2be
000001c0: 361b 4abe 0a94 e3bd b78e 91be a1c5 583e
000001d0: 4722 81be da18 8f3d 6fb6 36bd 076b 993e
000001e0: 51b9 c1bc d572 803c 096a a93e abc8 563e
000001f0: be86 b3bd f429 8f3e 94eb 7dbe 522e 2c3d
00000200: 6257 7f3e 5141 debd be58 57bd 82e7 88be
00000210: 8301 61bd 9816 9d3c 6aa9 e73d d045 d9bd
00000220: e072 94be 0259 573e f046 62bd e05a f53d
00000230: 5261 243d fe1c 99bc 9c00 0fbe 37f8 443e
00000240: 87bc 7e3d f05e 713b 2c07 26be 1544 1d3d
00000250: 09c0 30bd bf89 83be 257b 613e b48b db3d
00000260: 8c02 b53e e79c f3bd a7fa afbe 0891 c6be
00000270: 2eb1 f13d 2ae8 a2bd db2f 7fbe ff77 90be
00000280: 7675 563e ee93 f43d 4390 b0bd 7023 11bd
00000290: 1596 f7bd eeb4 813e 1168 713d 2385 5b3e
000002a0: d10d 2a3e e851 1bbe 6937 b73d 3bf5 36be
000002b0: 755e 313e b56b f0bd dea3 38bd 7bd1 ff3b
000002c0: a511 893e 06d8 b3be 05dd 693e 2451 a03d
000002d0: e44a 32be 3627 82bc de8a 6e3d bdd9 523e
000002e0: bab3 d3bc bdb4 c43c 9816 8ebe 43a1 a4be
000002f0: 8adf 9bbd ec98 743e 5d47 7c3d 7ac6 b13c
00000300: c86c 51be 1feb 90be 48d4 e13d ab64 c3bb
00000310: a76e 4fbe 4703 e43e df09 be3d 035b 95bc
00000320: b900 8b3d 5df3 803c e13f 89bd 2fd8 86be
00000330: cf41 efbc 51ed 143d 47c2 69be 9a2d 133e
00000340: 7b2e 953d eb3f 2abe f914 d43d 4565 aabe
00000350: cac7 28be ab6a 0d3c cd70 4bbe b44a d93d
00000360: 8b2f a4be f54c 983d 8d46 3ebe cda4 703e
00000370: 4fe6 89be 4ef7 a73e d633 71be 7832 333d
00000380: b3c2 8cbd 5c8b 01be c3a5 8ebd 989f 923e
00000390: c10f b6bd bd21 853e 9e32 27be a4b2 88be
000003a0: 2d23 b03d eb4d 8cbd a2aa e5bd 54a5 1b3d
000003b0: 0234 3a3d e35d 86bd 25d8 f7bd cb57 d03d
000003c0: 8433 743e 2104 b2bd 0b19 363d fef7 573e
000003d0: 08cf ca3d 45d8 ec3c 1bf7 77bd 043f a4bd
000003e0: 1a01 133e 3481 4fbe 90bc 7d3e bdf0 2dbe
000003f0: 7423 45be 6a29 843e 2aa8 833e 80f2 e33d
0.12366182 -0.25149006 0.011849378 -0.058951035 -0.046895795 0.037283603 0.14330167 0.15482241
-0.0071303193 -0.21329242 -0.097088896 -0.18001443 -0.21017173 -0.17746885 -0.072474934 0.0996378
-0.16499284 0.13754335 0.007144093 0.10346352 0.06678574 -0.0016522318 -0.09322247 -0.2699351
0.027031494 -0.08487545 -0.30067214 -0.039045535 0.10522537 -0.17263944 0.1128777 -0.055770386
-0.1714058 -0.17098284 0.063091904 0.20506738 -0.211223 0.015607311 0.08270059 -0.18845195
0.17894474 0.3837433 -0.10488141 -0.21390963 0.058788054 -0.08249742 0.024779463 0.46879923
0.3982381 0.056779556 -0.19033214 0.2755878 0.0412989 -0.06854775 -0.032405484 0.14429049
-0.26796767 0.21450688 0.02087179 0.32490954 -0.03440864 -0.42577255 -0.32263455 0.034680065
-0.026555087 0.051689357 -0.13297614 0.20210402 -0.005117669 0.10521196 0.08736355 0.06893663
0.016476782 0.11296626 0.52949053 -0.08112711 0.10386712 0.086419895 -0.2651559 -0.015986731
0.3646952 0.04714069 -0.076474264 0.15160008 0.021350333 -0.04010317 -0.037289403 0.06941495
0.0988931 -0.28230274 -0.05667265 -0.17861712 -0.15512997 0.2513189 -0.086463556 -0.04971524
-0.1875442 0.075711206 -0.015037052 0.16519473 0.02505166 -0.44829428 0.08915796 -0.024674429
0.098285645 0.08123661 0.08658392 0.15766402 0.365314 0.3181893 0.1240948 -0.31678206
-0.19736943 -0.111122206 -0.28429195 0.2116914 -0.25221464 0.06987162 -0.044607576 0.29964468
-0.023647936 0.015679756 0.3308871 0.20974986 -0.087659344 0.27961695 -0.24796897 0.042036362
0.24935678 -0.10852302 -0.052574866 -0.26739126 -0.054933082 0.019175813 0.1131161 -0.10609019
-0.28993893 0.21030048 -0.055243433 0.11980224 0.040131874 -0.018690582 -0.13965076 0.19235311
0.062191512 0.0036830269 -0.16213673 0.038395006 -0.04315189 -0.2569103 0.22019632 0.10720006
0.35353506 -0.11895161 -0.3437092 -0.38782525 0.118013725 -0.07954438 -0.24920599 -0.2821655
0.20943245 0.11942278 -0.08621266 -0.035434186 -0.12089173 0.2533335 0.058937136 0.21437506
0.16606833 -0.15167964 0.089461155 -0.17866985 0.17321189 -0.117392935 -0.04507815 0.0078069544
0.26771274 -0.3512575 0.22838219 0.07827976 -0.17411381 -0.015887838 0.058237903 0.20590873
-0.025842536 0.024011964 -0.27751613 -0.32154283 -0.07610996 0.2388646 0.061591495 0.021701086
-0.20451653 -0.28304383 0.110268176 -0.0059629283 -0.20257054 0.4453375 0.092792265 -0.018231874
0.06787247 0.015741045 -0.06701637 -0.2633681 -0.029206185 0.036359135 -0.22828017 0.14372864
0.07284256 -0.16625945 0.10355563 -0.33280388 -0.16482463 0.008631389 -0.19867249 0.106099516
-0.32067522 0.074365534 -0.185816 0.23500367 -0.26933524 0.32805866 -0.2355493 0.043749303
-0.068730734 -0.12650818 -0.0696521 0.28637385 -0.088897236 0.26002303 -0.16327903 -0.26698792
0.08600459 -0.06850799 -0.11214186 0.037999466 0.045459755 -0.06560876 -0.12101773 0.10172995
0.23847777 -0.08692194 0.044457477 0.21090695 0.09902769 0.02891172 -0.060538393 -0.08019832
0.14355889 -0.20264131 0.24778962 -0.16986366 -0.19251806 0.25812846 0.25714236 0.111302376

actor.2.bias f4 [64]
00000000: d82d 1e3c 99f2 693c d9c1 f0bb 8044 103c
00000010: 0c51 1e3d 5e2d 0a3c 6110 393b 1a88 b63c
00000020: 0670 9d3b b6c8 9cbc d613 a13c 8371 163d
00000030: 58c9 8c3b 03db 49bd 8928 083d 680d b3bc
00000040: a883 183c 9fbc 4a3c 021a b43a 798c e03b
00000050: b751 2c3d 236a cd3c 42ec 5cbd 3692 c23c
00000060: d56a 13bc 2f52 b83c 9f40 de3b 0688 32bc
00000070: 8e3f ac3c b786 143d 2c6a e9bc 93e0 993a
00000080: 3b05 703b 4087 e3bb f9aa 013c cdaf b23c
00000090: db3e b33c 6fdb 6abc 9843 1fbd 11be 8fbb
000000a0: 60be 523c ecc0 92bd 23b9 b13a c7f3 58bd
000000b0: f2f6 c83c 353f 813c f996 03bb ddda e83c
000000c0: aa78 f5bb fbfa c8bb 882e 41bb ce4a eaba
000000d0: 09cb 30bc 4802 f7bb 846a 9fbc 4e7f 733d
000000e0: 15e0 a03c 43a6 e3bc 1a40 91bc e9c7 e43c
000000f0: ff3d 333c 796e 03bc 5d86 e73b 291b 0cbc
0.009654485 0.014279031 -0.007347327 0.008805394 0.03865151 0.008433668 0.0028238522 0.022281695
0.004804614 -0.019138675 0.019662779 0.036729347 0.004296463 -0.04928113 0.033241782 -0.021856979
0.009308733 0.012374072 0.0013740661 0.006852683 0.042070117 0.025075024 -0.05393625 0.02375136
-0.008997639 0.022500126 0.006782606 -0.010896688 0.021026399 0.036261287 -0.02849301 0.0011739902
0.0036624211 -0.0069436133 0.007914298 0.021812344 0.021880558 -0.014334544 -0.03888282 -0.0043866714
0.012862772 -0.07165703 0.0013559203 -0.05296686 0.024531815 0.01577721 -0.0020079 0.028424675
-0.007491191 -0.006133435 -0.0029477198 -0.0017875077 -0.010790595 -0.0075381137 -0.01945997 0.05944758
0.0196381 -0.02778924 -0.017730761 0.027927356 0.010940074 -0.008021944 0.007065578 -0.008551397

actor.4.weight f4 [2, 64]
00000000: 702e 6ebd 3386 cd3d f186 3bbc 2571 26bc
00000010: fdf1 883d 7252 6fbd 9179 cebd 3d7a 763e
00000020: 5be1 11bc 21ae 04b9 17c2 1a3e b5fc 453d
00000030: b8ce c5bd 40d5 2abe 765a be3c a286 1ebe
00000040: d320 673e 1e5a 8a3d 8635 78bc d558 8c3c
00000050: f80d 8c3e 8a89 3b3e ecd5 36be 58fa 1d3e
00000060: 489e 94bd 6be0 ff3d 01fb 4c3e 9d2c 3cbc
00000070: f032 ad3e 8cc1 943e de65 32be 7a41 063c
00000080: 8c0d 963d 3ce8 2ebd 6a40 f3bd b843 56bd
00000090: eb1c 3d3d aa7f debc d77a 97bd 050b c6bc
000000a0: 0c35 5ebe 5c61 73be 202e 623d 3b84 aebe
000000b0: cdf4 823c 9bc1 ea3c f6d3 8fbc b713 b23e
000000c0: 9974 9b3e d068 163e cca4 4e3e c535 04be
000000d0: cc7e 04be dc06 b5bb 9533 d9bc 6969 8c3d
000000e0: 5ada 503e ace0 b43d 13dc 773e c6b6 d7bd
000000f0: 9a42 5cbc 6611 4a3d 0ede 373c bf23 aebe
00000100: 7745 803d 1e4a cdbd 3e1d 5a3c ed50 2a3c
00000110: cb8c 86bd 5eff 683d 050c cc3d a76b 76be
00000120: 1c39 423c d091 b3b8 b6c7 1abe 07bf 3cbd
00000130: 9c52 c43d 6332 2d3e c3c5 c1bc 2bb7 1f3e
00000140: c09d 68be 262a 8dbd 6b88 613c 79ba 75bc
00000150: fb3c 8bbe a9bc 3cbe 2496 363e 3fb7 1dbe
00000160: cffc 943d e356 fdbd 83c5 4cbe 398e 343c
00000170: be88 aebe 53a3 93be 97e7 2e3e 7b70 17bc
00000180: decc 9bbd e8f1 363d 1f9e f33d 27b8 5b3d
00000190: 75f3 2cbd 4547 d63c c824 983d 3ea6 e03c
000001a0: 4f00 5d3e 8813 723e ce20 68bd 7e0a ae3e
000001b0: abf5 a2bc 461c eebc cbf0 853c 6729 b1be
000001c0: 9765 9bbe 8c7f 16be 8959 4cbe 647d 033e
000001d0: 0a43 073e 6451 f93b 5639 c53c ce08 88bd
000001e0: 8ce6 4ebe 9b58 b9bd 9b89 78be 962e d63d
000001f0: 1fd8 7a3c a562 47bd 5569 24bc d44d ae3e
-0.058149755 0.10035362 -0.011445747 -0.010158812 0.066867806 -0.058428235 -0.10081781 0.24070068
-0.008903827 -0.00012653369 0.15113102 0.048336703 -0.09658569 -0.16682911 0.023236495 -0.15481046
0.22571115 0.0675547 -0.01514948 0.017132202 0.27354407 0.18314186 -0.17855042 0.1542753
-0.07256752 0.12493976 0.20017625 -0.011485246 0.33827925 0.29053915 -0.17421672 0.008194322
0.073268026 -0.042701945 -0.118775204 -0.052310675 0.046170156 -0.027160484 -0.07396477 -0.024175176
-0.21699923 -0.23767608 0.05521977 -0.3408526 0.01598587 0.028656771 -0.017557126 0.34780666
0.30362394 0.1468842 0.20180053 -0.12911136 -0.12938994 -0.0055244993 -0.026513854 0.06856043
0.20395795 0.08831915 0.24205045 -0.10532908 -0.013443613 0.049333 0.011222376 -0.34011647
0.06263249 -0.10023902 0.013312636 0.010395271 -0.06569823 0.056884162 0.0996323 -0.24064504
0.011854436 -8.562545e-05 -0.15115246 -0.046080615 0.09586069 0.16913752 -0.02365387 0.15597217
-0.22716427 -0.06892805 0.013765435 -0.014998072 -0.27194962 -0.18431343 0.17830712 -0.15401934
0.07274782 -0.12370088 -0.1999722 0.011020237 -0.340887 -0.28835544 0.17080532 -0.009243126
-0.07607435 0.044664294 0.118953936 0.05364242 -0.042224366 0.02615703 0.074288905 0.02742302
0.21582149 0.23640263 -0.05667191 0.3399238 -0.019892534 -0.029066216 0.01635017 -0.346019
-0.30350944 -0.14697093 -0.1995603 0.12840801 0.13209167 0.0076085795 0.024075191 -0.06642304
-0.20205134 -0.09050103 -0.24271242 0.10458104 0.015310316 -0.04867806 -0.010034879 0.34043753

actor.4.bias f4 [2]
00000000: 983c 0b3c 793c 0bbc
0.008498333 -0.0084983045
