Upload/src/Catcher_Flappy_Continuous/wandb/run-20241023_104404-5r3zg15a/files/flappy_agent_inacc_state_inacc_r.pt (torch, 105039 bytes, 8 tensors)

network.0.weight f4 [128, 5]
0.35208797 0.67620015 -0.22795834 0.20838366 -0.44315302 0.06996067 -0.4822795 0.15481023
0.0067351456 -0.19526789 0.2851986 -0.33745843 0.05711182 -0.2938789 -0.020201864 -0.15596355
-0.1755084 -0.1676289 0.20140938 -0.10843054 -0.16654512 -0.27009973 -0.07495999 -0.19290143
-0.14330894 -0.001398461 0.9324829 0.07665803 -0.3762997 0.26503268 0.034066767 0.4675775
0.2025853 -0.4824587 -0.51185894 -0.21570547 0.39270347 -0.07449192 0.19138926 -0.20782527
0.4090127 -0.4255104 0.42681748 -0.068744965 -0.33303547 0.36021048 -0.1619356 0.040283065
-0.34291646 -0.015142927 -0.46975508 -0.34568375 -0.11829811 -0.3140111 0.2644338 0.07420996
-0.06221319 -0.8302061 0.012335577 -0.078617476 -0.23845339 0.3254458 0.37442473 0.52059144
-0.31535277 -0.07361403 -0.008663356 0.06531888 -0.33939856 -0.31735277 0.18143705 0.19931993
-0.22000986 -0.070505984 -0.090324916 0.032664165 -0.107361734 -0.039489307 -0.67446333 0.02883834
-0.40841818 -1.2030289 -0.1879512 -0.18584529 0.1435399 -0.078786425 -0.47627783 0.114832945
-0.31894365 0.06187948 0.05739707 -0.7903835 0.16432032 0.12420538 -0.3572063 -0.21219045
0.15248895 0.08010602 -0.1902324 -0.13537866 0.22701705 1.0194019 -0.03812742 0.37916276
-0.5129036 -0.4335138 0.6685442 -0.12135129 0.31950232 0.124272674 -0.017369203 0.42304328
0.21560448 -0.5253695 -0.08188711 0.38941503 0.9912614 -0.27919015 -0.036261655 -0.33260435
-0.53160805 -0.22897431 0.2557833 -0.255926 0.11896895 -0.36347532 -0.7755255 -0.21966954
0.10570076 0.32840455 -0.275235 0.86781484 0.033050995 -0.036099367 -0.028070996 0.5047424
0.72957593 0.019899804 -0.23908234 -0.30770814 -0.15566498 -0.12044036 -1.8407153 0.07205965
0.09272505 -0.2274102 0.18181698 -0.2130324 -0.016055608 0.055763863 -0.1514501 0.43693912
-0.051701337 -0.015364468 -0.422116 -0.23526871 -0.24199297 -0.2234791 0.3027796 -0.1617124
-0.53651464 -0.18463044 0.44879085 0.35510805 -0.22946152 0.09696263 -0.16280839 -0.100477576
-0.35639274 -0.2038225 -1.5961676 0.42186663 -0.18624707 -0.17851251 0.18339355 -0.00014288747
0.92984897 -0.12630738 -0.37157342 0.30307662 -0.111831754 -0.036155134 -0.38527405 -0.08833748
-0.28844732 0.5451809 0.023946512 -0.2366804 -0.2819654 -0.2526581 -0.25897038 -0.08350916
-0.44017884 -0.24801949 0.10096328 -0.5600629 -0.038782682 0.60765725 0.43724144 -0.3513244
-0.12317646 -0.10795682 0.101775564 -0.4913907 0.008136991 -0.17739213 0.28039563 -0.17471549
-0.087288894 0.0541094 -0.15754862 0.3791978 -0.62049377 0.0094670905 0.17685746 0.118723944
0.6612909 -0.37720445 -0.32174984 0.3297945 -0.19305483 0.06615967 -0.71814257 -0.2003362
0.2701263 -0.3610947 0.3305978 0.2530395 0.1588902 0.25631604 -0.2514286 -0.0053474833
0.4734869 0.2570148 -0.27788147 0.12161048 -0.05038458 0.48018906 0.27585605 -0.4069086
-0.34822753 -0.018824305 0.16574496 -0.034607828 -0.24883538 0.0063730134 -0.79663455 -0.41323504
-0.38198027 0.3719987 0.17401215 -1.0428642 -0.039581943 -0.07398681 -0.16635296 -0.33007276
00000000: e044 b43e 741b 2d3f e96d 69be 8762 553e
00000010: f4e4 e2be 8a47 8f3d 57ed f6be 9386 1e3e
00000020: 7fb2 dc3b 4ef4 47be 8d05 923e 5ac7 acbe
00000030: 15ee 693d 4c77 96be 617e a5bc e9b4 1fbe
00000040: 79b8 33be e9a6 2bbe 433e 4e3e d510 debd
00000050: ce8a 2abe 834a 8abe a084 99bd f487 45be
00000060: 94bf 12be 914c b7ba 33b7 6e3f e3fe 9c3d
00000070: 5baa c0be 5db2 873e 9889 0b3d 5166 ef3e
00000080: 8572 4f3e d404 f7be 3009 03bf e5e1 5cbe
00000090: 6e10 c93e 388f 98bd 8cfb 433e 26d0 54be
000000a0: 1d6a d13e 80dc d9be d287 da3e 29ca 8cbd
000000b0: a083 aabe 826d b83e 72d2 25be dbff 243d
000000c0: bf92 afbe 0a1a 78bc bd83 f0be 76fd b0be
000000d0: 4846 f2bd 10c6 a0be de63 873e 64fb 973d
000000e0: 42d3 7ebd 6388 54bf 291b 4a3c 3302 a1bd
000000f0: 202d 74be d5a0 a63e 99b4 bf3e 7b45 053f
00000100: eb75 a1be f4c2 96bd c0f0 0dbc e8c5 853d
00000110: a6c5 adbe 107c a2be a2ca 393e 861a 4c3e
00000120: 444a 61be 7165 90bd 45fc b8bd dcca 053d
00000130: 78e0 dbbd 8abf 21bd a1a9 2cbf 623e ec3c
00000140: 301c d1be dafc 99bf 4876 40be 3a4e 3ebe
00000150: 20fc 123e c75a a1bd b0da f3be 892d eb3d
00000160: 954c a3be 5675 7d3d 3119 6b3d 9356 4abf
00000170: 9643 283e 645f fe3d bfe3 b6be 7448 59be
00000180: 1026 1c3e a00e a43d 48cc 42be b4a0 0abe
00000190: 2877 683e c37b 823f 7f2b 1cbd 9f21 c23e
000001a0: a64d 03bf 85f5 ddbe b625 2b3f 0687 f8bd
000001b0: cf95 a33e ac82 fe3d dc49 8ebc 2199 d83e
000001c0: 6cc7 5c3e 9e7e 06bf 6eb4 a7bd 6861 c73e
000001d0: 4fc3 7d3f 03f2 8ebe 1a87 14bd 1e4b aabe
000001e0: 7717 08bf 3e78 6abe 07f6 823e bc08 83be
000001f0: fea5 f33d 7019 babe d788 46bf 0df1 60be
00000200: a479 d83d a424 a83e 9aeb 8cbe 1d29 5e3f
00000210: 7b60 073d eedc 13bd 25f5 e5bc cc36 013f
00000220: 7dc5 3a3f ea04 a33c 00d2 74be ec8b 9dbe
00000230: a466 1fbe 6fa9 f6bd 8f9c ebbf 0394 933d
00000240: a2e6 bd3d 38de 68be 3b2e 3a3e 2a25 5abe
00000250: 0d87 83bc a668 643d bc15 1bbe 7cb6 df3e
00000260: c8c4 53bd 40bb 7bbc 971f d8be 48ea 70be
00000270: 01cd 77be b5d7 64be ed05 9b3e ef97 25be
00000280: 0659 09bf c30f 3dbe eac7 e53e b9d0 b53e
00000290: f6f7 6abe 5894 c63d 3eb7 26be 30c7 cdbd
000002a0: 1c79 b6be d8b6 50be 384f ccbf e7fe d73e
000002b0: 8db7 3ebe fccb 36be 85cb 3b3e 10d4 15b9
000002c0: 950a 6e3f b956 01be df3e bebe dc2c 9b3e
000002d0: 0c08 e5bd 6817 14bd a442 c5be 48ea b4bd
000002e0: 5eaf 93be fa90 0b3f 7a2b c43c 595c 72be
000002f0: c55d 90be 675c 81be c497 84be da06 abbd
00000300: 1f5f e1be d2f8 7dbe d6c5 ce3d 4860 0fbf
00000310: 97da 1ebd 6d8f 1b3f 1cde df3e cbe0 b3be
00000320: f143 fcbd 7718 ddbd b56f d03d 9097 fbbe
00000330: 0451 053c 48a6 35be 0490 8f3e 9ee8 32be
00000340: 85c4 b2bd d1a1 5d3d 6d54 21be 3726 c23e
00000350: aed8 1ebf db1b 1b3c 1f1a 353e 8a25 f33d
00000360: 5c4a 293f f120 c1be 65bc a4be d3da a83e
00000370: 2ab0 45be b97e 873d 31d8 37bf ef24 4dbe
00000380: ff4d 8a3e 68e1 b8be 1d44 a93e 658e 813e
00000390: 1db4 223e db3b 833e 40bb 80be f139 afbb
000003a0: e06c f23e 7297 833e 7b46 8ebe ea0e f93d
000003b0: 1060 4ebd 57db f53e 013d 8d3e 5356 d0be
000003c0: e14a b2be 6e35 9abc 0cb9 293e f0c0 0dbd
000003d0: b4ce 7ebe b6d4 d03b 3ef0 4bbf 8b93 d3be
000003e0: eb92 c3be 9d76 be3e 3e30 323e 937c 85bf
000003f0: ad20 22bd 6686 97bd 6e58 2abe 4cff a8be

network.0.bias f4 [128]
-0.07976724 -0.38731182 0.4700124 0.059466973 0.28490305 0.11813203 -0.43382663 0.42251158
-0.5171727 0.1227218 -0.458734 0.006411425 -0.6736221 -0.22047381 -0.6238131 -0.4242713
-0.33129165 0.27800205 -0.17503822 0.13632339 -0.9353029 0.43738312 -0.20593308 -0.61345786
0.103955425 -0.12105372 0.1571313 -0.25997052 -0.38730267 -0.52343774 0.1937232 -0.066440664
-0.4976303 0.08292097 -0.2479381 0.13904884 -0.2274886 -0.13684219 0.14968942 -0.3072445
0.092617705 0.22246638 -0.4042788 -0.1599 0.08916854 -0.5424663 -0.23063564 -0.24393642
-0.21479116 -0.23248823 0.02828132 -0.60208434 -0.5744934 -0.11760625 -0.48172754 -0.43478012
-0.2516303 -0.50653535 0.16317944 0.31480134 -0.46220568 -0.5030808 0.102777496 0.10475337
-0.01455097 -0.16085026 0.08664413 0.63636506 0.27089068 -0.34198672 -0.11939738 -0.13008551
0.18259066 0.13689454 -0.1074809 -0.38993993 -0.5007303 0.3751699 -0.16913843 -0.42971453
0.32519084 0.59560084 0.039304633 -0.6704363 -0.2538427 0.25220716 -0.038711883 -0.3488744
0.34303877 -0.2883592 0.25280857 0.2937644 -0.3614834 -0.37715966 0.017264921 0.06516739
0.08639509 -0.7184701 0.13828102 -0.02363946 -0.39307955 -0.3201409 0.109335706 0.16742724
-0.5755929 0.2536044 0.22307864 0.34325543 0.1792535 -0.2714498 0.18452823 0.35011446
0.40036032 -0.18377063 -0.32618043 0.35429084 0.2424732 0.067400426 -0.4547822 -0.17710093
-0.46838585 -0.40068743 0.27629676 -0.6760438 -0.50600004 -0.31999603 -0.36780617 0.10424578
00000000: 025d a3bd bc4d c6be 77a5 f03e a493 733d
00000010: d0de 913e 35ef f13d 861e debe 7053 d83e
00000020: 6e65 04bf 9155 fb3d 2fdf eabe ee16 d23b
00000030: 7f72 2cbf e3c3 61be 37b2 1fbf 163a d9be
00000040: 0f9f a9be 4956 8e3e 383d 33be 5c98 0b3e
00000050: 0370 6fbf aef0 df3e 1fe0 52be 930b 1dbf
00000060: 95e6 d43d 03eb f7bd 07e7 203e db1a 85be
00000070: 894c c6be 0400 06bf 605f 463e 0b12 88bd
00000080: 66c9 febe 78d2 a93d 7ce3 7dbe d262 0e3e
00000090: c6f2 68be 5c20 0cbe 2f48 193e 274f 9dbe
000000a0: 5aae bd3d 3ace 633e a2fd cebe d3bc 23be
000000b0: ff9d b63d 12df 0abf c02b 6cbe 78ca 79be
000000c0: 37f2 5bbe 6511 6ebe 3aae e73c 3322 1abf
000000d0: 0012 13bf 8cdb f0bd fea4 f6be 809b debe
000000e0: b0d5 80be 4dac 01bf 8318 273e a42d a13e
000000f0: 39a6 ecbe e7c9 00bf 027d d23d ef88 d63d
00000100: 3167 6ebc eeb5 24be 7a72 b13d d2e8 223f
00000110: 2fb2 8a3e e218 afbe 9d86 f4bd 2335 05be
00000120: 0cf9 3a3e 152e 0c3e f21e dcbd 35a6 c7be
00000130: dc2f 00bf 4516 c03e a032 2dbe 8b03 dcbe
00000140: 6a7f a63e 4c79 183f e5fd 203d b7a1 2bbf
00000150: acf7 81be 4c21 813e 5a90 1ebd aa9f b2be
00000160: c7a2 af3e d1a3 93be 2070 813e 4a68 963e
00000170: 5a14 b9be 121b c1be 2a6f 8d3c 7b76 853d
00000180: e9ef b03d a8ed 37bf 8a99 0d3e 8aa7 c1bc
00000190: b941 c9be 82e9 a3be 66eb df3d 0c72 2b3e
000001a0: 0e5a 13bf 70d8 813e ba6e 643e 2dbf af3e
000001b0: 3b8e 373e 78fb 8abe f8f4 3c3e 3442 b33e
000001c0: 07fc cc3e 5e2e 3cbe 1f01 a7be 9c65 b53e
000001d0: e54a 783e 3c09 8a3d 36d9 e8be f259 35be
000001e0: 45d0 efbe e726 cdbe c576 8d3e 3511 2dbf
000001f0: 3889 01bf 85d6 a3be 1751 bcbe d07e d53d

network.2.weight f4 [128, 128]
-0.08909202 0.0051684394 -0.075347215 -0.0070547527 -0.08058589 0.01686451 0.06439483 -0.03154777
-0.021346968 -0.06729123 -0.07442021 -0.060045734 -0.06564198 0.016778052 -0.037368752 -0.03444253
-0.0016996841 -0.075231954 -0.09373363 -0.063528575 0.031697374 0.012901107 -0.12493948 -0.031289265
-0.024959562 0.027972221 0.076114714 0.001525066 0.07248921 -0.057174418 -0.002888009 -0.08186288
0.021305097 0.08158737 0.046586927 0.06185458 -0.0398268 0.04925768 0.0032765197 0.050424006
-0.094774984 -0.05199208 -0.0011061069 -0.06922858 -0.03415369 -0.032034878 -0.022485064 -0.00775511
0.06316865 0.059955135 0.019099275 0.005629001 0.04805037 0.07034322 -0.06493422 0.04026068
-0.019542756 -0.0612982 -0.04334307 -0.020871386 -0.039415084 -0.03725667 0.0028275226 0.051680703
-0.0028543656 -0.085595414 0.008946735 -0.074222796 0.12080324 -0.08540789 -0.03905576 0.040512312
0.02180806 -0.057299357 -0.11849925 -0.032193977 0.096712075 -0.08803319 -0.09477998 -0.022509247
-0.01812736 0.049112976 -0.111185215 -0.03936732 -0.105667844 -0.006887725 -0.046992313 0.0036846632
-0.109788515 -0.077511564 -0.07962235 -0.051274385 0.037003163 -0.060263906 -0.076419115 0.03373292
-0.039060455 0.029754454 -0.06551169 -0.11478396 0.019412503 0.055038653 -0.09439681 0.009200901
0.20465825 0.010144807 -0.04558435 -0.015008829 -0.06861904 -0.005878625 -0.04847808 -0.07303066
0.011204241 -0.10113935 0.020122938 0.06295916 0.047223315 -0.08054187 0.022253828 0.042885084
-0.05078747 0.016519256 0.062456533 0.044538043 0.026962087 0.011936133 -0.042308256 -0.049279854
-0.05893932 0.051872 -0.041996174 -0.007814072 -0.082429655 -0.051550005 -0.024934351 -0.057031546
0.04876408 -0.0992288 -0.020541877 -0.01575439 -0.0876419 0.05344083 -0.06270583 0.012765831
0.04933121 0.07001732 0.0023580992 0.066356294 0.06404424 -0.017406303 -0.042192582 -0.051774237
0.009895367 0.004943017 -0.091291435 0.048432007 0.001306499 -0.10169988 0.028311566 0.05609245
0.025112182 0.072149046 0.0018272996 -0.113469 -0.00020050257 0.046901766 -0.04263655 0.029778814
0.012631698 -0.014341056 -0.010946085 -0.0013956934 -0.060484856 0.027850265 0.039837405 0.026613263
0.08832409 -0.03136046 -0.082243 -0.00386896 -0.04681636 0.031202123 0.059354916 -0.048377912
-0.018833244 0.07070813 -0.07239346 -0.015252575 0.07903665 0.055190157 0.0053193215 -0.057161
-0.0082394555 -0.07926001 -0.10178621 -0.08281411 0.085625574 0.069909014 0.006017363 -0.051073864
0.07610164 -0.039204728 0.061361752 -0.028099185 -0.0543395 -0.05353181 -0.04799375 -0.10148235
0.026431628 -0.026930183 0.019529693 0.036392014 -0.02195261 0.005431541 0.024961473 0.04155197
-0.05700241 -0.0077601 -0.06868275 0.045391012 -0.10278553 -0.06334825 -0.016457837 0.06090165
0.05210747 -0.09797347 -0.09770544 0.054611243 0.012881339 -0.0757052 -0.042250738 0.0386421
-0.02639053 -0.06789362 -0.07846569 -0.04578824 -0.0034621507 0.012184002 0.04243777 -0.042938314
-0.04431218 -0.075546674 0.05105441 0.08820752 0.060251124 0.029045897 -0.033404555 -0.037691716
0.009557984 -0.07661582 0.00535894 -0.082137845 -0.10474161 -0.027905213 -0.045719244 -0.055990506
00000000: e175 b6bd 035c a93b a44f 9abd 8e2b e7bb
00000010: 370a a5bd 7127 8a3c 70e1 833d 3c38 01bd
00000020: d6df aebc fccf 89bd a069 98bd 84f2 75bd
00000030: 4d6f 86bd 2072 893c fa0f 19bd 9c13 0dbd
00000040: efc7 deba 3613 9abd 6bf7 bfbd 451b 82bd
00000050: 1bd5 013d 2a5f 533c 45e0 ffbd 2c29 00bd
00000060: ff77 ccbc 0026 e53c 08e2 9b3d b9e4 c73a
00000070: 3975 943d b92f 6abd c044 3dbb baa7 a7bd
00000080: 0788 ae3c 4717 a73d efd1 3e3d 3a5b 7d3d
00000090: 6d21 23bd 6cc2 493d e1ba 563b 6789 4e3d
000000a0: 6319 c2bd a6f5 54bd cafa 90ba b7c7 8dbd
000000b0: bde4 0bbd 0137 03bd 9932 b8bc 941e febb
000000c0: 915e 813d 8493 753d 1576 9c3c 7c73 b83b
000000d0: 77d0 443d 1b10 903d 3bfc 84bd 62e8 243d
000000e0: 2118 a0bc d213 7bbd 8188 31bd 78fa aabc
000000f0: b671 21bd 739a 18bd f54d 393b 25af 533d
00000100: 4f10 3bbb a64c afbd 5495 123c 1f02 98bd
00000110: b067 f73d 55ea aebd eff8 1fbd 3df0 253d
00000120: d1a6 b23c bbb2 6abd bcaf f2bd d5dd 03bd
00000130: fb10 c63d bf4a b4bd 021c c2bd 5065 b8bc
00000140: d47f 94bc b02a 493d 13b5 e3bd a03f 21bd
00000150: 6268 d8bd 6db2 e1bb 037b 40bd 647a 713b
00000160: cdd8 e0bd 62be 9ebd 0b11 a3bd 1705 52bd
00000170: a190 173d 49d7 76bd a081 9cbd 882b 0a3d
00000180: dbfd 1fbd 9dbf f33c fe2a 86bd da13 ebbd
00000190: f806 9f3c 3670 613d 1d53 c1bd 60bf 163c
000001a0: ef91 513e 6836 263c a8b6 3abd 97e7 75bc
000001b0: 2488 8cbd 7ba1 c0bb f490 46bd 1991 95bd
000001c0: fe91 373c 2622 cfbd dcd8 a43c bbf0 803d
000001d0: 3c6d 413d 23f3 a4bd a94d b63c 45a8 2f3d
000001e0: 8606 50bd 6453 873c 6cd2 7f3d 866d 363d
000001f0: 98df dc3c c58f 433c 6c4b 2dbd acd9 49bd
00000200: 5b6a 71bd bc77 543d 2e04 2cbd 9806 00bc
00000210: e1d0 a8bd 1926 53bd 2043 ccbc e999 69bd
00000220: d8bc 473d 7838 cbbd 7047 a8bc 5a0f 81bc
00000230: 997d b3bd c6e4 5a3d ea6b 80bd c727 513c
00000240: 860f 4a3d 3e65 8f3d 578a 1a3b cfe5 873d
00000250: a029 833d aa97 8ebc 21d2 2cbd 3911 54bd
00000260: 2d20 223c 08f9 a13b 01f7 babd a460 463d
00000270: d53e ab3a 0748 d0bd a8ed e73c 32c1 653d
00000280: 10b8 cd3c e1c2 933d 0082 ef3a 6f62 e8bd
00000290: 003e 52b9 111c 403d aaa3 2ebd b3f2 f33c
000002a0: 2ef5 4e3c c0f6 6abc 3557 33bc b3ef b6ba
000002b0: f8be 77bd 3d26 e43c 8c2c 233d 0f04 da3c
000002c0: 43e3 b43d d373 00bd 056f a8bd 618e 7dbb
000002d0: 83c2 3fbd 989b ff3c 241e 733d eb27 46bd
000002e0: 2d48 9abc 6dcf 903d 0643 94bd f0e5 79bc
000002f0: f8dd a13d 130f 623d b44d ae3b a721 6abd
00000300: c8fe 06bc 1253 a2bd 4a75 d0bd 729a a9bd
00000310: 765c af3d 752c 8f3d 4d2d c53b d432 51bd
00000320: 2ddb 9b3d 2395 20bd 7656 7b3d 4330 e6bc
00000330: 1893 5ebd 2c44 5bbd 1895 44bd fad5 cfbd
00000340: 2487 d83c b09c dcbc bcfc 9f3c cb0f 153d
00000350: f6d5 b3bc 11fb b13b 017c cc3c 6632 2a3d
00000360: 5c7b 69bd 7048 febb 8ba9 8cbd edeb 393d
00000370: 3881 d2bd babc 81bd 96d2 86bc 0274 793d
00000380: a46e 553d 51a6 c8bd ca19 c8bd 0ab0 5f3d
00000390: 400c 533c 540b 9bbd 1c0f 2dbd 2e47 1e3d
000003a0: f430 d8bc cf0b 8bbd 9fb2 a0bd 738c 3bbd
000003b0: 40e5 62bb 699f 473c 3ad3 2d3d 16e0 2fbd
000003c0: b080 35bd 37b8 9abd 6e1e 513d 25a6 b43d
000003d0: e2c9 763d a9f1 ed3c 37d3 08bd a162 1abd
000003e0: 1799 1c3c c1e8 9cbd 0c9a af3b e337 a8bd
000003f0: c582 d6bd 7999 e4bc 1a44 3bbd 4d56 65bd

network.2.bias f4 [128]
-0.0044874805 0.02445945 0.046126027 0.32039928 -0.07247496 0.0023168582 -0.022978669 0.13305405
0.04697445 -0.0110392 -0.06957965 0.027695946 0.1855051 0.039538145 -0.013616379 0.13330616
0.0065951855 0.038967665 -0.047380924 0.012896131 -0.021506855 0.03685807 -0.071449436 0.001119206
-0.053230632 -0.054016147 0.018225795 -0.020395854 -0.1114344 0.0025047322 -0.062124647 -0.015527841
0.016236655 -0.009332414 0.024166314 -0.109019086 -0.01691762 0.041533306 -0.022181438 0.039541747
-0.04536965 -0.010341503 -0.09757952 -0.035392635 -0.071041696 0.0033667688 0.036789317 -0.028957577
-0.09182651 -0.08622166 0.02209433 -0.047830578 -0.1022488 0.042097803 -0.054538637 0.037508328
0.015313214 -0.033881366 -0.092943445 -0.009870744 -0.021712203 0.005762663 -0.1213844 -0.026761508
-0.10443842 -0.060878813 -0.111299746 0.056489583 0.04235119 -0.07018727 -0.06627827 0.02379776
0.104018144 -0.03736223 -0.021197787 -0.09855128 -0.08693129 0.031860486 -0.06682568 0.028188867
-0.051582333 -0.067881376 -0.06980324 0.023157451 -0.11167084 0.02819048 0.011916403 -0.00016490658
-0.081104696 -0.08351997 -0.043157358 0.08799849 -0.06939948 0.023684809 0.03201186 0.04524574
-0.079585575 -0.106932685 0.07045893 -0.036008127 -0.04679503 0.038041532 -0.084438905 0.008328064
-0.05995396 -0.017442493 -0.062732585 -0.09768875 -0.032755002 -0.014485589 0.035957802 -0.036872055
-0.09173585 -0.0681306 0.015242702 0.054973967 0.018301385 -0.076097265 0.061854944 0.025463492
0.025731709 -0.0076287864 -0.04776192 -0.116763644 -0.059711833 0.24092892 -0.042400047 0.023464646
00000000: b70b 93bb 2f5f c83c a5ee 3c3d 600b a43e
00000010: c06d 94bd 6ed6 173b c33d bcbc 523f 083e
00000020: 4868 403d c3dd 34bc c77f 8ebd 9ce2 e23c
00000030: 0df5 3d3e c0f2 213d 3c17 5fbc 6981 083e
00000040: 6d1c d83b 8f9c 1f3d 8012 42bd 4b4a 533c
00000050: 252f b0bc 7df8 163d 1554 92bd 52b2 923a
00000060: 5d08 5abd 0940 5dbd 434e 953c 3515 a7bc
00000070: b837 e4bd 6f26 243b 6a76 7ebd 7c68 7ebc
00000080: bc02 853c fbe6 18bc 6ff8 c53c 6645 dfbd
00000090: d296 8abc d41e 2a3d d9b5 b5bc 87f6 213d
000000a0: 87d5 39bd 686f 29bc c5d7 c7bd def7 10bd
000000b0: 4f7e 91bd 02a5 5c3b 65b0 163d 7138 edbc
000000c0: 8a0f bcbd fb94 b0bd 2bff b43c ffe9 43bd
000000d0: d267 d1bd bf6e 2c3d e863 5fbd 55a2 193d
000000e0: 46e4 7a3c 30c7 0abd 2259 bebd e7b8 21bc
000000f0: cadd b1bc b9d4 bc3b 6298 f8bd f33a dbbc
00000100: cfe3 d5bd 105c 79bd 1ff1 e3bd 9f61 673d
00000110: 7178 2d3d 58be 8fbd e7bc 87bd 85f3 c23c
00000120: 7707 d53d 2309 19bd fba6 adbc 41d5 c9bd
00000130: 0809 b2bd 2480 023d e7db 88bd 57ec e63c
00000140: ff47 53bd 6405 8bbd 00f5 8ebd b2b4 bd3c
00000150: aeb3 e4bd b9ef e63c 043d 433c c6ea 2cb9
00000160: 381a a6bd 850c abbd c5c5 30bd 8d38 b43d
00000170: 5121 8ebd a506 c23c de1e 033d 9953 393d
00000180: c3fd a2bd 86ff dabd c64c 903d 427d 13bd
00000190: 25ac 3fbd 70d1 1b3d 4eee acbd 6f72 083c
000001a0: 4992 75bd 8fe3 8ebc f179 80bd 0a11 c8bd
000001b0: 1c2a 06bd f754 6dbc 7d48 133d 2707 17bd
000001c0: 01e0 bbbd 0e88 8bbd 87bc 793c 622c 613d
000001d0: c9ec 953c e2d8 9bbd 9c5b 7d3d d098 d03c
000001e0: 4ecb d23c e6fa f9bb 01a2 43bd c721 efbd
000001f0: 6594 74bd 12b6 763e acab 2dbd ee38 c03c

network.4.weight f4 [64, 128]
0.022353264 0.08930061 -0.088322155 -0.29747877 -0.011164567 0.046741355 -0.05136108 -0.23063879
0.036781143 0.047880497 -0.37973624 -0.06932631 -0.24379048 0.08687013 0.09818399 -0.4713062
0.0005323177 0.048451878 -0.0446228 -0.016163256 0.08287863 0.040454347 0.022367433 0.045428667
0.022357533 -0.055094052 -0.054104462 -0.027474191 -0.046201747 0.049270574 -0.012126356 0.047057964
0.0010535858 0.07688193 -0.025626872 0.061948974 0.048136212 -0.013307873 0.008036032 -0.004398538
-0.04846087 -0.06844136 0.06094778 0.046562865 -0.049828712 0.0503209 -0.03657367 -0.0630551
0.00521205 0.007976343 -0.019560633 0.0008719798 0.006665466 -0.05233665 0.09039837 -0.060561918
-0.02569528 -0.075107254 -0.037607092 0.0061412137 -0.035262417 -0.09000397 -0.022696996 -0.054375593
0.07539873 0.08723981 0.018584494 -0.03168749 0.027204702 -0.02203895 0.06480131 0.05969984
0.16487348 0.078344144 -0.007311223 -0.0731653 -0.048183415 -0.0927216 0.05562114 -0.012666242
0.079326786 -0.059767947 0.048116967 0.040605355 0.07826531 -0.070190266 0.024697745 -0.050994176
-0.047286823 0.060783293 -0.10897173 -0.028754426 0.024134135 0.0015456193 0.080704294 0.004938279
-0.06752754 0.07645039 0.0619575 -0.033751085 0.041149154 -0.0062564015 0.04469449 -0.0043909843
-0.07160991 0.082879245 0.063788705 -0.059266854 -0.075415716 0.063676104 -0.06660382 0.008288247
-0.0057563656 0.06661347 0.039640106 -0.08789909 -0.04374997 -0.041353617 -0.08451899 -0.007731539
0.024402285 -0.03051991 -0.046807762 -0.013926665 -0.09925876 -0.12519047 0.0144381635 -0.076931365
0.039123807 -0.012655675 -0.0040474813 0.0028569323 0.05739499 0.025515772 0.067877434 -0.17927468
0.022888763 0.0051515447 -0.08071536 -0.063451 -0.23395121 -0.080595575 0.024074385 -0.1457676
0.07940952 0.02017794 -0.07281908 -0.051723592 -0.1023207 -0.025983728 -0.005724844 -0.030327564
0.01577534 0.017149953 -0.041146923 -0.0032551466 -0.04944508 0.089270644 -0.051635288 0.022898719
0.008346408 -0.10246896 0.026075335 0.037401926 -0.03648466 -0.020101015 0.054977704 0.007844072
-0.056644555 -0.0925258 0.063991 0.092548214 -0.06285483 0.08920808 -0.2004979 -0.048115876
0.01813043 0.05652256 0.03390199 -0.097585715 -0.017428871 0.053412836 0.03439714 0.052646827
-0.025362821 -0.024111198 0.032008663 -0.02476535 0.07133419 0.038074195 0.054470036 0.04567427
0.008845952 0.080027334 -0.077733636 -0.021982798 -0.014698597 -0.0052772947 0.006422923 -0.044062745
-0.029173605 0.032625586 -0.050723195 0.02327232 0.03611186 0.029056685 -0.03634242 0.018292878
-0.013227453 -0.06345203 -0.07360603 -0.07949791 -0.052222982 0.008037691 0.021531252 -0.042507272
-0.039250467 -0.06877014 -0.056019127 0.01914758 -0.0377856 -0.02355982 0.017304704 0.039680254
0.02230211 0.030237108 -0.03687119 0.0036254302 0.06617486 0.049798887 0.0012948181 -0.032094203
-0.063873485 -0.023837471 -0.04761238 0.028804358 -0.047755305 0.055766087 -0.18758383 0.07409088
0.07383553 0.0084911315 0.06779832 -0.03983979 0.033715706 0.06926495 0.010600351 -0.055016816
0.02514615 0.020085592 0.04519191 0.028825132 -0.22268304 -0.033925794 -0.09557153 -0.03817229
00000000: 311e b73c 3de3 b63d 3fe2 b4bd 234f 98be
00000010: 97eb 36bc dd73 3f3d ff5f 52bd 932c 6cbe
00000020: d3a7 163d 571e 443d ca6c c2be f4fa 8dbd
00000030: 36a4 79be f7e8 b13d b014 c93d 0c4f f1be
00000040: 3c8b 0b3a 7a75 463d 66c6 36bd ce68 84bc
00000050: 45bc a93d 75b3 253d e83b b73c 6913 3a3d
00000060: 2527 b73c 4daa 61bd a49c 5dbd 8e11 e1bc
00000070: 0b3e 3dbd f1cf 493d a0ad 46bc dabf 403d
00000080: 7918 8a3a 4674 9d3d 72ef d1bc 35be 7d3d
00000090: 7a2a 453d 4409 5abc 90a9 033c 9c21 90bb
000000a0: e87e 46bd fc2a 8cbd 61a4 793d b4b8 3e3d
000000b0: 3119 4cbd 4a1d 4e3d 46ce 15bd 0823 81bd
000000c0: d8c9 aa3b 35af 023c 9f3d a0bc 9395 643a
000000d0: fb69 da3b f55e 56bd c822 b93d c60f 78bd
000000e0: e87e d2bc d5d1 99bd e509 1abd 3c3c c93b
000000f0: 536f 10bd 0054 b8bd 0def b9bc f1b8 5ebd
00000100: a66a 9a3d c9aa b23d 823e 983c beca 01bd
00000110: 65dc de3c 078b b4bc 8db6 843d d287 743d
00000120: 98d4 283e e572 a03d fc92 efbb b0d7 95bd
00000130: f95b 45bd d2e4 bdbd fed2 633d 1286 4fbc
00000140: 1576 a23d 3ccf 74bd 4c16 453d cd51 263d
00000150: 9049 a03d eabf 8fbd ed52 ca3c 45df 50bd
00000160: d4af 41bd e7f7 783d 922c dfbd 678e ebbc
00000170: f3b4 c53c 6196 ca3a 4b48 a53d 49d1 a13b
00000180: e14b 8abd 0692 9c3d 26c7 7d3d 943e 0abd
00000190: 048c 283d 8002 cdbb 9211 373d 3fe2 8fbb
000001a0: 37a8 92bd 98bc a93d a7a3 823d cdc1 72bd
000001b0: 8e73 9abd 9e68 823d 9567 88bd 6dcb 073c
000001c0: e59f bcbb a56c 883d aa5d 223d 7004 b4bd
000001d0: 2b33 33bd 6962 29bd 4b18 adbd da58 fdbb
000001e0: 4de7 c73c e404 fabc 7fb9 3fbd ab2c 64bc
000001f0: 2d48 cbbd ee31 00be 0c8e 6c3c 318e 9dbd
00000200: 4940 203d c059 4fbc bca0 84bb 5f3b 3b3b
00000210: 0217 6b3d 7406 d13c 5303 8b3d c893 37be
00000220: 3781 bb3c 4ace a83b 184e a5bd 99f2 81bd
00000230: e890 6fbe 4b0f a5bd a537 c53c 1a44 15be
00000240: 75a1 a23d 354c a53c 2b22 95bd 1edc 53bd
00000250: 848d d1bd d4db d4bc 7997 bbbb 8371 f8bc
00000260: 493b 813c 0f7e 8c3c ad89 28bd 4c54 55bb
00000270: ed86 4abd 87d3 b63d 867f 53bd 1896 bb3c
00000280: 5fbf 083c 3fdb d1bd f19b d53c c332 193d
00000290: f070 15bd e2aa a4bc 4d30 613d 6c84 003c
000002a0: 1f04 68bd 2b7e bdbd b70d 833d eb89 bd3d
000002b0: 08ba 80bd bab2 b63d 524f 4dbe 2715 45bd
000002c0: 4486 943c 3384 673d d0dc 0a3d 05db c7bd
000002d0: fec6 8ebc 6bc7 5a3d 04e4 0c3d 33a4 573d
000002e0: b1c5 cfbc d984 c5bc 841b 033d b4e0 cabc
000002f0: a917 923d b0f3 1b3d f91b 5f3d f114 3b3d
00000300: 9dee 103c 5fe5 a33d d032 9fbd 4515 b4bc
00000310: 62d2 70bc 28ed acbb 6277 d23b 237b 34bd
00000320: 7cfd eebc 68a2 053d 20c3 4fbd 98a5 be3c
00000330: 08ea 133d 4908 ee3c cadb 14bd f2da 953c
00000340: f6b7 58bc 23f3 81bd c2be 96bd cdcf a2bd
00000350: c4e7 55bd 85b0 033c 4f62 b03c 1b1c 2ebd
00000360: 19c5 20bd 5cd7 8cbd 5074 65bd 63db 9c3c
00000370: 13c5 1abd 8600 c1bc 98c2 8d3c c387 223d
00000380: eab2 b63c d0b3 f73c 3f06 17bd a098 6d3b
00000390: af86 873d ebf9 4b3d e3b6 a93a 3675 03bd
000003a0: 1ad0 82bd cd46 c3bc 3305 43bd 1ef7 eb3c
000003b0: 119b 43bd fb6a 643d fa15 40be f6bc 973d
000003c0: 1537 973d 631e 0b3c d8d9 8a3d 0c2f 23bd
000003d0: 7b19 0a3d c8da 8d3d 18ad 2d3c 5059 61bd
000003e0: 4cff cd3c 8a8a a43c 271b 393d af22 ec3c
000003f0: 0607 64be c6f5 0abd 02bb c3bd 8c5a 1cbd

network.4.bias f4 [64]
0.1386089 -0.21036643 0.03252092 -0.18116976 -0.12858592 -0.16517957 -0.4356726 -0.26971966
0.055651806 -0.2647707 -0.07702679 -0.17035419 -0.023531338 -0.0699428 -0.2674785 -0.5594747
-0.021614103 0.056260884 -0.23433277 0.095539644 0.12785286 0.07316789 -0.38874197 -0.123424664
0.15630612 -0.07637619 -0.24567787 -0.009815478 -0.24417445 0.19928873 -0.093409054 -0.25563422
-0.09806054 -0.102345966 -0.13267136 0.12602219 -0.33523285 -0.30240387 -0.022069173 -0.25949746
-0.24629211 -0.14777394 -0.015706837 0.12762485 0.111031696 0.065203585 -0.71367997 0.24344118
-0.21936463 -0.1471932 -0.07797369 -0.034244787 -0.046570424 -0.018822363 -0.09994791 -0.13235843
-0.7342442 -0.2931676 -0.14609241 -0.10347684 -0.008292061 -0.31421477 -0.42099378 -0.32292962
00000000: 7eef 0d3e 4c6a 57be a834 053d 9184 39be
00000010: 07ac 03be d524 29be 7b10 dfbe b218 8abe
00000020: 26f3 633d 0690 87be 39c0 9dbd 5471 2ebe
00000030: cbc4 c0bc 2c3e 8fbd f1f2 88be bc39 0fbf
00000040: 0f10 b1bc d071 663d eef4 6fbe 4aaa c33d
00000050: dceb 023e 0cd9 953d 3009 c7be 12c6 fcbd
00000060: b60e 203e 1f6b 9cbd fb92 7bbe 19d1 20bc
00000070: de08 7abe 5812 4c3e 3f4d bfbd 7de2 82be
00000080: f7d3 c8bd c39a d1bd 00db 07be f60b 013e
00000090: a4a3 abbe aed4 9abe 69ca b4bc dadc 84be
000000a0: 0034 7cbe 0d52 17be a0ab 80bc 17b0 023e
000000b0: 9664 e33d 7589 853d bbb3 36bf a548 793e
000000c0: 1fa1 60be d0b9 16be acb0 9fbd 4344 0cbd
000000d0: a1c0 3ebd 5b31 9abc 7db1 ccbd f888 07be
000000e0: 6ef7 3bbf 101a 96be 4099 15be aaeb d3bd
000000f0: 6ddb 07bc c2e0 a0be 7f8c d7be 0857 a5be

network.6.weight f4 [2, 64]
0.09999198 -0.010280374 0.039028168 -0.11419978 0.08676962 0.0023682506 -0.13845263 -0.069973
0.015453877 -0.06502214 -0.115239546 0.25752777 -0.054639004 -0.041041274 0.04619822 0.048638657
-0.05582538 -0.083620735 -0.06768788 0.0039456217 0.08692559 -0.01245003 -0.017461985 0.02065707
0.060317412 0.028084794 -0.060942084 -0.23066416 -0.052736297 0.059472363 -0.0032965238 0.18539679
-0.06777548 -0.121471144 -0.02658191 -0.07607134 -0.018681498 0.08456939 -0.007832357 0.055634752
-0.0026873488 0.02681808 -0.016197873 0.061660692 -0.07913856 0.047843426 0.09582973 0.017089568
-0.02325628 -0.08773321 0.0037892994 -0.0318762 -0.02516141 0.055280052 -0.08808546 0.100894056
-0.033504713 0.029606914 -0.0014181781 -0.026801532 0.013137257 0.04225454 0.21402857 -0.05573836
0.064314395 0.028244626 -0.0062437654 0.0041991975 0.015898896 -0.088052064 -0.07190675 0.007152173
0.0835532 -0.07150641 -0.015615864 0.16609287 0.05560375 0.059098218 0.078501895 -0.075807184
0.061535303 -0.052071236 -0.07209548 0.06493306 0.0347845 -0.06849048 -0.08396165 -0.099477395
0.095910996 -0.062497277 -0.12715507 0.019215032 0.031017361 0.04045886 0.078992195 0.0013131027
0.022529136 -0.0869298 -0.12384099 -0.08008071 0.029655496 -0.0013525393 0.11835799 0.024981234
0.015221404 0.04101372 -0.019491913 0.10988673 -0.016665734 -0.011736389 0.10360006 0.02051365
-0.02396716 -0.08462229 -0.14976439 -0.04072978 -0.059554446 -0.010009021 -0.054121494 0.09456162
-0.090985686 -0.08244456 0.047620658 0.083861925 -0.116702326 -0.05340583 0.10431411 0.051786635
00000000: 98c8 cc3d 046f 28bc 00dc 1f3d 93e1 e9bd
00000010: 45b4 b13d a734 1b3b 87c6 0dbe 014e 8fbd
00000020: 4232 7d3c 542a 85bd b602 ecbd aeda 833e
00000030: 26cd 5fbd e51a 28bd 583a 3d3d 5439 473d
00000040: 27a9 64bd 5941 abbd f19f 8abd 464a 813b
00000050: 0b06 b23d 36fb 4bbc 700c 8fbc 0439 a93c
00000060: 640f 773d 1512 e63c 689e 79bd 3a33 6cbe
00000070: 0402 58bd 4b99 733d 7e0a 58bb a8d8 3d3e
00000080: dfcd 8abd ddc5 f8bd 4ec2 d9bc 4acb 9bbd
00000090: f109 99bc b732 ad3d 4953 00bc 44e1 633d
000000a0: 3b1e 30bb 97b1 db3c 67b1 84bc ec8f 7c3d
000000b0: 6613 a2bd 78f7 433d 6142 c43d 6cff 8b3c
000000c0: f483 bebc 78ad b3bd e555 783b 9e90 02bd
000000d0: 4d1f cebc 566d 623d 2666 b4bd 8ba1 ce3d
000000e0: 3d3c 09bd 338a f23c 29e2 b9ba e38e dbbc
000000f0: a63d 573c 1913 2d3d 4e2a 5b3e e84d 64bd
00000100: 44b7 833d 4661 e73c 8098 ccbb 6c99 893b
00000110: 673e 823c a454 b4bd d943 93bd c75c ea3b
00000120: f11d ab3d f471 92bd aed9 7fbc 4014 2a3e
00000130: c2c0 633d f910 723d 9ac5 a03d cc40 9bbd
00000140: 710c 7c3d a648 55bd cca6 93bd a0fb 843d
00000150: 317a 0e3d bd44 8cbd 16f4 abbd ceba cbbd
00000160: fc6c c43d 25fd 7fbd f034 02be d868 9d3c
00000170: 1f18 fe3c 31b8 253d a9c6 a13d 6a1c ac3a
00000180: 068f b83c 4008 b2bd 58a0 fdbd 5b01 a4bd
00000190: 15f0 f23c b047 b1ba ad65 f23d 72a5 cc3c
000001a0: 3263 793c 01fe 273d 81ad 9fbc 4b0c e13d
000001b0: 9486 88bc fc49 40bc 452c d43d 3e0c a83c
000001c0: c756 c4bc 744e adbd d65b 19be 45d4 26bd
000001d0: 5def 73bd e0fc 23bc 80ae 5dbd 86a9 c13d
000001e0: b456 babd b2d8 a8bd e10d 433d cdbf ab3d
000001f0: a101 efbd 12c0 5abd a3a2 d53d 391e 543d

network.6.bias f4 [2]
-0.03893758 -0.043619417
00000000: 037d 1fbd 46aa 32bd
