src/Catcher_Flappy_Continuous/wandb/run-20241023_104512-5k3x5x8t/files/flappy_agent_inacc_state_acc_r.pt (torch, 105039 bytes, 8 tensors)

network.0.weight f4 [128, 5]
0.3469135 0.5116331 -0.12598066 0.14508955 -0.46981767 0.11208393 -0.065716356 0.18942852
-0.05562436 -0.23737891 0.32387203 -0.4100132 0.11888064 -0.2905312 -0.03640785 -0.3077148
-0.6385044 -0.11300558 0.3008307 -0.02562087 -0.16654512 -0.27009973 -0.07495999 -0.19290143
-0.14330894 0.014124744 0.5869437 0.028454361 -0.47388673 0.29790005 0.30189815 0.61225486
0.48876458 0.029393848 -0.378409 -0.21570547 0.39270347 -0.07449192 0.19138926 -0.20782527
0.3164262 -0.5883887 0.42929208 -0.03966218 -0.32528496 0.20965901 -0.81121945 0.1739724
-0.12169507 -0.057615638 -0.753597 -0.099973656 -0.054684836 -0.45722476 0.12566745 -0.027409667
0.7196079 -0.32500023 0.07257137 -0.057709504 -0.27958596 0.6644712 0.27853224 0.5319108
-0.26915744 -0.07361403 -0.008663356 0.06531888 -0.33939856 -0.31735277 0.10267203 -0.19781013
-0.16512854 -0.27389452 -0.118934825 0.04748279 0.8297733 -0.09042795 -0.4420134 0.15328653
-0.44859332 -1.0282075 -0.13842832 -0.27606174 0.09343073 -1.2774041 0.085708134 0.06074383
-0.31766927 -0.008201455 0.2028446 -0.9263183 0.17971885 0.16045098 -0.31281856 -0.21219045
0.15248895 0.08010602 -0.1902324 -0.13537866 0.3397632 -0.51365083 0.29775086 0.13992114
-0.38819325 -0.5130132 0.36258036 -0.06290356 0.4190124 0.09717834 0.092724256 1.2965151
0.31163338 -0.19100168 0.00482005 0.5754271 0.28234267 0.18910266 -0.3627156 -0.2763964
-0.37997255 0.47475597 0.2567128 -0.46719795 0.07058101 -0.3772709 -1.054559 -0.22164042
0.11208269 0.2399874 -0.51335186 0.020701984 0.06670762 0.058671504 0.02890025 0.37073404
1.919097 0.16926186 -0.23592183 -0.22188327 -0.3627122 -0.10722645 -0.3385951 0.1805721
0.16176455 -0.33395094 0.6092822 -0.18083583 0.0928145 -0.0077261566 -0.1514501 0.43693912
-0.051701337 -0.015364468 -0.422116 -0.1770292 -1.9149159 -0.036127966 0.29315963 -0.12883544
-2.1131928 0.41014427 0.31405142 0.27034822 -0.17638662 0.09696263 -0.16280839 -0.100477576
-0.35639274 -0.2038225 -0.29748374 0.8176144 -0.059761003 -0.13411984 0.24963692 0.26132876
0.92030025 -0.07072994 -0.5096435 0.24624641 -0.111831754 -0.036155134 -0.38527405 -0.08833748
-0.28844732 0.58369327 -0.05464478 -0.39957604 -0.35498428 -0.17491624 -0.0074415663 -0.14945158
-0.31210494 -0.23988825 0.2712639 -1.258612 0.46048358 0.19898213 0.35350722 -0.37114426
-0.02572801 -0.7828048 0.15502828 -0.46292648 -0.059249833 -0.08722785 1.1090832 -0.2704504
-0.061230514 0.10084443 -0.21656765 0.30446354 -0.42165503 0.10342067 0.24348609 0.15277013
0.82508314 -0.34500766 -0.44687983 0.25765195 -0.016770026 0.13308424 -0.48534083 -0.3977043
0.41331407 -0.49909565 0.08630906 0.12580402 0.23793711 0.22570664 0.04742523 -0.5027141
0.2932068 -0.18953189 -0.4131799 0.1778149 -0.8779325 0.3296906 0.31763414 -0.38040665
-1.4427065 0.2559094 0.3677538 0.1424322 -0.07767865 -0.026271211 -1.6792104 -0.27489448
-0.37096936 0.38137954 0.12810463 -0.58651465 -0.1165011 -0.082798555 -0.25226203 -0.85859895
00000000: a59e b13e 63fa 023f 1301 01be 5b92 143e
00000010: f18b f0be 428c e53d 4c96 86bd 8df9 413e
00000020: 5ed6 63bd 7513 73be 8ed2 a53e 40ed d1be
00000030: b177 f33d 81c0 94be 6620 15bd cb8c 9dbe
00000040: 0675 23bf 786f e7bd 7b06 9a3e dce2 d1bc
00000050: ce8a 2abe 834a 8abe a084 99bd f487 45be
00000060: 94bf 12be 786b 673c f141 163f 1f19 e93c
00000070: 48a1 f2be 5b86 983e 6592 9a3e bcbc 1c3f
00000080: 5a3f fa3e 5ecb f03c d3be c1be e5e1 5cbe
00000090: 6e10 c93e 388f 98bd 8cfb 433e 26d0 54be
000000a0: 9d02 a23e a4a0 16bf 2ccc db3e cf74 22bd
000000b0: c08b a6be dab0 563e 14ac 4fbf d225 323e
000000c0: 443b f9bd 60fe 6bbd bceb 40bf fdbe ccbd
000000d0: 35fd 5fbd 5d19 eabe f8ae 003e 3d8a e0bc
000000e0: 3938 383f 6e66 a6be 4ca0 943d cd60 6cbd
000000f0: e425 8fbe c91a 2a3f c79b 8e3e 4e2b 083f
00000100: 01cf 89be f4c2 96bd c0f0 0dbc e8c5 853d
00000110: a6c5 adbe 107c a2be b745 d23d bd8e 4abe
00000120: 7517 29be e73b 8cbe 1a94 f3bd 507d 423d
00000130: 066c 543f 4a32 b9bd 954f e2be 25f7 1c3e
00000140: 06ae e5be 4e9c 83bf 27c0 0dbe f757 8dbe
00000150: 9c58 bf3d fa81 a3bf bf87 af3d 86ce 783d
00000160: 8ca5 a2be 655f 06bc 7fb6 4f3e 3223 6dbf
00000170: 3808 383e 434d 243e c129 a0be 7448 59be
00000180: 1026 1c3e a00e a43d 48cc 42be b4a0 0abe
00000190: 71f5 ad3e 9f7e 03bf cd72 983e 7d47 0f3e
000001a0: 44c1 c6be d554 03bf 22a4 b93e 95d3 80bd
000001b0: cb88 d63e 7005 c73d 37e6 bd3d 35f4 a53f
000001c0: 698e 9f3e f295 43be 83f1 9d3b 314f 133f
000001d0: 388f 903e 21a4 413e dcb5 b9be d483 8dbe
000001e0: c38b c2be 3713 f33e dc6f 833e 9234 efbe
000001f0: c78c 903d a729 c1be cafb 86bf b5f5 62be
00000200: 9c8b e53d 42bf 753e 076b 03bf 3597 a93c
00000210: 019e 883d 8851 703d 38c0 ec3c dad0 bd3e
00000220: f8a4 f53f fb52 2d3e 7e95 71be 5e35 63be
00000230: 6ab5 b9be 8b99 dbbd 565c adbe e5e7 383e
00000240: 9ba5 253e 9efb aabe ebf9 1b3f 072d 39be
00000250: 8715 be3d b32b fdbb bc15 1bbe 7cb6 df3e
00000260: c8c4 53bd 40bb 7bbc 971f d8be 2547 35be
00000270: f71b f5bf ebfa 13bd 0519 963e 70ed 03be
00000280: 8d3e 07c0 6efe d13e 59cb a03e 156b 8a3e
00000290: b29e 34be 5894 c63d 3eb7 26be 30c7 cdbd
000002a0: 1c79 b6be d8b6 50be ca4f 98be 2d4f 513f
000002b0: f4c7 74bd b656 09be d2a0 7f3e e2cc 853e
000002c0: cc98 6b3f dcda 90bd ff77 02bf 0528 7c3e
000002d0: 0c08 e5bd 6817 14bd a442 c5be 48ea b4bd
000002e0: 5eaf 93be ec6c 153f 34d3 5fbd 3b95 ccbe
000002f0: 80c0 b5be 3e1d 33be 62d8 f3bb d609 19be
00000300: 38cc 9fbe 44a5 75be 1ae3 8a3e 331a a1bf
00000310: 81c4 eb3e f9c1 4b3e e6fe b43e 9f06 bebe
00000320: 8cc3 d2bc e565 48bf bcbf 1e3e b304 edbe
00000330: f4af 72bd 84a4 b2bd 70f6 8d3f 7a78 8abe
00000340: d9cc 7abd 8687 ce3d e9c3 5dbe a5e2 9b3e
00000350: 2be3 d7be 37ce d33d 6b54 793e c66f 1c3e
00000360: a638 533f d8a4 b0be 6fcd e4be f5ea 833e
00000370: 4b61 89bc 3c47 083e 987e f8be e69f cbbe
00000380: e79d d33e 7789 ffbe cec2 b03d c5d2 003e
00000390: c9a5 733e a41f 673e f540 423d dfb1 00bf
000003a0: 341f 963e a614 42be 518c d3be 1c15 363e
000003b0: 2fc0 60bf 35cd a83e f1a0 a23e a9c4 c2be
000003c0: 9baa b8bf 8f06 833e 3a4a bc3e bfd9 113e
000003d0: fc15 9fbd b936 d7bc 5ef0 d6bf f8be 8cbe
000003e0: b2ef bdbe 2e44 c33e dc2d 033e d325 16bf
000003f0: 2198 eebd 4a92 a9bd 7d28 81be 24cd 5bbf

network.0.bias f4 [128]
-0.11026819 -0.35467577 0.43473732 0.124647975 0.28490305 0.2922325 -0.53455937 0.42251158
-0.5646139 -0.17772035 -0.59692085 -0.030442208 -0.5716253 -0.22047381 -0.5098513 -0.35101292
-0.3548233 0.18856245 -0.10818136 0.13632339 -0.58907217 0.3039509 -0.26599434 -0.34275386
0.16880375 -0.31514797 0.11628408 -0.038594857 -0.38258016 -0.7517362 0.1937232 0.024554085
-0.28921843 0.08292097 -0.19912831 0.17161763 -0.2274886 0.07443619 0.490082 -0.23350242
-0.036354493 0.26388273 -0.35693693 -0.17863661 0.52211314 -0.6932085 -0.14338708 -0.28410852
-0.09263496 -0.23460905 -0.10266891 -0.38838518 -0.57614094 -0.11760625 -0.55575716 -0.43478012
-0.13399616 -0.4275047 0.19737005 0.31480134 -0.21703418 -0.6813867 0.10487029 0.030861864
-0.25200808 -0.033498947 0.1714939 0.3806746 0.25122342 -0.34198672 -0.1199911 -0.20537211
0.1954807 -0.25673297 -0.32341677 -0.400207 -0.22691093 0.21010852 -0.03964368 -0.3997949
0.32519084 0.43776757 0.20389834 -0.6670746 0.18690793 0.69997597 -0.12227737 -0.38177997
0.15533699 -0.21692693 0.052739024 0.54034364 -0.20585723 -0.08580228 -0.109594725 0.22463886
0.011288751 -0.7242512 0.021517625 0.030489 -0.39307955 -0.31227893 0.074451074 0.16742724
-0.3172085 0.2536044 0.04733111 0.25194713 0.31685352 -0.20502971 -0.12920642 0.35011446
0.24107808 -0.06414823 -0.12125585 0.35429084 0.15206933 0.1325493 -0.32202435 -0.13037382
-0.4987053 -0.5163402 0.48857844 -0.67152697 -0.42148024 -0.18130086 -0.19549727 0.10424578
00000000: 4ad4 e1bd 1098 b5be e495 de3e 7047 ff3d
00000010: d0de 913e 809f 953e e2d8 08bf 7053 d83e
00000020: 898a 10bf 53fc 35be cecf 18bf f061 f9bc
00000030: 0956 12bf e3c3 61be 9d85 02bf f7b7 b3be
00000040: 66ab b5be 8416 413e 308e ddbd 5c98 0b3e
00000050: 6fcd 16bf 749f 9b3e 6930 88be 6f7d afbe
00000060: e4da 2c3e 135b a1be 5926 ee3d a415 1ebd
00000070: 8ce1 c3be c971 40bf 605f 463e a625 c93c
00000080: 7014 94be 78d2 a93d 4be8 4bbe 88bc 2f3e
00000090: c6f2 68be 0072 983d 07ec fa3e 421b 6fbe
000000a0: 73e8 14bd a31b 873e 70c0 b6be 84ec 36be
000000b0: 35a9 053f 1d76 31bf 10d4 12be ac76 91be
000000c0: 66b7 bdbd 5b3d 70be 1444 d2bd 6cda c6be
000000d0: f97d 13bf 8cdb f0bd 1a46 0ebf 809b debe
000000e0: 4a36 09be e5e1 dabe 601b 4a3e a42d a13e
000000f0: 353e 5ebe 5c6f 2ebf 3cc6 d63d 05d2 fc3c
00000100: 3407 81be 3136 09bd 199c 2f3e c8e7 c23e
00000110: 5ba0 803e e218 afbe e5bd f5bd 114d 52be
00000120: 182c 483e 8172 83be e296 a5be efe7 ccbe
00000130: 575b 68be b026 573e 6961 22bd ebb1 ccbe
00000140: 6a7f a63e 1223 e03e baca 503e 67c5 2abf
00000150: cb64 3f3e a031 333f 8f6c fabd aa78 c3be
00000160: a910 1f3e 1822 5ebe e004 583d f653 0a3f
00000170: 3dcc 52be 1bb9 afbd 3373 e0bd bb07 663e
00000180: 74f4 383c 8768 39bf bb45 b03c 11c4 f93c
00000190: b941 c9be 06e3 9fbe ce79 983d 0c72 2b3e
000001a0: 2769 a2be 70d8 813e 44de 413d 37ff 803e
000001b0: a03a a23e 4ff3 51be b04e 04be 3442 b33e
000001c0: 2cdd 763e 2660 83bd fd54 f8bd 9c65 b53e
000001d0: 10b8 1b3e 01bb 073e 60e0 a4be b780 05be
000001e0: 4d56 ffbe df2e 04bf f426 fa3e 31e9 2bbf
000001f0: 42cc d7be efa6 39be 7030 48be d07e d53d

network.2.weight f4 [128, 128]
-0.039470796 0.013130425 -0.11251285 -0.005169943 -0.08058589 0.01226138 0.07488425 -0.03154777
-0.025470056 -0.06018351 -0.062361214 -0.065508395 -0.0788603 0.016778052 -0.028452402 -0.030909646
-0.05553597 -0.059864365 -0.18409629 -0.063528575 0.04182188 0.001943452 -0.13036568 -0.104604125
0.0018186186 0.033713344 0.059297 0.061883885 0.021058576 -0.054668136 -0.002888009 -0.05060504
-0.020570042 0.08158737 0.031207876 0.05200803 -0.0398268 0.017683094 0.0052732457 0.07623421
-0.094701655 -0.06788776 -0.011750958 -0.08522104 -0.066850476 -0.032921035 -0.043358557 0.01164598
0.047158822 0.09219464 0.024407292 0.012301475 0.049102873 0.07034322 -0.075908594 0.04026068
-0.040324952 -0.033668876 -0.039945718 -0.020871386 -0.04885469 -0.042084347 -0.086545676 0.049198896
0.030226449 -0.14234282 -0.0026328096 -0.09592004 0.06397703 -0.08540789 -0.04406137 0.03482857
0.043641448 -0.04360055 -0.21005827 -0.0303467 0.008267405 -0.15351257 -0.1020615 -0.03500106
-0.01812736 -0.0076760272 -0.13219634 -0.045710023 -0.11147692 -0.020816715 -0.04260541 0.003849831
-0.16855441 -0.057480212 -0.08159325 0.0014497486 0.039600868 -0.012844208 -0.06662013 -0.031330675
-0.038748827 0.029239183 -0.081659466 -0.09404086 0.019412503 0.055038653 -0.10897654 0.009200901
0.12731102 0.010144807 -0.027264375 -0.043951117 -0.06861904 -0.0054506985 -0.069552734 -0.07303066
-0.05947144 0.05035459 0.03375136 0.06295916 0.049867187 -0.07210965 -0.025236191 0.043849148
-0.04380688 0.0404553 0.04764464 0.04474242 0.028284583 0.017686687 -0.0936319 -0.049279854
-0.059894893 0.061646093 -0.041111447 -0.008232807 -0.082429655 -0.023294987 -0.05822068 -0.057031546
0.047379307 -0.08811394 -0.012635075 -0.016395701 -0.10998068 0.05344083 -0.0456032 0.012717883
0.04933121 0.067010045 0.010309608 0.066356294 0.0672753 -0.0062931217 -0.038865495 -0.04463435
0.002530767 0.017119445 -0.086720444 0.055555794 -0.0033261736 -0.10137553 0.028311566 0.05609245
0.03302694 0.072149046 -0.0024994446 -0.08793134 -0.00020050257 0.06896472 -0.05021736 0.037700363
0.0014111628 -0.008956418 -0.0048756576 0.025945535 -0.07095497 0.040968046 0.034474716 0.036994804
0.08832409 -0.010170025 -0.07492574 0.004036024 -0.035847824 0.031202123 0.06401218 -0.048377912
-0.021261128 0.07463703 -0.07983469 -0.015252575 0.08583031 0.050252527 0.0189571 -0.04285883
-0.019306097 -0.07926001 -0.102358714 -0.087049074 0.0766114 0.069909014 0.022757709 -0.040783133
0.06516751 -0.026318306 0.061361752 -0.007860214 -0.05334679 -0.04251915 -0.027050687 -0.08867554
0.026431628 -0.026930183 0.026541306 0.029015133 -0.018967168 0.03533341 0.0022849655 0.046639882
-0.05602211 -0.042937346 -0.043000128 0.07028388 -0.09018566 -0.050433937 0.0008013116 0.06302497
0.067483425 -0.10681851 -0.08773774 0.074707136 0.012881339 -0.0757052 -0.03548578 0.0386421
-0.018482655 -0.06789362 -0.07087943 -0.051384788 -0.0034712204 0.014126894 0.03482454 -0.042938314
-0.025443535 -0.07512243 0.06685862 0.08820752 0.084468886 0.02946624 -0.02874886 -0.017701967
0.015642084 -0.08796566 0.013586496 -0.09470898 -0.1026238 -0.020020533 -0.034458216 -0.055990506
00000000: 21ac 21bd fe20 573c 236d e6bd a068 a9bb
00000010: 370a a5bd f5e3 483c ea5c 993d 3c38 01bd
00000020: 94a6 d0bc fc82 76bd 796e 7fbd 4429 86bd
00000030: 8281 a1bd 2072 893c 0315 e9bc 3a36 fdbc
00000040: af79 63bd 5634 75bd bd83 3cbe 451b 82bd
00000050: 6b4d 2b3d 6ebb fe3a 957e 05be b03a d6bd
00000060: b75e ee3a 0117 0a3d 69e1 723d f579 7d3d
00000070: 0983 ac3c b2eb 5fbd c044 3dbb 3b47 4fbd
00000080: 8182 a8bc 4717 a73d a9a7 ff3c 5f06 553d
00000090: 6d21 23bd 23dc 903c 31cb ac3b ae20 9c3d
000000a0: f1f2 c1bd bd08 8bbd 1787 40bc 5e88 aebd
000000b0: e7e8 88bd 35d8 06bd be98 31bd c8ce 3e3c
000000c0: 9c29 413d 8bd0 bc3d cdf1 c73c 208c 493c
000000d0: 1820 493d 1b10 903d f775 9bbd 62e8 243d
000000e0: c72b 25bd 60e8 09bd 1f9e 23bd 78fa aabc
000000f0: db1b 48bd a360 2cbd dc3e b1bd c884 493d
00000100: 759d f73c 51c2 11be 378b 2cbb ba71 c4bd
00000110: 6406 833d 55ea aebd b279 34bd 67a8 0e3d
00000120: 60c1 323d 7e96 32bd 8419 57be a599 f8bc
00000130: 0374 073c 6632 1dbe 9f05 d1bd 465d 0fbd
00000140: d47f 94bc 2f87 fbbb 7a5e 07be 6f3a 3bbd
00000150: 034e e4bd d187 aabc 0383 2ebd 724d 7c3b
00000160: 8799 2cbe 5f70 6bbd 5d1a a7bd 7e05 be3a
00000170: 8534 223d 8370 52bc 2270 88bd 9854 00bd
00000180: 17b7 1ebd 0387 ef3c 143d a7bd 7f98 c0bd
00000190: f806 9f3c 3670 613d 182f dfbd 60bf 163c
000001a0: d25d 023e 6836 263c 8a59 dfbc 1606 34bd
000001b0: 2488 8cbd c69b b2bb aa71 8ebd 1991 95bd
000001c0: 5398 73bd 9d40 4e3d de3e 0a3d bbf0 803d
000001d0: 8941 4c3d 39ae 93bd 21bc cebc 2a9b 333d
000001e0: d86e 33bd 75b4 253d 0727 433d d443 373d
000001f0: 12b5 e73c ace3 903c 15c2 bfbd acd9 49bd
00000200: 5954 75bd 9d80 7c3d 7a64 28bd e5e2 06bc
00000210: e1d0 a8bd 21d5 bebc cf78 6ebd e999 69bd
00000220: ce10 423d 1575 b4bd 5803 4fbc 4750 86bc
00000230: 8d3d e1bd c6e4 5a3d 6cca 3abd ab5e 503c
00000240: 860f 4a3d 903c 893d a1e9 283c cfe5 873d
00000250: a2c7 893d 8836 cebb 6d31 1fbd 82d2 36bd
00000260: 39db 253b 143e 8c3c 7d9a b1bd 798e 633d
00000270: effb 59bb f99d cfbd a8ed e73c 32c1 653d
00000280: 4247 073d e1c2 933d b9cd 23bb 5915 b4bd
00000290: 003e 52b9 603d 8d3d b8b0 4dbd b26b 1a3d
000002a0: c4f6 b83a f1bd 12bc fbc3 9fbb bb8b d43c
000002b0: d750 91bd 1cce 273d 5c35 0d3d dd87 173d
000002c0: 43e3 b43d 2da0 26bc ab72 99bd a040 843b
000002d0: 2bd5 12bd 989b ff3c d118 833d eb27 46bd
000002e0: d12b aebc 4ddb 983d 5f80 a3bd f0e5 79bc
000002f0: cdc7 af3d 98d5 4d3d ec4b 9b3c be8c 2fbd
00000300: d227 9ebc 1253 a2bd 72a1 d1bd c946 b2bd
00000310: 70e6 9c3d 752c 8f3d 606e ba3c 370c 27bd
00000320: 8b76 853d 7d99 d7bc 7656 7b3d 21c8 00bc
00000330: 2a82 5abd 8f28 2ebd 6799 ddbc 869b b5bd
00000340: 2487 d83c b09c dcbc 276d d93c 25b1 ed3c
00000350: 0961 9bbc c4b9 103d 5cbf 153b 7609 3f3d
00000360: 7177 65bd 12df 2fbd e720 30bd fff0 8f3d
00000370: 42b3 b8bd d193 4ebd 1c0f 523a 3c13 813d
00000380: c034 8a3d aac3 dabd d8af b3bd 0e00 993d
00000390: 400c 533c 540b 9bbd 8a59 11bd 2e47 1e3d
000003a0: f068 97bc cf0b 8bbd 3c29 91bd db78 52bd
000003b0: 6a7d 63bb 7d74 673c 2da4 0e3d 16e0 2fbd
000003c0: f66e d0bc cad9 99bd 2ced 883d 25a6 b43d
000003d0: 06fe ac3d 2f63 f13c bb82 ebbc b703 91bc
000003e0: d423 803c 5727 b4bd e599 5e3c c8f6 c1bd
000003f0: 6d2c d2bd 1a02 a4bc 0f24 0dbd 4d56 65bd

network.2.bias f4 [128]
-0.008141424 0.038891464 0.04838106 0.2608417 -0.1621977 0.014693782 -0.07500862 0.44164383
0.036492255 -0.01626996 -0.08858512 0.25944173 0.1428056 0.019535756 -0.008774562 0.020469606
0.02389313 0.033259485 -0.05669034 2.3806184e-05 -0.02475485 0.13113177 -0.085832484 -0.019106254
-0.03249849 0.0011708337 0.008593443 -0.018727379 -0.12384462 -0.0019053537 -0.08251684 -0.02356067
0.01955062 -0.020798037 0.102546096 -0.08376471 -0.009557449 -0.097533174 -0.046975408 0.047750957
0.14210942 -0.0021040223 -0.112793714 -0.03781216 -0.054230064 0.16345192 -0.036367245 -0.03664857
-0.099252276 0.14652441 0.022553949 -0.065559335 -0.094370194 0.042551864 -0.026525712 0.03407589
-0.0064956644 -0.031252764 -0.104306005 -0.027486445 -0.030641463 0.008897516 -0.11673833 -0.02094996
-0.09172104 -0.058182288 -0.13849789 0.0039926767 0.033101667 -0.07261014 0.031049395 0.028172862
-0.028674655 -0.030762432 -0.050126795 -0.097981334 -0.07071947 0.04889587 -0.08789564 0.008330749
-0.05527382 -0.07632616 -0.090809666 0.017901743 -0.081094675 0.021797992 0.0234525 -0.04349255
-0.08896455 -0.07982536 -0.051722758 -0.113063075 -0.21226081 0.024682604 0.017756842 0.047553882
-0.07699991 -0.102789946 0.067447215 -0.029481692 -0.05001061 0.046091042 0.04407296 0.07819296
-0.041759178 -0.02327891 0.20944643 -0.114090815 -0.03292698 -0.025418429 -0.071547166 -0.12849669
-0.03215573 -0.084095426 0.010025832 0.056703594 0.0028580108 -0.114902526 0.039727125 -0.08944249
0.16192596 0.019042362 -0.04614151 -0.09481 -0.11205411 0.07900984 -0.029625794 0.050178
00000000: 9b63 05bc a84c 1f3d 382b 463d 0b8d 853e
00000010: 2717 26be 30be 703c 1f9e 99bd 241f e23e
00000020: e778 153d 9448 85bc 1e6c b5bd 8cd5 843e
00000030: a23b 123e 7309 a03c 2ec3 0fbc e0af a73c
00000040: 86bb c33c 193b 083d 2134 68bd 64b3 c737
00000050: afca cabc 6847 063e f1c8 afbd b884 9cbc
00000060: 231d 05bd a976 993a 83cb 0c3c 296a 99bc
00000070: 40a2 fdbd 10bd f9ba 97fe a8bd 4e02 c1bc
00000080: 9f28 a03c a560 aabc b003 d23d d58c abbd
00000090: d996 1cbc 79bf c7bd 4969 40bd 8296 433d
000000a0: 2285 113e a3e3 09bb 6400 e7bd ece0 1abd
000000b0: 5820 5ebd f15f 273e d2f5 14bd d01c 16bd
000000c0: c744 cbbd 7f0a 163e 0fc3 b83c f943 86bd
000000d0: 2945 c1bd dd4a 2e3d 734c d9bc 2993 0b3d
000000e0: 95d9 d4bb e602 00bd 639e d5bd 412b e1bc
000000f0: ce03 fbbc e3c6 113c 8114 efbd 409f abbc
00000100: 3ed8 bbbd 8d50 6ebd 64d2 0dbe 00d5 823b
00000110: 9d95 073d a0b4 94bd 4d5b fe3c c6ca e63c
00000120: 1ce7 eabc 7f01 fcbc c151 4dbd 70aa c8bd
00000130: 5fd5 90bd 0947 483d a102 b4bd b27d 083c
00000140: cd66 62bd e450 9cbd 6bfa b9bd ada6 923c
00000150: f714 a6bd b491 b23c 751f c03c 3e25 32bd
00000160: 0c33 b6bd 7a7b a3bd 3edb 53bd 9d8d e7bd
00000170: e65a 59be 2c33 ca3c cc76 913c dcc7 423d
00000180: 21b2 9dbd 8983 d2bd c421 8a3d 9783 f1bc
00000190: edd7 4cbd f6c9 3c3d d985 343d a123 a03d
000001a0: ac0b 2bbd 6ab3 bebc 2079 563e 72a8 e9bd
000001b0: 71de 06bd 4f3a d0bc 5287 92bd a394 03be
000001c0: bab5 03bd 393a acbd 6343 243c 0742 683d
000001d0: 774d 3b3b 0452 ebbd e9b8 223d a02d b7bd
000001e0: ebcf 253e bafe 9b3c e1fe 3cbd bf2b c2bd
000001f0: a07c e5bd e9cf a13d cbb1 f2bc 7287 4d3d

network.4.weight f4 [64, 128]
0.022637961 0.06880536 -0.04475964 -0.008900857 -0.43260252 0.03955466 -0.043768242 -0.35239753
0.059051692 0.04375726 0.03462852 -0.32342198 -0.12872228 0.03190204 0.06507777 -0.033007365
0.0095347455 0.04961453 -0.04149555 -0.01822143 0.07612958 -0.017558206 0.024254482 0.050063632
0.034165513 -0.14702293 -0.049166884 -0.018814258 -0.079959564 0.0528578 -0.014312439 0.062029112
-0.0016704049 0.07048882 0.055247195 0.034725793 0.035380475 -0.6055572 0.0053739874 -0.016086413
-0.2998989 -0.065669216 0.04320052 0.061116155 -0.06198911 -0.010537005 -0.14442697 -0.08254367
0.0073692724 0.005400654 -0.042809896 0.035459712 0.006510332 -0.06122142 0.06571911 -0.05654138
-0.016245391 -0.0752642 -0.043512676 0.012677923 -0.041073248 -0.065151766 0.034702502 -0.010924741
0.0743108 0.08658053 0.019070432 -0.15138651 0.048427377 -0.0059409216 -0.119679615 0.05153547
0.13454847 0.08998004 -0.018221179 -0.078770876 -0.027013075 -0.083418965 0.052553866 -0.041574202
0.07665841 -0.072739094 0.02598158 0.020534528 0.07953578 -0.063456595 -0.9199171 -0.05799772
-0.020805366 0.07647364 -0.032803733 -0.010313937 0.05831628 0.0027069561 0.096976176 0.020685008
-0.083781764 0.09716105 0.063055225 -0.018503731 0.057482474 0.03248464 -0.059145864 0.0029956496
-0.051320672 0.078473926 -0.12237784 -0.12311457 -0.08313123 0.08257161 0.055094454 -0.045437764
-0.23726712 0.05331174 0.016452044 -0.08567315 -0.026052842 -0.062414806 -0.06065233 -0.0119433105
0.02844979 -0.07416777 -0.050393794 0.008969139 -0.04466656 -0.6662633 0.0034375251 -0.06018756
0.03441698 -0.004478214 -0.022784814 0.067982525 0.15114546 0.01758112 0.016544223 0.035258874
-0.0025024775 0.038295794 -0.031793892 -0.45572892 -0.11962242 -0.018987611 0.02910957 0.032815132
0.06938079 0.014043787 -0.08952653 -0.073356904 -0.076654986 -0.23622683 0.042544562 -0.026750956
0.019526683 -0.05618701 -0.035794273 0.019217342 -0.033887524 0.09113455 -0.053445805 0.013002428
0.023909371 -0.05680348 0.1292154 -0.034751214 -0.023092892 0.10007205 0.05656727 -0.010643495
0.0937086 -0.09024961 0.09770955 0.1041556 -0.06285483 0.06382443 0.0065964176 -0.047989335
0.0013034287 -0.07338396 0.0240151 -0.123700015 -0.017466998 0.062976584 0.06568274 0.031809
-0.033531394 -0.06409763 0.04105934 -0.030647077 0.05628861 0.048823193 0.057645887 -0.001542496
0.008248415 0.076266214 0.10309987 0.019837167 -0.035193346 -0.0028484424 -0.40153986 -0.04252166
0.009415484 0.059508614 -0.09709335 -0.0682308 0.0300742 0.008828782 -0.020482667 0.018027268
-0.04986624 -0.06332635 -0.053660862 -0.05717455 -0.37268493 0.014614722 -0.049902365 -0.43772894
-0.07677231 -0.076299325 -0.06974781 -0.33954072 -0.3810299 -0.02200989 0.021395655 -0.0045605367
0.017373635 -0.25959548 -0.040714577 -0.016988195 0.06232775 0.025635846 -0.041333094 0.0041241837
-0.04684822 -0.0069010747 -0.2161895 -0.042826276 -0.050219454 0.050817326 -0.110961385 0.052577145
0.019601392 -0.009139329 0.07407845 -0.03324192 0.033689965 0.08257677 0.018397057 0.0020212545
-0.23785083 -0.13172491 0.026323944 0.036527373 -0.062489886 0.06338326 -0.06184257 -0.080113575
00000000: 3f73 b93c d3e9 8c3d e255 37bd e6d4 11bc
00000010: 147e ddbe 1104 223d 5446 33bd 736d b4be
00000020: 30e0 713d d03a 333d a3d6 0d3d 9197 a5be
00000030: c6cf 03be b7ab 023d 7e47 853d bb32 07bd
00000040: 9f37 1c3c 9b38 4b3d 3df7 29bd 1c45 95bc
00000050: d3e9 9b3d 3ad6 8fbc 56b1 c63c 860f 4d3d
00000060: 23f1 0b3d 2e8d 16be 3763 49bd 5c20 9abc
00000070: d7c1 a3bd 6c81 583d b87e 6abc 3d12 7e3d
00000080: 7df1 daba 715c 903d e24a 623d a23c 0e3d
00000090: 1eeb 103d cc05 1bbf 4618 b03b a7c7 83bc
000000a0: 598c 99be 957d 86bd 07f3 303d ef54 7a3d
000000b0: 4be8 7dbd 67a3 2cbc aae4 13be a80c a9bd
000000c0: f079 f13b f8f7 b03b 6e59 2fbd 343e 113d
000000d0: a054 d53b 50c3 7abd be97 863d ef97 67bd
000000e0: 0e15 85bc 1e24 9abd 593a 32bd 10b7 4f3c
000000f0: 6c3c 28bd 4a6e 85bd 3624 0e3d affd 32bc
00000100: 4330 983d 2251 b13d 9839 9c3c 1105 1bbe
00000110: c95b 463d 10ac c2bb 961a f5bd db16 533d
00000120: 13c7 093e 7547 b83d 9544 95bc a052 a1bd
00000130: 864a ddbc 90d7 aabd b942 573d b649 2abd
00000140: 16ff 9c3d 3cf8 94bd 53d7 d43c 0738 a83c
00000150: a8e3 a23d 88f5 81bd b07f 6bbf 048f 6dbd
00000160: 0470 aabc 369e 9c3d 355d 06bd cafb 28bc
00000170: 0ddd 6e3d 3067 313b 729b c63d 9b73 a93c
00000180: c695 abbd 5ffc c63d 1923 813d 2395 97bc
00000190: be72 6b3d 9d0e 053d ef42 72bd a952 443b
000001a0: a035 52bd f0b6 a03d 3ca1 fabd 7e23 fcbd
000001b0: b540 aabd 4e1b a93d b9aa 613d f31c 3abd
000001c0: 27f6 72be 695d 5a3d 70c6 863c 6875 afbd
000001d0: c56c d5bc aba6 7fbd 946e 78bd e0ad 43bc
000001e0: 890f e93c 46e5 97bd b969 4ebd 4cf3 123c
000001f0: 48f4 36bd 3b90 2abf 1a48 613b 3b87 76bd
00000200: d2f8 0c3d fbbd 92bb 38a7 babc 6c3a 8b3d
00000210: e0c5 1a3e 4806 903c c087 873c 9c6b 103d
00000220: 9b00 24bb 0ddc 1c3d 503a 02bd 4d55 e9be
00000230: 99fc f4bd e88b 9bbc 3177 ee3c 2969 063d
00000240: 8417 8e3d e917 663c af59 b7bd 253c 96bd
00000250: 4afd 9cbd 72e5 71be 3543 2e3d d224 dbbc
00000260: 6cf6 9f3c 5a24 66bd 049d 12bd b06d 9d3c
00000270: a5cd 0abd c0a4 ba3d fde9 5abd 2308 553c
00000280: 96dd c33c c4aa 68bd 0b51 043e 4a57 0ebd
00000290: 4e2d bdbc 93f2 cc3d 15b3 673d 0e62 2ebc
000002a0: 4bea bf3d cad4 b8bd f21b c83d 884f d53d
000002b0: 08ba 80bd 62b6 823d c326 d83b 7790 44bd
000002c0: cfd7 aa3a 544a 96bd 51bb c43c 6f56 fdbd
000002d0: f316 8fbc def9 803d ac84 863d 274a 023d
000002e0: 3758 09bd 9e45 83bd d72d 283d 940f fbbc
000002f0: e38e 663d d4fa 473d 181e 6c3d 942d caba
00000300: 5c24 073c 7631 9c3d 0626 d33d 8e81 a23c
00000310: e626 10bd efac 3abb a296 cdbe 312b 2ebd
00000320: 6743 1a3c 4ebf 733d e1d8 c6bd 97bc 8bbd
00000330: 2b5e f63c 98a6 103c 44cb a7bc ecad 933c
00000340: 8b40 4cbd 3fb1 81bd 7ecb 5bbd dc2f 6abd
00000350: 8fd0 bebe 9672 6f3c 6c66 4cbd 021e e0be
00000360: cd3a 9dbd d242 9cbd f1d7 8ebd 48d8 adbe
00000370: 5a16 c3be 164e b4bc f145 af3c 8e70 95bb
00000380: 2753 8e3c b3e9 84be 54c4 26bd d42a 8bbc
00000390: 624b 7f3d 4402 d23c e44c 29bd 2924 873b
000003a0: ebe3 3fbd 6922 e2bb c860 5dbe 9b6a 2fbd
000003b0: eab2 4dbd d425 503d b93f e3bd 225b 573d
000003c0: 1993 a03c 20bd 15bc 71b6 973d ae28 08bd
000003d0: 7dfe 093d 021e a93d 6db5 963c 0677 043b
000003e0: 2b8f 73be e5e2 06be 50a5 d73c ba9d 153d
000003f0: 65f5 7fbd 15cf 813d a24e 7dbd 9612 a4bd

network.4.bias f4 [64]
-0.23623788 -0.1034796 -0.41687217 0.13118847 -0.5161577 -0.10160279 -0.27858654 0.14280902
0.31725284 -0.09438357 -0.29945093 0.024467472 0.13704066 0.35090375 0.13688584 -0.2054137
-0.14719333 -0.19159968 0.18837121 -0.033258304 0.05765763 -0.17267755 -0.6236748 -0.0063733426
-0.13585044 -0.2999917 -0.1345078 0.2595196 -0.14858264 -0.2814315 -0.73396057 -0.24983783
-0.16320123 0.011661765 0.031786703 0.026265882 -0.2140226 -0.07709557 -0.46282297 -0.60119426
0.20131335 0.047920648 0.19681016 0.20516649 0.14938805 -0.43156055 0.12425925 0.29910642
-0.3249246 0.03255783 -0.08690487 0.24803671 -0.1336152 -0.4489342 -0.080750346 -0.2683324
0.1727015 0.17405568 -0.2856964 -0.19432534 -0.28882158 -0.34951913 -0.44892555 -0.12527972
00000000: 58e8 71be 1ded d3bd 4570 d5be 4556 063e
00000010: e922 04bf 2015 d0bd e5a2 8ebe 873c 123e
00000020: f76e a23e 2c4c c1bd a251 99be 0270 c83c
00000030: 6354 0c3e a8a9 b33e cd2b 0c3e f857 52be
00000040: d9b9 16be b532 44be 62e4 403e dc39 08bd
00000050: 682a 6c3d 62d2 30be 27a9 1fbf 79d7 d0bb
00000060: 611c 0bbe 8398 99be 6abc 09be c1df 843e
00000070: 0c26 18be ca17 90be d7e4 3bbf 7dd5 7fbe
00000080: 391e 27be fd10 3f3c c632 023d 8c2b d73c
00000090: be28 5bbe 48e4 9dbd 22f7 ecbe dee7 19bf
000000a0: 1625 4e3e 7148 443d 9a88 493e 2a17 523e
000000b0: 2ef9 183e 81f5 dcbe a27b fe3d 7a24 993e
000000c0: 845c a6be 5c5b 053d 2efb b1bd 56fd 7d3e
000000d0: 6cd2 08be b4da e5be 7060 a5bd dd62 89be
000000e0: a9d8 303e a73b 323e cc46 92be 39fd 46be
000000f0: 6ce0 93be 2cf4 b2be 92d9 e5be 5449 00be

network.6.weight f4 [2, 64]
0.0070455763 -0.16260003 -0.08763882 -0.16027246 0.08451844 0.076909475 0.13963059 0.023443861
-0.016130742 -0.28143504 -0.084714636 0.22249289 -0.12832378 -0.07934153 -0.05890222 0.047791302
-0.053223774 -0.2125858 -0.03323557 0.10736657 0.13330854 -0.09933137 0.015380729 0.07659691
0.26268563 0.011894278 0.00064080546 0.04339187 0.012419598 -0.41313216 0.15546875 -0.06524411
0.06770988 0.074988425 0.005294519 0.15954791 -0.012304358 0.11815459 0.028982565 0.110715486
-0.1531873 0.029508032 -0.15435086 0.09046154 -0.11195638 -0.015493472 0.031334586 -0.00024005538
-0.025108663 0.023356952 -0.0042468347 -0.03475202 -0.0762156 0.106646664 0.056082826 0.01119878
0.018979816 -0.12563813 -0.024110496 -0.0069780084 0.13308093 0.055386916 -0.015821666 -0.4336579
0.004659926 -0.030040998 0.13074182 -0.015681347 -0.008482368 0.18548945 0.020257382 0.024643457
-0.10851862 -0.100171626 -0.00958445 -0.06876736 0.059662398 -0.029567584 0.18986453 -0.077544674
-0.13012408 -0.16715682 -0.1680152 -0.04393109 0.15288438 0.2056786 -0.20503032 -0.15231296
-0.0044389386 -3.7517715e-05 -0.26165545 -0.18435118 -0.017374806 -0.0007009263 0.0029930063 0.026988957
0.25676882 -0.20724604 0.014890544 0.080509275 -0.013299681 -0.04072439 -0.031843305 0.01109689
0.0043389695 0.030933587 0.0007615001 0.08924157 -0.005441804 -0.019189246 0.2145779 0.012466691
0.34248534 0.021338735 -0.1020552 -0.21983545 -0.110994056 0.18254007 -0.20868382 -0.111715995
-0.22070567 0.030513106 -0.022269119 0.166218 0.010821526 0.011846841 -0.00361578 -0.28683624
00000000: 94de e63b 9f80 26be fb7b b3bd 771e 24be
00000010: 0118 ad3d b782 9d3d 52fb 0e3e 570d c03c
00000020: 9e24 84bc 4118 90be de7e adbd 2dd5 633e
00000030: 4f67 03be d07d a2bd 7443 71bd d0c0 433d
00000040: 2c01 5abd 18b0 59be 0522 08bd 01e3 db3d
00000050: 0982 083e 3f6e cbbd 74ff 7b3c d7de 9c3d
00000060: bb7e 863e 38e0 423c bafb 273a acbb 313d
00000070: 927b 4b3c 0f86 d3be 3333 1f3e b49e 85bd
00000080: 7aab 8a3d 8893 993d a57d ad3b 8760 233e
00000090: 3898 49bc 09fb f13d d86c ed3c cdbe e23d
000000a0: 22dd 1cbe d4ba f13c 270e 1ebe e643 b93d
000000b0: 6349 e5bd 55d8 7dbc b258 003d 60b7 7bb9
000000c0: afb0 cdbc 1457 bf3c 0829 8bbb 2258 0ebd
000000d0: ed16 9cbd 9169 da3d 1bb7 653d 167b 373c
000000e0: 8f7b 9b3c 48a7 00be 6083 c5bc c7a7 e4bb
000000f0: 5e46 083e 64dd 623d 709c 81bc 6908 debe
00000100: 4bb2 983b 8a18 f6bc 2fe1 053e 2b76 80bc
00000110: a1f9 0abc f2f0 3d3e cff2 a53c 13e1 c93c
00000120: 033f debd c826 cdbd 1908 1dbc e7d5 8cbd
00000130: 8f60 743d b837 f2bc d96b 423e becf 9ebd
00000140: 3f3f 05be 282b 2bbe 2d0c 2cbe 16f1 33bd
00000150: b98d 1c3e 699d 523e 78f3 51be eef7 1bbe
00000160: 8474 91bb 575c 1db8 b4f7 85be 8ec6 3cbe
00000170: 9c55 8ebc 5ebe 37ba 5026 443b f217 dd3c
00000180: 3477 833e 4e38 54be 78f7 733c 0ce2 a43d
00000190: e8e6 59bc 9ece 26bd 206e 02bd bbcf 353c
000001a0: ea2d 8e3b 6f68 fd3c 689f 473a 49c4 b63d
000001b0: 2951 b2bb c432 9dbc 4fba 5b3e 1841 4c3c
000001c0: 3d5a af3e 92ce ae3c 5102 d1bd 8b1c 61be
000001d0: da50 e3bd c9eb 3a3e 36b1 55be 5bcb e4bd
000001e0: ab00 62be 9ff6 f93c ba6d b6bc 0d35 2a3e
000001f0: c54c 313c 4119 423c b9f6 6cbb 33dc 92be

network.6.bias f4 [2]
-0.019294523 -0.017177897
00000000: 8c0f 9ebc a9b8 8cbc
