src/Catcher_Flappy_Continuous/wandb/flappyBird/run_acc_state_inacc_r/files/flappy_agent_acc_state_inacc_r_2.pt (torch, 40641 bytes, 11 tensors)

critic.0.weight f4 [64, 5]
000000 90 39 d5 bd 69 ce 26 bd ed 26 85 3e 77 ac 3e be
       -0.1041137 -0.04072419 0.2600626 -0.18620478
000010 de ea 12 3e 4b 8c 0e be 30 0f cb 3d 83 4a 1c 3e
       0.14347407 -0.13920705 0.09915006 0.15262799
000020 aa 66 e0 bd 99 20 9a 3d cb bf bd bb 79 77 87 bc
       -0.109570816 0.07525749 -0.005790686 -0.016536461
000030 f8 c8 ea bd 9f 1c 0a be 4e e8 3d bd 8d 52 c0 be
       -0.11464113 -0.1348748 -0.04636412 -0.3756298
000040 9c 9a 8d 3c 8a d0 a2 be e6 6e 44 be 2b 8b 8b bc
       0.017285638 -0.31799728 -0.1918293 -0.017034134
000050 bc 8f 5d bd e3 85 fe 3b a1 33 7a bd fa 6c 27 bd
       -0.054092154 0.0077674254 -0.061084393 -0.040875413
000060 07 71 ff bd 1e b0 74 3e 28 2b fa 3c af 34 0b bd
       -0.1247273 0.23895308 0.030538157 -0.03398579
000070 53 e4 81 be df e0 01 3d fc 3a 0c be 11 2f fb bd
       -0.2536951 0.031708594 -0.13694376 -0.122648366
000080 ed 1e fb bd 87 8b 10 3d 90 23 4e bd 24 25 02 3e
       -0.12261758 0.035289314 -0.050326884 0.1270948
000090 b9 22 3b bd 0e f3 db be 56 48 a7 be 6c 9b e8 3d
       -0.04568741 -0.42958874 -0.32672375 0.11357769
0000a0 1e 6b aa bd b1 8f a3 be d9 3c 07 be d4 bf 59 3e
       -0.08321212 -0.31945565 -0.13206805 0.21264583
0000b0 89 a5 a6 3e fc 9c 03 3e c7 1d b4 3d 1e 52 dc 3e
       0.32548168 0.12852854 0.08794742 0.430314
0000c0 79 ee 60 3e 8d 4e 40 3e 08 33 a4 3e 5f d3 c2 bb
       0.2196597 0.18779965 0.32070184 -0.0059456076
0000d0 87 98 7b be a7 f7 2f bd 3a c9 89 3e 7b 5e e0 3d
       -0.24569903 -0.04296079 0.26911336 0.10955521
0000e0 d8 b3 8a 3d ef 46 b5 bc 23 11 d2 bd e0 06 60 be
       0.06772584 -0.02212855 -0.10257175 -0.21877623
0000f0 e4 ea 88 bd d1 0f 62 be 6c 13 a6 3e a2 51 73 be
       -0.06685427 -0.22076346 0.32436693 -0.23761609
000100 d4 58 6b 3d 2b f8 1d bd 34 fa 16 3e 0d 03 e5 3d
       0.05745776 -0.03856675 0.14743882 0.111822225
000110 4d 36 99 bd 40 1a 62 3e 50 0a f4 3e 81 da 09 be
       -0.0748106 0.22080326 0.47664118 -0.13462259
000120 35 1e aa 3d d3 02 87 bc 1e d7 59 be 2b 6b 72 3e
       0.08306543 -0.016480839 -0.21273467 0.23673694
000130 44 1e 0b bf 44 94 1f 3d 58 99 ce be fd 44 bd bc
       -0.54343057 0.038959756 -0.40351367 -0.023104185
000140 d6 e4 4a 3e 53 7c 89 3e 8f 00 09 3e 0d 8d db 3d
       0.19813856 0.26852664 0.1337912 0.10720263
000150 bb b2 0b 3e 74 55 23 bd 95 0d 46 3c 51 eb 15 3e
       0.13642399 -0.039876416 0.012088199 0.14640547
000160 d3 bb ce 3d 33 fe 3d bd 75 3c 31 bd 56 be c5 bd
       0.100944184 -0.046385 -0.043270547 -0.09655444
000170 4a 6e 87 3c a6 c1 ae bd 2e 3f 08 be f7 27 2e 3e
       0.016532082 -0.08533029 -0.13305351 0.17007433
000180 35 21 03 bb e2 12 63 3b b0 6b b3 bd ab 9e 19 bc
       -0.0020008807 0.0034648706 -0.08760774 -0.009376208
000190 fb 12 79 3e 50 d1 95 3d 2d 3d 7b 3d 6a df d3 bd
       0.24323647 0.07315314 0.06133764 -0.10345347
0001a0 60 df c8 be af 9b 08 be 38 3c 5f be e6 cf 57 3e
       -0.39232922 -0.13340639 -0.21800315 0.210754
0001b0 1e 55 9f be d7 d9 fb 3d 36 75 16 bd 1a 45 dc be
       -0.31119627 0.12297409 -0.036732875 -0.4302147
0001c0 f3 e3 a6 be 22 d4 5c 3d 49 84 13 3e 1c 5e a0 3e
       -0.32595786 0.053913243 0.14405932 0.313218
0001d0 5d 58 94 bc d1 9e 01 3d 3a 13 97 bc 88 48 dd bd
       -0.018108541 0.0316456 -0.018441785 -0.1080485
0001e0 4a 94 4d 3e e3 12 19 3e db d6 0c 3e 34 6f 91 3d
       0.20076099 0.14948611 0.13753836 0.071012884
0001f0 17 01 fe bd b4 f6 2b 3e e0 65 cd bc 63 72 1e be
       -0.124025516 0.16793329 -0.025072992 -0.15473323
000200 ee c0 31 3d 80 ff a1 3e 3f 99 a5 bd 9a d9 bb 3c
       0.043396883 0.31640244 -0.0808587 0.022930909
000210 7b 11 e0 bd 2a 7e b7 3d f4 79 03 bc 4e fa 6d be
       -0.10940834 0.08959611 -0.008024681 -0.23240015
000220 1c 9e eb bc fd fa 6c 3e 2d 13 74 be 71 c9 6b bb
       -0.028761916 0.2314262 -0.2383544 -0.0035978223
000230 07 17 f4 3d 26 ca de 3c 7c fc ce bd 35 2d 95 bd
       0.119184546 0.027196001 -0.10106751 -0.07284013
000240 ac ef e9 3d a8 7c ae bd 2b 3c 37 3e 23 c9 4c 3e
       0.11422667 -0.0851987 0.17894046 0.19998603
000250 85 f4 f8 3d 3a 31 15 3e c5 3b b2 b9 2d e3 21 bd
       0.121560134 0.1456956 -0.00033995337 -0.039523292
000260 43 64 14 be 1f 5c 8f bc 64 9e 83 3e 58 f7 33 be
       -0.14491372 -0.017499981 0.2570678 -0.17574823
000270 f4 43 6c be d0 5b a9 3d 6a 02 98 3e 5d 36 31 3e
       -0.23072797 0.08269465 0.29689342 0.17305894
000280 6b dd d4 3d b0 6a 9c 3e 82 41 39 3e e1 2e ca be
       0.103937946 0.30550146 0.18091395 -0.3948889
000290 de d2 0a 3e f6 07 df bc c2 fd 87 3d e2 6d cb 3d
       0.13557002 -0.027225476 0.06640197 0.09933068
0002a0 d5 9a 80 bd ab 35 50 3e b7 2f d2 3d 40 eb 14 be
       -0.06279532 0.20332973 0.10263007 -0.14542866
0002b0 c7 f1 bd bd 57 4c 9e 3e a4 73 82 3e 3f 70 c0 3d
       -0.09274631 0.30917618 0.25478852 0.09396409
0002c0 6b 6a a7 bd e7 9e 10 be db 07 db 3d 4d 1d 81 3c
       -0.081745945 -0.14123116 0.10694858 0.015761042
0002d0 55 0f 9c 3e 76 6c 10 3e 95 4a cc 3c 84 b9 16 be
       0.30480447 0.14103875 0.024937907 -0.14719206
0002e0 8e 6d 09 be 27 ae 97 3c a7 f0 cc bd 66 96 8a 3d
       -0.13420698 0.01851566 -0.10006838 0.067669675
0002f0 6c bc 5d 3e d7 0b 68 3e 53 41 7b 3e 45 8e e7 3c
       0.21653908 0.22660767 0.24536638 0.028266082
000300 9e b1 24 be 21 01 53 3d d4 03 ab 3d ff 94 80 3d
       -0.1608338 0.05151475 0.083503395 0.06278419
000310 49 36 e6 bc b9 d2 1b 3e 20 18 09 be d4 b7 ab 3e
       -0.028102057 0.15217103 -0.13388109 0.33538687
000320 04 44 46 be 7d b7 24 3d d9 e1 8d 3e db 46 f1 bd
       -0.19361883 0.04021405 0.2771137 -0.11781093
000330 4e c0 04 bf 67 20 22 be 7b 35 22 bd a6 7b c9 be
       -0.51855934 -0.15832673 -0.039601784 -0.3935215
000340 a5 89 8e 3d 05 10 9a be 87 83 3a 3e e0 f7 85 bd
       0.06959847 -0.30090347 0.18214236 -0.06541419
000350 2a 28 1e 3d d9 f6 23 3e 08 6c ae 3d 47 70 16 3f
       0.038612522 0.16012134 0.08516699 0.5876507
000360 76 1f 05 be a7 cc d6 3d 1b 23 75 bd 0f c9 d9 be
       -0.13000283 0.10488253 -0.059847932 -0.42536208
000370 80 cc 8c 3e 61 43 fd 3d 1a c5 20 be 7f dd 1b be
       0.2749977 0.12366367 -0.15700188 -0.15221213
000380 d5 d9 97 3d 06 6f 9a bd 11 79 13 3e 78 ab eb bd
       0.07414595 -0.07540707 0.14401652 -0.115073144
000390 e8 84 6e be 17 97 36 be bd b3 1b 3e 01 43 8a be
       -0.23292887 -0.17831074 0.15205283 -0.27004245
0003a0 ea 2f f8 bd 3c c3 9a be e7 59 af 3d c0 82 4b be
       -0.12118514 -0.30227077 0.085620694 -0.19874096
0003b0 39 a8 10 3d f4 24 8b 3e 21 ff d1 bd fe 08 68 be
       0.03531668 0.2717663 -0.1025374 -0.2265968
0003c0 22 3b af be 41 b0 10 be dc 19 cc bd cd 23 70 be
       -0.34224802 -0.14129736 -0.0996587 -0.23451157
0003d0 a6 bc 24 be 41 27 7b be 12 fc 67 3e f5 5a f4 3d
       -0.16087589 -0.24526693 0.22654751 0.11931411
0003e0 e1 52 1e be b8 e3 21 3e 5b ad 33 3e 5c 09 60 3e
       -0.15461303 0.15809524 0.17546599 0.2187857
0003f0 c2 b2 20 3d df 92 b2 3e a8 f6 be bc 73 ec 1d 3e
       0.039232977 0.3487768 -0.023310974 0.1542223

critic.0.bias f4 [64]
000000 95 ad 3e 34 2a 70 3b be 00 00 00 00 00 00 00 00
       1.7758278e-07 -0.18304506 0.0 0.0
000010 3c 0a cb b8 a2 1c 47 bd 72 dd 55 ba 61 e6 98 ad
       -9.6817006e-05 -0.04861129 -0.0008158303 -1.7382708e-11
000020 53 20 86 3e 00 00 00 00 db 32 1a 3e 29 ff e2 bd
       0.26196536 0.0 0.15058462 -0.11083824
000030 00 00 00 00 03 a5 25 3d 38 4a 99 bc 36 a4 7b ba
       0.0 0.04044057 -0.018712148 -0.00095993595
000040 00 00 00 00 d6 22 b7 3d 00 00 00 00 26 c8 84 3d
       0.0 0.08942191 0.0 0.06483488
000050 84 cd d5 bd 00 00 00 00 5d e1 aa 37 1c 66 1a bd
       -0.104395896 0.0 2.0370522e-05 -0.037695035
000060 00 00 00 00 50 f9 8f 3d c8 7f 2e 3d 00 00 00 00
       0.0 0.070299745 0.04260233 0.0
000070 44 69 f7 3c 7f 21 b8 3c 04 cd 6e b3 49 a5 81 3d
       0.030201562 0.02247691 -5.5600154e-08 0.06330354
000080 3c 9d 65 3c 4f c7 aa 3c 00 00 00 00 47 b5 93 3d
       0.014014538 0.02084699 0.0 0.0721231
000090 9e 08 35 bd 04 e0 34 3d 85 e8 15 3d 9a dc 43 3d
       -0.04419767 0.04415895 0.0365987 0.047817804
0000a0 37 b3 5e bd b0 10 ce bc 00 00 00 00 35 70 32 bd
       -0.05437013 -0.025154442 0.0 -0.04356404
0000b0 79 a3 8c 3d b4 55 f6 bc 76 48 1f b9 c0 36 79 bd
       0.068671174 -0.030070163 -0.00015190415 -0.06084323
0000c0 00 00 00 00 18 a4 67 be 00 00 00 00 00 00 00 00
       0.0 -0.2262119 0.0 0.0
0000d0 00 00 00 00 61 67 19 be c7 ec 82 bd a5 27 72 ae
       0.0 -0.14980842 -0.06392818 -5.505964e-11
0000e0 06 a4 3e 37 e5 f3 03 3d 7e 90 01 bd ba 7a e6 bc
       1.1363072e-05 0.032215018 -0.03163194 -0.028134692
0000f0 63 b3 c6 3c 38 a7 b5 be 41 c2 a5 ba 7f a1 d0 38
       0.02425546 -0.3547914 -0.0012646393 9.948294e-05

critic.2.weight f4 [64, 64]
000000 61 93 46 3e bd 89 22 3e 1a dd 3d 3d 3d e4 7e 3e
       0.19392158 0.15872855 0.046353437 0.24891753
000010 3a 71 17 3d c5 ae 83 be b2 8c 86 3d af a4 10 be
       0.036973216 -0.25719276 0.06569804 -0.14125322
000020 73 52 99 bd ba 4a 6e 3d 5e c0 06 be 1e 65 99 3c
       -0.07486429 0.058176734 -0.1315932 0.018724974
000030 c2 6d ad 3e 6c 1b 16 3d f0 9f 39 bd 45 f9 3d 3e
       0.338728 0.036647245 -0.045318544 0.1855212
000040 b5 18 13 be 80 b8 e9 bd 60 ea 91 3d 77 55 c2 be
       -0.14364894 -0.11412144 0.071247816 -0.3795583
000050 2f ce 5d bc 12 59 df 3d d0 cd 91 bd 0a 2e dc bd
       -0.0135379275 0.10905661 -0.07119334 -0.10750969
000060 f9 4f 28 be eb 79 82 3d d1 df 19 3f 6a 10 a1 be
       -0.16436757 0.0637091 0.6010714 -0.31457835
000070 d3 51 0b be be e5 83 3d 52 3a 83 be f8 10 ab 3d
       -0.13605432 0.06440304 -0.25630432 0.08352846
000080 e0 b6 fa bd 30 a9 90 be b9 87 37 3e 87 a5 90 be
       -0.12241912 -0.2825408 0.17922868 -0.28251287
000090 a8 4a bd bd 60 d1 62 3d b5 bd 39 be f8 96 6d be
       -0.09242755 0.055375457 -0.18138774 -0.23202121
0000a0 f8 52 1d be ff 1f 2c 3e 1b e2 3c be 6f 4c e0 3d
       -0.15363681 0.1680908 -0.18445627 0.109520786
0000b0 4d cf 3d 3d 98 2f 3a bd da 36 83 be 85 68 a8 bd
       0.046340276 -0.045455545 -0.25627786 -0.082230605
0000c0 92 fd a0 bd 14 fd 0a 3f f4 13 93 3e 44 f6 9c bd
       -0.07860865 0.54292417 0.2872616 -0.07664159
0000d0 1a cc 3c 3d 83 f0 86 be 57 7d ec be 9e 54 98 be
       0.046093084 -0.2635537 -0.46189377 -0.29752058
0000e0 b1 99 0d 3e 64 c8 ac bd c2 2b 66 3d 4e e7 02 3f
       0.1382816 -0.08436659 0.056194074 0.5113419
0000f0 ac ed c1 3c 59 ff c5 be a3 7e 8e 3e cd 48 21 be
       0.023672901 -0.38671377 0.2783099 -0.15750428
000100 09 f2 f1 3e 4e 99 8e bd 92 2a c5 bd 87 14 17 3d
       0.4725497 -0.06962834 -0.0962726 0.03688481
000110 a3 14 5d be 5e e4 57 bd 29 a6 33 3e 5f d2 08 be
       -0.21589904 -0.052708022 0.17543854 -0.133615
000120 39 2d c8 3e b2 3e 82 3d 4f 2f 07 3d 8d d7 0e bf
       0.39097002 0.063596144 0.0330041 -0.55797654
000130 6a e6 4e bc e1 3f 3d bf 27 d6 56 be 26 55 25 3d
       -0.012628177 -0.73925596 -0.2098013 0.040364407
000140 65 32 a2 bc 53 98 90 3e b5 4a 58 3e 7d c5 ea 3b
       -0.01979942 0.28241214 0.21122248 0.0071646557
000150 d3 7a f3 bd 55 a2 1e 3e e5 ba d4 3e 19 7a e0 bd
       -0.11888661 0.15491612 0.4154884 -0.10960788
000160 48 e5 e7 3d 60 94 06 bf fe a2 83 bc 84 ce 8d 3d
       0.11323029 -0.5257015 -0.016068932 0.06924155
000170 54 d9 45 3a d8 03 ad bd c9 29 4d 3e 0f ea 94 3e
       0.0007547338 -0.08447999 0.20035471 0.29084823
000180 4d 2f 78 be dc 90 b4 be 86 66 8b bd 64 56 c2 3d
       -0.24236794 -0.3526677 -0.06806664 0.09489134
000190 78 2f 84 3d db da 96 be d9 03 dd 3d 46 65 08 3e
       0.064543664 -0.29463848 0.107917495 0.13319883
0001a0 24 07 cf 3e dc df 01 bd bd c6 9c 3e f1 46 b1 be
       0.40435135 -0.03170763 0.30620375 -0.34624436
0001b0 f8 c3 6b 3d 04 77 96 3d 6b f6 09 bd 79 d7 76 3e
       0.057559937 0.07346919 -0.033682268 0.24105634
0001c0 35 50 45 3e ee 5c 3f be 8f ef 6d 3d df dd 6b be
       0.19268878 -0.18687794 0.05808979 -0.23033856
0001d0 c3 32 17 3e 60 03 aa be 83 48 a4 3b 2d d8 1a be
       0.14765458 -0.332057 0.005013527 -0.15121527
0001e0 68 21 88 3b 4d 4b 93 bd 99 5b 3e 3e 7e 25 21 bb
       0.004154373 -0.07192097 0.18589629 -0.0024588997
0001f0 db 48 e2 bd 75 5d 97 3f b4 86 dd 3e 0a 57 41 3d
       -0.11049052 1.1825396 0.43266833 0.047202148
000200 74 58 bc bd 3b 6f f6 bc 31 be 00 bd 25 24 95 3e
       -0.091965586 -0.030082336 -0.03143138 0.2912914
000210 d9 40 ae 3e a3 a3 df 3b 9f 86 83 bd c9 6f 58 bd
       0.3403385 0.006824927 -0.06422161 -0.05284098
000220 99 76 30 be 4f 88 a0 bc 31 04 dc bd a6 4b 9f 3e
       -0.17232741 -0.019596247 -0.10742987 0.31112403
000230 df cc b9 3e 1c 6f 6c be cc bf 8b be 29 e7 3a be
       0.36289117 -0.2308926 -0.27294767 -0.18252243
000240 f1 d0 dd 3c d8 5f 55 3e e5 5a 00 3d d9 bd 28 be
       0.02707717 0.20837343 0.031336684 -0.16478671
000250 00 86 f0 3e e4 c5 38 be 5a 80 d6 bd 89 f7 9d 3e
       0.46977234 -0.1804424 -0.104737 0.30852917
000260 a0 94 5c bb 89 a6 b3 3e 02 5a 1c be cd 4b 07 3d
       -0.0033657923 0.35087994 -0.1526871 0.033031274
000270 a1 d4 40 3e 49 d3 aa bc 9a 61 53 3e 5a 61 ba 3c
       0.18831111 -0.020852702 0.20642701 0.022751499
000280 e5 db be 3e 0c 30 21 3e 29 39 f3 3c a8 f8 a0 be
       0.3727714 0.15740985 0.029690342 -0.3143971
000290 d1 f4 84 3e 04 2d 8a 3d 11 30 c9 3e 6f 07 df be
       0.2596803 0.06746867 0.39294484 -0.4356036
0002a0 37 59 52 bf 98 29 48 be aa 70 62 be 3e 75 2f 3c
       -0.8216738 -0.19547117 -0.2211329 0.010709105
0002b0 8c 6b 98 3e c9 39 af 3c 24 9c ab 3d c0 24 d4 be
       0.29769552 0.021389859 0.08379391 -0.41434288
0002c0 5e 55 bd bd b6 68 17 be 1d 22 72 bd 4f 09 c8 be
       -0.09244798 -0.14786038 -0.059114564 -0.39069602
0002d0 e2 43 d9 bd fe bb 04 be 5c 88 a6 3e 59 e0 4c bd
       -0.10608651 -0.12962338 0.3252591 -0.050018642
0002e0 af b8 99 be 8c 28 13 3d 54 90 01 3e 51 39 c6 bc
       -0.30023715 0.03592734 0.12652713 -0.024197252
0002f0 57 35 9b 3e cc f2 1f bf af 7b a8 3d 75 73 00 bd
       0.30314133 -0.62479854 0.08226716 -0.03136011
000300 5c 92 14 3e 18 47 1b 3e 84 d8 23 be 43 c7 58 bd
       0.14508957 0.15163839 -0.16000563 -0.052924406
000310 8e af da be 5f 12 3e be 63 fe 55 3d c8 6e be 3d
       -0.42712063 -0.18561696 0.052244555 0.092984736
000320 96 c8 3e 3e 3a b9 b2 3e e8 30 07 be 15 9b 0f be
       0.18631205 0.34906942 -0.1320225 -0.14024003
000330 ab cb e1 3c a0 a6 83 3e fe 94 39 3c 7b 41 6e be
       0.027562937 0.25713062 0.011327026 -0.23267166
000340 6d 73 ba 3e c6 ff 2b bd df da 70 3d ed 28 09 be
       0.36416188 -0.04199197 0.05880248 -0.13394518
000350 41 56 16 3e 9a ad a3 be cc 62 b8 bd 1e e7 83 bd
       0.14681341 -0.31968385 -0.09003219 -0.064405665
000360 45 bb 60 bc 7d 38 30 3d fd 8c 10 3e bd 50 b4 3e
       -0.013716524 0.04302262 0.14116283 0.35217848
000370 c9 28 ff 3d c1 3c 5e 3e e4 42 a7 3d 1b a3 fd 3d
       0.12458951 0.21702863 0.08167055 0.123846255
000380 0c ff 84 bd 77 60 3a 3e 46 6f 11 3f ee bb 40 bc
       -0.06493959 0.18200861 0.56810415 -0.011763556
000390 07 92 34 be d1 69 aa 3e a2 68 80 3d 03 1c bb bc
       -0.1763383 0.33283857 0.06269957 -0.022840505
0003a0 ca 28 18 be 3a 39 4d be 76 86 05 3e 51 83 46 3e
       -0.1485931 -0.20041361 0.13039574 0.1938603
0003b0 95 42 91 3d e0 cb fb 3b 0c fb 07 be 88 e0 1b 3e
       0.07092778 0.007684216 -0.1327936 0.1522237
0003c0 05 bf 93 be 7f ac 6e 3e b4 6a 09 3e c2 7c 36 3e
       -0.28856674 0.2330799 0.1341961 0.17821029
0003d0 16 b4 cf bd 85 7f 59 3e 14 0c 92 3d 56 eb 1b 3e
       -0.101417705 0.21240051 0.0713121 0.15226492
0003e0 3d cb 37 3e cc 01 96 bd 21 a6 03 3e 02 31 20 3e
       0.17948623 -0.073245615 0.12856342 0.15643695
0003f0 8f 28 b4 be bb f0 49 bb 59 bb 38 be 60 00 d7 3e
       -0.35187194 -0.0030813653 -0.18040217 0.41992474

critic.2.bias f4 [64]
000000 09 5b 60 3c 73 04 20 bd 76 23 87 bd de 08 c2 3d
       0.0136935795 -0.039066743 -0.065985605 0.094743475
000010 78 5f d5 3c 44 ce 40 3d 9c 48 5f 3d eb 10 55 3d
       0.0260465 0.04707171 0.054512605 0.052018087
000020 72 50 e6 bd 9d 12 3a 3d b9 be 60 3d 3a da 19 bc
       -0.112458125 0.045427907 0.054869387 -0.009390408
000030 dd b2 96 3b 32 ef f3 3c 38 f1 ec bc b8 e8 9b bd
       0.004598959 0.029777143 -0.028923616 -0.07612747
000040 57 65 19 3d a4 0e be 3d 1d 14 e2 bc 7f f2 32 bd
       0.03745016 0.09280136 -0.027597481 -0.043688294
000050 c3 ee 33 bd 37 a8 3e bd 97 f6 09 3e 61 c9 5e 3c
       -0.043928873 -0.04654714 0.13472973 0.013597817
000060 5c f9 84 bc be e4 b8 3d 78 2e e3 3b bc f4 c1 3d
       -0.016232185 0.09028004 0.0069330297 0.094705075
000070 47 89 67 3d a7 d8 f9 3c 1c dd 40 bc 87 aa 82 3c
       0.056527402 0.030498816 -0.011771467 0.015950454
000080 83 14 af 3d 4d 09 56 bd e0 87 1b 3c 51 66 c3 3b
       0.08548834 -0.052254964 0.009492844 0.005963125
000090 08 20 3d 3d f7 f1 b8 3d f7 2b 24 3c 9f 1d f0 3d
       0.046173126 0.09030526 0.010020248 0.117244
0000a0 7c 67 14 bd a3 05 36 bc e6 26 b8 3d 48 17 c2 bc
       -0.036231503 -0.011109742 0.08991794 -0.023692742
0000b0 01 7c a2 bd 82 8c 28 3d e1 d2 9d bd 1a b5 bc bd
       -0.07933808 0.041149624 -0.077062376 -0.0921423
0000c0 fe 08 12 3d 40 54 c4 bc e9 34 7f 3c 51 e4 76 3d
       0.035653107 -0.023965955 0.01557658 0.060276333
0000d0 02 82 48 3d 3e cb 17 bd c3 8c 24 bd 79 45 9c bd
       0.04895211 -0.03705906 -0.040173303 -0.07630438
0000e0 7c b6 88 3d ef c3 09 3a fe 8b cc 3c 53 fa 1d 3c
       0.06675431 0.00052553316 0.024969097 0.0096422015
0000f0 c8 59 32 bd 27 dc 88 3d af 79 91 3d 7b d9 2e bd
       -0.043542653 0.06682616 0.071032874 -0.042687874

critic.4.weight f4 [1, 64]
000000 d2 c8 ef bf 51 38 08 40 cb c6 fa bf ac 96 da bf
       -1.873316 2.1284373 -1.9591917 -1.7077231
000010 63 be d7 bf 30 4b 06 c0 ee 18 e8 3f 6e 7c eb bf
       -1.6854976 -2.098339 1.8132608 -1.8397348
000020 7b 61 ea bf fc c0 01 c0 a6 cd df 3f 05 a1 02 c0
       -1.8310999 -2.0274038 1.7484634 -2.0410779
000030 1a 0b e1 3f 8d f5 ec bf 92 59 02 40 28 88 e8 bf
       1.7581513 -1.8512436 2.036717 -1.8166552
000040 c2 91 e8 3f 5c 2a dc bf 95 ed fb 3f 44 eb f1 3f
       1.8169482 -1.7200427 1.9681879 1.8899922
000050 b2 01 eb 3f 85 44 d6 3f 3a 1b e1 bf 3c f9 f4 bf
       1.8359892 1.673966 -1.7586434 -1.913856
000060 91 6d e6 3f 6f 7a d0 bf ad ed 04 c0 5a 33 f5 3f
       1.8002187 -1.6287364 -2.0770066 1.9156296
000070 8c 3d 0e c0 a3 85 d5 bf 1d 2b 10 c0 b9 c5 db 3f
       -2.2225065 -1.6681408 -2.2526314 1.7169715
000080 42 3f e2 bf f3 cb df 3f c4 d2 ce 3f 72 61 e4 3f
       -1.7675555 1.7484115 1.615807 1.7842238
000090 36 57 ee 3f 07 0a e7 bf 2d 8c e4 3f 9a 76 da 3f
       1.8620365 -1.8049935 1.7855278 1.7067444
0000a0 45 db 02 c0 a6 fc e6 3f 22 4e de bf 6d d7 0b c0
       -2.0446332 1.8045852 -1.7367594 -2.1850235
0000b0 17 62 ee bf 2c d6 d0 bf 34 5d fc 3f 88 7f e4 bf
       -1.8623685 -1.631536 1.9715943 -1.785142
0000c0 9e a4 f0 bf 0d b9 07 c0 57 71 f1 3f fe e3 e0 3f
       -1.8800237 -2.1206696 1.8862714 1.7569578
0000d0 c4 72 cf bf c0 6d e2 bf f2 9a e2 3f b1 8d 0a c0
       -1.6206899 -1.7689743 1.7703536 -2.1648982
0000e0 b5 bc ec bf 5a 08 04 40 df 35 db bf f2 6c d9 3f
       -1.8495089 2.0630097 -1.7125815 1.6986372
0000f0 7d fa df bf 4f aa 07 40 35 3a fb bf 81 65 fa bf
       -1.7498318 2.1197698 -1.9627138 -1.9562227

actor.0.weight f4 [64, 5]
000000 d7 a0 05 3d 68 0d d0 be 4f e1 79 3e 16 af 45 3d
       0.032624092 -0.40635228 0.24402355 0.048262678
000010 42 db 29 be 01 7f 79 be 35 9b c0 bd e0 7f 9f 3d
       -0.16587546 -0.24364854 -0.094046034 0.07788062
000020 0b 20 21 3e 0e c5 00 3d 34 cd 51 3e 42 ca ba 3d
       0.1573488 0.031437926 0.20488435 0.09120609
000030 09 84 08 3e f1 30 89 be 44 0c 4c be 3c a5 97 3e
       0.13331617 -0.26795152 -0.19926554 0.2961825
000040 d3 c6 66 be e0 06 5b bd 9f 21 32 3e 8f 27 a2 bc
       -0.22536783 -0.053473353 0.17395638 -0.019794254
000050 1f 65 bf bd c1 ae 82 3e 8a cd 54 3e 14 7e a8 be
       -0.09345459 0.25523952 0.20781532 -0.3290869
000060 14 a2 aa bd cf f8 92 be 29 ef 18 3e eb f3 52 be
       -0.08331695 -0.2870545 0.14934982 -0.2060086
000070 ae d4 3e bc 1a b1 cc 3d 2e ae 1f be 43 12 e7 3d
       -0.0116473865 0.09994717 -0.15593788 0.1128278
000080 97 1d 76 bd 9c ad 0d 3e 64 eb c6 bd 44 f2 81 be
       -0.060086813 0.13835758 -0.09712866 -0.25380147
000090 ee c0 24 3e 7a cc 0e bc d5 51 74 be 3b 8b a0 3e
       0.16089222 -0.008715743 -0.23859341 0.31356224
0000a0 35 a3 34 3b d1 b1 4c be 0e ba d2 3d e7 16 41 be
       0.00275631 -0.19989707 0.10289393 -0.18856393
0000b0 05 e6 dc bc 53 a6 3c bd f8 8a aa be 8b 60 ed 3d
       -0.02696515 -0.046057057 -0.3330915 0.1159068
0000c0 de f6 2a bd db c1 47 3d a6 af 0f 3e 31 a7 d9 3d
       -0.041739337 0.04876886 0.14031848 0.10627592
0000d0 d9 e5 09 3d e1 f4 5a be 7c 4f 51 3e 01 0d 21 bd
       0.033666465 -0.21382476 0.20440477 -0.039319042
0000e0 02 c7 7d be 1d 26 90 3e 0d a1 2b be bb 37 1e 3f
       -0.24782947 0.28154078 -0.16760655 0.6180379
0000f0 03 4f 53 be 67 8e 7e be 0f 32 29 be d3 a6 ba bd
       -0.2063561 -0.2485901 -0.16523002 -0.091138504
000100 27 66 9d 3d 48 6d b8 3d f6 96 73 be 38 c3 eb be
       0.076855 0.09005219 -0.23788056 -0.46047378
000110 f3 0e de bd 8b be 08 3e 0f 67 66 3e 10 20 00 be
       -0.10842695 0.13353936 0.22500251 -0.12512231
000120 b1 9d 11 be 95 a8 9c bd 8c bb b1 bd 41 25 26 be
       -0.14220311 -0.07649342 -0.0867835 -0.16225149
000130 21 97 76 bd 92 bc 77 be b1 31 0c 3c 13 c6 4c 3e
       -0.06020272 -0.24193028 0.008556769 0.19997434
000140 e1 06 6f be 7d 54 45 3e ff 6e 36 3d 17 fe 01 3d
       -0.23342468 0.19270511 0.044539448 0.03173646
000150 16 c4 bb 3d 7d 13 a3 3d 5d f7 70 3d a4 68 eb bd
       0.0916826 0.079627015 0.058829654 -0.11494568
000160 de 91 6c be 6a 78 d4 3e 72 b7 de 3d ed a0 92 3b
       -0.23102519 0.4149812 0.10874833 0.0044747503
000170 0d b3 28 be 15 15 38 be 2a 56 98 be 0e 34 6b be
       -0.16474552 -0.17976792 -0.29753238 -0.22969076
000180 39 37 20 3e 68 85 03 3e 20 65 c1 be f8 46 a2 3d
       0.15646066 0.12843859 -0.37772465 0.079236925
000190 68 d6 4d 3e 6b 09 1e 3d 51 fb e2 3c ee 32 f9 39
       0.2010132 0.0385832 0.027707728 0.00047530927
0001a0 28 79 91 bd a9 8c 9f be b8 bb 40 3d db 11 91 be
       -0.07103187 -0.31162003 0.047054023 -0.28333935
0001b0 72 54 13 3e b5 f7 b4 3c 9b 1f 5a 3e 66 9b 05 be
       0.14387682 0.022090772 0.21301119 -0.13047561
0001c0 63 cd 91 3e 26 9f 9b bc 55 23 70 3e ac e7 92 3e
       0.2847701 -0.018996786 0.23450978 0.28692377
0001d0 5a 9a e0 bd 9d c8 1f be 14 46 b4 be 30 b0 39 bd
       -0.1096694 -0.15603872 -0.35209715 -0.04533404
0001e0 74 5e 0c 3d cb be 2f be be 6f 83 bd 48 8a fc bd
       0.034269765 -0.17162625 -0.064177975 -0.123310626
0001f0 05 65 30 3e 28 15 35 3e f2 a3 0a 3e 5f ed 15 3e
       0.17226036 0.17683852 0.13539103 0.14641331
000200 09 45 9e bd 26 07 48 3e 67 4f 07 be 70 05 94 bc
       -0.07728011 0.19533977 -0.13213883 -0.018068999
000210 a9 81 60 3e 86 49 51 3d 4f c7 ae be f3 e5 ea bc
       0.21924461 0.051095508 -0.34136435 -0.028674101
000220 87 60 c7 3c 4e 86 f0 bd bc 06 8f bc 45 8c 57 be
       0.02433802 -0.117443666 -0.017459266 -0.21049602
000230 66 53 5f bd 61 9a b2 bd 6b 50 05 3c c8 a1 68 be
       -0.054522894 -0.08720852 0.008136849 -0.22717965
000240 3d 7d 91 be 4e e6 3c bd 54 c5 b1 3c c6 dc 40 3e
       -0.28415862 -0.046118073 0.021700539 0.18834218
000250 79 fe c7 3d 66 91 55 be 89 54 51 3e fd 3e 81 be
       0.09765334 -0.20856246 0.20442404 -0.2524337
000260 cc 30 84 be 65 5d 93 3e 1d 29 aa 3c e7 13 90 3e
       -0.2581848 0.28782192 0.020771557 0.28140184
000270 f1 4e 59 3d bd 7d 26 be 56 01 00 bd 72 78 54 3d
       0.0530538 -0.16258903 -0.031251274 0.051872678
000280 e8 89 8c 3c 79 d2 08 3e cf ae 36 be 06 c3 e5 3d
       0.017155603 0.13361539 -0.17840122 0.112188384
000290 16 dd 54 3e 7e 88 13 be b7 45 f2 3d 9e 66 a1 3d
       0.20787463 -0.14407536 0.11829703 0.07880901
0002a0 ba 3f d4 be b6 65 fa 3d fb e7 cb 3d f6 4d 03 be
       -0.4145487 0.12226431 0.09956356 -0.12822708
0002b0 e0 8a 11 be c1 7d c5 3c 47 da 1c 3d 22 3d c9 bd
       -0.14213133 0.024107816 0.038294103 -0.09826113
0002c0 89 c5 c0 be 65 34 b0 be 81 61 be bd c2 05 1b 3e
       -0.37650707 -0.34414974 -0.09295941 0.15138915
0002d0 8c c9 a3 3e fa 19 c3 3b 23 59 73 3d c5 68 ae bc
       0.31989706 0.0059540244 0.05941118 -0.021290192
0002e0 03 42 85 3d 1b b7 82 bd a7 52 86 3c 21 15 10 bc
       0.06506731 -0.06382581 0.016396834 -0.0087941
0002f0 76 6c 85 bc fd ef 56 3e 99 ad 65 3d 6f fe 4c 3e
       -0.01628707 0.20989986 0.05607376 0.20018934
000300 a6 d3 a5 3d 06 39 fc bc ba dc a5 bd 4c 2a 41 3c
       0.08097009 -0.03078891 -0.08098741 0.0117898695
000310 aa 99 f3 bd d0 ed 19 bd 68 22 b7 be c0 9b 8d be
       -0.118945435 -0.03758031 -0.35768437 -0.2765789
000320 ad 81 6d bd a6 81 45 3e 7e 0a 13 be 86 4c 0d be
       -0.057984997 0.19287738 -0.14359471 -0.13798723
000330 aa 3e 15 be 25 63 94 be b0 ed 3b 3d f8 ea c2 3d
       -0.14574686 -0.2898189 0.045880973 0.09517473
000340 7b 26 41 be 93 73 81 3c 61 6b 87 3e 16 2e 33 be
       -0.18862335 0.01580218 0.2644911 -0.17498049
000350 b0 44 18 be da 2e c1 bd 58 4d 01 3e 20 33 a8 3c
       -0.14869952 -0.09432764 0.1262716 0.02053219
000360 8b 84 44 3e 1b f3 da be 1e 89 e1 bc af 17 92 bd
       0.19191186 -0.427636 -0.027531203 -0.071334235
000370 08 4d 05 be 3d 54 c7 3c 07 7a 61 3d bd da c0 bc
       -0.13017666 0.02433216 0.055048015 -0.023541803
000380 55 c8 3f 3e 06 ec cc 3d 36 7b 16 3e da 26 f0 bd
       0.18728764 0.100059554 0.14695439 -0.1172616
000390 12 80 39 3e c4 ab 6f 3e 33 c4 54 be 47 5a d0 be
       0.18115261 0.23405367 -0.20777969 -0.40693876
0003a0 79 8b be 3d 94 63 6a 3d 43 c1 a6 3d c7 34 da bd
       0.09303946 0.05722387 0.081423305 -0.10654598
0003b0 03 27 01 be 6f 92 f6 bd aa 48 88 bc 33 1b be bb
       -0.12612538 -0.12039649 -0.016636211 -0.0058015822
0003c0 9a 13 8b be 3e 2b 92 be a7 08 68 3d 0b 85 9f 3d
       -0.27163392 -0.28548616 0.056648877 0.07789048
0003d0 a0 1a b1 3d ec 36 ca be 10 9e 43 be a3 e6 d2 3d
       0.086476564 -0.39495027 -0.19103265 0.10297897
0003e0 f6 0c 1d 3e 7f 60 14 3d 4e 55 ae bc 5b f8 ec bd
       0.15336975 0.03622484 -0.02128091 -0.115708075
0003f0 b6 f0 b6 3c 8c c2 b0 3e c8 3b 8b be 02 2d 8d bd
       0.022331577 0.34523427 -0.27194047 -0.0689335

actor.0.bias f4 [64]
000000 4e 24 f3 bb 4e 41 0a bb 0a a2 d4 bb b0 32 6f 3c
       -0.0074200993 -0.0021096054 -0.006489043 0.014599487
000010 70 cb 35 bc 24 46 3b bb 69 49 01 3d 4c 60 50 b4
       -0.011095867 -0.0028575743 0.03156415 -1.9406542e-07
000020 00 00 00 00 e5 6f d0 3a 71 b7 6a bc a5 0c 9f bb
       0.0 0.0015902488 -0.014325962 -0.0048538023
000030 00 00 00 00 15 b9 2a 2b 8f de 79 bb fb 22 3a 2f
       0.0 6.0652985e-13 -0.003812704 1.6929029e-10
000040 64 45 01 3c 8f b7 b8 3b ac c3 4d bc 00 00 00 00
       0.007890079 0.0056371163 -0.012558859 0.0
000050 44 da 25 b7 6d 8b c4 bb 75 8c a0 bb 19 71 83 bb
       -9.885585e-06 -0.005998066 -0.0048995563 -0.004011285
000060 00 00 00 00 05 f1 a3 38 a6 7d 59 bb 2a c9 21 bb
       0.0 7.817339e-05 -0.0033186465 -0.0024686554
000070 00 00 00 00 ec da b4 38 3d f6 1b 3d 41 8c 4d 3b
       0.0 8.623846e-05 0.038076628 0.0031364115
000080 d3 26 67 3b 00 00 00 00 3d 29 ba 3b 00 00 00 00
       0.0035270944 0.0 0.0056811855 0.0
000090 b2 28 10 bb 2c e3 80 bb 6d ea 19 38 00 00 00 00
       -0.0021996913 -0.003933331 3.669637e-05 0.0
0000a0 44 9b f2 ba 00 00 00 00 a2 82 09 bc 75 7f 67 3c
       -0.0018509408 0.0 -0.008392962 0.014129509
0000b0 24 ed 48 bb 00 00 00 00 14 ce 50 b9 86 c4 b9 a8
       -0.0030658925 0.0 -0.00019913196 -2.0624354e-14
0000c0 8f 86 6b b8 8a 11 5c b9 3b a1 06 3b 00 00 00 00
       -5.6153684e-05 -0.00020987369 0.0020542878 0.0
0000d0 00 00 00 00 00 00 00 00 40 19 70 3a f4 cc 90 3c
       0.0 0.0 0.0009159036 0.017675854
0000e0 8b 47 bd 3a 0c c7 19 bb d3 84 ce b8 1d 05 59 37
       0.0014440877 -0.0023464588 -9.847586e-05 1.2935398e-05
0000f0 00 00 00 00 00 00 00 00 00 00 00 00 6f b5 46 bc
       0.0 0.0 0.0 -0.012128218

actor.2.weight f4 [64, 64]
000000 2c 85 b7 bd 31 14 4f 3d 91 24 c2 be aa 92 0e 3e
       -0.089609474 0.050556365 -0.37918523 0.13923135
000010 7b 81 06 be 22 1a 3c be a9 97 01 3f 0e 83 11 be
       -0.1313533 -0.18369344 0.5062204 -0.1421015
000020 4a 33 15 bd b6 11 e3 bd bf 60 e8 3d 63 ca 48 3e
       -0.036425866 -0.110873625 0.11346578 0.19608454
000030 28 f3 26 bc b5 6f b0 bd 29 0d d8 3d 43 aa c3 bd
       -0.010189809 -0.086150564 0.10549385 -0.09553959
000040 83 35 7b bd b6 6a 06 be 1f 80 06 3f b3 77 c7 bd
       -0.06133033 -0.13126644 0.5253925 -0.09739628
000050 50 4a 42 3e d0 27 3d 3e e8 7f 9b 3e 79 74 8e be
       0.1897366 0.18472219 0.30371022 -0.27823237
000060 92 75 2c 3c eb 48 fb bd db 33 8a bd d1 8f 92 3d
       0.010526078 -0.122697674 -0.06748172 0.07156337
000070 ba ab 15 bd 9b ee df 3d a0 db c4 3d 11 a1 91 bd
       -0.036540724 0.10934182 0.09612203 -0.07110799
000080 08 6d 91 39 76 1b 02 bd 30 b9 30 3e 83 a8 e2 3c
       0.0002773779 -0.03176447 0.17258143 0.027668243
000090 d8 02 3d be 7b f5 fb 3d 88 b2 80 be 36 3b 32 3e
       -0.18458116 0.12302681 -0.2513621 0.174054
0000a0 6a 7c 2a be 27 fc fb 3c 74 ca 29 bd b8 ab 67 3e
       -0.16649023 0.030759884 -0.04145284 0.22624099
0000b0 f2 40 9a bd 4c c2 51 3e ee 0a 44 3e f6 7d 98 3e
       -0.075319186 0.20484275 0.19144794 0.297836
0000c0 94 a7 83 3e 8d 24 df bd 5e f8 1f 3e 41 c7 c9 bd
       0.2571379 -0.108956434 0.15622088 -0.09852458
0000d0 87 57 de 3d 1a ab 02 3e b9 fc c7 bd e4 cf 67 3d
       0.10856538 0.12760583 -0.09765 0.056594744
0000e0 94 ca 08 bd b6 06 97 bd 65 1f a0 bd a6 9f 91 be
       -0.03339632 -0.07374327 -0.07818488 -0.28442115
0000f0 71 22 ed 3d f3 47 ae bd e4 79 93 3e 7d ab 9e be
       0.11578835 -0.08509817 0.28803933 -0.3099021
000100 df 9c 07 be 87 80 97 3e 59 af 24 be 4c 80 ad be
       -0.13243435 0.29590246 -0.16082515 -0.33886945
000110 de 0f 3e be 44 26 a5 be 52 21 6f 3d 42 14 8c bd
       -0.1856074 -0.32255757 0.058381386 -0.06839801
000120 20 78 75 be 5d 2a 7e 3d 28 ed 48 be ab 6a 1e bc
       -0.23971605 0.06205212 -0.19621718 -0.009668986
000130 33 e5 82 3e 2b 62 0c bd ad eb 84 3d b0 71 3b be
       0.2556549 -0.034273308 0.06490264 -0.18305087
000140 16 95 96 3e a7 74 13 be 88 0f 8b 3d e1 97 80 3e
       0.2941062 -0.14399968 0.06790072 0.25115874
000150 fc 53 23 3e bb 23 05 3c fa 0f b2 be 0a a0 39 be
       0.15950006 0.008126195 -0.34777814 -0.18127456
000160 aa 6c c9 bd 13 4a 35 bd 75 91 e5 bd ba 13 bf 3d
       -0.09835179 -0.044260096 -0.11209384 0.093299344
000170 70 6a 63 be e8 ee da 3d d9 6b bc 3e 02 ee 88 3e
       -0.22208571 0.10690099 0.3680103 0.26744086
000180 37 43 5c be 16 12 ab bd 1b 6c 41 3c a5 2c de be
       -0.21510015 -0.08353059 0.0118055595 -0.43393436
000190 72 7d 08 be 50 56 60 3d 2f 47 51 bc e1 57 86 3b
       -0.13329104 0.054769814 -0.012773319 0.0040998315
0001a0 92 78 6e 3e 62 e6 05 3e 3a 44 6b be bb ee 67 3d
       0.23288181 0.13076165 -0.22975245 0.056624155
0001b0 72 23 ad be 43 74 71 3d a0 38 5b 3e f9 26 47 bd
       -0.33816105 0.058948766 0.2140832 -0.04862115
0001c0 74 6f d1 3a 33 fe 38 3e a1 ec 43 3e fa 6f 31 3e
       0.001597865 0.1806572 0.19133236 0.17327872
0001d0 69 2c 20 3d 06 d9 12 be 97 12 25 be 29 af 1a 3e
       0.039104853 -0.143406 -0.16120373 0.15105881
0001e0 c2 6a be be c1 91 6e 3e f4 98 8b be 33 64 2f 3e
       -0.37190825 0.23297788 -0.2726513 0.17128067
0001f0 58 e3 c4 3d 5f a5 26 3d 8e 37 e0 3c 8a c7 f1 3c
       0.09613675 0.040685054 0.02737024 0.029514093
000200 b4 13 a9 3d 91 70 55 be df f2 cb 3c 40 64 72 3e
       0.08255711 -0.20843722 0.024896083 0.23671055
000210 ae 63 8a 3e cb dc 89 be 0a 25 15 be 75 a9 af 3d
       0.27029175 -0.26926264 -0.1456491 0.08577243
000220 15 91 aa bd dd e5 c3 3d a3 fd e3 bd c6 f5 28 be
       -0.083284535 0.09565327 -0.11132362 -0.16500005
000230 b1 15 c0 bd 3d 84 d7 3d 57 98 9d bd 94 48 58 be
       -0.09379137 0.10523269 -0.07695072 -0.21121436
000240 bb 2f 27 3d 83 8f 4d 3e b7 d1 47 3e 71 57 0b 3d
       0.040817004 0.20074277 0.19513594 0.034018937
000250 c5 2f b5 3d e3 af a4 be fe 56 26 be 9b 41 07 3d
       0.08847002 -0.3216544 -0.16244122 0.03302155
000260 38 59 29 3e cc c6 88 be c9 31 a3 3b 5d 71 46 3e
       0.1653794 -0.2671417 0.0049803 0.19379182
000270 e7 79 1b bd 2c 9a 38 3e 93 3a aa be 4e 52 80 be
       -0.037958052 0.18027562 -0.33247814 -0.25062793
000280 68 51 8e be da 99 8e 3e 9f 36 97 bd e1 67 a5 bd
       -0.27796483 0.27851754 -0.07383465 -0.08076454
000290 09 42 56 3c a7 ed 79 3d 66 f8 79 3e 2a 4c 16 3e
       0.013077267 0.06101766 0.24411163 0.14677492
0002a0 c9 a8 d1 bd e5 04 b7 bd d5 38 8c bc 1b 05 6d 3e
       -0.10237271 -0.089364804 -0.017116943 0.23146479
0002b0 4c 69 ce 3d ec 39 a0 be 26 ba 10 be 4a 83 4b 3e
       0.100786775 -0.3129419 -0.1413351 0.19874302
0002c0 3b 1d 10 be e6 95 51 3e c9 e4 21 be 2b 1e e7 3c
       -0.1407365 0.20467338 -0.15809931 0.028212627
0002d0 32 cd 0f be e5 44 fc bd 2a 40 84 3d d8 e6 67 bc
       -0.1404312 -0.12317828 0.06457551 -0.0141541585
0002e0 a7 30 4d bd 3f a1 64 be 5b 5a 2d bd ba 5d 13 be
       -0.050095227 -0.22327136 -0.042322498 -0.14391223
0002f0 df 0c 8c 3d 52 91 27 be 82 c8 c7 be f3 40 09 bf
       0.068383925 -0.16364029 -0.39020163 -0.5361473
000300 58 ff de bd 6e 43 2d bc 84 67 d9 3e 38 a8 86 be
       -0.10888547 -0.0105751585 0.4246179 -0.26300216
000310 47 75 43 3e 94 df 14 be 90 c6 b5 3d c9 aa 89 be
       0.19087707 -0.14538413 0.088757634 -0.2688811
000320 69 2d 5b bd 18 08 9c 3d 8c 8f 74 be 05 c3 ca 3c
       -0.053510103 0.07618731 -0.23882884 0.024751196
000330 c3 9e c3 3d 40 77 03 3e 42 a1 d4 bd 4e 6d 37 be
       0.09551766 0.12838459 -0.1038232 -0.1791279
000340 66 78 29 be 46 ef 66 be 5a 79 b3 bd 9f 22 21 bd
       -0.16549835 -0.22552213 -0.0876338 -0.039339658
000350 66 e8 d7 bb 6b 0b 0a bc 8d e0 92 3e 82 a3 b0 3d
       -0.0065889833 -0.008425574 0.28686944 0.08624937
000360 6b c1 1e 3c 17 c5 f6 3d b9 0e 2c be 60 e3 24 bd
       0.009689669 0.12049311 -0.16802491 -0.040255904
000370 9e 23 0f 3e b4 6a 1a 3d 6e 19 1d bd eb 65 88 be
       0.1397843 0.037699416 -0.03835433 -0.26640257
000380 64 1b 89 3e 69 4b 93 be 39 d1 00 3d 5c 9e 05 be
       0.2677871 -0.2876847 0.03144953 -0.1304869
000390 ce a4 0c be 3c a7 70 be 01 ea 4a bc f6 ec 18 3e
       -0.13734743 -0.23501295 -0.012384892 0.14934143
0003a0 32 ed c4 bd 4a 24 07 be cc 92 48 3e 98 15 67 be
       -0.09615554 -0.13197437 0.19587249 -0.22566831
0003b0 6e 34 e9 3b 01 d8 8d 3d 21 ca 78 3d cc ea 3e be
       0.007116846 0.06925965 0.06073964 -0.18644255
0003c0 b3 67 8b 3d 1f 36 b6 3e e9 dd 87 be 3f f3 9f 3a
       0.068068884 0.35588166 -0.26536492 0.001220323
0003d0 18 b9 3f 3e 24 17 3d be f8 ae b9 3d 4d 9a 80 be
       0.18722951 -0.18465859 0.09066576 -0.25117722
0003e0 9c 47 77 3c 34 59 fa bd 09 c1 ec be d4 de 18 be
       0.015092757 -0.122240454 -0.46241024 -0.14928752
0003f0 ad d5 8b 3e e3 89 fa bd 6e 05 01 be 86 c6 b0 bd
       0.2731146 -0.12233331 -0.12599728 -0.08631615

actor.2.bias f4 [64]
000000 95 01 bc bc 48 ab 2f 3d c7 3e 96 3c e0 9c 96 bc
       -0.022949973 0.042887956 0.018340481 -0.01838535
000010 6a 58 b7 3c 0b c0 c2 3c ef cb 1c ba 75 2f f1 3b
       0.022381026 0.023773214 -0.0005981316 0.0073603936
000020 db 4a 6d bc 29 57 d2 bb 30 72 ea ba aa ed 99 3b
       -0.014483179 -0.0064190817 -0.0017886814 0.004697521
000030 f4 07 18 3d 8d 23 82 bc d8 97 7e 3c 8e f8 c5 3b
       0.03711696 -0.015886093 0.015539132 0.006041593
000040 43 af a7 3a 63 e7 f5 ba 37 fe 76 ba 8a bd 00 3d
       0.0012793321 -0.0018760975 -0.0009422036 0.03143076
000050 8f 11 a3 3c 56 1e f4 bb cd ed 7d bb 75 ce 04 ba
       0.019905834 -0.0074499054 -0.0038746477 -0.0005066165
000060 5b 2e 01 ba 76 98 c7 bb ba 93 fc b9 7b ab 33 bc
       -0.0004927867 -0.006091173 -0.0004817525 -0.010966177
000070 33 29 c2 3a 3c e0 1d b7 9b 10 8a 3b 66 92 be 3b
       0.0014813304 -9.410138e-06 0.0042134053 0.005815792
000080 93 37 d5 3a 59 6e d9 bb 10 19 49 3c 41 ac 10 bc
       0.0016267173 -0.006635469 0.012274042 -0.008830131
000090 09 5a 97 3c 79 16 8c bc 08 60 65 3c 7f 2a be 3b
       0.01847555 -0.01710056 0.013999946 0.005803406
0000a0 0e a7 dc bb 4b 30 77 3c 46 e0 bd 3a 8d b7 39 3c
       -0.0067337817 0.015087198 0.0014486394 0.011335266
0000b0 6e 58 2b 3c ff 4c b0 3c 39 39 36 bc 93 6a 3e 3c
       0.010458095 0.02152109 -0.011122041 0.011622089
0000c0 d5 1c 51 bb 72 1d ef bb 63 92 e8 bb 3a b0 15 bb
       -0.0031908054 -0.0072972113 -0.007097529 -0.0022840635
0000d0 64 85 03 bd 68 f9 fc 3a ec 95 54 3b f0 7a 88 bb
       -0.032109633 0.0019300403 0.0032437993 -0.004165046
0000e0 19 fe 55 bb a7 6c 40 3b 72 02 47 bb 07 7f d7 3a
       -0.0032652675 0.0029361637 -0.0030366448 0.0016441055
0000f0 df d0 32 bc 3c 86 93 bc a8 b8 1e 3c f4 7c b6 bb
       -0.010914057 -0.018008344 0.00968758 -0.005569095

actor.4.weight f4 [2, 64]
000000 09 e4 4c be 10 1b b0 be b4 51 6d 3e 0b 26 37 3d
       -0.20008864 -0.34395647 0.23175699 0.044714015
000010 4e 93 70 be 89 4c 4f 3e 53 ab 56 3c 79 55 eb 3e
       -0.23493692 0.2024404 0.01310237 0.45963648
000020 73 35 07 3e cc 0b f8 bd bd cb 7a bb 40 81 6c bc
       0.13203983 -0.12111625 -0.003826841 -0.0144351125
000030 73 4d ab 3e c3 9c 06 3f 48 8f 35 3d b8 57 69 3e
       0.33457527 0.5258295 0.044326097 0.22787368
000040 3d d3 38 bd 17 5d a9 3a d8 3e 26 be 51 da 7c 3e
       -0.045123328 0.001292142 -0.1623491 0.24692656
000050 ed 62 8e be eb 2f 8f 3d 98 81 c4 3d 95 4d 9d bc
       -0.2780985 0.069915615 0.095950305 -0.019202033
000060 92 f8 09 3c a1 c3 8d 3b d1 64 41 bc 7a 47 ab bc
       0.00842108 0.0043262993 -0.011803822 -0.020908106
000070 65 b5 5e bd 8a 8a ef bb ea 09 1d 3e ff 13 9d 3c
       -0.05437221 -0.0073102163 0.15335813 0.019174574
000080 55 83 06 3f 51 e2 09 3d 3c d1 93 3d db 10 4c bd
       0.52544147 0.033663098 0.07217643 -0.049820762
000090 53 65 be 3e de e7 a8 3e 3f 88 1c bf 0e e8 cd bd
       0.3718668 0.329894 -0.61145395 -0.100540265
0000a0 a7 70 ff bc 41 0c 06 3f dd 5a 16 bd e8 9f 7c 3e
       -0.031181647 0.5236245 -0.036707748 0.24670374
0000b0 41 00 37 3e 1e 71 74 3e f0 e4 c1 3e 70 a4 00 3e
       0.1787119 0.23871276 0.37869978 0.12562728
0000c0 9a 41 2a 3c 4c c2 81 be f4 95 85 3e a6 7d d7 3e
       0.010391617 -0.2534355 0.26090968 0.4208805
0000d0 cb d4 16 3e 7d f3 c8 3e c3 43 a7 be 5f d8 a2 be
       0.14729612 0.39248267 -0.32668886 -0.31805703
0000e0 a0 fc 57 3e 54 bc 22 3e fe 97 c4 bb 54 5e 84 3c
       0.21092463 0.15892154 -0.005999564 0.01615826
0000f0 b3 2d 52 be 16 74 de be a6 e5 55 bd 21 92 f5 bd
       -0.20525245 -0.43447942 -0.052220963 -0.119907625
000100 2c cf 4b 3e 9b 1e af 3e 8a b4 6a be 51 4d 31 bd
       0.19903249 0.34203038 -0.22920433 -0.043286625
000110 19 1a 70 3e ce fe 4e be af 1b 6c bc 03 c9 eb be
       0.23447455 -0.20214388 -0.014410897 -0.46051797
000120 68 95 06 be f6 69 f4 3d 4e 07 60 3b 35 fa 6c 3c
       -0.13142931 0.11934273 0.0034184041 0.014463951
000130 a3 1f aa be f4 f3 06 bf 75 39 2e bd 01 74 6a be
       -0.33227262 -0.5271599 -0.042535264 -0.22895814
000140 5f e7 3a 3d 1d e3 8b 3a a7 c5 20 3e 2b 73 7a be
       0.04563081 0.0010672543 0.15700398 -0.24457996
000150 70 fc 8c 3e b1 55 90 bd cb e6 c8 bd 1b 19 ab 3c
       0.27536345 -0.07047594 -0.09809645 0.020885995
000160 68 56 b7 bb ee fa 97 bb 14 35 89 3c 57 b8 9f 3c
       -0.005595017 -0.0046380674 0.016748942 0.01949708
000170 3f 40 5d 3d ad 29 1e 3c 80 39 1c be cb a1 91 bc
       0.054016348 0.009653491 -0.1525631 -0.017777344
000180 42 c7 06 bf 17 ef 0b bd 03 be 8c bd e8 50 4e 3d
       -0.52647793 -0.03416356 -0.06872179 0.050370127
000190 bb b1 be be 94 35 a9 be d4 8c 1c 3f 79 ec c6 3d
       -0.37244973 -0.3304869 0.61152387 0.09713072
0001a0 ed 8d 02 3d 98 fd 05 bf 41 b0 21 3d 00 bc 7e be
       0.031873632 -0.5234008 0.03947473 -0.24876404
0001b0 e0 ef 34 be ac fb 74 be 6b 43 c2 be 14 19 02 be
       -0.1766963 -0.2392413 -0.3794206 -0.12704879
0001c0 4d 3a 43 bc 4b 7c 81 3e 8e d4 86 be a6 b6 d6 be
       -0.011915755 0.2529014 -0.2633404 -0.41936225
0001d0 46 c1 16 be 0d e2 c7 be 2c 2e a6 3e 66 0b a3 3e
       -0.14722165 -0.3903965 0.324571 0.31844634
0001e0 46 44 58 be 69 be 23 be 0d ec d9 3b 74 a2 75 bc
       -0.21119794 -0.15990604 0.006650454 -0.014992345
0001f0 b5 4a 51 3e 0e 0e de 3e 83 f1 55 3d 8f 30 f8 3d
       0.20438655 0.43370098 0.052232277 0.12118637

actor.4.bias f4 [2]
000000 e8 b7 17 bc 84 b8 17 3c
       -0.009260155 0.009260301
