src/Catcher_Flappy_Continuous/wandb/DQN_FlappyBird_Acc_State_Acc_R/files/flappy_acc_state_acc_r.pt (torch, 106575 bytes, 8 tensors)

network.0.weight f4 [128, 8]
0.17380929 -0.63822544 -0.08909251 -0.14086929 -0.51195675 0.08098261 -0.25067836 0.05298026
-0.022100141 -0.64952064 0.13524486 0.036788203 0.09066694 -0.18822233 -0.023811175 -0.088296086
0.05124542 -0.0014123917 0.3090646 0.110022336 -0.13166548 -0.21353258 -0.059261084 -0.15250196
0.03207445 0.9569974 0.22697464 0.026771028 -0.5159175 0.09496695 -0.08459648 0.14295265
0.2033469 0.1705714 -0.4903975 -0.3868508 0.35431182 0.032281384 0.057533383 -0.055356614
0.4242146 -0.79706836 0.4822376 -0.16934542 -0.27677208 0.1204921 -0.17096637 0.1197409
-0.083837144 0.19028103 -0.36863697 -0.23358873 0.24740626 -0.01895732 -0.062438566 0.14276746
-0.088234074 -0.54756904 0.03421845 -0.08031292 -0.4075017 0.050810475 -0.017881345 0.10800506
-0.19818775 -0.05819699 -0.006848991 0.05163911 -0.26831812 -0.2508894 0.19233468 -0.08290541
0.10897509 0.4837117 -0.107130356 -0.19514744 -0.09233826 -0.015900988 -0.43997034 0.035564203
-0.26181316 -2.4519937 -0.06621321 0.02516809 0.21341574 -0.21349698 -0.2516848 0.25930616
-0.3081816 0.20541339 0.14670539 -0.27532002 0.02866705 0.070789054 -0.27718395 -0.21837443
0.03301318 0.39929622 -0.536338 -0.2843587 0.36005014 -0.032091543 -0.102589816 0.10260232
-0.21806686 -2.0812366 0.32879022 0.057437614 0.09103804 -0.058628134 -0.05816699 0.01913647
0.11451806 -0.4519185 -0.10696899 0.064704806 0.04447232 0.031862162 -0.4290203 -0.4505142
-0.21381906 0.04441634 0.35237423 -0.22333105 0.18840185 -0.1956876 -0.33241645 -0.07514411
-0.089667074 1.4987974 -0.27665102 -0.1800809 0.12989414 0.071924604 -0.03084052 0.07765143
0.42215925 0.34107214 -0.27208745 -0.2778085 -0.16372688 -0.030853037 -0.1564638 0.16148724
0.22987938 0.11750049 -0.4075864 -0.20644812 0.04181256 -0.019528959 -0.27400988 0.24057
-0.040873498 -0.012146682 -0.33371198 -0.22755268 -0.20654711 -0.15122288 0.2513657 -0.115534544
-3.4380975 -0.084451765 0.23263206 0.07147377 -0.22960296 0.12915206 0.027004378 0.01717473
-0.5377755 0.6361258 -0.46561137 -0.0058578686 -0.070726424 -0.08531312 0.07750642 0.12753128
0.28508586 0.61549497 -0.18060097 0.1328892 -0.17708176 -0.014108472 -0.40651283 -0.11585279
-0.22803763 0.3248823 -0.30565435 -0.27558875 -0.012005359 -0.19117178 0.12650552 -0.13609175
-0.03972712 0.42747185 0.31125885 -0.31785375 -0.02130158 0.15196842 0.34318638 -0.3844617
0.096172914 -2.7527657 0.28189084 -0.13601093 0.090504184 -0.09474005 0.080784194 -0.06854954
-0.05366552 1.0929126 0.11041777 0.026240297 -0.4501066 0.10484153 0.054671384 0.07714436
0.28338248 0.23182793 -0.2824689 0.14572507 -0.42621896 0.16167502 -0.37612095 -0.36918893
-0.19992422 0.44280264 -0.25596392 0.05608274 0.12660247 0.25264752 -0.2105943 -0.3705769
0.51893795 -0.0028863922 -0.053285502 -0.08594975 -0.42355722 0.24474433 0.306553 -0.3184685
-0.290399 -0.030970007 0.14850143 -0.010239661 -0.179279 0.008083105 -0.33231622 -0.24987775
-0.6388158 -0.36815614 0.27281123 -0.20584606 -0.10278111 0.06952389 -0.036752585 -0.28882495
00000000: 10fb 313e be62 23bf 2276 b6bd 0a40 10be
00000010: 990f 03bf 36da a53d ea58 80be d401 593d
00000020: 5b0b b5bc fc46 26bf a17d 0a3e 3aaf 163d
00000030: 97af b93d 5bbd 40be a70f c3bc 94d4 b4bd
00000040: b8e6 513d 0020 b9ba b73d 9e3e 6453 e13d
00000050: 51d3 06be 49a8 5abe c0bb 72bd 7929 1cbe
00000060: 8060 033d c8fd 743f 0a6c 683e ea4e db3c
00000070: 2b13 04bf 087e c23d eb40 adbd 2e62 123e
00000080: 2b3a 503e 45aa 2e3e 6215 fbbe 4f11 c6be
00000090: 5c68 b53e 7c39 043d 20a8 6b3d 9ebd 62bd
000000a0: a832 d93e ac0c 4cbf d9e7 f63e e368 2dbe
000000b0: 12b5 8dbe 90c4 f63d cf11 2fbe b83a f53d
000000c0: cfb2 abbd 08d9 423e fcbd bcbe e231 6fbe
000000d0: 1158 7d3e 624c 9bbc 95bf 7fbd a231 123e
000000e0: 11b4 b4bd 7c2d 0cbf a528 0c3d 1a7b a4bd
000000f0: 10a4 d0be a51e 503d e67b 92bc c231 dd3d
00000100: bbf1 4abe f85f 6ebd 806d e0bb 8883 533d
00000110: fe60 89be 9374 80be 62f3 443e 50ca a9bd
00000120: 552e df3d 0fa9 f73e 2967 dbbd bbd4 47be
00000130: d71b bdbd ca42 82bc cb43 e1be c5ab 113d
00000140: 600c 86be 77ed 1cc0 cb9a 87bd 4f2d ce3c
00000150: a889 5a3e f49e 5abe d5dc 80be c7c3 843e
00000160: fbc9 9dbe e357 523e f039 163e bff6 8cbe
00000170: 29d7 ea3c daf9 903d 0eeb 8dbe 8c9d 5fbe
00000180: d438 073d 8e70 cc3e 724d 09bf 7797 91be
00000190: 7e58 b83e 6c72 03bd 9c1a d2bd 2a21 d23d
000001a0: eb4c 5fbe fb32 05c0 3157 a83e b443 6b3d
000001b0: 2772 ba3d 0e24 70bd 8240 6ebd 16c4 9c3c
000001c0: 7288 ea3d dd61 e7be 8f12 dbbd f483 843d
000001d0: 9b28 363d e681 023d 8ca8 dbbe cca9 e6be
000001e0: 62f3 5abe e8ed 353d 656a b43e e5b0 64be
000001f0: 6aec 403e 5562 48be 7d32 aabe 28e5 99bd
00000200: 5fa3 b7bd 98d8 bf3f 34a5 8dbe 2167 38be
00000210: f802 053e 354d 933d 42a5 fcbc b707 9f3d
00000220: 4225 d83e 02a1 ae3e 0c4f 8bbe ea3c 8ebe
00000230: 05a8 27be 82bf fcbc 0c38 20be e95c 253e
00000240: 8065 6b3e 19a4 f03d 2aaf d0be 2367 53be
00000250: a643 2b3d 32fb 9fbc 064b 8cbe fb57 763e
00000260: f86a 27bd e002 47bc 4cdc aabe 9203 69be
00000270: 1681 53be 2cda 1abe 01b3 803e 609d ecbd
00000280: ca09 5cc0 0cf5 acbd 1937 6e3e d760 923d
00000290: 0a1d 6bbe 7040 043e 4938 dd3c 05b2 8c3c
000002a0: a8ab 09bf 24d9 223f 9d64 eebe 5df3 bfbb
000002b0: 04d9 90bd a5b8 aebd b0bb 9e3d 8f97 023e
000002c0: c6f6 913e 1491 1d3f 76ef 38be 1b14 083e
000002d0: ec54 35be 3827 67bc 7322 d0be 3a44 edbd
000002e0: b282 69be f956 a63e ba7e 9cbe f819 8dbe
000002f0: 20b2 44bc 89c2 43be aa8a 013e a35b 0bbe
00000300: e8b8 22bd 97dd da3e 525d 9f3e babd a2be
00000310: a780 aebc 9c9d 1b3e 20b6 af3e 2ad8 c4be
00000320: 4ef6 c43d 502d 30c0 ff53 903e 7346 0bbe
00000330: 425a b93d 1207 c2bd 2f72 a53d b463 8cbd
00000340: 60d0 5bbd 8fe4 8b3f b622 e23d e4f5 d63c
00000350: 5f74 e6be 28b7 d63d 1aef 5f3d ddfd 9d3d
00000360: 8217 913e 4d64 6d3e c39f 90be f438 153e
00000370: 5f39 dabe 238e 253e ed92 c0be 5506 bdbe
00000380: efb8 4cbe 07b7 e23e b40d 83be 04b7 653d
00000390: 14a4 013e 045b 813e 08a6 57be 41bc bdbe
000003a0: 1ed9 043f a029 3dbb e641 5abd 6c06 b0bd
000003b0: 7edc d8be 429e 7a3e 84f4 9c3e 4e0e a3be
000003c0: 2daf 94be d0b4 fdbc c210 183e 40c4 27bc
000003d0: ea94 37be 006f 043c 5a25 aabe f4df 7fbe
000003e0: 6f89 23bf f67e bcbe eaad 8b3e 4fc9 52be
000003f0: e77e d2bd 8b62 8e3d e189 16bd dde0 93be

network.0.bias f4 [128]
-0.0016314089 -0.09694827 0.053952426 -0.37837702 0.0012475009 0.022485597 0.049490914 -0.2873849
0.260281 -0.108099625 0.08196829 -0.151829 -0.022548866 -0.24810603 -0.45680994 0.043806434
-0.35336503 0.26053023 -0.28041357 0.30694023 0.265032 0.1269296 0.18567175 0.08183336
-0.2569166 -0.25579152 -0.29320228 -0.48352695 0.22721446 -0.16144973 0.16628292 -0.12293442
-0.025279926 -0.28524372 -0.27484027 0.24300547 0.09193506 0.17457154 -0.41363448 -0.18031022
-0.33265948 -0.117634386 -0.018690348 -0.2487319 -0.4981423 -0.047260497 0.7805436 0.31863108
-0.3098149 -0.32411906 -0.29565668 -0.37661093 -0.20787217 0.34325042 -0.279822 -0.07449601
0.2693757 0.0109414775 0.28521088 0.11917953 0.52151954 0.27519906 -0.28591236 -0.33114335
-0.18267316 0.29181448 0.09668683 0.0839539 -0.2938749 -0.09292613 0.28844628 -0.03670016
-0.54429626 -0.33540413 -0.1786039 -0.11641751 0.14255756 0.014771399 -0.5769436 -0.0038750768
-0.48128462 0.23915353 0.15538843 0.2835636 0.32143077 0.17366627 -0.35330305 -0.06795854
-0.3362189 0.09791935 -0.0593911 0.10428213 -0.33295372 -0.5260281 -0.27140465 -0.06593533
0.26618034 0.28666165 0.36018196 0.047238145 -0.20133282 -0.09772896 -0.36479202 0.31316882
-0.19864945 0.19174163 0.2283285 0.5137567 -0.3577987 0.29007986 -0.44528347 -0.18283503
0.3227497 0.3114313 -0.3897385 0.38148123 -0.2320611 0.094651066 0.3489383 -0.05711383
0.12434766 -0.24497399 -0.5629325 -0.16879374 0.2106694 -0.28924713 -0.5292218 0.03880149
00000000: 00d5 d5ba d18c c6bd 38fd 5c3d a2ba c1be
00000010: 2f83 a33a b733 b83c fcb6 4a3d 1d24 93be
00000020: 8d43 853e 5663 ddbd fede a73d 1079 1bbe
00000030: 66b8 b8bc 820f 7ebe fee2 e9be 606e 333d
00000040: 43ec b4be 3864 853e 5e92 8fbe 4527 9d3e
00000050: 46b2 873e d5f9 013e bc20 3e3e 4098 a73d
00000060: 938a 83be 1bf7 82be 9c1e 96be d890 f7be
00000070: e8aa 683e 1453 25be 1246 2a3e 0bc5 fbbd
00000080: d917 cfbc 770b 92be ddb7 8cbe 6dd6 783e
00000090: 7348 bc3d e2c2 323e e6c7 d3be 3ea3 38be
000000a0: 5852 aabe 4cea f0bd 801c 99bc 93b3 7ebe
000000b0: 820c ffbe 3994 41bd b5d1 473f 9d23 a33e
000000c0: 0fa0 9ebe eff2 a5be 5060 97be 26d3 c0be
000000d0: 71dc 54be 85be af3e d444 8fbe 5d91 98bd
000000e0: 9deb 893e e243 333c 2907 923e 6614 f43d
000000f0: 4e82 053f e4e6 8c3e 1b63 92be 9f8b a9be
00000100: ac0e 3bbe b568 953e bf03 c63d 06f0 ab3d
00000110: c576 96be 0e50 bebd 3baf 933e e852 16bd
00000120: 0057 0bbf 17ba abbe f1e3 36be 4e6c eebd
00000130: 9cfa 113e bd03 723c 93b2 13bf 00f5 7dbb
00000140: f06a f6be aae4 743e 251e 1f3e 402f 913e
00000150: 9392 a43e 92d5 313e 23e4 b4be d92d 8bbd
00000160: e224 acbe f189 c83d 1544 73bd df91 d53d
00000170: e978 aabe c7a9 06bf 8df5 8abe 1a09 87bd
00000180: ca48 883e 51c5 923e c569 b83e c97c 413d
00000190: 312a 4ebe 1f26 c8bd 05c6 babe aa57 a03e
000001a0: c36a 4bbe eb57 443e f2ce 693e 8f85 033f
000001b0: 6431 b7be 5985 943e 32fc e3be 1b39 3bbe
000001c0: 733f a53e ec73 9f3e ce8b c7be 8251 c33e
000001d0: 6da1 6dbe 6bd8 c13d 0aa8 b23e 31f0 69bd
000001e0: fca9 fe3d 76da 7abe 581c 10bf 44d8 2cbe
000001f0: b8b9 573e 3318 94be 147b 07bf 50ee 1e3d

network.2.weight f4 [128, 128]
-0.072151676 -0.03624677 -0.0007643774 -0.07381333 0.17205213 -0.10234279 -0.06617447 0.16945608
-0.0721137 0.04277356 0.0840589 -0.055845253 -0.11650979 0.011201691 -0.08549347 0.023939058
-0.10944272 -0.10741568 -0.035447028 -0.05044655 0.020002525 -0.055986173 0.055527024 -0.046145644
0.03840589 0.050382 -0.08927391 -0.41430765 -0.15753774 -0.1464311 0.037253626 0.12596323
-0.01694257 0.019381717 0.031387597 -0.059496623 0.09556386 0.012533471 0.02674293 0.23447466
-0.008144512 -0.1467303 0.0058593154 0.06883787 -0.0073916954 -0.008964873 -0.0017466346 0.03509374
-0.033931904 -0.0063853846 0.04292024 -0.103935115 0.15340208 -0.083067246 -0.04208674 0.03708952
-0.14258482 -0.02603537 0.05964295 -0.16151197 -0.19562437 -0.075682975 0.052053906 0.040379863
0.080717005 -0.03494902 -0.026070075 -0.14780256 -0.23295583 -0.13874108 -0.016830534 0.05031804
0.013676667 -0.10953418 -0.1345146 -0.27968732 0.031309523 -0.17762938 0.099200815 0.061096616
0.07143853 -0.048535068 0.1257099 0.15902686 -0.020766102 -0.023797154 -0.0042978823 -0.18101907
0.003988748 -0.11888882 0.02988316 -0.1810739 -0.046297893 -0.16170509 -0.081391454 0.11734663
0.0712846 -0.048231 0.08820301 -0.088693246 0.024070904 0.03807328 -0.017248072 -0.11705887
-0.18621656 0.004430769 0.06445088 0.08394638 0.047994588 0.00026884675 -0.16252172 -0.15349934
0.08820481 -0.4425115 -0.025775766 -0.0541619 -0.020032912 -0.080094464 -0.02804941 -0.0160994
0.06463003 -0.081253044 -0.1828993 -0.14331017 -0.23997085 -0.075045094 -0.016936397 -0.054616783
-0.021092951 -0.0131540205 0.015120856 -0.024765689 -0.035764482 -0.018384172 0.041349944 0.006752447
-0.0011024326 -0.007825145 0.027140321 0.026725873 0.041431643 -0.03831026 -0.01958284 0.074258976
-0.11775366 0.00088290975 0.056438103 -0.04435433 -0.12489547 -0.033300787 0.07014405 0.03340774
0.0064366222 0.002903663 -0.06610323 0.026544537 -0.046977147 0.05201736 -0.02594072 -0.112549804
-0.01216009 0.027952794 -0.0034641102 -0.081151545 -0.0287641 0.04691065 -0.023551075 -0.08655432
-0.06303544 -0.0077544507 -0.007097371 0.08448667 -0.050409965 0.01204472 -0.12152294 -0.08400557
-0.008904132 -0.08241513 -0.025776155 -0.0054065725 -0.10948606 0.06073796 -0.067169584 0.035842784
0.00055861135 -0.021183169 -0.07735299 0.0002168729 -0.08460802 0.044510946 -0.074356794 -0.027685164
-0.048712566 -0.056847617 -0.09860526 -0.04975425 0.0072676362 0.009094485 0.045166336 -0.03610297
-0.07155366 -0.055595245 0.051040664 -0.028548338 -0.07318123 0.040294077 -0.0009843527 0.015340559
-0.0080139795 0.061668225 -0.04474744 0.05647831 0.08499401 -0.02279114 0.055784635 0.035927404
0.062162425 -0.035171866 -0.07751593 -0.05373108 -0.060134858 -0.023467328 0.059150666 0.035485405
0.069940634 0.008746058 -0.059471533 0.02221086 0.026985003 -0.014008113 -0.057179414 0.020383302
-0.031066725 -0.062096193 -0.041574072 0.0137370685 -0.004074323 -0.034441497 -0.045825887 -0.0675638
-0.028856441 0.072940834 -0.102538794 0.020571008 -0.11408058 -0.06276075 -0.06243392 -0.03201265
-0.046146538 -0.03483299 -0.061343465 -0.07897643 -0.14013386 -0.055067837 0.053332172 -0.041646037
00000000: 42c4 93bd 7e77 14bd 8060 48ba 712b 97bd
00000010: 6f2e 303e 1999 d1bd 7b86 87bd e585 2d3e
00000020: 59b0 93bd 5433 2f3d 1327 ac3d febd 64bd
00000030: af9c eebd 4c87 373c 3317 afbd d81b c43c
00000040: 8123 e0bd c1fc dbbd e730 11bd 0ba1 4ebd
00000050: 56dc a33c c251 65bd 4e70 633d 3703 3dbd
00000060: 7f4f 1d3d 5b5d 4e3d 3dd5 b6bd 2220 d4be
00000070: 9351 21be 09f2 15be 4297 183d 81fc 003e
00000080: 25cb 8abc 68c6 9e3c 4890 003d bbb2 73bd
00000090: fcb6 c33d 3059 4d3c fd13 db3c 201a 703e
000000a0: 8f70 05bc 7840 16be 80ff bf3b dffa 8c3d
000000b0: 0936 f2bb 67e1 12bc 55ef e4ba 74be 0f3d
000000c0: 2efc 0abd 7d3c d1bb 22cd 2f3d efdb d4bd
000000d0: 6f15 1d3e 291f aabd 2563 2cbd 2eeb 173d
000000e0: c101 12be 2148 d5bc 2a4c 743d 6563 25be
000000f0: c151 48be adff 9abd 7a36 553d 5b65 253d
00000100: f54e a53d b426 0fbd e990 d5bc 8e59 17be
00000110: f98b 6ebe 2412 0ebe 30e0 89bc 4a1a 4e3d
00000120: 1914 603c 7553 e0bd 32be 09be 2d33 8fbe
00000130: 6a3e 003d 7ae4 35be cc29 cb3d 7240 7a3d
00000140: 5d4e 923d b5cc 46bd 19ba 003e f0d7 223e
00000150: ac1d aabc 40f2 c2bc 40d5 8cbb 105d 39be
00000160: 0bb4 823b fb7b f3bd 87cd f43c 706b 39be
00000170: dca2 3dbd 0596 25be 90b0 a6bd 6e53 f03d
00000180: a9fd 913d de8d 45bd c8a3 b43d cea4 b5bd
00000190: 5830 c53c baf2 1b3d d44b 8dbc 90bc efbd
000001a0: 8eaf 3ebe fc2f 913b d3fe 833d 14ec ab3d
000001b0: f995 443d 00f4 8c39 186c 26be ee2e 1dbe
000001c0: b9a4 b43d de90 e2be b327 d3bc ded8 5dbd
000001d0: 101c a4bc 9108 a4bd e0c7 e5bc e4e2 83bc
000001e0: c05c 843d ff67 a6bd f449 3bbe e7bf 12be
000001f0: ebba 75be 3eb1 99bd 33be 8abc d9b5 5fbd
00000200: 20cb acbc f683 57bc 78bd 773c 6ae1 cabc
00000210: c77d 12bd 679a 96bc 8f5e 293d a243 dd3b
00000220: 807f 90ba 0935 00bc 6155 de3c 38f0 da3c
00000230: 3ab4 293d 38eb 1cbd 316c a0bc 1715 983d
00000240: d528 f1bd 1273 673a a42b 673d e3ac 35bd
00000250: 32c9 ffbd 6866 08bd afa7 8f3d 8ed6 083d
00000260: 4dea d23b 624b 3e3b 2161 87bd ee73 d93c
00000270: 1c6b 40bd 2810 553d a281 d4bc 8380 e6bd
00000280: 1d3b 47bc 42fd e43c 2006 63bb c832 a6bd
00000290: b1a2 ebbc 6225 403d 2fee c0bc 6443 b1bd
000002a0: ba18 81bd 0c19 febb 1091 e8bb 5907 ad3d
000002b0: ae7a 4ebd 3857 453c 05e1 f8bd 1d0b acbd
000002c0: a3e2 11bc 44c9 a8bd 8428 d3bc 9e29 b1bb
000002d0: 3a3a e0bd 5ec8 783d 3590 89bd e2cf 123d
000002e0: c66f 123a 5388 adbc 3f6b 9ebd 6068 6339
000002f0: f846 adbd 1c51 363d 6048 98bd ffcb e2bc
00000300: d486 47bd 0cd9 68bd 8ef1 c9bd 1dcb 4bbd
00000310: 5a25 ee3b 0901 153c 5600 393d b5e0 13bd
00000320: ba8a 92bd d7b7 63bd 0410 513d 34de e9bc
00000330: 0ae0 95bd 670b 253d 6505 81ba f856 7b3c
00000340: 114d 03bc d297 7c3d 1749 37bd cd55 673d
00000350: 5711 ae3d 7cb4 babc 6e7e 643d 9d28 133d
00000360: 079e 7e3d 6010 10bd acc0 9ebd 1f15 5cbd
00000370: f84f 76bd 8e3e c0bc f847 723d 2559 113d
00000380: 093d 8f3d a04b 0f3c 6c98 73bd 8df3 b53c
00000390: a70f dd3c 4982 65bc f634 6abd e2fa a63c
000003a0: a57f febc 9458 7ebd 9349 2abd 7111 613c
000003b0: e681 85bb 8712 0dbd edb3 3bbd e45e 8abd
000003c0: 5864 ecbc 0162 953d dcff d1bd 8884 a83c
000003d0: 14a3 e9bd b588 80bd b6ba 7fbd b21f 03bd
000003e0: 2704 3dbd 0aad 0ebd 4943 7bbd 65be a1bd
000003f0: 407f 0fbe d08e 61bd d672 5a3d 0995 2abd

network.2.bias f4 [128]
-0.10049901 -0.13474701 -0.07973174 -0.037963267 -0.10172895 0.04458339 -0.07636458 0.050641574
-0.067181505 -0.056986503 0.024241848 0.012015216 0.0594026 -0.0816621 -0.043797154 -0.010169493
-0.039442953 -0.012728918 -0.0583703 0.040214002 0.2630087 -0.013972619 0.35309392 0.18956085
0.05850031 -0.08860175 0.03230341 -0.003613695 -0.051723775 0.0748639 -0.0135351345 -0.2584288
-0.17224975 0.030014912 -0.010927767 -0.0330194 0.051353745 -0.00039893377 -0.099764064 -0.0815664
-0.11640312 0.0113870585 -0.08118978 -0.032108683 0.040364675 0.032637946 0.011928471 -0.11908451
-0.0009122983 0.023715064 0.020963712 0.014521573 0.07479893 0.0706157 -0.010078315 -0.09675059
0.00047704615 -0.14399679 -0.037566666 -0.011855201 -0.024505017 -0.028909052 -0.10360492 0.0060700634
-0.03303835 -0.12667571 -0.13926873 -0.045412593 -0.00071392563 0.035446186 -0.073635586 -0.042997833
0.071304835 -0.011520282 -0.0339987 -0.09131628 -0.08966592 -0.04526575 -0.026963063 -0.10034225
0.008409239 -0.030000145 -0.0059205894 0.086924136 -0.08937603 -0.10169849 -0.1327207 -0.09111819
-0.018261952 0.1037602 0.045414593 0.31188723 -0.042312644 0.05690961 0.02870909 0.013194831
-0.1074528 0.029878143 -3.2314078e-05 -0.024008181 0.0019560184 -0.00451751 -0.010433951 0.059349727
0.27790552 0.042856347 -0.014111749 -0.022185693 0.41166824 -0.07986806 -0.014154622 0.10109504
-0.0036551422 -0.031114113 -0.06122177 0.027993495 0.15655904 -0.08334055 -0.06800558 0.004319908
-0.03610502 -0.12540704 0.032017138 -0.04468292 0.0024924374 -0.074800596 -0.021499805 0.15462132
00000000: 6dd2 cdbd 1ffb 09be 654a a3bd 5f7f 1bbd
00000010: 4557 d0bd 139d 363d 0865 9cbd 8a6d 4f3d
00000020: 7596 89bd ae6a 69bd d796 c63c 78db 443c
00000030: 2450 733d 763e a7bd a564 33bd f29d 26bc
00000040: ef8e 21bd f48c 50bc b215 6fbd 70b7 243d
00000050: 14a9 863e 69ed 64bc bac8 b43e 3d1c 423e
00000060: 059e 6f3d d674 b5bd 9550 043d bed3 6cbb
00000070: 4fdc 53bd 3f52 993d 78c2 5dbc c850 84be
00000080: 3d62 30be d5e1 f53c 600a 33bc 5a3f 07bd
00000090: 4e58 523d fc27 d1b9 1a51 ccbd 490c a7bd
000000a0: c264 eebd c990 3a3c d446 a6bd 6584 03bd
000000b0: 6e55 253d 5eaf 053d a26f 433c 94e2 f3bd
000000c0: 4d27 6fba 1846 c23c 17bc ab3c e4eb 6d3c
000000d0: 2e30 993d f79e 903d 841f 25bc 2c25 c6bd
000000e0: 0d1c fa39 e573 13be 81df 19bd 513c 42bc
000000f0: bfbe c8bc add2 ecbc d12e d4bd 62e7 c63b
00000100: 3953 07bd 47b7 01be 769c 0ebe 8e02 3abd
00000110: bd26 3bba 0530 113d 41ce 96bd 7f1e 30bd
00000120: 4508 923d 91bf 3cbc 3942 0bbd 0804 bbbd
00000130: c4a2 b7bd 9468 39bd a4e1 dcbc 3d80 cdbd
00000140: e8c6 093c ddc2 f5bc 8101 c2bb 4805 b23d
00000150: c80a b7bd 4c47 d0bd efe7 07be 2c9c babd
00000160: 179a 95bc 3a80 d43d a704 3a3d afaf 9f3e
00000170: 0650 2dbd 0d1a 693d 532f eb3c 222f 583c
00000180: 3710 dcbd 02c3 f43c fa88 07b8 ceac c4bc
00000190: 8b30 003b 9f07 94bb 2af3 2abc b318 733d
000001a0: a249 8e3e 238a 2f3d f734 67bc c5be b5bc
000001b0: 2ec6 d23e de91 a3bd cae8 67bc eb0a cf3d
000001c0: 1c8b 6fbb 06e3 febc aec3 7abd 9d52 e53c
000001d0: 0351 203e 73ae aabd 8246 8bbd 048e 8d3b
000001e0: dce2 13bd b46a 00be 6724 033d 7005 37bd
000001f0: 2958 233b 0e31 99bd 5c20 b0bc 0d55 1e3e

network.4.weight f4 [64, 128]
0.064204864 0.06336212 -0.697435 -0.004741147 -0.042828858 -0.061202787 -0.06639529 0.045422766
0.05918343 -0.31449455 0.051249884 -0.09701151 -0.11724375 -0.059486702 0.075099334 0.08388876
0.07724672 -0.0057297507 0.07770008 0.023751507 0.0594009 0.040686734 -0.37678906 -0.072692096
-0.043275613 -0.047612924 0.026244752 -0.023832208 -0.027578581 0.027111389 -0.029339764 -0.13566877
-0.3210757 -0.04096416 0.0037819084 -0.046019558 -0.008607938 0.07798035 0.045138042 0.013109667
-0.041903954 -0.007006317 0.013694754 -0.08019078 -0.0818299 -0.046871662 0.082521446 0.024706727
-0.10652974 -0.042564712 0.023418594 -0.06844111 0.024146922 0.03944271 -0.034142297 0.1047246
0.038298573 0.0016346688 0.014654812 -0.0579011 0.07193868 -0.07130969 -0.00085036224 -0.058192804
-0.009852506 -0.059146285 -0.049330354 0.016225442 -0.1747415 0.030586807 -0.071691796 0.00092382944
0.063202955 0.04558707 0.023846438 -0.01897264 0.061128132 0.04488372 -0.22481354 -0.05342202
-0.06544832 -0.044314895 -0.0004781769 -0.74803406 0.058907337 -0.025068317 0.014660577 -0.032825097
0.04485151 0.130454 0.012243807 -0.048293002 0.01521067 -0.047264714 0.050729338 0.082011856
0.076764435 0.0232182 -0.05238317 -0.0076197498 0.020531645 0.021088848 0.020439714 0.030348817
-0.014038798 0.06618031 0.03956746 -0.04666756 -0.10566814 0.057308286 -0.056895424 -0.039342675
-0.11895663 0.043270532 0.04753633 0.019384526 0.065044366 -0.006077958 0.08519558 8.056635e-05
0.026237302 -0.028746666 -0.06304265 -0.041747097 0.0020456945 0.037654884 0.02198861 -0.14204028
0.114350535 0.03298872 0.011931086 0.043203652 -0.051461376 -0.026457347 -0.09472721 0.04815816
0.06940666 -0.31168798 -0.08518296 -0.23223785 0.033585288 -0.049639847 -0.034674577 0.040939882
0.054113872 -0.08470914 -0.018907577 -0.036926568 0.011389681 -0.009168736 -0.018528096 -0.012155442
-0.006216213 -0.0703566 0.024101948 0.0146655375 0.034865443 0.03278947 -0.006003577 -0.35795903
-0.6964044 0.026553858 0.08365054 -0.0068740835 0.05758284 -0.0147910025 -0.20361635 0.054434754
-0.082779355 -0.08709703 0.03815228 0.051527776 0.08624546 -0.018587561 -0.063723914 -0.057944115
-0.0918718 0.004431401 -0.038211185 -0.06851604 -0.027240045 0.07550227 0.056673836 -0.08772208
0.029744836 0.029798195 0.07203503 -0.059499033 0.0028079578 0.02210478 -0.023247464 -0.04961918
0.009079393 0.023427347 -0.18508612 0.055003095 -0.040949795 0.0613294 -0.031834 -0.015045896
-0.05930158 0.1009546 0.009605321 -0.0076089446 -0.011577875 -0.012552926 0.020583019 0.054142687
0.06468137 0.04098202 -0.18790418 0.04046315 -0.018380484 0.04200863 -0.33425507 0.028828222
-0.0727262 0.012801414 -0.027671384 -0.0896052 0.011903542 -0.036268555 -0.009476848 0.08023483
0.06514346 0.018373147 -0.049842507 -0.06252298 -0.04845079 -0.03151312 -0.29835093 -0.0020677764
-0.37089843 -0.040296108 -0.053629115 -0.053281106 0.13132134 -0.01595333 -0.050195638 -0.014053959
-0.2433753 0.012837451 -0.058725666 -0.004498745 -0.25311047 0.070568055 -0.03846677 -0.011659308
-0.046226636 0.07296778 0.093872905 0.0127875 -0.36700994 -0.0112356115 0.007794641 0.029036472
00000000: d77d 833d 00c4 813d 1a8b 32bf a05b 9bbb
00000010: 506d 2fbd c6af 7abd 41fa 87bd 390d 3a3d
00000020: 536a 723d 6e05 a1be 66eb 513d f8ad c6bd
00000030: 7e1d f0bd 54a8 73bd aecd 993d dfcd ab3d
00000040: 8733 9e3d a2c0 bbbb 3821 9f3d 8592 c23c
00000050: 5c4e 733d 22a7 263d 7fea c0be 98df 94bd
00000060: c541 31bd c505 43bd 3cff d63c c33b c3bc
00000070: 7aec e1bc b418 de3c f259 f0bc c1ec 0abe
00000080: 0964 a4be 09ca 27bd e5d9 773b 017f 3cbd
00000090: 4f08 0dbc 29b4 9f3d abe2 383d eec9 563c
000000a0: 7ba3 2bbd 3f95 e5bb f65f 603c 103b a4bd
000000b0: 6f96 a7bd 80fc 3fbd 0101 a93d c365 ca3c
000000c0: 442c dabd 5658 2ebd 5ad8 bf3c da2a 8cbd
000000d0: c4cf c53c ae8e 213d cbd8 0bbd da79 d63d
000000e0: f7de 1c3d 6242 d63a bd1a 703c b429 6dbd
000000f0: 9654 933d d10a 92bd d8ea 5eba 945b 6ebd
00000100: 686c 21bc 6043 72bd a00e 4abd 38eb 843c
00000110: 70ef 32be 2f91 fa3c 26d3 92bd 252d 723a
00000120: 8d70 813d 82b9 3a3d 9b59 c33c 836c 9bbc
00000130: 7e61 7a3d fed7 373d 8535 66be 0cd1 5abd
00000140: c509 86bd 8983 35bd d1b3 fab9 297f 3fbf
00000150: d248 713d 125c cdbc eb32 703c 9c73 06bd
00000160: 38b6 373d bc95 053e 409a 483c e2ce 45bd
00000170: 2d36 793c a598 41bd 91c9 4f3d d5f5 a73d
00000180: ac36 9d3d 1834 be3c bc8f 56bd 18af f9bb
00000190: fb31 a83c 85c2 ac3c 3071 a73c 159e f83c
000001a0: fd02 66bc 8b89 873d 7d11 223d 7c26 3fbd
000001b0: 8a68 d8bd 18bc 6a3d 2d0b 69bd c925 21bd
000001c0: 899f f3bd 713c 313d 74b5 423d 4ccc 9e3c
000001d0: fb35 853d 9b29 c7bb 057b ae3d bbf5 a838
000001e0: 9cef d63c 217e ebbc 811c 81bd 01ff 2abd
000001f0: 0f11 063b 023c 1a3d 7521 b43c 0273 11be
00000200: 9d30 ea3d 2e1f 073d 9a7a 433c 50f6 303d
00000210: 2ac9 52bd 14bd d8bc 5700 c2bd 7e41 453d
00000220: 1425 8e3d 9195 9fbe 6774 aebd c2cf 6dbe
00000230: ba90 093d 2753 4bbd ee06 0ebd 94b0 273d
00000240: 82a6 5d3d fc7b adbd 10e4 9abc 5040 17bd
00000250: c99b 3a3c 7738 16bc 3cc8 97bc 9e27 47bc
00000260: 60b1 cbbb 1f17 90bd 7371 c53c b947 703c
00000270: 11cf 0e3d 404e 063d a7b9 c4bb 6846 b7be
00000280: 8f47 32bf 7a87 d93c f950 ab3d fe3f e1bb
00000290: fcdb 6b3d f655 72bc ce80 50be faf6 5e3d
000002a0: 3988 a9bd ed5f b2bd 9145 1c3d ca0e 533d
000002b0: 76a1 b03d f144 98bc af81 82bd cf56 6dbd
000002c0: 4827 bcbd 4935 913b 5583 1cbd 2352 8cbd
000002d0: 8426 dfbc efa0 9a3d d322 683d a2a7 b3bd
000002e0: 71ab f33c 581b f43c 1a87 933d 42b5 73bd
000002f0: b705 383b 1515 b53c 7771 bebc 7b3d 4bbd
00000300: bcc1 143c b5ea bf3c 3787 3dbe ed4a 613d
00000310: f9ba 27bd 8934 7b3d 5e64 02bd 1083 76bc
00000320: 37e6 72bd 49c1 ce3d a35f 1d3c 7454 f9bb
00000330: 21b1 3dbc caaa 4dbc b89d a83c b9c4 5d3d
00000340: ab77 843d c3dc 273d f469 40be b0bc 253d
00000350: ab92 96bc 3e11 2c3d 7b23 abbe 2a29 ec3c
00000360: 79f1 94bd 06bd 513c 19af e2bc ee82 b7bd
00000370: 1307 433c 568e 14bd c844 1bbc 2952 a43d
00000380: ef69 853d 4883 963c a827 4cbd 0c0c 80bd
00000390: 5674 46bd e713 01bd 74c1 98be 8883 07bb
000003a0: 66e6 bdbe 880d 25bd 34aa 5bbd 4a3d 5abd
000003b0: 1a79 063e 8fb0 82bc f199 4dbd 9442 66bc
000003c0: 6037 79be 2c54 523c 538a 70bd 356a 93bb
000003d0: b297 81be fc85 903d 558f 1dbd af06 3fbc
000003e0: 2458 3dbd 2270 953d 7040 c03d aa82 513c
000003f0: bae8 bbbe 9215 38bc 306a ff3b e5dd ed3c

network.4.bias f4 [64]
-0.16313595 0.13963059 -0.39623642 -0.13279381 0.23774639 -0.05315943 -0.098527655 -0.34853816
-0.08497762 -0.22050582 -0.07856983 0.02246159 -0.43728793 0.016298873 -0.023505935 -0.1464465
-0.2207983 -0.40549734 -0.09326875 -0.051210146 -0.66555667 -0.021559276 0.22657593 -0.051627222
0.27094254 0.25836775 -0.21665803 -0.15981536 -0.10903626 -0.49805024 -0.499159 -0.15972771
0.32767892 0.15181749 -0.41233435 -0.2089461 -0.057008106 -0.18269546 -0.1167457 -0.45218244
-0.022647435 -0.5510337 0.15122272 0.09303987 -0.32259318 0.0654957 -0.33092067 -0.08369649
-0.23516485 0.25206012 -0.24533476 -0.395838 -0.28289273 -0.15967835 -0.18857774 -0.23381898
-0.29011813 -0.14464252 -0.08119004 -0.112932526 0.5696549 -0.15659146 0.13370325 0.10820314
00000000: 1c0d 27be 52fb 0e3e 80df cabe 1afb 07be
00000010: ca73 733e b4bd 59bd dec8 c9bd 9873 b2be
00000020: bf08 aebd 47cc 61be 38e9 a0bd 5e01 b83c
00000030: 34e4 dfbe 3785 853c 858f c0bc 12f6 15be
00000040: f318 62be 599d cfbe b003 bfbd bbc1 51bd
00000050: ec61 2abf 149d b0bc 8503 683e 1177 53bd
00000060: fbb8 8a3e c748 843e 9adb 5dbe a3a6 23be
00000070: 674e dfbd 7100 ffbe c591 ffbe a98f 23be
00000080: 88c5 a73e 0b76 1b3e 7d1d d3be f7f5 55be
00000090: 5581 69bd 8514 3bbe 5f18 efbd 7584 e7be
000000a0: 1d87 b9bc 8b10 0dbf 21da 1a3e b08b be3d
000000b0: ef2a a5be 9c22 863d 6f6e a9be 1169 abbd
000000c0: 0ecf 70be 060e 813e 0939 7bbe 47ab cabe
000000d0: 51d7 90be b982 23be 861a 41be 3e6e 6fbe
000000e0: 5d8a 94be 2b1d 14be f746 a6bd 2b49 e7bd
000000f0: e7d4 113f 8359 20be 81e9 083e 9c99 dd3d

network.6.weight f4 [2, 64]
0.15280882 -0.12284239 -0.0393441 0.33437562 0.049889773 0.027016077 -0.0022844009 0.020449227
0.2257823 -0.00776965 -0.12544475 0.0064266073 0.2051283 -0.032984875 0.077849396 0.056179862
-0.0669854 -0.03773535 0.07107988 -0.034915205 -0.40405208 0.06947654 0.057185393 -0.03396352
-0.041072622 -0.019710165 0.01636042 0.02663219 -0.029923795 0.11727218 -0.00177069 0.14068665
0.008686066 -0.07408206 -0.17610808 -0.058367815 0.10102319 -0.031533644 0.015107905 -0.033926778
-0.0015243199 0.04211577 -0.028105099 -0.04229245 -0.051773895 -0.021583868 -0.055159174 -0.18049483
0.017262625 -0.07670728 -0.003910874 0.24154095 -0.002203384 0.012607086 -0.010478341 -0.11304435
0.027961256 0.027519079 0.019918617 0.024935147 0.08287356 -0.0003804739 -0.20331985 0.0006184408
-0.054859713 0.008628804 -0.091773346 0.28512263 -0.076971926 0.0062917313 -0.006440036 0.043366488
0.24146359 0.0954621 -0.047933377 0.018012114 0.04995616 -0.120684676 -0.11286743 0.068954885
0.103129365 -0.07806401 -0.24590276 -0.0040072463 -0.2571032 -0.14499527 -0.06946991 -0.048582017
-0.10840525 -0.039656617 0.14192855 -0.048283946 0.008057629 0.039732512 0.06957839 -0.13413753
0.017173301 -0.08156886 -0.06343719 0.051122338 0.12413879 0.0041723326 -0.10724386 0.07464985
-0.2068718 -0.023496948 -0.07215848 0.06697204 -0.13529688 0.023103831 0.21131916 0.052167054
-0.07227721 0.001369193 -0.0061818995 -0.007892163 -0.2563546 0.006266137 0.15426144 -0.043852054
0.01388689 0.026981825 -0.043031152 0.01935591 0.08088587 0.074641936 -0.0037245792 0.0054367865
00000000: ea79 1c3e ca94 fbbd 4727 21bd 4833 ab3e
00000010: 3859 4c3d d250 dd3c e3b5 15bb 2385 a73c
00000020: 7a33 673e 8c98 febb 9774 00be 4a96 d23b
00000030: 270d 523e 261b 07bd 816f 9f3d db1c 663d
00000040: a42f 89bd 6290 1abd 5492 913d 3f03 0fbd
00000050: eadf cebe b749 8e3d 3b3b 6a3d 551d 0bbd
00000060: c43b 28bd 3677 a1bc 4a06 863c c02b da3c
00000070: bf22 f5bc 662c f03d 7f16 e8ba 2910 103e
00000080: 0050 0e3c 56b8 97bd ad55 34be 1713 6fbd
00000090: 3fe5 ce3d 6c29 01bd 2587 773c cef6 0abd
000000a0: b0cb c7ba 9681 2c3d aa3c e6bc d93a 2dbd
000000b0: dd10 54bd a7d0 b0bc 96ee 61bd a3d3 38be
000000c0: 596a 8d3c b518 9dbd ca26 80bb 8356 773e
000000d0: a666 10bb f48d 4e3c 59ad 2bbc cc83 e7bd
000000e0: 010f e53c b16f e13c 5e2c a33c cb44 cc3c
000000f0: 9db9 a93d 587a c7b9 1433 50be dc1e 223a
00000100: 94b4 60bd d45f 0d3c aaf3 bbbd 98fb 913e
00000110: 75a3 9dbd de2a ce3b f006 d3bb 0fa1 313d
00000120: 3b42 773e a281 c33d ca55 44bd 248e 933c
00000130: d59e 4c3d 8729 f7bd 0a27 e7bd 3838 8d3d
00000140: 7d35 d33d 06e0 9fbd efcd 7bbe 384f 83bb
00000150: 08a3 83be a479 14be 3d46 8ebd f0fd 46bd
00000160: 9203 debd fa6e 22bd b855 113e 63c5 45bd
00000170: 2504 043c 8fbe 223d 1d7f 8e3d 595b 09be
00000180: 06af 8c3c 930d a7bd 5ceb 81bd a865 513d
00000190: 7a3c fe3d 10b8 883b aba2 dbbd 05e2 983d
000001a0: 33d6 53be ac7c c0bc d3c7 93bd a328 893d
000001b0: 448b 0abe 3f44 bd3c 0d64 583e 1fad 553d
000001c0: 1306 94bd 7e76 b33a 8891 cabb 214e 01bc
000001d0: e940 83be 2b54 cd3b b6f6 1d3e 369e 33bd
000001e0: d785 633c fd08 dd3c 6f41 30bd 4990 9e3c
000001f0: 7ea7 a53d dfdd 983d 1218 74bb 1227 b23b

network.6.bias f4 [2]
0.022442592 0.02024705
00000000: 87d9 b73c 24dd a53c
