src/Catcher_Flappy_Continuous/wandb/flappyBird/run_acc_state_acc_r/files/flappy_agent_acc_state_acc_r_2.pt (torch, 40641 bytes, 11 tensors)

critic.0.weight f4 [64, 5]
0	0xbdd5349d	-0.10410426
1	0xbd27935f	-0.04091203
2	0x3e84e42d	0.25955334
3	0xbe3f7bee	-0.18699619
4	0x3e12eaac	0.14347333
5	0xbc441cb2	-0.011969732
6	0x3e37881b	0.17923014
7	0x3e039a9b	0.12851946
8	0xbdee257e	-0.11628245
9	0x3df827f1	0.12116993
10	0xbbbdbfcb	-0.005790686
11	0xbc877779	-0.016536461
12	0xbdeac8f8	-0.11464113
13	0xbe0a1c9f	-0.1348748
14	0xbd3de84e	-0.04636412
15	0xbec0528d	-0.3756298
16	0x3c8d9a9c	0.017285638
17	0xbea2d08a	-0.31799728
18	0xbe446ee6	-0.1918293
19	0xbc8b8b2b	-0.017034134
20	0xbd5d271c	-0.053992376
21	0x3c06c9ce	0.008226825
22	0xbd7eee24	-0.062238827
23	0xbd2d8393	-0.042361807
24	0xbdff90f7	-0.12478822
25	0x3e5ec765	0.2175575
26	0x3e8f6292	0.2800489
27	0xbd853048	-0.065033495
28	0xbe159b59	-0.14610042
29	0x3e94973f	0.29021642
30	0x3c9231a0	0.017845929
31	0xbe849ce5	-0.2590095
32	0xbe05d27f	-0.13068579
33	0x3de6c182	0.112673774
34	0x3cf452b8	0.0298246
35	0x3e022524	0.1270948
36	0xbd3b22b9	-0.04568741
37	0xbedbf30e	-0.42958874
38	0xbea74856	-0.32672375
39	0x3de89b6c	0.11357769
40	0x3bbee60d	0.005825764
41	0xbef90b21	-0.48641303
42	0xbe67e4fc	-0.22645944
43	0x3e61fab5	0.22068293
44	0x3f01e948	0.50746584
45	0x3e039cfc	0.12852854
46	0x3db41dc7	0.08794742
47	0x3edc521e	0.430314
48	0x3e60ee79	0.2196597
49	0x3e404e8d	0.18779965
50	0x3e9283ed	0.28616276
51	0x3ce0835f	0.027406393
52	0xbe90ae17	-0.2825782
53	0xbb671227	-0.0035258622
54	0x3ec761ba	0.38941747
55	0x3e5ce64c	0.21572226
56	0x3d9f1833	0.077682875
57	0x3d873495	0.06601826
58	0xbd18ebba	-0.03733418
59	0xbe709106	-0.23492822
60	0xbd88eae4	-0.06685427
61	0xbe620fd1	-0.22076346
62	0x3ea6136c	0.32436693
63	0xbe7351a2	-0.23761609
64	0x3d6b58d4	0.05745776
65	0x38ceb97b	9.857394e-05
66	0x3e30a387	0.1724988
67	0x3dcc2227	0.099674515
68	0xbdcbfee2	-0.099607244
69	0x3dcc905e	0.09988473
70	0x3eabba91	0.33540776
71	0xbdac71fe	-0.0842018
72	0x3e4f3e5b	0.2023863
73	0x3dbcc472	0.092171565
74	0xbe297211	-0.16547419
75	0x3e893171	0.26795533
76	0xbf0a4806	-0.5401615
77	0x3d21f00c	0.039535567
78	0xbec817ed	-0.39080754
79	0xbccc2510	-0.024920017
80	0x3e4ae4d6	0.19813856
81	0x3e897c53	0.26852664
82	0x3e09008f	0.1337912
83	0x3ddb8d0d	0.10720263
84	0x3e0bb2bb	0.13642399
85	0xbaa6acc3	-0.0012716282
86	0xbe960b58	-0.2930553
87	0xbe044713	-0.12917738
88	0x3e059fcb	0.13049237
89	0x3ecc66ab	0.3992208
90	0xbd313c75	-0.043270547
91	0xbdc5be56	-0.09655444
92	0x3c876e4a	0.016532082
93	0xbdaec1a6	-0.08533029
94	0xbe083f2e	-0.13305351
95	0x3d86895e	0.065691695
96	0xbdc4cae3	-0.0960901
97	0xbd161a7e	-0.03664636
98	0xbe20d905	-0.15707786
99	0xbda5b861	-0.08091808
100	0x3a38258f	0.00070246396
101	0x3eb026da	0.3440464
102	0x3e1f475d	0.15554567
103	0xbe1fded2	-0.15612343
104	0xbf0fd7f4	-0.56188893
105	0xbe089baf	-0.13340639
106	0xbe5f3c38	-0.21800315
107	0x3e57cfe6	0.210754
108	0xbe9f551e	-0.31119627
109	0x3dfbd9d7	0.12297409
110	0xbd1d7df9	-0.038450215
111	0xbedc4e53	-0.43028507
112	0xbea79204	-0.3272859
113	0x3d42bfe5	0.047546286
114	0x3e137813	0.14401273
115	0x3e51631b	0.20447962
116	0xbb921dc1	-0.0044591133
117	0x3bcb1593	0.00619764
118	0xbd627127	-0.05528369
119	0xbde7e25e	-0.11322473
120	0x3e4d944a	0.20076099
121	0x3e1912e3	0.14948611
122	0x3e0cd6db	0.13753836
123	0x3d916f34	0.071012884
124	0xbdfe0117	-0.124025516
125	0x3e0d0f86	0.13775453
126	0x3da1060b	0.07862481
127	0xbdc776d1	-0.09739459
128	0x3d3e74ee	0.04649823
129	0x3e69f8a0	0.22848749
130	0xbcc7b792	-0.024379525
131	0xbb9a136d	-0.0047020228
132	0xbca50a0b	-0.02014639
133	0x3de8c27d	0.11365221
134	0xbd1c5630	-0.038168132
135	0xbe6dfa4e	-0.23240015
136	0xbceb9e1c	-0.028761916
137	0x3e6cfafd	0.2314262
138	0xbe74132d	-0.2383544
139	0xbb6bc971	-0.0035978223
140	0x3e10b3fe	0.14131162
141	0xbe11d23e	-0.14240357
142	0xbdfb8264	-0.122807294
143	0xbc9fde38	-0.019515142
144	0x3e6f0bb6	0.23344311
145	0xbdbd1719	-0.09232921
146	0x3e00c6d0	0.12575841
147	0x3e8398ba	0.2570246
148	0x3e02c3e2	0.12770036
149	0x3e05241e	0.13002059
150	0x3b64b9d0	0.0034900792
151	0xbd1f23f4	-0.038852647
152	0xbe12b101	-0.14325334
153	0xbc22f4d9	-0.009946072
154	0x3e83a515	0.25711885
155	0xbe520c69	-0.20512547
156	0xbe3e4918	-0.1858257
157	0xbd7e2b86	-0.062053226
158	0x3e8c9686	0.2745859
159	0x3e78c8fc	0.2429542
160	0x3cc6ccc6	0.024267565
161	0x3e3238bf	0.1740446
162	0x3851ed92	5.0050738e-05
163	0xbf019be0	-0.5062847
164	0x3de02f7a	0.109465554
165	0xbd7a316d	-0.061082292
166	0x3e022727	0.12710248
167	0x3e0e2608	0.13881695
168	0xbd9cc59b	-0.07654878
169	0x3e0e7f04	0.1391564
170	0x3dd22fb7	0.10263007
171	0xbe14eb40	-0.14542866
172	0xbdbdf1c7	-0.09274631
173	0x3e9e4c57	0.30917618
174	0x3e8273a4	0.25478852
175	0x3e2e6d90	0.17033982
176	0xbdd717e7	-0.10502606
177	0xbd6a564d	-0.05721121
178	0x3dd7122a	0.105015114
179	0xbdeb08e5	-0.11476306
180	0x3e1d2c7c	0.15349
181	0x3e8f8fff	0.28039548
182	0x3c0c2c0d	0.008555424
183	0xbe27a2e7	-0.16370736
184	0xbe087b21	-0.1332822
185	0x3a7edebe	0.0009722522
186	0xbd18ee3f	-0.037336584
187	0xbd86a7b2	-0.06574954
188	0x3d840de5	0.06447963
189	0xbd413dde	-0.04717814
190	0x3df02d55	0.117273964
191	0x3dd30f59	0.10305662
192	0xbe005eb4	-0.12536126
193	0x3d7fedfb	0.062482815
194	0x3d83a4b7	0.06427901
195	0xb9d75a5f	-0.00041075327
196	0x3de70976	0.112811014
197	0x3decce93	0.115628384
198	0xbdebd855	-0.115158714
199	0x3ed75ff7	0.42065403
200	0xb95b97d1	-0.00020942024
201	0x3e054a29	0.13016571
202	0x3e15018a	0.14551368
203	0xbe14ba86	-0.14524278
204	0xbed23a2c	-0.41060007
205	0xbd301467	-0.042988207
206	0xbe2417fe	-0.16024777
207	0xbea9ec81	-0.3318825
208	0x3e10910e	0.14117834
209	0xbe892450	-0.26785517
210	0x3e3a8387	0.18214236
211	0xbd85f7e0	-0.06541419
212	0x3d1e282a	0.038612522
213	0x3e23f6d9	0.16012134
214	0x3dae6c08	0.08516699
215	0x3f124ec0	0.5715141
216	0xbddf81cd	-0.109134294
217	0x3e04feb4	0.12987787
218	0xbcd122c6	-0.025529277
219	0xbebcf7f3	-0.3690792
220	0x3e82e052	0.25561768
221	0x3e3a80fc	0.18213266
222	0xbe2000a9	-0.15625252
223	0xbdb78be3	-0.08962228
224	0x3e6c6f7a	0.230894
225	0xb9ef59c4	-0.00045652513
226	0x3dddb01f	0.10824608
227	0x3e141534	0.14461213
228	0xbe130353	-0.14356737
229	0xbdade69b	-0.0849125
230	0x3e2e525a	0.17023602
231	0xbe868384	-0.26272213
232	0xbdefb763	-0.117049
233	0xbe94fc55	-0.29098764
234	0x3dafa980	0.085772514
235	0xbe1badeb	-0.15203063
236	0xbdd6f088	-0.104950964
237	0x3e4d9191	0.2007506
238	0xbdfc6fb0	-0.1232599
239	0xbe310f2d	-0.17290945
240	0xbeaf3b22	-0.34224802
241	0xbe10b041	-0.14129736
242	0xbdcc19dc	-0.0996587
243	0xbe7023cd	-0.23451157
244	0xbe24bca6	-0.16087589
245	0xbea7fb2e	-0.32808822
246	0x3e24fb5b	0.1611151
247	0x3d6d225c	0.057894096
248	0xbe111f4d	-0.14172097
249	0x3e843f52	0.2582956
250	0x3e33ad5b	0.17546599
251	0x3e60095c	0.2187857
252	0x3d20b2c2	0.039232977
253	0x3eb292df	0.3487768
254	0xbcbef6a8	-0.023310974
255	0x3e1dec73	0.1542223

critic.0.bias f4 [64]
0	0xb62fee91	-2.6215896e-06
1	0xbe0c6b6e	-0.13712856
2	0x00000000	0.0
3	0x00000000	0.0
4	0xb91e2140	-0.00015080441
5	0x3e56eeae	0.20989487
6	0x3da27aea	0.079336
7	0x00000000	0.0
8	0x3ee34c0d	0.4439396
9	0x00000000	0.0
10	0x3e8ab241	0.27089122
11	0xbe020986	-0.12698945
12	0x00000000	0.0
13	0xbda4d11c	-0.08047697
14	0x3ce9e4f3	0.028551554
15	0xbb35e8e2	-0.0027757217
16	0x00000000	0.0
17	0x3f08f78b	0.5350272
18	0x00000000	0.0
19	0xbbdbc568	-0.0067068823
20	0xbe8c436a	-0.27395183
21	0x00000000	0.0
22	0xb80a1d18	-3.292886e-05
23	0xbd2f99a8	-0.042871147
24	0x00000000	0.0
25	0xbc90573d	-0.017619723
26	0x3c4c1f01	0.012458564
27	0x00000000	0.0
28	0x3e190105	0.14941795
29	0x3bdecaae	0.0067990636
30	0x387b3aa7	5.9897688e-05
31	0x3e086508	0.1331979
32	0xbc4618a5	-0.012090837
33	0xbd3179f5	-0.043329198
34	0x00000000	0.0
35	0xbd6f3628	-0.058401257
36	0xbd313de2	-0.043271907
37	0xbe6b2394	-0.2296279
38	0x3c8e541c	0.01737409
39	0x3e08475a	0.13308468
40	0x3d5b87e2	0.053596385
41	0x3c0181ac	0.007904451
42	0x00000000	0.0
43	0x3c507490	0.012723103
44	0x3e66d455	0.22541936
45	0x3d81b36d	0.06333051
46	0x00000000	0.0
47	0xbbea6a32	-0.0071537727
48	0x00000000	0.0
49	0xbe0109c0	-0.12601376
50	0x00000000	0.0
51	0x00000000	0.0
52	0x00000000	0.0
53	0xbdf85f22	-0.1212752
54	0x3d181904	0.03713323
55	0x2fca59d7	3.680742e-10
56	0x30beb332	1.387525e-09
57	0x3d6dfef8	0.058104485
58	0xbd8d9c44	-0.06914571
59	0xbe2645e9	-0.16237606
60	0xbd686339	-0.05673525
61	0x3860bd4f	5.358207e-05
62	0xbd04622c	-0.032320186
63	0x3c0755d3	0.008260208

critic.2.weight f4 [64, 64]
0	0x3e873f36	0.26415414
1	0x3e9ceda4	0.30650055
2	0x3deec591	0.116587766
3	0x3ea367c1	0.31915095
4	0x3ddb8fae	0.10720764
5	0xbe72fb82	-0.23728755
6	0xbd923d1d	-0.07140563
7	0xbd9172e9	-0.071019955
8	0x3e7bffb1	0.24609257
9	0xbc45886c	-0.012056451
10	0xbe196d22	-0.14983037
11	0xbe8a2fe9	-0.26989678
12	0x3ed163b1	0.4089637
13	0xbc00b56f	-0.007855757
14	0xbdebc9e1	-0.11513115
15	0x3e82769d	0.2548112
16	0xbe5b03d9	-0.21388187
17	0xbd0f8b76	-0.03504511
18	0x3e10e0a5	0.14148195
19	0x3d84fc1c	0.064933985
20	0xbe608b50	-0.21928144
21	0x3e3797b1	0.1792896
22	0xba7c3fbb	-0.00096225337
23	0xbecd15ff	-0.40055844
24	0xbe703b1f	-0.23460053
25	0xbd04894c	-0.0323575
26	0x3e0c00ef	0.13672231
27	0xbe7a3520	-0.24434328
28	0xbe3cc6e2	-0.18435243
29	0xbc11ba15	-0.008894463
30	0xbe3e88aa	-0.1860682
31	0xbcf3ba66	-0.029751968
32	0xbc87ff8f	-0.016601352
33	0xbd1db078	-0.03849837
34	0x3ddf3954	0.10899606
35	0xbe22fe38	-0.1591729
36	0xbe66c5dc	-0.22536415
37	0x3d0ec564	0.034856215
38	0xbe8398cf	-0.2570252
39	0x3eb5c7de	0.3550405
40	0xbd9c5e06	-0.07635121
41	0x3e4b5f68	0.19860613
42	0xbe8266be	-0.2546901
43	0xbbf0639d	-0.0073360936
44	0x3d281cc4	0.041043058
45	0x3d0b5899	0.03402004
46	0xbe3e8d31	-0.18608548
47	0xbca5a70e	-0.02022126
48	0xbc093961	-0.008375497
49	0x3f0145cd	0.5049713
50	0x3e5e3bd7	0.21702515
51	0xbe166645	-0.1468745
52	0xbcc5c2cc	-0.024140738
53	0xbea86130	-0.32886648
54	0xbecb1cc5	-0.39670387
55	0xbebc4a6b	-0.36775526
56	0x3d8b5d3f	0.06804895
57	0xbe2f1d4e	-0.17101023
58	0xbe29a95c	-0.16568512
59	0xbdded38b	-0.10880192
60	0xbcacbeef	-0.021087138
61	0xbe8ec715	-0.27886263
62	0x3eb3df2e	0.3513121
63	0xbe695fc9	-0.22790445
64	0x3efaa751	0.48955777
65	0xbe243856	-0.16037115
66	0xbda2544e	-0.07926236
67	0x3d5cc0b2	0.053894706
68	0xbe4baa24	-0.19889122
69	0xbdad3d8e	-0.08459006
70	0x3f03681a	0.5133072
71	0xbdeece96	-0.11660497
72	0x3eae29fe	0.34016412
73	0x3d3ed170	0.046586454
74	0x3e09b3e9	0.13447537
75	0x3d27d3b2	0.040973373
76	0x3b8f90d6	0.0043812795
77	0xbfbe3bf8	-1.4862051
78	0xbe23bee4	-0.15990788
79	0x3d6ab6e2	0.057303317
80	0xbd16c4d6	-0.03680881
81	0x3f95651e	1.1671484
82	0x3e69b590	0.22823167
83	0xbcac7650	-0.02105251
84	0xbf4f3170	-0.8093481
85	0x3e300d32	0.17192534
86	0x3edd703b	0.43249688
87	0x3e41eab7	0.18937193
88	0x3dc50efa	0.09621997
89	0xbea4f107	-0.3221514
90	0xbd778406	-0.06042864
91	0x3db0a4a4	0.08625153
92	0xbd6527c9	-0.055946145
93	0xbdd59fc2	-0.10430862
94	0x3e5e9499	0.21736373
95	0x3f166b34	0.5875733
96	0xbe7562be	-0.23963448
97	0xbe9ff158	-0.31238818
98	0xbdae3cb4	-0.08507672
99	0xbcfd4db8	-0.030920848
100	0x3cae5b0f	0.021283654
101	0xbe98dd37	-0.29856274
102	0x3e319ae0	0.17344236
103	0xbe329a8d	-0.17441769
104	0xbdb96cbb	-0.09053942
105	0x3ceac65a	0.028659035
106	0x3e9411ab	0.2891973
107	0xbe4acf4c	-0.1980564
108	0x3e80c447	0.25149748
109	0x3d4023fc	0.046909317
110	0xbc889450	-0.016672283
111	0xbc8c8d04	-0.017157085
112	0x3e56bb10	0.20969796
113	0xbe4ad8e6	-0.19809303
114	0x3d28438e	0.04108005
115	0xbe7d4938	-0.24734962
116	0x3e05c7ca	0.13064495
117	0xbdfd9de8	-0.12383634
118	0xbe5338b1	-0.20627095
119	0xbe2c430a	-0.16822448
120	0xbc529f0b	-0.012855302
121	0x3dde70b8	0.10861343
122	0x3ebe5c63	0.3717986
123	0x3e9751c3	0.29554567
124	0xbe2a57dd	-0.1663508
125	0x3e1d3990	0.1535399
126	0x3e979912	0.2960897
127	0x3cfa1d8a	0.030531663
128	0xbe676922	-0.22598699
129	0xbdb3ac07	-0.08773046
130	0xbe296c78	-0.16545284
131	0x3e210bdc	0.1572718
132	0x3e534556	0.20631918
133	0xbe8186ab	-0.25298056
134	0xbe43d02c	-0.1912238
135	0xbe3f58d2	-0.18686226
136	0x3cbd0c0b	0.023077032
137	0x3dea587f	0.114426605
138	0xbd54551b	-0.051838975
139	0xbe09b468	-0.13447726
140	0x3e6a5cb6	0.22886929
141	0xbec60d10	-0.3868184
142	0xbe3b3d40	-0.18285084
143	0xbea1d762	-0.31609637
144	0x3e24f706	0.16109857
145	0x3eabdc93	0.33566722
146	0xbdd24d11	-0.102686055
147	0xbe03e996	-0.12882075
148	0x3e5b902d	0.21441717
149	0xbea1017c	-0.31446445
150	0xbe747d2a	-0.23875871
151	0x3b6c3e91	0.0036048035
152	0x3e05cabe	0.13065621
153	0x3d81b2c8	0.06332928
154	0xbe282fa0	-0.16424417
155	0xbdced497	-0.10099142
156	0x3cfe46a1	0.031039538
157	0x3de9995f	0.11406206
158	0x3d9448cc	0.072404474
159	0x3e2c9dd7	0.16857086
160	0x3e6fbd6e	0.23412105
161	0xbe035eda	-0.12829152
162	0x3e27a412	0.16371182
163	0xbea7e2e8	-0.32790303
164	0x3da03218	0.078220546
165	0x3f0fb3e6	0.5613388
166	0x3e3d94a4	0.18513733
167	0xbe8fcf18	-0.28087687
168	0xbf12e27a	-0.57376826
169	0xbe59a5c2	-0.21254638
170	0xbdb26735	-0.087110914
171	0xbe269443	-0.16267495
172	0x3e00ca06	0.12577066
173	0xbe629c72	-0.22129992
174	0xbd4dbf1c	-0.050231084
175	0xbda25c93	-0.079278134
176	0xbe67e79a	-0.22646943
177	0xbe07137b	-0.13191025
178	0x3d996941	0.07490779
179	0xbe836ae8	-0.256675
180	0x3ce4daa4	0.027936287
181	0xbe8a948f	-0.27066466
182	0x3e319607	0.17342387
183	0x3dac0a3b	0.08400389
184	0xbe2a34ca	-0.166217
185	0x3d82cc48	0.0638662
186	0xbdd0e213	-0.1019937
187	0xbc3b3598	-0.011426352
188	0x3e01410a	0.12622467
189	0xbdbeb824	-0.09312466
190	0xbd2f008e	-0.04272514
191	0x3dd1a32b	0.102362
192	0x3e27cddc	0.16387123
193	0x3ecb7e9e	0.3974504
194	0xbe109d06	-0.141224
195	0xbd0bd9df	-0.034143325
196	0xbed11215	-0.40834108
197	0xbe560247	-0.20899306
198	0x3e67fb7d	0.22654529
199	0x3de4e62c	0.11176714
200	0x3fc90261	1.5703851
201	0x3ea91bc5	0.33029
202	0xbd5e31a2	-0.054246552
203	0xbe503bb2	-0.20335272
204	0x3d3dd36f	0.046344217
205	0x3f52690e	0.8219155
206	0xbbc1b499	-0.0059114215
207	0xbe5b7e52	-0.21434906
208	0x3eb0d5f9	0.34538248
209	0x3f0f9b6a	0.5609652
210	0x3d9ee4bc	0.07758471
211	0xbe145266	-0.14484558
212	0xbf212bf6	-0.62957704
213	0xbe9a1023	-0.30090436
214	0xbd91eba6	-0.071250245
215	0xbe2b5957	-0.16733299
216	0xbd051c69	-0.032497797
217	0x3ca86e72	0.020560477
218	0x3e15a114	0.14612228
219	0x3ebdee31	0.37095788
220	0x3f472e10	0.7780466
221	0x3e4b6c98	0.19865644
222	0x3dcdba14	0.10045257
223	0xbd18929c	-0.037249193
224	0xbd3a0c17	-0.045421686
225	0x3e2f2896	0.17105326
226	0x3f0c9ffa	0.54931605
227	0x3df97a6e	0.12181555
228	0xbedbf03c	-0.42956722
229	0x3e7215ed	0.23641177
230	0x3d34ba93	0.044123244
231	0x3e3f2b53	0.1866887
232	0x3df33a9b	0.118764125
233	0xbd9651e7	-0.073398404
234	0x3de495b4	0.11161366
235	0x3def6f38	0.11691135
236	0x3d9327b4	0.07185307
237	0x3e165e08	0.14684308
238	0xbde9e87c	-0.11421296
239	0x3e308c68	0.1724106
240	0xbe8a2197	-0.26978752
241	0x3e9526a4	0.29131043
242	0x3dec5e28	0.115413964
243	0x3e234130	0.15942836
244	0xbdf62af2	-0.1201991
245	0x3dd92522	0.10602786
246	0x3e2a6949	0.16641726
247	0x3e08afc4	0.133483
248	0x3e249036	0.16070637
249	0xbdd460e4	-0.10370043
250	0x3d92949c	0.07157251
251	0xbe545069	-0.20733799
252	0xbea702a2	-0.32619196
253	0xbc40b1dd	-0.011761156
254	0xbe1ff762	-0.15621713
255	0x3ecd19b1	0.40058663

critic.2.bias f4 [64]
0	0xbd67965a	-0.05653987
1	0xbd65b0e1	-0.056076888
2	0x3d8b56cc	0.068036646
3	0x3d9b918e	0.07596122
4	0x3d90faf7	0.07079118
5	0x3de590cc	0.112092584
6	0xbd832813	-0.06404128
7	0x3d3ced67	0.046124842
8	0x3d880d02	0.06643106
9	0x3dad2247	0.084538035
10	0xbcd5a888	-0.026081339
11	0x3d54f81b	0.051994424
12	0x3d92453b	0.07142111
13	0x3d813144	0.06308225
14	0xbd98ce8e	-0.07461272
15	0x3be2c59b	0.006920529
16	0xbd900e82	-0.07034017
17	0x3db23d31	0.087030776
18	0xbd898d57	-0.067164116
19	0xbd06f4a9	-0.03294817
20	0xbc4945d3	-0.012284714
21	0x3d0cdf3f	0.03439259
22	0x3dc05ae0	0.09392333
23	0x3ca125a2	0.019671265
24	0xbd7abaf0	-0.061213434
25	0x3cefc8d2	0.029270563
26	0xbcc59a81	-0.024121525
27	0xbdd91001	-0.10598756
28	0x3c85224c	0.016251706
29	0xbd8a3190	-0.067477345
30	0x3d17fe2f	0.037107643
31	0xbd88ed02	-0.06685831
32	0x3d98f82f	0.07469212
33	0xbcd51bf0	-0.026014298
34	0xbd95be2a	-0.073116615
35	0xbd4937c7	-0.04912546
36	0xbddbc7f0	-0.107314944
37	0x3d98bac2	0.07457496
38	0xbdad19a8	-0.08452159
39	0xbc175f75	-0.009239067
40	0xbc856065	-0.016281316
41	0xbdb06700	-0.08613396
42	0x3d7df794	0.062003687
43	0x3d3a276e	0.04544776
44	0xbd08a325	-0.03335871
45	0x3ce88f49	0.028388636
46	0xbd0947fb	-0.03351591
47	0x3de0dca0	0.10979581
48	0x39b3ae1f	0.0003427127
49	0x3d575309	0.052569423
50	0xbddeeca1	-0.10884977
51	0x3ce6223a	0.028092492
52	0x3d36f17a	0.044663884
53	0x3dde86af	0.108655326
54	0x3d9114a3	0.07084014
55	0x3d725439	0.059162352
56	0x3d7698c7	0.060204294
57	0xbdcc60ef	-0.09979426
58	0xbbabc853	-0.0052423864
59	0x3d87dec1	0.06634284
60	0x3d9d05fe	0.076671585
61	0xbcf4ddb4	-0.029890873
62	0x3d501605	0.05080225
63	0x3db14845	0.086563624

critic.4.weight f4 [1, 64]
0	0xbf569e5a	-0.83835375
1	0x3fbb5b31	1.4637204
2	0x3eddc8c5	0.43317237
3	0xbfb637ec	-1.4235816
4	0xbfad779c	-1.3552127
5	0xbfbcea4b	-1.4759
6	0x3f58fb04	0.8475802
7	0xbf84cd73	-1.0375198
8	0xbfa63523	-1.2984966
9	0xbf991472	-1.1959364
10	0x3fa58001	1.2929689
11	0x3f5624d6	0.8364996
12	0x3f8c67ec	1.0969214
13	0x3ebb54f7	0.3658826
14	0x3fb84174	1.4394975
15	0xbf86b181	-1.052292
16	0xbeeea1ca	-0.4660781
17	0x3ef03028	0.4691174
18	0x3fa32481	1.2745515
19	0xbe9bd6e0	-0.30437374
20	0x3f0a148a	0.5393759
21	0xbf89a57b	-1.0753626
22	0xbf9427cc	-1.1574645
23	0x3ee0e665	0.43925777
24	0xbedfec4e	-0.43734974
25	0x3f22b8a2	0.6356298
26	0xbf92579a	-1.1432984
27	0x3fb94be7	1.4476289
28	0xbf8aff0e	-1.0859087
29	0xbf46ca01	-0.77651983
30	0xbf9057fa	-1.1276848
31	0x3f94cbb5	1.1624666
32	0xbfac0b19	-1.3440887
33	0x3f836a51	1.026682
34	0xbeecdc33	-0.4626175
35	0x3fb74985	1.4319311
36	0x3fbb2fd3	1.462397
37	0xbf8ff4dc	-1.12466
38	0xbededfeb	-0.4353021
39	0x3f37bc94	0.7177212
40	0xbf9c0739	-1.2189704
41	0x3fb0648c	1.3780684
42	0xbf94acd9	-1.1615249
43	0x3eec34ff	0.46134183
44	0xbf81a09a	-1.0127137
45	0x3f5788bd	0.8419302
46	0x3f8159e9	1.0105563
47	0xbf8e3f78	-1.1113119
48	0xbf8e7013	-1.1127952
49	0x3e41c85a	0.18924084
50	0x3fb5a398	1.419055
51	0x3f8c13a1	1.094349
52	0xbfac40b0	-1.3457241
53	0xbfb7cb2b	-1.4358877
54	0x3f550238	0.8320651
55	0xbf81f55f	-1.0153006
56	0xbf96c54a	-1.1778958
57	0x3faf9937	1.3718632
58	0xbf5d7965	-0.8651336
59	0xbfa5e5b6	-1.2960727
60	0xbf8ad30a	-1.0845654
61	0x3fa7e53b	1.311683
62	0xbfb21236	-1.3911808
63	0xbfa70c59	-1.3050643

actor.0.weight f4 [64, 5]
0	0x3d11909a	0.035538293
1	0xbed76d01	-0.4207535
2	0x3e5312b0	0.20612597
3	0x3cfc3087	0.030784858
4	0xbde14a26	-0.11000471
5	0xbe8ab910	-0.27094316
6	0xbcae70ec	-0.02129408
7	0x3dc6c97f	0.09706401
8	0x3e1a0295	0.15040047
9	0x3d8a0182	0.06738569
10	0x3e384fd4	0.17999202
11	0x3e1209fc	0.14261621
12	0x3d6663c2	0.05624748
13	0xbe98d5a0	-0.29850483
14	0xbe6864db	-0.22694723
15	0x3ea69757	0.32537338
16	0xbe583beb	-0.21116607
17	0xbda1c463	-0.07898786
18	0x3e224fd1	0.1585076
19	0xbc276fe0	-0.010219544
20	0xb977e3e7	-0.00023640656
21	0x3eb44aac	0.3521322
22	0x3e6e3b24	0.23264748
23	0xbe8645b2	-0.26225048
24	0xbcddcaa2	-0.027074162
25	0xbea22750	-0.31670618
26	0x3e1c4913	0.1526225
27	0xbe3a8f1c	-0.18218654
28	0x3c2fd08a	0.010730872
29	0x3e06fbeb	0.13182037
30	0xbe55fd09	-0.20897307
31	0x3d981f5a	0.07427855
32	0x3df1e210	0.11810696
33	0x3db17a1a	0.08665867
34	0xbe6b9090	-0.23004365
35	0xbe81f313	-0.25380763
36	0x3e217d46	0.15770444
37	0xbc17a5c5	-0.009255831
38	0xbe76bfa8	-0.24096549
39	0x3ea08895	0.31354204
40	0x3b34a335	0.00275631
41	0xbe4cb1d1	-0.19989707
42	0x3dd2ba0e	0.10289393
43	0xbe4116e7	-0.18856393
44	0xbcdce605	-0.02696515
45	0x3c89ff3b	0.016845336
46	0xbe90ce33	-0.28282318
47	0x3e3e2b6d	0.18571253
48	0x3cc511e0	0.024056375
49	0x3d1901b4	0.03735514
50	0x3e7a76ea	0.24459425
51	0x3e141d41	0.14464284
52	0x3d31c18e	0.04339748
53	0xbe0b39fd	-0.1359634
54	0x3e885fd2	0.26635605
55	0xbd5bb8cb	-0.05364303
56	0xbe4a3e94	-0.19750434
57	0x3ea6ac2b	0.3255323
58	0xbe050949	-0.12991823
59	0x3f1bd183	0.60866565
60	0xbe534f03	-0.2063561
61	0xbe7e8e67	-0.2485901
62	0xbe29320f	-0.16523002
63	0xbdbaa6d3	-0.091138504
64	0x3d9d6627	0.076855
65	0x3db86d48	0.09005219
66	0xbe7396f6	-0.23788056
67	0xbeebc338	-0.46047378
68	0xbdde0ef3	-0.10842695
69	0x3e08be8b	0.13353936
70	0x3e25ff7c	0.16210741
71	0xbe41907d	-0.18902774
72	0xbe542b35	-0.20719607
73	0xbdb6c8f9	-0.08925051
74	0xbdbe2fb6	-0.09286444
75	0xbe262541	-0.16225149
76	0xbd76975c	-0.06020294
77	0xbe77bc92	-0.24193028
78	0x3c0c3082	0.008556487
79	0x3e4cc613	0.19997434
80	0xbe8c0ccb	-0.2735351
81	0x3e0984c0	0.13429546
82	0xbba7a4b8	-0.0051160716
83	0xbdc729a3	-0.097247384
84	0x3d8db633	0.06919517
85	0x3d305a58	0.04305491
86	0x3d622dad	0.05521934
87	0xbdfa3011	-0.12216199
88	0xbe7693bb	-0.24079792
89	0x3ed1901d	0.40930262
90	0x3dbdb634	0.09263268
91	0xbac5d661	-0.0015093797
92	0xbe872c22	-0.26400858
93	0xbe1c5f57	-0.15270744
94	0xbe92eedf	-0.2869787
95	0xbe6b340e	-0.22969076
96	0x3e203739	0.15646066
97	0x3e038568	0.12843859
98	0xbec16520	-0.37772465
99	0x3da246f8	0.079236925
100	0x3e4b26bf	0.19838999
101	0x3d3806a5	0.04492821
102	0x3d08f5d5	0.03343757
103	0x3c055595	0.00813808
104	0xbd9072fe	-0.07053183
105	0xbe8d5b54	-0.2760874
106	0x3dc50109	0.09619338
107	0xbe8343b9	-0.25637606
108	0x3e521163	0.20514445
109	0x3c834726	0.016025137
110	0x3e543b54	0.20725757
111	0xbdbd318b	-0.09237965
112	0x3ea137fc	0.31488025
113	0x3c9ced7c	0.01915621
114	0x3e8211ba	0.2540415
115	0x3e4d9447	0.20076095
116	0xbe51c30a	-0.20484558
117	0xbe5c3f82	-0.21508601
118	0xbec888b0	-0.39166784
119	0xbd316dd7	-0.043317642
120	0x3d0c5e74	0.034269765
121	0xbe2fbecb	-0.17162625
122	0xbd836fbe	-0.064177975
123	0xbdfc8a48	-0.123310626
124	0x3e306505	0.17226036
125	0x3e55624b	0.20838277
126	0x3e0c1d2f	0.13683008
127	0x3e0aa07a	0.1353778
128	0xbdb26c1a	-0.08712025
129	0x3e51ff1b	0.20507471
130	0xbe4cad0c	-0.19987887
131	0xbdc242a7	-0.09485369
132	0x3ddbef55	0.10739008
133	0xbd5c04b8	-0.053715438
134	0xbeb96de7	-0.3621666
135	0x3da51410	0.08060467
136	0xbc0a009a	-0.008422995
137	0xbe144c2e	-0.14482185
138	0xbd3b5ad0	-0.045740902
139	0xbe758657	-0.23977028
140	0xbd5f5366	-0.054522894
141	0xbdb29a61	-0.08720852
142	0x3c05506b	0.008136849
143	0xbe68a1c8	-0.22717965
144	0xbe917d3d	-0.28415862
145	0xbd39026e	-0.045168333
146	0x3d102598	0.035192102
147	0x3e4c388f	0.1994345
148	0x3dde6dbb	0.10860773
149	0xbe547d32	-0.20750883
150	0x3df0fb43	0.11766674
151	0xbe8a2c5e	-0.26986974
152	0xbe39986a	-0.18124548
153	0x3e9af628	0.30265927
154	0xbb0e8eb6	-0.0021752543
155	0x3e975273	0.2955509
156	0x3dd53cee	0.10412012
157	0xbdf0bc73	-0.11754694
158	0x3b7375b4	0.0037149014
159	0x3da07020	0.07833886
160	0x3d521a1d	0.051294435
161	0x3e03ee21	0.12883808
162	0xbe31ad63	-0.17351298
163	0x3dc4b791	0.09605325
164	0x3e73389d	0.23752065
165	0xbe13887e	-0.14407536
166	0x3df245b7	0.11829703
167	0x3da1669e	0.07880901
168	0xbed43fba	-0.4145487
169	0x3dfa65b6	0.12226431
170	0x3d390af9	0.04517648
171	0xbe31d023	-0.17364554
172	0xbe10e5be	-0.1415014
173	0xbd49b439	-0.04924414
174	0x3cf42c63	0.029806321
175	0xbdc93d22	-0.09826113
176	0xbec0c589	-0.37650707
177	0xbeb03465	-0.34414974
178	0xbdbe6181	-0.09295941
179	0x3e1b05c2	0.15138915
180	0x3ead2cdb	0.33823285
181	0x3ce47065	0.027885625
182	0x3d6fbe65	0.058531184
183	0xbcd4b5aa	-0.02596553
184	0x3da5a6d4	0.080884606
185	0xbc874b21	-0.016515316
186	0x3c1fa864	0.009744737
187	0xbc48d2d5	-0.0122572975
188	0xbcef5f62	-0.029220287
189	0x3e5b8268	0.21436465
190	0x3d784f0e	0.060622267
191	0x3e4d6e3b	0.20061581
192	0x3daae54c	0.08344516
193	0xbcc4e9ce	-0.024037268
194	0xbda5ab5a	-0.08089323
195	0x3c412a4c	0.0117898695
196	0xbdf399aa	-0.118945435
197	0xbd19edd0	-0.03758031
198	0xbeb72268	-0.35768437
199	0xbe8d9bc0	-0.2765789
200	0x3db7af44	0.08968976
201	0x3e9ac795	0.30230394
202	0x3c828483	0.015932327
203	0xbdb80ed1	-0.08987201
204	0xbe0a51a7	-0.1350771
205	0xbe946325	-0.2898189
206	0x3d3bedb0	0.045880973
207	0x3dc2eaf8	0.09517473
208	0xbe41267b	-0.18862335
209	0x3c817393	0.01580218
210	0x3ea7122b	0.3263105
211	0xbd936aaf	-0.07198083
212	0xbddc706d	-0.10763631
213	0x3b12ba36	0.0022388822
214	0x3e351b78	0.1768626
215	0x3de48ebe	0.111600384
216	0x3ea6aa16	0.3255164
217	0xbe9322a5	-0.2873737
218	0x3d8546f1	0.065076716
219	0xbd2b6999	-0.041848753
220	0xbdd627fa	-0.10456844
221	0x3b9e25e3	0.004826294
222	0x3d2ea875	0.042641122
223	0xbd3062d3	-0.043062996
224	0x3e37c55a	0.17946377
225	0x3dccec06	0.100059554
226	0x3e167b36	0.14695439
227	0xbdf026da	-0.1172616
228	0x3e398012	0.18115261
229	0x3e6fabc4	0.23405367
230	0xbe11bd5e	-0.14232394
231	0xbeab802e	-0.3349623
232	0x3e2b7e6d	0.16747446
233	0x3de7fe45	0.11327795
234	0x3e0d486b	0.13797157
235	0xbdda34c7	-0.10654598
236	0xbe012703	-0.12612538
237	0xbdf6926f	-0.12039649
238	0xbc8848aa	-0.016636211
239	0xbbbe1b33	-0.0058015822
240	0xbe86c14e	-0.26319355
241	0xbe9d48f2	-0.30719715
242	0x3cb4b9d9	0.022061275
243	0x3d178fa3	0.037002217
244	0x3d933f04	0.07189754
245	0xbebda165	-0.37037197
246	0xbca94fa8	-0.020667866
247	0x3e20a198	0.15686643
248	0x3e4f7e63	0.20263056
249	0x3d572b11	0.052531306
250	0xbe370a38	-0.17874992
251	0xbe8b3fa9	-0.27197006
252	0xbda329b8	-0.079669416
253	0x3e544d24	0.20732552
254	0xbe9e9481	-0.30972674
255	0xbd8d2d02	-0.0689335

actor.0.bias f4 [64]
0	0x3d4673d7	0.048450317
1	0x3d0a9a19	0.033838365
2	0xbd0bf6a9	-0.03417078
3	0x3cc60a51	0.024174841
4	0x3d38ecc5	0.045147676
5	0x3cedaf15	0.02901415
6	0xbdcf91d8	-0.10135239
7	0xb7abe2fb	-2.0490485e-05
8	0x00000000	0.0
9	0xbc20f8a9	-0.00982491
10	0x3d42fc6c	0.04760401
11	0xbc6914c9	-0.014226147
12	0x00000000	0.0
13	0x00000000	0.0
14	0xbc221762	-0.00989327
15	0xb1052859	-1.9376982e-09
16	0xbc6f2a3f	-0.014597475
17	0xb82af541	-4.075957e-05
18	0xbb038e2c	-0.0020073755
19	0x00000000	0.0
20	0x3a004bd5	0.00048941124
21	0xbc45a6ef	-0.012063726
22	0x3c6fa58f	0.014626875
23	0xbb02c219	-0.0019952117
24	0x00000000	0.0
25	0x3c20d347	0.009815997
26	0xbcc59b5e	-0.024121936
27	0xbd020061	-0.031738643
28	0x00000000	0.0
29	0x3a951e79	0.0011376879
30	0x3c77e300	0.015129805
31	0x3cf281a7	0.029602839
32	0x3d07dfd9	0.033172462
33	0x00000000	0.0
34	0xbb37f6f6	-0.0028070784
35	0x00000000	0.0
36	0x3c5f1d13	0.013617772
37	0x3a0b8c9b	0.0005323381
38	0x3905f01b	0.00012773315
39	0x00000000	0.0
40	0x3c107afa	0.008818382
41	0x00000000	0.0
42	0x3d2cd508	0.04219535
43	0x3d32a653	0.04361565
44	0xbc3267ec	-0.010889035
45	0x00000000	0.0
46	0x3d66cd9f	0.05634844
47	0xad64c5e9	-1.3004244e-11
48	0xbc6fc745	-0.014634912
49	0x3c83defc	0.016097538
50	0xbd1262bd	-0.035738695
51	0x00000000	0.0
52	0x00000000	0.0
53	0x00000000	0.0
54	0x3c0e5b67	0.008688784
55	0x3a1833e1	0.00058060704
56	0x3d3cbce1	0.046078566
57	0x3b66ec5b	0.0035236094
58	0xbb580a73	-0.0032965213
59	0xbcd1c8b7	-0.025608404
60	0x00000000	0.0
61	0x00000000	0.0
62	0x00000000	0.0
63	0xbd02b728	-0.031912953

actor.2.weight f4 [64, 64]
0	0xbdc645c8	-0.096812785
1	0x3d30192e	0.042992763
2	0xbec518d8	-0.38495517
3	0x3ddfb681	0.10923482
4	0xbe0cbf26	-0.13744792
5	0xbe28d7db	-0.16488592
6	0x3ef0d956	0.47040814
7	0xbe567f02	-0.20946887
8	0xbdd49339	-0.10379643
9	0xbe2ddfc5	-0.16979893
10	0x3d815dca	0.06316717
11	0x3e2c711b	0.16840021
12	0xbd9ed7d4	-0.0775601
13	0xbe1d3446	-0.15351972
14	0x3db3a09c	0.08770868
15	0xbe26d18c	-0.16290873
16	0xbcfd1311	-0.03089288
17	0xbe481f28	-0.19543135
18	0x3eecfb40	0.4628544
19	0xbe28b844	-0.16476542
20	0x3e83a1e9	0.25709465
21	0x3e2feabe	0.17179391
22	0x3ebd17b5	0.3693215
23	0xbeaf73df	-0.3426809
24	0xbd68d532	-0.056843944
25	0xbd76af9e	-0.060226075
26	0xbd75275c	-0.05985199
27	0x3cf12f16	0.029441398
28	0xbdd4cf73	-0.1039113
29	0x3e344794	0.1760543
30	0x3db159b0	0.08659685
31	0xbd6bfd3b	-0.057614546
32	0x3d006386	0.031344913
33	0xbdcb0743	-0.099134944
34	0x3dc77f6d	0.097411014
35	0xbd229e54	-0.039701775
36	0xbde93e13	-0.11388793
37	0x3e1d7827	0.15377866
38	0xbe3c6820	-0.18399096
39	0x3dda7d6c	0.106684536
40	0xbe17ad0d	-0.14812107
41	0xbd15f4b6	-0.036610328
42	0xbd275199	-0.040849302
43	0x3e37d9bf	0.17954157
44	0xbe0ffe3a	-0.14061823
45	0x3e8b5f8b	0.2722133
46	0x3e0255f5	0.12728103
47	0x3e6bfff2	0.23046854
48	0x3e41c12c	0.18921345
49	0xbe0777fc	-0.13229364
50	0x3e6500a3	0.22363524
51	0xbe29e00a	-0.1658937
52	0x3d28bca5	0.04119553
53	0x3e47a76a	0.19497457
54	0xbd93f8d9	-0.07225198
55	0x3dbaab15	0.091146626
56	0x3b91c8ad	0.0044489712
57	0xbd745abe	-0.05965685
58	0xbe156f1c	-0.14593166
59	0xbeae3a16	-0.3402869
60	0x3e3b8da6	0.18315753
61	0xbc913b71	-0.01772854
62	0x3e61f7ac	0.22067136
63	0xbe9a3a94	-0.30122817
64	0xbdf93d1b	-0.12169858
65	0x3e48a20c	0.19593066
66	0x3a9e2486	0.0012065328
67	0xbf0d220c	-0.55130076
68	0xbe1c5bc1	-0.15269376
69	0xbe2e97e3	-0.17050128
70	0xbe5682d4	-0.20948344
71	0xbc8b74a4	-0.017023392
72	0xbe40e15d	-0.1883597
73	0x3d27c04b	0.04095487
74	0xbe924843	-0.28570756
75	0xbcf9da34	-0.030499555
76	0x3e9d3186	0.30701846
77	0x3c8bf498	0.017084405
78	0x3e31c2f7	0.1735953
79	0xbe06daed	-0.13169451
80	0x3ea9d715	0.33171907
81	0xbdb07bc4	-0.086173564
82	0x3e0c7a29	0.13718475
83	0x3e9ae432	0.30252224
84	0x3ddd7174	0.10812655
85	0x3e2aef10	0.16692758
86	0xbecd4653	-0.40092716
87	0xbdeacaa9	-0.114644356
88	0xbd407c7a	-0.04699371
89	0xbdd1bca2	-0.10241057
90	0xbcb07da0	-0.021544278
91	0x3e6e5824	0.2327581
92	0xbe2ed3ae	-0.17072937
93	0x3d5fbb96	0.054622255
94	0xbccb40e7	-0.024811221
95	0x3e07b708	0.13253415
96	0xbe71a30c	-0.23597354
97	0xbd03c6e0	-0.032172084
98	0x3cc1978e	0.023631837
99	0xbec3e051	-0.38257077
100	0xbe23ea99	-0.1600746
101	0x3d61bbb1	0.055110637
102	0xbd837ac0	-0.06419897
103	0x3d632836	0.05545827
104	0x3ea41765	0.320491
105	0x3e3a7d24	0.182118
106	0xbe32cdf0	-0.17461371
107	0x3b85352c	0.0040651765
108	0xbe912053	-0.28344974
109	0x3bf8bd43	0.007590921
110	0x3e1f3377	0.15546976
111	0x3b335aef	0.0027367433
112	0x3d63a78e	0.055579714
113	0x3e1843a2	0.1486955
114	0x3df25e45	0.11834387
115	0x3e6606bc	0.22463506
116	0x3db94440	0.09046221
117	0xbe476fc8	-0.19476235
118	0xbe7d836a	-0.24757162
119	0x3bc24235	0.0059283026
120	0xbebe975b	-0.3722485
121	0x3e8a124d	0.26967087
122	0xbe630ac6	-0.22172078
123	0x3e4dad80	0.20085716
124	0x3d376976	0.04477831
125	0xbc2edcf5	-0.010672797
126	0x3da13c4a	0.07872827
127	0x3e45d8d0	0.19320989
128	0x3dda4a9b	0.10658761
129	0xbdd46e32	-0.103725806
130	0xbdf2edff	-0.118618004
131	0x3ef4dc13	0.47824153
132	0x3ead62a5	0.33864322
133	0xbeb3baf3	-0.35103568
134	0x3caed53d	0.021341914
135	0x3d091684	0.03346874
136	0xbe0ad3f8	-0.13557422
137	0x3d915cde	0.07097791
138	0xbd2ed952	-0.04268772
139	0xbe2473ac	-0.1605975
140	0xbe159654	-0.14608127
141	0x3d58d9a5	0.052941937
142	0xbe168cd4	-0.14702159
143	0xbe86ea3a	-0.26350576
144	0xbcb48ceb	-0.022039851
145	0x3e0aaa93	0.13541631
146	0x3e02afd3	0.12762384
147	0xbc95b0b4	-0.018272735
148	0x3e1023c8	0.1407615
149	0xbed90b1b	-0.42391285
150	0xbddd9922	-0.108202234
151	0xbd193f02	-0.037413605
152	0x3de79a55	0.113087334
153	0xbe40d04f	-0.18829463
154	0xbe27d79c	-0.16390842
155	0x3da4f726	0.08054952
156	0xbdb8d547	-0.090250544
157	0x3e6ed42a	0.23323122
158	0xbb32454c	-0.0027201949
159	0xbdd26987	-0.10274034
160	0xbe4c6fa1	-0.19964458
161	0x3e67a877	0.22622858
162	0xbd8644a6	-0.065560624
163	0xbe083f62	-0.13305429
164	0x3d60a957	0.054848995
165	0x3de98d66	0.11403923
166	0x3e97ca00	0.296463
167	0x3dc18047	0.09448295
168	0xbdbd5763	-0.09245183
169	0xbe110deb	-0.14165466
170	0xbd52aa49	-0.051431928
171	0x3e9402af	0.28908297
172	0x3d04647b	0.03232239
173	0xbe857402	-0.2606507
174	0xbddd7125	-0.10812596
175	0x3e15f7cc	0.14645308
176	0xbe46ab88	-0.19401371
177	0x3e6391da	0.22223607
178	0xbdf90465	-0.12159041
179	0xbcc54054	-0.024078526
180	0xbe4558ae	-0.1927211
181	0xbd912d1b	-0.07088681
182	0x3e27b91e	0.1637921
183	0x3ddf7529	0.109110184
184	0xbbcd3f71	-0.0062636663
185	0xbe454810	-0.19265771
186	0xbdbe917e	-0.09305094
187	0xbe27799a	-0.16354981
188	0x3df724c3	0.120675586
189	0xbde40a7c	-0.11134812
190	0xbee28e6c	-0.44249284
191	0xbf203a66	-0.6258911
192	0xbdaf5d0b	-0.085626684
193	0xbd454404	-0.048160568
194	0x3eca291f	0.39484498
195	0xbea6c563	-0.3257247
196	0x3e18ea3a	0.149331
197	0xbe73a691	-0.23794009
198	0x3cf453f4	0.029825188
199	0xbe9883fd	-0.297882
200	0xbda8f8ce	-0.08250581
201	0x3d818847	0.06324821
202	0xbe8b2120	-0.2717371
203	0x3cb1c8df	0.021702228
204	0x3d883c4e	0.06652127
205	0x3dcb8c1e	0.099388346
206	0xbe08d9f7	-0.13364397
207	0xbe551e30	-0.20812297
208	0xbe0e7b79	-0.13914289
209	0xbe81e88d	-0.25372735
210	0xbdf24c49	-0.118309565
211	0xbd8bf38c	-0.06833562
212	0x3cb787b7	0.022403581
213	0xbb91abd4	-0.0044455323
214	0x3ea26a6c	0.31721818
215	0x3d69194f	0.0569089
216	0xbc9e25a7	-0.019305063
217	0x3e107b13	0.14109449
218	0xbe2a371f	-0.1662259
219	0xbdb99ef2	-0.090635195
220	0x3de2e4b8	0.11078781
221	0x3d87bf90	0.066283345
222	0xbc8b5dcf	-0.017012505
223	0xbe83e706	-0.25762194
224	0x3e8328fa	0.256172
225	0xbea224c6	-0.3166868
226	0x3c7f9245	0.015598838
227	0xbe234f3e	-0.15948197
228	0xbde77a2d	-0.113026
229	0xbe651e81	-0.22374918
230	0x3c881381	0.016610863
231	0x3df67775	0.12034503
232	0xbdb288fa	-0.087175325
233	0xbe24d52c	-0.16096944
234	0x3e54f66f	0.20797132
235	0xbe86b3bd	-0.26309004
236	0xbcbfdd85	-0.023421058
237	0x3dc93a66	0.09825592
238	0x3d23af5d	0.03996216
239	0xbe5c9bae	-0.21543762
240	0x3d1bdf68	0.038054854
241	0x3e961549	0.29313114
242	0xbe81c8ca	-0.25348502
243	0xbce38725	-0.027774403
244	0x3e220836	0.15823445
245	0xbe1f6642	-0.15566352
246	0x3ddf1039	0.10891766
247	0xbe615c7a	-0.22007933
248	0x3c924007	0.017852796
249	0xbe03fef6	-0.12890229
250	0xbefac0b5	-0.4897515
251	0xbe2ad81b	-0.16684
252	0x3e9aaf09	0.30211666
253	0xbdbf277e	-0.093337044
254	0xbe1eb650	-0.15499234
255	0xbd3de7d0	-0.04636365

actor.2.bias f4 [64]
0	0x3d35f1ce	0.044420056
1	0xbc0ac5a6	-0.008469975
2	0x3d90a7cf	0.07063257
3	0x3c2dd0c8	0.010608859
4	0xbc8e648a	-0.017381925
5	0x3c9f15ac	0.019419514
6	0x3ce9052e	0.028444853
7	0x3b891a4c	0.004184043
8	0x3c59890c	0.013277303
9	0xbc39b35d	-0.011334267
10	0x3d28261d	0.041051973
11	0x3b492c2f	0.0030696501
12	0xbd7a10a8	-0.06105104
13	0x3cfc82b1	0.030824037
14	0xbd02384f	-0.03179198
15	0x3cca02cd	0.024659539
16	0x3d1bd59d	0.038045514
17	0xbcd6711b	-0.02617698
18	0xbbdd8784	-0.0067605395
19	0x3c34624a	0.011009762
20	0x3cfd40d9	0.03091471
21	0x3d1a33c2	0.037647016
22	0xbd38192b	-0.044945877
23	0xbd372c35	-0.044719893
24	0x3cc9f191	0.02465132
25	0x3b4141c8	0.0029488672
26	0x3d211871	0.03932995
27	0xbd9176d0	-0.0710274
28	0x3d0ef828	0.03490463
29	0xbcb8887b	-0.022526016
30	0xbd32bad3	-0.0436352
31	0x3d10c391	0.035342757
32	0x3ce4ab00	0.02791357
33	0xbcdca456	-0.02693383
34	0x3b01bd12	0.0019796533
35	0x3c54b23f	0.01298195
36	0x3d537036	0.051620685
37	0xbb93ae62	-0.004506872
38	0xbd06f1ff	-0.03294563
39	0xbc9902bb	-0.01867806
40	0x3cdf4c18	0.027257964
41	0x3d74199f	0.059594747
42	0x3ce694e1	0.028147163
43	0xbc31bcf7	-0.010848275
44	0x3d318dec	0.043348238
45	0x3c52aa11	0.01285793
46	0xbbc84db8	-0.0061127804
47	0xbcd7780d	-0.026302362
48	0xba89a3ca	-0.0010501083
49	0xbbcf378f	-0.006323762
50	0x3d2a3e2e	0.041563205
51	0x3d49efe5	0.049301047
52	0x3d189324	0.0372497
53	0xbcb73ad1	-0.022366913
54	0xbd03c097	-0.03216609
55	0x3d4212ac	0.04738109
56	0x3d0c2f61	0.03422487
57	0x3d87486a	0.06605609
58	0xbcc7def2	-0.0243983
59	0xbb2d5dd3	-0.0026453629
60	0x3c0409d0	0.00805898
61	0x3bf5b9cf	0.0074989568
62	0xbcf01aad	-0.029309595
63	0x3d68a516	0.056798063

actor.4.weight f4 [2, 64]
0	0x3c462a31	0.01209502
1	0x3dc54474	0.09632197
2	0xbdaf0f63	-0.08547857
3	0x3b901891	0.00439746
4	0xbe50a299	-0.20374526
5	0xbe713fab	-0.23559444
6	0xbd403d59	-0.046933506
7	0xbd8cbc10	-0.068718076
8	0xbd92e718	-0.07172984
9	0x3cd8dae2	0.026471559
10	0xbd8a5244	-0.06753972
11	0xbe70d355	-0.23518117
12	0xbc0efb87	-0.008726961
13	0xbde734d2	-0.112893716
14	0xbc42afb0	-0.0118827075
15	0x3e9d73d4	0.30752432
16	0xbea06565	-0.31327358
17	0x3dba4e40	0.09096956
18	0x3eb1c634	0.3472153
19	0xbe8ac5c7	-0.27104017
20	0xbe7419e1	-0.23837997
21	0x3c2ce245	0.010551994
22	0x3db2f6b2	0.0873846
23	0xbc4f8d01	-0.012667895
24	0xbdfcc942	-0.123430744
25	0x3e8a4e26	0.27012748
26	0x3c2cab7d	0.010538933
27	0x3d8ea387	0.06964784
28	0x3c7f217b	0.015571947
29	0x3e4cb19d	0.19989629
30	0x3dac0e86	0.084012076
31	0xbd53b347	-0.051684644
32	0xbde0b6a0	-0.10972333
33	0x3e54ceef	0.20782064
34	0xbea43599	-0.32072142
35	0x3c8f97a7	0.017528368
36	0xbd968c2d	-0.07350955
37	0x3bf5ac29	0.0074973297
38	0xbc1bad95	-0.009501834
39	0x3d9559cf	0.0729252
40	0x3b7766c1	0.0037750455
41	0xbdb92711	-0.090406545
42	0xbd90533a	-0.07047124
43	0xbe6ded09	-0.23234953
44	0x3eb67ae7	0.35640642
45	0xbd97fb8a	-0.07421024
46	0xbe867754	-0.26262915
47	0xbc564798	-0.013078593
48	0x3ebab955	0.36469522
49	0xbe878865	-0.26471248
50	0xbdbe7e51	-0.09301437
51	0x3c8bedca	0.01708116
52	0x3c1f5ba3	0.009726438
53	0xbdd1a238	-0.10236019
54	0x3e82acd1	0.25522473
55	0xbd327e56	-0.043577515
56	0xbd9600fc	-0.073244065
57	0xbd7bdf94	-0.061492518
58	0xbc365ae7	-0.011130071
59	0xbc44f4eb	-0.012021284
60	0x3b237d05	0.0024946344
61	0x3e7f5aa4	0.2493692
62	0xbc451dbc	-0.012031015
63	0xbd30a609	-0.043127093
64	0xbc577ac5	-0.013151829
65	0xbdc93634	-0.098247916
66	0x3db44986	0.08803086
67	0xbb42a83d	-0.0029702329
68	0x3e50295f	0.20328282
69	0x3e718d71	0.23589112
70	0x3d3ae103	0.045624744
71	0x3d8aedb4	0.067836195
72	0x3d942733	0.07234039
73	0xbce76239	-0.028245078
74	0x3d897c50	0.06713164
75	0x3e70dacc	0.23520964
76	0x3c34b9c1	0.011030615
77	0x3de47bf3	0.11156454
78	0x3c600905	0.013674025
79	0xbe9e01f3	-0.30860862
80	0x3ea0a7ee	0.3137812
81	0xbdb5790c	-0.088609785
82	0xbeb482c3	-0.35256013
83	0x3e8bf961	0.27338699
84	0x3e714d19	0.23564567
85	0xbc3612e9	-0.011112907
86	0xbdb75baf	-0.08953034
87	0x3c6b2528	0.01435212
88	0x3e01496e	0.12625667
89	0xbe8a76f0	-0.27043867
90	0xbbb7508d	-0.005594319
91	0xbd918750	-0.07105887
92	0xbc827b3d	-0.015927905
93	0xbe4a4b58	-0.19755304
94	0xbdaa6d4d	-0.08321629
95	0x3d596c1e	0.053081624
96	0x3dde96f9	0.108686395
97	0xbe555218	-0.20832098
98	0x3ea5fa66	0.324176
99	0xbc8b17cb	-0.016979119
100	0x3d955aa0	0.07292676
101	0xbc048d51	-0.008090333
102	0x3c1cd29c	0.009571698
103	0xbd9c5572	-0.07633485
104	0xbb4a199a	-0.0030838014
105	0x3db99c2e	0.09062992
106	0x3d95fdca	0.07323797
107	0x3e6bd100	0.23028946
108	0xbeb572a5	-0.3543903
109	0x3d96e658	0.07368153
110	0x3e8618e2	0.2619086
111	0x3c3f0114	0.011657972
112	0xbebb812b	-0.36621985
113	0x3e874265	0.26417843
114	0x3db983e5	0.0905836
115	0xbc7efbbe	-0.01556295
116	0xbc1e23ba	-0.009652073
117	0x3dd5e7ec	0.10444626
118	0xbe83c261	-0.25734237
119	0x3d3416b3	0.04396696
120	0x3d9571ab	0.07297071
121	0x3d77d6ee	0.060507707
122	0x3c4107a7	0.01178161
123	0x3c580fb2	0.013187336
124	0xbb5c4405	-0.0033609879
125	0xbe801364	-0.25014794
126	0x3c454e8a	0.012042651
127	0x3d35e2a1	0.044405583

actor.4.bias f4 [2]
0	0x3c35a645	0.011087005
1	0xbc35a6c1	-0.0110871205
