AIProbe/Catcher_Flappy_Continuous/wandb/DQN_Catcher_Acc_State_Acc_R/files/catcher_agent_acc_state_acc_r.pt (torch, 72087 bytes, 6 tensors)

network.0.weight f4 [128, 4]
00000000: fa68 fd3d d823 08be 3c03 33be 0842 1d3e
00000010: ff58 13bf 76eb 1fbf 4b7c cbbe 7e51 bd3d
00000020: 2d6f c2bb de45 abbb 04a8 4a3d 48ef 1abd
00000030: 1183 0c3e f4bb dc3e ba4d 9fbd deef 513d
00000040: 4d60 ae3b 2585 1abe c28a 3fbc 8d53 c2bc
00000050: a9b1 46be 0400 5dbe 00fe 323e 4170 0dbe
00000060: 2518 61be 5419 9fbe 0329 223e 3b1c fc3d
00000070: 06d0 03bf 84fd 773d 4566 82bd 5631 c53e
00000080: ce67 e83e b44f 713e db53 ebbe c0a8 a8bd
00000090: c509 2d3e 9933 913e cc00 603e a86e 8fbe
000000a0: ca44 0e3e ffc8 01be 5a98 973d 6130 15be
000000b0: 9c75 babe 0e19 9e3c 11ab c8be 1773 2f3e
000000c0: 91f9 98be 5896 2a3e 7669 0ebf 1aa8 37be
000000d0: 11ac c9bd cba0 27be 8ecf de3d 629c 683d
000000e0: 83a6 1abe 3053 fbbe cafd 353d 2be0 bf3c
000000f0: bb46 c2be f10d 233e ceb2 0b3e 0e5a ac3e
00000100: 8a16 73be 8cd2 3bbe b9d4 6cbe a450 043d
00000110: 73b9 39be a2d1 a9bf 6fdc c03d 4ccc d9bc
00000120: a47b a43d b504 a9bd 8383 cabc 61cf 37bd
00000130: d036 4c39 6202 393f 4d7d 03bf dedd 4b3e
00000140: 138c e9bd 908f dcbe 313b 8b3d c45d e03c
00000150: 585c 863d 4daf 51bd c2e8 20bf a0d9 fe3c
00000160: 457c 58be 23ca 6b3e e2ad 763e ebd6 9ebd
00000170: b2c9 df3d 61a5 923f 10db 41be 7ab9 4f39
00000180: 1486 c63d 5006 2a3f 1f39 08bf 8c6e a8bd
00000190: 4605 113e 00c5 213e b1b8 e6bc ccb9 053d
000001a0: 606c cebe d178 26bf e553 da3e 5aef 953d
000001b0: e91e 473d d14f 833e bdcd ebbd df25 fd3c
000001c0: 5c11 1e3e 3696 fb3c 3121 24be 0e1f 673d
000001d0: 59aa 8b3c 2d0f cd3f 111a 16bf 4978 9d3d
000001e0: 3917 fbbe f787 c2be 4d9a 1e3e d3c9 68be
000001f0: fcd7 d43e 919b d03d 6018 d8be cd0a fdbd
00000200: 8d4f a63e 9f7d 023f 0bde bcbe 0d3e dd3d
00000210: 9075 22ba 9f2a b93e 280a 6fbd a30c 7e3c
00000220: 0e33 bd3d eaac af3f de54 0ebf 3e9c 03bd
00000230: 1353 d0bd aa19 19be b3ec 59be fdd6 4f3e
00000240: 3d8e 08bb f5fb 0bbe e8b2 353c 0fb4 5b3d
00000250: d335 803d 7390 0a3f cb7f b9be 3e35 5a3e
00000260: 13b2 d8ba 9fbf 4a3f ff33 3fbf 0259 813c
00000270: 2355 d7be 9bbf 7fbf 75b4 12bd acca b33c
00000280: ac73 cfbe b326 173e 8b73 9b3c 00a7 6a3e
00000290: 3f32 89be d866 a93d 3221 5ebe d871 a4bd
000002a0: 476c 39be 9cdc 38bf 70eb 19be c604 6a3e
000002b0: 7798 0dbe e0a4 43bf 6e84 313d a25d 52bd
000002c0: df9f 053e 79d1 df3e a453 c4be e3c9 313e
000002d0: 5008 00be 4092 25bd 328b dcbe f044 cabd
000002e0: 2e8d 9bbe ffa4 c0be 432f 10bf 8aff edbd
000002f0: 1888 243d 31bd 91be f93b c2bd 488d 8bbc
00000300: 3497 643c e663 14be cf96 3bbe e495 40bd
00000310: 8635 1ebd 6670 2bbe dbe0 24be 97a0 94bd
00000320: 2136 0e3d a7f0 09bf d548 843e 6663 30be
00000330: eb7d 5e3e 6201 343e 21f6 c5bd 2e10 2c3d
00000340: 51c2 bfbb b25d 953d b34a d03c 72e6 ab3d
00000350: 918c 07bf 7ab8 c63e 24c9 913e e9c1 553e
00000360: 350a 5c3e 2976 0bbe e03c a1be d786 923e
00000370: e8c3 1abf e329 833e 14a9 0cbf 45e1 38be
00000380: 42b2 063e 95b2 1ebe 8294 80be a787 d03d
00000390: 313d e63d 486c 723f 3490 f3bd bfc9 ccbe
000003a0: 4376 993e b1e4 0b3e 3252 9abe aa84 2a3c
000003b0: d4c2 f4be 3958 2dbf 69e2 c23e 0612 25be
000003c0: 855b 9bbe 5428 11bb 8860 9e3e fa29 863d
000003d0: 4b13 a2be 114e edbe 3862 13bf ce1b dcbd
000003e0: efea 34bf de35 0a3e a38f e23e c8b1 d2bd
000003f0: 7f61 e3bd 17b0 1cbf a988 ce3d e6fd 94bd
0.12373538 -0.13294923 -0.17481703 0.1535722 -0.5755767 -0.6246866 -0.39743266 0.09244059
-0.0059336633 -0.0052268347 0.04947664 -0.037825853 0.13721873 0.43112147 -0.07778497 0.051254146
0.0053215385 -0.15089853 -0.011690797 -0.02372148 -0.1940371 -0.21582037 0.17479706 -0.13812353
-0.21981867 -0.3107401 0.15835957 0.12310072 -0.51489294 0.060544506 -0.063671626 0.38514203
0.45391697 0.2356556 -0.45962414 -0.082353115 0.16898258 0.28359678 0.21875304 -0.28014112
0.13893428 -0.1267433 0.07402106 -0.14569236 -0.36417854 0.019299056 -0.39193013 0.17133747
-0.29877904 0.16658914 -0.5562967 -0.1793522 -0.09847272 -0.16369931 0.10879432 0.056789763
-0.15102582 -0.49086905 0.044431485 0.023422321 -0.37944588 0.15923287 0.13642427 0.33662456
-0.23739067 -0.18342036 -0.23128022 0.032303467 -0.1813715 -1.32671 0.09417044 -0.026586674
0.08031395 -0.08252851 -0.024720913 -0.044875506 0.00019475375 0.7226926 -0.5136307 0.19908854
-0.1140367 -0.4307828 0.06798399 0.027388461 0.06560582 -0.05119257 -0.6285516 0.031109631
-0.21141155 0.23026328 0.24089769 -0.07755836 0.10927142 1.145672 -0.18931222 0.00019810154
0.09693542 0.6641588 -0.5321216 -0.0822421 0.14162168 0.15797806 -0.02816424 0.032647893
-0.4031706 -0.650281 0.4264213 0.07321043 0.048613463 0.25646833 -0.11513851 0.030901847
0.1543631 0.030711275 -0.16028287 0.0564261 0.017049002 1.6020256 -0.58633524 0.07688958
-0.49041155 -0.37994358 0.15488549 -0.2273324 0.41571033 0.10185922 -0.42206097 -0.12355576
0.32482567 0.5097293 -0.36888155 0.10802851 -0.0006197328 0.3616533 -0.058359295 0.0155059425
0.092382535 1.3724644 -0.5559825 -0.032131426 -0.10172095 -0.14951196 -0.212817 0.20296855
-0.0020836734 -0.13670333 0.011090018 0.053638514 0.06260266 0.5412666 -0.3623031 0.21309373
-0.0016532562 0.7919864 -0.74688715 0.015789513 -0.42057142 -0.9990174 -0.03581663 0.021947227
-0.40517938 0.14760856 0.018975994 0.22915268 -0.26796147 0.08271569 -0.2169235 -0.080295265
-0.18107711 -0.72211623 -0.15031219 0.22853383 -0.13827692 -0.76423454 0.043339185 -0.051358826
0.13049267 0.43714502 -0.38345063 0.1736217 -0.12503171 -0.040422678 -0.43074948 -0.0987643
-0.3038115 -0.37625882 -0.56322116 -0.11621006 0.04016885 -0.28464654 -0.09484095 -0.017035142
0.013952065 -0.14491233 -0.18319248 -0.047017947 -0.038625263 -0.16742095 -0.161014 -0.072571926
0.03471959 -0.5388283 0.25836816 -0.17225417 0.21727721 0.17578653 -0.09666086 0.042007618
-0.0058520217 0.072932616 0.025426244 0.08393563 -0.5294886 0.3881262 0.2847377 0.20874752
0.21488269 -0.13619293 -0.31491756 0.286185 -0.6045518 0.25617895 -0.5494549 -0.18054684
0.13153937 -0.15497811 -0.25113302 0.10182124 0.1124214 0.94696474 -0.11892739 -0.3999767
0.2997304 0.13661458 -0.30140835 0.010407606 -0.47804892 -0.6771274 0.38063362 -0.16120157
-0.3034326 -0.0022149282 0.30933022 0.06550975 -0.31655344 -0.46348622 -0.57571745 -0.10747491
-0.7067098 0.13497111 0.4425021 -0.10287815 -0.1110258 -0.6120619 0.100846596 -0.0727499

network.0.bias f4 [128]
00000000: ee19 28c0 ee2d 343f 883e 1140 9d01 1dc0
00000010: 14b0 d2bf 64b6 b1be 17ae 17c0 77d3 12c0
00000020: d27c 583e 2bb1 5abf dc50 ee3f d12c bdbf
00000030: 34fa 9dbe 68aa 1ec0 fb70 cfbf 2941 17c0
00000040: 5043 cebf a82f d2bd 55d0 0440 dc73 e6bf
00000050: 5e1f d03f 6068 993f ab0f 36bf aad4 0dbf
00000060: e507 0f3f 5f89 06c0 c6ac 15c0 6fc0 0340
00000070: 11d7 fdbf e653 f5be d745 90bd 6d6a e43e
00000080: 7702 0bc0 0021 c43f 6148 d6be 928c 3540
00000090: ce4e 1ec0 d1b5 0040 03dd 00bf 822f a2be
000000a0: 587f 0c40 9bf2 c9be 4f67 ddbf 9410 5abf
000000b0: e0d7 f73f 805e 5bbe 6c8b 843e 0a31 fdbf
000000c0: 76a6 fbbe f7e8 a4bf fa6b f73f 4629 14c0
000000d0: 5725 06c0 a347 fd3f c7ef 20c0 df62 dabe
000000e0: 8e2b eb3f 2011 143f a189 1b40 20a7 32bd
000000f0: fdea 05c0 ea25 69be 5d31 7e3f ddd1 c6bc
00000100: f19a 3dbf 7cbf 25c0 39f6 e33e 721c e83f
00000110: 8601 a03f 3033 eb3d dfc4 f83f e653 cf3f
00000120: af0c 153d 24c4 00bf 60ea 4fbe 7f8d ec3e
00000130: 47f8 1b40 e520 1740 8a95 e93e 0b62 63bf
00000140: 5d8f 0d40 ba33 1640 9aa4 a5bf 98a3 0740
00000150: 37e8 353f 9025 f0be abe5 643c deda 97bf
00000160: 45a2 0840 98e7 a3bf 1df0 963f e4d5 1a3e
00000170: 9c13 1dc0 ab2f 2ec0 50c2 ff3f dc2f 9c3f
00000180: 8d07 0cc0 4007 993f 1e4a 04c0 94b0 24c0
00000190: ee36 cc3f 5354 863f 51b6 bf3f fb09 1740
000001a0: 1732 dc3f 769d b73f 8202 3e3f 0630 1d3f
000001b0: 0e41 2cc0 a0fd 173d 0474 833f 302d 11c0
000001c0: 4c31 61be 84ff dcbf 24a7 60be 20ed c2bf
000001d0: 6329 e1bd 0c85 a33f 7b7c 0a40 dbac 9c3e
000001e0: 32f9 0040 0b08 22c0 381a 37be 1258 14c0
000001f0: d9ee bfbf 4ed9 0740 a598 2bc0 dd2b e8bf
-2.6265826 0.70382583 2.2694416 -2.4532235 -1.6459985 -0.34709466 -2.3700006 -2.2941568
0.21141365 -0.85426587 1.8618426 -1.4779302 -0.30854952 -2.4791508 -1.6206354 -2.363352
-1.6114292 -0.10262996 2.0752156 -1.8004107 1.6259573 1.1984978 -0.7111766 -0.55402625
0.5587142 -2.1021345 -2.3386703 2.0586202 -1.9831258 -0.47915572 -0.07044571 0.44612446
-2.1720254 1.5322571 -0.41852096 2.8367047 -2.4735599 2.0110972 -0.5033724 -0.3167687
2.1952724 -0.39442906 -1.7297152 -0.85181546 1.9362755 -0.21422768 0.2588762 -1.978059
-0.49150437 -1.2883595 1.9329827 -2.3150191 -2.096029 1.9787487 -2.5146348 -0.42653558
1.8372667 0.5783863 2.4302752 -0.043616414 -2.0924675 -0.2276837 0.9929407 -0.024269992
-0.74064547 -2.5898123 0.4452379 1.8133681 1.2500465 0.114843726 1.943508 1.6197479
0.03638905 -0.50299287 -0.2030425 0.46201703 2.4370286 2.3613827 0.45621902 -0.88821477
2.2118752 2.3469071 -1.2940857 2.11936 0.71057457 -0.46903658 0.013970773 -1.1863668
2.1349041 -1.2805052 1.1792027 0.15120655 -2.4543219 -2.7216594 1.9981174 1.2202106
-2.1879609 1.1955338 -2.0670238 -2.5732775 1.5954263 1.0494484 1.4977514 2.3599842
1.7202786 1.4344928 0.74222577 0.614014 -2.6914706 0.03710711 1.026978 -2.268383
-0.21991462 -1.7265477 -0.21938759 -1.5228615 -0.10994222 1.2774978 2.1638477 0.30600628
2.0152097 -2.531741 -0.17881095 -2.3178754 -1.4994766 2.1226382 -2.6811917 -1.8138386

network.2.weight f4 [128, 128]
00000000: 9123 78be 07ff c03d 11bd d43e 20ae f1be
00000010: 599b 623e c629 383e ff61 66bd b734 66bd
00000020: ef4a c1bd 92ff 2f3e f75c 223d 5104 473e
00000030: 6c2e e9bd a539 b5be 00fb 57be dfba 98be
00000040: 1440 3bbe a644 aabe ab59 ef3d b580 48be
00000050: e883 89be 3b7d 3a3e 078e edbd d4ae 333e
00000060: df16 7abc 5d74 fbbd 4384 7d3e caac 143e
00000070: 3800 8abe d6d6 4b3e 6868 2e3a b7dc 453d
00000080: 932d 29be 8bd2 8c3c f0d8 2fbc c06d b53e
00000090: 961c 24bf e4ff cd3c 8179 2fbe 11d3 f73b
000000a0: 0af6 9a3d 6b6b 5f3d d399 88bd 459e af3d
000000b0: 5c06 103e 4fad aabd 7cbf 123e 2ba1 2b3d
000000c0: 48d5 14be 2739 8e3e ec29 0b3e ffa1 ebbd
000000d0: 856a b0bf f802 1e3d 71f5 0fbe 9dbc 89bd
000000e0: cfad 5f3e 1bfe 3bbd 7351 e33d 43ee 22be
000000f0: 2b84 05be 7028 0cbe 974f 2d3e 4ac0 e93c
00000100: 8d40 723e c155 34be a47d 523b 1646 4d3e
00000110: adfd c43d 2e6d 8abd abfc ca3d bf7f bcbc
00000120: c5b8 f9be 1880 97be 4bdb 8bbe 2f7c 86bd
00000130: 2f8d 283e f82e e93d d937 8e3e b98e 033f
00000140: 31a9 1fbf af8a 063e 7595 11bd 3b63 ec3c
00000150: 37c9 8e3d 9ced 0e3e 7a44 02bc 5479 5e3e
00000160: 7030 973d 7029 a03e a192 8cbe 948c 213d
00000170: 6444 7bbe 52f7 29bf 4db6 4d3e ff13 65be
00000180: c84b 1c3e bfc8 fc3d c4b6 fdbd 495e 81bd
00000190: 1e80 0cbe b10d 2bbe 24c6 70bc 7ab5 193e
000001a0: 5368 363e a9e8 fdbc fce1 13be 6518 d83d
000001b0: 0121 903e 40df 7c3d 0bd9 d1be 1bb9 a9be
000001c0: b096 093e 9773 17bd d086 33bb 81fd a23e
000001d0: a18f 863d 7c20 2b3f 3cc5 29bc 81e8 873b
000001e0: 8929 083e 7b50 edbd 78be 073e 2aeb 3bbe
000001f0: c34a 523e 64e3 3f3c af46 d13e 69aa 5f3e
00000200: dfd2 f3bc 5837 0e3d 0996 b5bd 46fc 8c3c
00000210: dccb c4bd e07d 0e3d 9344 933d 5443 27bd
00000220: 34f5 833d 3960 72bd 0342 9fbd 0671 3abd
00000230: 22ef 2ebd ca2e 323c 8f4d 03bd ee46 19bc
00000240: 6c03 95bd 379b a4bd 8f72 c6bd bb1c 84bd
00000250: 9426 123d 5ee2 cf3c 8219 b4bd 039a a2bc
00000260: 25da 403b a54b 143d 9d0f 6c3d 2c53 173c
00000270: c053 503d 670d 13bd 2a93 9abc 32be 3dbd
00000280: 0c24 9e3c cbf6 913d e7f1 673d ed8d a23d
00000290: c103 6bbd 1b50 d4bc bd1a 453c 14a4 613d
000002a0: e16d bcbd e8da 70bd eb52 903b 9166 69bd
000002b0: 2504 c33c b074 c5bb fcc9 24bd 1d01 0c3d
000002c0: 044b 463d 2c01 913d 9d73 8f3c ca3c f6ba
000002d0: 1fc2 853d 3ba1 643d 4399 71bd 7582 c63c
000002e0: 2b2f 58bb a1f8 0dbd 2390 0ebd 3084 12bd
000002f0: 4ddc 99bd da83 19bd 41c6 4a3c ddb0 603d
00000300: b405 983b 854d cabd 99c7 0a3d 7bbb 3cbd
00000310: 98a9 783d 55ea aebd 842b 36bd eeb1 753d
00000320: f975 d33c bf85 63bd 9c31 d5bd 46b5 a1bc
00000330: b96b d03c 7bb8 a4bd 83c7 c0bd aead 00bc
00000340: bb43 f7bc 7f50 463d fd24 ccbd d4cc fcbc
00000350: a839 b6bd cb93 9cbc b019 92bd f39a db3a
00000360: be85 b3bd 40bf a9bd fd29 85bd e8cb a2bd
00000370: 5e74 503d d036 9cbc 8958 81bd b890 213d
00000380: 3a57 dbbc 1ca3 0b3d a1da 2ebd 3095 b2bd
00000390: ca44 383c 165b 0e3d 980f ccbd ceed 3fbc
000003a0: 6634 76ba 7d0a a4b9 e7a4 9ebb 41b7 f4bc
000003b0: 6927 a4bd 46eb 0e3c c5a5 76bd 86e3 a3bd
000003c0: 5a59 44bd 54b4 a6bd 5b19 f53b 732a 2d3d
000003d0: c9ae 8c3d 364d 50bd 60fd 0f3d 6483 f63c
000003e0: 7548 98bc 2d60 e03c 3347 103d 8618 493d
000003f0: bf2a 3e3d a24e 073c 767b 2fbd 3221 6abd
-0.24232318 0.094236426 0.41550496 -0.4720316 0.22129573 0.17984685 -0.0562458 -0.056202617
-0.094381206 0.17187336 0.03963944 0.1943524 -0.113858074 -0.35395542 -0.21091843 -0.2983007
-0.18286163 -0.332555 0.11687025 -0.19580348 -0.2685845 0.18211834 -0.11599355 0.1754716
-0.015264242 -0.12278054 0.24757485 0.14519039 -0.26953292 0.19906172 0.0006653131 0.048306193
-0.16521291 0.017190238 -0.010732874 0.35435295 -0.6410612 0.025146432 -0.17136194 0.007563003
0.075664595 0.0545458 -0.06669965 0.085751094 0.14064926 -0.08333837 0.14330858 0.04190175
-0.14534485 0.2777798 0.1359021 -0.11505508 -1.3782507 0.03857705 -0.14058472 -0.06725428
0.21843646 -0.04589663 0.110995196 -0.15911202 -0.130387 -0.136873 0.16924892 0.028534073
0.23657437 -0.17610838 0.0032118345 0.20046267 0.09618697 -0.067591056 0.09911474 -0.023010133
-0.4877378 -0.29589915 -0.27315745 -0.06566655 0.16460107 0.11385912 0.27776983 0.5138965
-0.6236754 0.13138841 -0.035542924 0.02885591 0.069719724 0.13957828 -0.007950896 0.2172597
0.073822856 0.31281614 -0.2745562 0.039440706 -0.24537808 -0.66393006 0.20089073 -0.22370909
0.15263283 0.12342977 -0.123883754 -0.063168116 -0.13720748 -0.16704442 -0.014695678 0.15010634
0.17813234 -0.03099473 -0.14441675 0.10551528 0.2815018 0.061736345 -0.40985903 -0.33149037
0.13436389 -0.03697547 -0.0027393587 0.31834033 0.06570364 0.6684644 -0.010361966 0.0041475897
0.13297094 -0.11587616 0.13256252 -0.18351427 0.20536332 0.011711929 0.4087424 0.2184235
-0.029763637 0.03472075 -0.088665076 0.017210137 -0.096091956 0.034788013 0.07190814 -0.040835693
0.06443253 -0.059173796 -0.077762626 -0.045517944 -0.042708524 0.010875413 -0.032056388 -0.00935529
-0.07276043 -0.080374174 -0.09689819 -0.064507924 0.035681322 0.025376495 -0.08793928 -0.01984883
0.00294269 0.036204953 0.057632077 0.009236138 0.05086112 -0.035901453 -0.018869001 -0.046323963
0.019304298 0.0712715 0.05662718 0.079372264 -0.057376627 -0.025917104 0.012030301 0.055088118
-0.09200645 -0.058802515 0.004404416 -0.05698258 0.023805687 -0.006025873 -0.04023169 0.03418075
0.048411384 0.07080302 0.017511183 -0.0018786427 0.06531166 0.055817824 -0.058984052 0.024232129
-0.0032987099 -0.03466094 -0.03480543 -0.035770595 -0.07512722 -0.03747926 0.012376369 0.05485617
0.0046393517 -0.09878067 0.033881757 -0.046077233 0.060708612 -0.08540789 -0.044475093 0.05998414
0.02581309 -0.055547472 -0.10409853 -0.019739758 0.025441991 -0.08042999 -0.09413054 -0.007853908
-0.030183664 0.04841661 -0.099679925 -0.030859388 -0.08897716 -0.019113442 -0.07133806 0.0016754552
-0.08765744 -0.08288431 -0.06502149 -0.07949048 0.050892226 -0.019069105 -0.06315715 0.039444655
-0.026774991 0.0340911 -0.04268897 -0.087198615 0.011246869 0.034754835 -0.09963912 -0.011714412
-0.0009391963 -0.00031288332 -0.0048414352 -0.029872539 -0.080153294 0.008723086 -0.060216684 -0.08002381
-0.047936775 -0.081398636 0.0074798292 0.04227681 0.06869275 -0.050854884 0.035153747 0.030091949
-0.018589238 0.02738961 0.03522415 0.049095653 0.046427485 0.008258494 -0.04284235 -0.057160564

network.2.bias f4 [128]
00000000: 71ec 293f 35a9 8abd 275a 35bd 3817 9b3e
00000010: fbae a0bd 7649 093f 8c80 ecbc c1a6 dd3d
00000020: ab4b 193e 2ad3 423c 647a 06bd fd58 e1be
00000030: ee55 733a 6cdc 3a3e cc7e 553c f65a 293b
00000040: bcae 093f 222e 943f b62c 91bd b2e2 9cbd
00000050: a423 903d bd53 d7bb 1df0 9fbd 3317 183e
00000060: 6e79 943d 350a 033c 3012 bdbc 11b0 f6be
00000070: f8cf 0e3c 1741 633c 15ef 82bd 44d4 2e3e
00000080: d680 023d 1b66 193d 8d81 4b3e 7a78 123d
00000090: 762e e9bc 6137 923d 9419 0b3c ee4d 293d
000000a0: 4a6e aabe 68cb c0bd 04d3 92bd 9d46 37bd
000000b0: 03e6 11c0 04ad 5f3f 03ae adbe 67e1 42bf
000000c0: 443b 1e3d 6113 c1bb 371d 7c3e 2775 e2bf
000000d0: 5bfe aabf 902b 9e3b 5b59 a23c 620b e33c
000000e0: 7973 eebc 59fa d23c bbd8 d6bc 472e cbbd
000000f0: 2ca9 de3c 94e1 9cbd 0ee3 aabd ca5a d83c
00000100: b547 953e f08c debc 098f 873d 9a57 89bc
00000110: 2f37 dc3e f4f6 a0bf 9a78 d33b cbef a63f
00000120: d1a3 2e3e 5a81 f03e 7ad8 9bbe 8168 55bf
00000130: 5b10 7abd 7445 36bd cd2b b1bd 145d c33d
00000140: df73 843d 3b35 d9bc 374c 72be d198 483c
00000150: f82c 2fbe 11d9 b5bc 6c56 af3f 20a5 a6bd
00000160: e731 06be fc8c 873c 2535 983c dc42 163b
00000170: 1339 4ebe 12a3 f43d 195c 9e3d b41b 943e
00000180: b09a a4be 3cbe df3d 445e 3ebd be58 acbf
00000190: c61e 96bd 47f7 cc3f b06d 1ebd f201 7fbf
000001a0: 43ea 4d3d 38e1 b93d 29d8 793c cd73 86bd
000001b0: 30ef 69bf 9506 02bb d35d 0cbd cabc 253e
000001c0: 9c22 2c3c 943c db3c 53de ae3f 1a50 32be
000001d0: eb3f a4bd 0734 23be 5e69 53bd eeb8 2b3d
000001e0: 1ab6 833f bfee e4bd bd79 03bd 5c4c d4bd
000001f0: d557 283c 59e5 a7bf 2b3f 64be 11b5 9cbc
0.66376406 -0.06770555 -0.04427543 0.30291152 -0.07845875 0.5362772 -0.02886989 0.108228214
0.14970271 0.011891166 -0.032831565 -0.44013205 0.0009282519 0.18248147 0.013030719 0.002584157
0.5378225 1.1576579 -0.07088606 -0.07660426 0.07038048 -0.0065712617 -0.0780947 0.148526
0.072497234 0.007998039 -0.023079962 -0.48181203 0.008716576 0.013870499 -0.063932575 0.1707316
0.03186115 0.03745089 0.19873638 0.035759427 -0.028464537 0.07139469 0.008489985 0.041334085
-0.3328727 -0.09413797 -0.07169154 -0.044745076 -2.2796638 0.87373376 -0.33921823 -0.76125187
0.03863074 -0.0058922027 0.2462052 -1.7692002 -1.3358873 0.0048269704 0.019817999 0.027715389
-0.029107796 0.02575414 -0.026226392 -0.09920936 0.027180277 -0.07660213 -0.083440885 0.02641048
0.2915627 -0.027166814 0.06619079 -0.016765404 0.43010852 -1.2575364 0.006453586 1.3041929
0.17054678 0.46973687 -0.30438596 -0.83362585 -0.061050754 -0.04449983 -0.086509325 0.095392376
0.06467413 -0.02651464 -0.23661886 0.0122434655 -0.17106998 -0.022198232 1.3698249 -0.08136964
-0.13104974 0.016546719 0.018580029 0.0022928035 -0.2013896 0.11945166 0.0773241 0.28927386
-0.32149267 0.10924956 -0.046476617 -1.3464582 -0.07330088 1.6012963 -0.038678825 -0.99612343
0.050272238 0.0907616 0.0152492905 -0.06565056 -0.91380596 -0.001984035 -0.034269165 0.16185299
0.010506298 0.026762284 1.3661598 -0.17413369 -0.08020004 -0.15937816 -0.051614158 0.04192441
1.0289948 -0.1117835 -0.03209852 -0.10366127 0.010274847 -1.3116866 -0.22289722 -0.019129308

network.4.weight f4 [3, 128]
00000000: 3b34 ce3c 5889 c73c 38e5 603d 8deb 423c
00000010: 8fe0 58bc 9c22 2c3c e67b 513c 148c ce3b
00000020: 660d ee3c 53a4 243c 7f95 07bc 2364 4dbc
00000030: 8732 9e3d 0ac8 bcb9 f5c6 ea3c aef1 393d
00000040: bcfa 0dbc 85bc d6bd 6aba 29b9 6b4c 7c3c
00000050: 94b3 af3b a28c 803d 35a8 09bd 74ec f73a
00000060: 9e02 31bd 6452 faba 4659 373c fc52 be3d
00000070: d4f8 b3bd 55cd 123d b9bd c1b9 28e1 cf3c
00000080: 74f6 703a d66f 24bc d28e 6e3a 86cb c1bb
00000090: a8a8 09bb 7b00 aa3c 204a 5fbc 4f8a 473d
000000a0: 7000 9bbc 272b 863c 83e9 8cbd 98d4 d13c
000000b0: 313b 11bf da35 4ebc f3a4 87bb 1042 0ebd
000000c0: 8920 30bd 0382 89bc fb0d 05bb 90f4 43bf
000000d0: 1bc8 d6be 11ec 0c3d 850b 8f3c 4e34 e73c
000000e0: 9b73 d93c 676d 97bc 21d8 4bbd d7e4 68bb
000000f0: 3b4e 023c c3c6 853c 57f0 c03b 8535 bf3b
00000100: 3fa8 68bc 6428 04ba f132 aabd 9038 8c3c
00000110: dd5a 223c 39bf 1ebe 0049 29bb 679c 81be
00000120: de2e 6d3b 7261 f53b ecc0 04bc 4678 733b
00000130: 7a93 9fbc 8e5c e83b a2ec cebc aafb 003c
00000140: ea54 d43b 4a61 1ebd 398a 743c ae91 353d
00000150: 900f 0ebd f8d7 9a3b 4a6f 403d 2a66 043d
00000160: b67f 193b e8a2 5cbd e95b 68bc e01b 9d3b
00000170: e0de 47ba 5aaa 063c cbab 7a3c 65de 6b3d
00000180: 1618 01bc 5aaa 5dbc b4fa da3b a335 80be
00000190: 53de 05bc aaed 523e ae61 d83b 631b f83c
000001a0: 00d5 14bd c3cd a1bb 2144 bebc e481 38bd
000001b0: fb63 fdbd d03d 8d3c 0eb9 e8bc f177 5d3c
000001c0: 703f 93bc 904d 9abc 6144 ac3d c3e0 cb3c
000001d0: 1e1e 273a e566 81bc 5785 183d 813a debc
000001e0: 5ff4 993c 7317 363a d129 e73b c271 5cbd
000001f0: c056 77bd af8d 013e 6ce5 16bc 5b7f 123d
00000200: 6d06 943c ec08 513d 0735 7abd 1308 ac3c
00000210: eeaf 9f3c 3b11 003e c8a3 2dbd 96cf 97bb
00000220: 3e58 1e3d 3b37 e63c 07b3 81bd c525 6d3c
00000230: 90cf 48bc 0702 49bc f596 353d 507b 0a3d
00000240: 2316 673c 229f cebd c872 8dbd 15b9 28bb
00000250: 6133 5d3d b250 1e3d d1c9 ea3c 48d9 44bc
00000260: 25c7 ca3c f15f 84bd 6a8c 853c 389b 38bd
00000270: 5abf 98bd 6125 183d eee5 1dbc 8f27 2e3b
00000280: c1f5 06bc 2d2a cd3c 311f c83b 4e56 4f3c
00000290: e426 033d 1c75 afbb 1aa5 873c 30ac 3dbc
000002a0: b421 31be e4c8 93bd 9e37 d93c dce4 8c3c
000002b0: 6eba 1abf 1ca1 8e3b 9e45 393a 0519 88bd
000002c0: 6bef 8f3c 3165 2dbb 9400 003b 992c 38bf
000002d0: 6ae1 c7be e739 22bd 3c09 653d 95d0 27bc
000002e0: b884 003b fb46 87bd 3b7f 6bbc 387a 2abc
000002f0: 2360 08bd b87b 81bd 82bc e63b 3ff9 ec3b
00000300: 22e8 34bc c470 7f3d a026 16bb d5e7 d73c
00000310: ef38 ebbc dd10 ad3d af71 023c 5917 80be
00000320: 010c fa3b 653e 553c 6d1b c6bb cb6d bcbd
00000330: 7dd2 45bc 975f b7bc 1199 7d3c 75eb 5f3c
00000340: 9d4c 703c 9bf0 01bd bf1e 993d dab3 af3c
00000350: e0fc 783c 09ce 44bc d0ae 203d e8ba 3dbc
00000360: 9436 97bc ef01 603d be92 21bc 8073 02bd
00000370: 25fe 9abb a68e c73b 7338 983c 45f5 4b3d
00000380: d20d 92bc 75f0 243d ec3e 85bc 4b45 7bbd
00000390: 218f a4b9 17b3 503e a49e dfbb 535b 073d
000003a0: 8fe1 96bd 9982 f83c ea97 bc3c 7516 7dbd
000003b0: 8215 00be 423e 993d e622 093d 5eeb 1c3d
000003c0: 30ed 7fbb 9363 4a3d 0de0 a73d ea78 bdbc
000003d0: 9e9c d73a 507f cc3b 95a7 53bd a0bd 0f3b
000003e0: 0973 cd3c 36e4 1d3c bbdc 38bd 0d5f 4ebc
000003f0: 1c00 cdbc 18ca 0d3e 6f48 9a3b 649e 14bd
0.02517139 0.024357483 0.0549061 0.01189698 -0.013237133 0.010506298 0.012785887 0.0063033197
0.029059123 0.010048944 -0.008275389 -0.0125360815 0.07724481 -0.00036007195 0.028659323 0.0453965
-0.008665737 -0.10485176 -0.0001618654 0.015399079 0.0053619836 0.062768236 -0.03360768 0.0018915073
-0.043215387 -0.0019098041 0.011190718 0.09293172 -0.087876946 0.03584035 -0.00036953183 0.025375918
0.0009191998 -0.010036429 0.00091002614 -0.0059141545 -0.0021005068 0.020752182 -0.013628513 0.048715886
-0.018921107 0.016377999 -0.06880476 0.025614068 -0.56730944 -0.012586081 -0.0041395365 -0.03473097
-0.042999778 -0.016785627 -0.0020302522 -0.7654505 -0.41949543 0.034404818 0.017461548 0.028223183
0.026544383 -0.018484784 -0.049766663 -0.003553679 0.007953222 0.016330129 0.0058880257 0.0058352374
-0.014200269 -0.0005041419 -0.083104976 0.017116815 0.009909359 -0.15502633 -0.0025830865 -0.25314638
0.0036191265 0.007488423 -0.008102637 0.0037150546 -0.019479502 0.0070911115 -0.02525932 0.007872501
0.006479849 -0.038667 0.014925533 0.044328384 -0.03468281 0.0047254525 0.046981134 0.032323994
0.002342207 -0.053866297 -0.014182069 0.0047945827 -0.00076244585 0.008219326 0.015299748 0.05758514
-0.007879278 -0.0135293845 0.006682718 -0.25040922 -0.008170682 0.20598474 0.006603441 0.030286497
-0.036335945 -0.004937859 -0.023225846 -0.04504575 -0.123725854 0.017241389 -0.028408553 0.013517366
-0.017974585 -0.018835813 0.0841148 0.024887448 0.0006375032 -0.015796134 0.037236538 -0.027127506
0.018793283 0.0006946243 0.0070545455 -0.053819425 -0.060385466 0.12651704 -0.009209972 0.035765987
0.01806947 0.0510339 -0.061085727 0.020999944 0.01949307 0.12506573 -0.042392522 -0.0046329005
0.038658373 0.028102508 -0.06332975 0.014474337 -0.012256518 -0.01226855 0.044333417 0.033809006
0.014104399 -0.10088946 -0.069066584 -0.0025745083 0.054004077 0.038651176 0.028660687 -0.0120146945
0.024753163 -0.06463612 0.016302306 -0.045069903 -0.074583724 0.037145022 -0.009637339 0.0026573872
-0.008237303 0.025044525 0.006107234 0.012654854 0.03201951 -0.0053545367 0.016558219 -0.011576697
-0.17298013 -0.07216051 0.026515778 0.017198972 -0.6044072 0.004352702 0.0007067564 -0.06645397
0.017570218 -0.002645802 0.0019531595 -0.7194305 -0.39039165 -0.039606 0.05591701 -0.010242601
0.0019610357 -0.06605335 -0.014373596 -0.010405116 -0.033294808 -0.063224256 0.007041515 0.007231861
-0.011041673 0.0623634 -0.0022911206 0.026355663 -0.028713671 0.08450482 0.007961675 -0.25017813
0.0076308255 0.013015364 -0.00604575 -0.09200629 -0.01207411 -0.022384448 0.015478388 0.013666977
0.0146667035 -0.0317236 0.074765675 0.021448065 0.015197009 -0.012012013 0.039229214 -0.011580206
-0.018458642 0.054689344 -0.009861646 -0.03184843 -0.0047300034 0.006090003 0.018581605 0.049794454
-0.017828856 0.04026838 -0.016265355 -0.06134538 -0.00031387157 0.20380817 -0.0068243314 0.033046078
-0.07367241 0.030335711 0.023021657 -0.061788995 -0.12508205 0.07482578 0.033480547 0.0383104
-0.0039051287 0.049411368 0.08197031 -0.023128945 0.0016449874 0.006240763 -0.05167349 0.0021933094
0.025079267 0.009636929 -0.04513238 -0.012595904 -0.025024466 0.13846624 0.004708342 -0.036283866

network.4.bias f4 [3]
00000000: 569f 983e 8df1 983e f72a 8f3e
0.29809064 0.2987179 0.27962467
