Catcher_Flappy_Continuous/wandb/DQN_Catcher_Acc_State_Inacc_R/files/catcher_agent_acc_state_inacc_r_2.pt (torch, 72087 bytes, 6 tensors)

network.0.weight f4 [128, 4]
0	0x3e12fb9c	0.14353794
1	0xbd85f787	-0.06541353
2	0xbdf34084	-0.1187754
3	0x3e180e96	0.14849314
4	0xbea52491	-0.3225446
5	0xbe1af1d7	-0.15131317
6	0x3bb899db	0.0056335754
7	0x3e6fff58	0.2343725
8	0xbd6a69be	-0.05722975
9	0xbdbabe5f	-0.09118342
10	0x3d85f298	0.06540412
11	0xbcdd7ae6	-0.027036142
12	0x3dd94538	0.106089056
13	0x3e2914bf	0.1651182
14	0xbddbcdce	-0.107326135
15	0x3d6447d2	0.055732556
16	0xbc8cb93f	-0.017178176
17	0xbec7ccc8	-0.39023423
18	0x3c99dca1	0.018781962
19	0xbd646e50	-0.055769265
20	0xbdea372e	-0.11436306
21	0xbe3bef12	-0.18352917
22	0xbe1f9418	-0.15583837
23	0xbd8e760f	-0.06956112
24	0xbe70429e	-0.23462912
25	0xbe941f32	-0.2893005
26	0x3df83089	0.12118632
27	0x3dd0cc62	0.10195233
28	0xbed8e23d	-0.42360106
29	0x3d0bd961	0.034142856
30	0xbbf4a70a	-0.0074662017
31	0x3ede4e6a	0.434192
32	0x3d153388	0.036426097
33	0x3e51ba21	0.20481159
34	0xbf496e58	-0.78683996
35	0xbe03a856	-0.12857184
36	0x3e55fd62	0.20897439
37	0x3f2fe545	0.6870921
38	0x3e28da10	0.16489434
39	0xbeb1c61b	-0.34721455
40	0x3dd483b1	0.10376681
41	0x3d9e054a	0.077158526
42	0x3d82c821	0.06385828
43	0xbe0f88db	-0.1401705
44	0xbd6ac616	-0.057317816
45	0x3e60f851	0.21969725
46	0xbe0cfede	-0.13769099
47	0x3e4a1a97	0.19736706
48	0xbe361cb6	-0.1778439
49	0xbcc53531	-0.024073215
50	0xbf0b63f0	-0.5444937
51	0xbe33eea9	-0.1757151
52	0xbdda53f2	-0.106605425
53	0xbcc4b588	-0.024012342
54	0x3dda0d78	0.106471
55	0x3d224e27	0.039625313
56	0xbe0c1b39	-0.1368226
57	0xbdbf3e80	-0.09338093
58	0x3dfa7eb1	0.12231196
59	0x3d1f45cc	0.038884923
60	0xbed672b6	-0.41884392
61	0x3dd949e0	0.10609794
62	0x3e0c6563	0.13710551
63	0x3e879749	0.2648261
64	0xbd4dbd0d	-0.05022912
65	0xbd33423a	-0.04376433
66	0xbd2a12f2	-0.041521974
67	0x3dda7fe8	0.106689274
68	0xbe71cd20	-0.23613405
69	0xbf012b12	-0.50456345
70	0x3e8b3e72	0.2719608
71	0x3d8daf3f	0.06918191
72	0x3d743fb3	0.05963106
73	0x3e35b8e6	0.17746314
74	0x3c5392e8	0.012913443
75	0xbd1247de	-0.03571307
76	0x3dd0d782	0.10197355
77	0x3e7558d9	0.23959674
78	0xbe9b9909	-0.30390194
79	0x3e76bc99	0.24095382
80	0xbefedf69	-0.49779823
81	0xbf4f339b	-0.8093812
82	0xbe8456bf	-0.25847432
83	0x3d728b9d	0.059215177
84	0x3d422887	0.04740193
85	0x3e697efd	0.22802348
86	0xbeab6b15	-0.33480135
87	0x3d63b2a0	0.055590272
88	0xbdefb701	-0.11704827
89	0x3d46589d	0.048424352
90	0xbe4e64fa	-0.20155707
91	0xbde6b47c	-0.112648934
92	0x3d1b9233	0.037981223
93	0x3eabc7a2	0.33550745
94	0xbf1a21e9	-0.6020799
95	0x3d17d2e6	0.037066363
96	0x3e82562c	0.2545637
97	0x3e99be86	0.3002817
98	0xbe7fc16f	-0.24976133
99	0xbd98bd0e	-0.07457934
100	0xbd1c36c9	-0.038138185
101	0x3db07dc7	0.0861774
102	0xbe200683	-0.15627484
103	0xbb8ae31d	-0.0042385
104	0xbe909bde	-0.28243917
105	0xbf215cd2	-0.6303226
106	0x3eb0e2ea	0.34548122
107	0x3d0c67c4	0.034278646
108	0xbc61a6e8	-0.013772704
109	0x3f1c23b0	0.60991955
110	0xbda1d855	-0.0790259
111	0x3d14904d	0.03627043
112	0x3cbaabce	0.022787001
113	0x3f0f1582	0.55892193
114	0xbe95e75d	-0.2927808
115	0x3ce5df70	0.028060645
116	0x3d7d55b6	0.06184932
117	0x3e6ec500	0.23317337
118	0xbf6afb59	-0.91789776
119	0xbdeb5d8c	-0.11492452
120	0xbe1adef0	-0.15124106
121	0xbd950a15	-0.072773136
122	0x3c8b8022	0.017028872
123	0xbd9198dc	-0.07109234
124	0x3e63dd46	0.22252378
125	0x3fb08743	1.3791279
126	0xbec8143c	-0.39077938
127	0xbdadef34	-0.0849289
128	0x3e7fc600	0.24977875
129	0x3f37c175	0.71779567
130	0xbe6df46f	-0.23237775
131	0x3dba7733	0.09104767
132	0x3d889fa8	0.06671077
133	0x3e2ba8e8	0.16763651
134	0xbd6d0d69	-0.057874117
135	0x3ce96f0f	0.02849534
136	0xbd827e9b	-0.06371804
137	0x3ea9da6b	0.33174452
138	0xbf1c2edb	-0.61008996
139	0xbe392c06	-0.180832
140	0xbd879331	-0.066198714
141	0xbe1fdf41	-0.15612508
142	0xbe5b1833	-0.2139595
143	0x3e50a8da	0.20376912
144	0xbb523d7d	-0.0032080107
145	0xbdb8d021	-0.090240724
146	0x3c29d12d	0.010364813
147	0x3d23a332	0.039950557
148	0x3d896efe	0.06710623
149	0x3ee9aafb	0.4563826
150	0xbec5d330	-0.38637686
151	0x3e3d4cb3	0.1848629
152	0x3cda22b4	0.026627876
153	0x3d825452	0.06363739
154	0xbf2e0e28	-0.6799035
155	0xbe0aadb1	-0.1354282
156	0x3de46c4a	0.11153467
157	0x3e261d08	0.16222012
158	0x3de0a66f	0.10969245
159	0xbe2da38f	-0.16956924
160	0xbed9d207	-0.4254305
161	0x3de36915	0.11104027
162	0x3dc287b9	0.09498543
163	0x3e619718	0.22030294
164	0xbe8cd7b7	-0.27508327
165	0x3dc124f4	0.094308764
166	0xbe5ec8ec	-0.21756333
167	0xbd9f949a	-0.077920154
168	0xbe11e488	-0.14247334
169	0xbeae4675	-0.3403813
170	0xbd8d0fd9	-0.06887788
171	0x3e662eb3	0.22478752
172	0xbd8b780b	-0.06810006
173	0x3d8224be	0.06354664
174	0x3eb46ce0	0.35239315
175	0x3ea5fd4a	0.32419807
176	0xbd3d05c2	-0.04614807
177	0x3f11c5ca	0.5694243
178	0xbef37d90	-0.47556734
179	0x3d47861c	0.04871188
180	0xbe000850	-0.12503171
181	0xbd259240	-0.040422678
182	0xbedc8b32	-0.43074948
183	0xbdca44f0	-0.0987643
184	0xbeecb22d	-0.46229687
185	0x3eaf0cf0	0.34189558
186	0xbf1d21e1	-0.6137982
187	0xbe521e94	-0.20519477
188	0x3d7bb311	0.061450068
189	0x3d097772	0.033561178
190	0xbe8fb70a	-0.28069335
191	0xbe76a5a4	-0.24086624
192	0x3d51aaf6	0.05118843
193	0xbea83cc2	-0.32858855
194	0xbe13a22a	-0.1441733
195	0xbbb91378	-0.005648073
196	0x3da62d1a	0.08114071
197	0x3e30a70d	0.17251225
198	0xbcd412f8	-0.025887951
199	0xbddb909f	-0.10720944
200	0x3d395a90	0.045252383
201	0x3e326315	0.1742061
202	0xbe21a1c9	-0.15784372
203	0xbd26ecd0	-0.040753186
204	0x3ccede1d	0.025252396
205	0x3e738641	0.23781683
206	0xbecd1ff4	-0.4006344
207	0xbd02dc1a	-0.031948186
208	0xbc9066c5	-0.01762713
209	0x3c8f1e4e	0.017470505
210	0xbcd46d2c	-0.025930963
211	0x3d893357	0.066992454
212	0xbf140497	-0.57819504
213	0xbf1b16f4	-0.605819
214	0xbdf5ba38	-0.11998409
215	0x3d0b406a	0.033996977
216	0x3e742762	0.23843148
217	0xbe23707a	-0.15960875
218	0xbe8b403b	-0.2719744
219	0x3ea2fdde	0.3183431
220	0xbf00c67f	-0.5030288
221	0x3e8e4c5e	0.2779264
222	0xbf0fa5bd	-0.5611227
223	0xbe402f51	-0.1876805
224	0x3e0a0efe	0.13482282
225	0xbc624008	-0.013809212
226	0xbe88415e	-0.2661237
227	0x3de22fc4	0.11044267
228	0xbe0c02e7	-0.13672982
229	0x3f4a1c22	0.7894918
230	0xbee6906e	-0.45032066
231	0xbd701202	-0.058610924
232	0x3e8a1ce3	0.26975164
233	0x3e0b08e9	0.13577618
234	0xbe8b4e1e	-0.27208036
235	0x3cdc0746	0.026858937
236	0xbe652b24	-0.22379738
237	0x3ea4ec3f	0.3221149
238	0xbd11006f	-0.035400804
239	0xbdc19f07	-0.0945416
240	0xbe38a2d6	-0.18030867
241	0xbf58e214	-0.8471997
242	0x3da11d0c	0.078668684
243	0xbd071fbf	-0.03298926
244	0xbe378ef5	-0.17925628
245	0x3dfcd5fb	0.12345501
246	0xbf1c8db7	-0.6115374
247	0xbe54fe33	-0.20800094
248	0xbedfa75e	-0.4368238
249	0x3d30cc01	0.043163303
250	0x3ee8c3ba	0.45461828
251	0xbd91909e	-0.07107662
252	0x3ce15548	0.027506486
253	0x3e16a075	0.14709647
254	0x3c8df483	0.017328506
255	0xbe6c85a0	-0.23097849

network.0.bias f4 [128]
0	0xc0029425	-2.040292
1	0x3ff83cd6	1.9393566
2	0x3ff650e8	1.9243441
3	0xc0260747	-2.5941942
4	0xbf6afa21	-0.91787916
5	0xbfa17ca3	-1.2616161
6	0xbffad4f1	-1.9596235
7	0xbfe9d07c	-1.8266749
8	0xbf0ff17f	-0.5622787
9	0xbefd8888	-0.49518228
10	0x3fc0d12f	1.5063838
11	0xbfe0fa11	-1.7576314
12	0xbe82a90f	-0.25519606
13	0xbfe1f32c	-1.7652335
14	0xbfbfa193	-1.4971184
15	0xbff74fc7	-1.9321221
16	0xbff44bbc	-1.9085612
17	0xbfee8309	-1.8633739
18	0x3fc6b250	1.5523167
19	0xbfcb3ab9	-1.5877296
20	0x3e9da691	0.30791143
21	0xbf1d45ce	-0.6143464
22	0xbfb2955d	-1.3951832
23	0xbf732719	-0.94981533
24	0x3e07d25d	0.13263841
25	0x3f590b4d	0.8478287
26	0xbfdbf27e	-1.7183378
27	0xbf89bec5	-1.0761343
28	0xbf141784	-0.5784838
29	0xbf104e47	-0.5636944
30	0xbf479b7c	-0.77971625
31	0xbf88869e	-1.0666082
32	0xc013c7a0	-2.3090591
33	0xbfc5026a	-1.5391362
34	0xbf332d05	-0.6999057
35	0x40254e00	2.5828857
36	0xbff8294b	-1.9387602
37	0x3fd79c62	1.6844599
38	0xbe2ce927	-0.16885816
39	0x3d7cc626	0.061712407
40	0x3fee18a6	1.8601272
41	0xbed57481	-0.41690448
42	0xbff49756	-1.9108684
43	0x3fa7360f	1.3063372
44	0xbf738c73	-0.95136184
45	0xbe5b5e80	-0.21422768
46	0xbef01371	-0.46889833
47	0xbf95632f	-1.1670893
48	0xbed01754	-0.40642798
49	0x3edaec6c	0.427585
50	0x3e1ae138	0.15124977
51	0xbf3eb4ba	-0.74494517
52	0xbfcfd2bd	-1.6236187
53	0x3f88cba2	1.0687144
54	0xbff08843	-1.8791584
55	0xbedcb9f5	-0.43110624
56	0x3fe1a196	1.7627437
57	0x3d159e1d	0.03652774
58	0x3ff227d5	1.8918406
59	0xbf9bf204	-1.2183232
60	0xbfa951a2	-1.3228037
61	0xbf05d3e7	-0.5227646
62	0x3f271ca6	0.6527809
63	0xc0068563	-2.1018913
64	0x3fcf84c2	1.621239
65	0xbffaa4d5	-1.9581553
66	0xbe950c1f	-0.2911081
67	0x3f245e4d	0.6420639
68	0x3f56b8c9	0.8387571
69	0x3deb3330	0.114843726
70	0xbffac7ee	-1.9592264
71	0xbfd0d7f2	-1.6315901
72	0x3fd71832	1.6804259
73	0xbf4cd225	-0.80008155
74	0xbe8e5ec1	-0.27806666
75	0x3fbec276	1.4903095
76	0x400fca9c	2.2467413
77	0x3fe62ab1	1.7981778
78	0xbde03246	-0.10947089
79	0x3ff465eb	1.9093603
80	0x3faac55d	1.334148
81	0x400b5765	2.1772091
82	0xbff9a005	-1.9501959
83	0x3c80d410	0.01572612
84	0xbf1a22f5	-0.6020959
85	0xbe57d099	-0.21075667
86	0x3f2eb20d	0.68240434
87	0xbf9fbdbc	-1.2479777
88	0x3fdf50a9	1.744649
89	0xbfe05a29	-1.7527515
90	0xbd20db16	-0.039271437
91	0x3b091842	0.0020919
92	0xc00db8ca	-2.2144036
93	0xc0139993	-2.3062484
94	0x400ddc1b	2.2165592
95	0x3fd51be7	1.664914
96	0xbfec31f7	-1.8452748
97	0xbf6a8485	-0.9160846
98	0xc0058fd6	-2.086904
99	0xbffe3457	-1.9859723
100	0xbe3ba5db	-0.18324988
101	0x3f3e3b76	0.7430948
102	0xbfdf2101	-1.7431947
103	0x3ff077d5	1.878657
104	0x3f008a13	0.50210685
105	0xbfbc701a	-1.4721711
106	0x3db8a69c	0.09016153
107	0x3ee5a7a7	0.4485447
108	0xbf8e7b3d	-1.1131359
109	0x3f4eedb8	0.8083148
110	0x3ffa718a	1.9565899
111	0xbf58774c	-0.8455703
112	0xbfc34e63	-1.5258297
113	0xbf62d6a9	-0.88608795
114	0xbf0e87f5	-0.55676204
115	0xbfafe4db	-1.3741716
116	0xbddec9dd	-0.10878346
117	0x3f9c646e	1.2218149
118	0x3fd14b61	1.6351129
119	0xbd2596d5	-0.040427048
120	0xbf61a8ff	-0.8814849
121	0xbfe77236	-1.808173
122	0xbdeae734	-0.1146988
123	0xbfe39117	-1.7778653
124	0x3fc78ce6	1.5589874
125	0x3e5ea636	0.21743092
126	0xbefb7b06	-0.49117297
127	0xbfca79b1	-1.5818387

network.2.weight f4 [128, 128]
0	0xbc872356	-0.016496342
1	0xbce725be	-0.028216239
2	0x3d3f514a	0.046708383
3	0x3da22075	0.07916347
4	0x3d34e625	0.044164795
5	0x3cb6ce55	0.022315184
6	0xbda7d8cd	-0.08195648
7	0x3da9e20a	0.08295067
8	0xbd81fda2	-0.06347205
9	0xbd3ae801	-0.045631412
10	0xbda2142c	-0.07914004
11	0x3d02306a	0.031784452
12	0xbda25c2a	-0.07927735
13	0xbd57327c	-0.05253838
14	0xbd8e99eb	-0.06962951
15	0xbd802c56	-0.062584564
16	0xbd23f6d7	-0.040030327
17	0x3d895fb4	0.06707707
18	0xbc9a6c61	-0.018850507
19	0x3cdcb828	0.026943281
20	0xbde40af0	-0.11134899
21	0x3da0f26f	0.078587405
22	0xbd019ffe	-0.03164672
23	0xbd99fae1	-0.075185545
24	0x3d87f7d5	0.06639067
25	0xbd0e57ff	-0.03475189
26	0x3d64b60e	0.055837683
27	0xbd70e3e1	-0.058811072
28	0xbda014d6	-0.07816474
29	0xbd873417	-0.06601732
30	0x3c71cc2b	0.01475815
31	0xbbb268a9	-0.0054446054
32	0xbda91089	-0.08255107
33	0x3c623635	0.013806869
34	0xbbc2c85e	-0.005944296
35	0x3d02cb26	0.03193202
36	0xbd5950a1	-0.05305541
37	0xbd813a46	-0.06309943
38	0x3d56f31d	0.052477945
39	0xbd8a82be	-0.06763218
40	0x3d7a5d08	0.061123878
41	0x3d98128b	0.07425412
42	0xbd7d2f7e	-0.06181287
43	0xbd4c5b83	-0.04989196
44	0x3c2e5470	0.010640249
45	0xbdaaad4f	-0.08333837
46	0x3c5a9dd5	0.013343294
47	0xbd6b6f79	-0.057479355
48	0xbd7d3168	-0.061814696
49	0xbdb44eb5	-0.08804075
50	0x3ca87651	0.02056423
51	0xbd42c969	-0.04755536
52	0xbd91958d	-0.07108603
53	0xbd15cb62	-0.036570914
54	0xbd579956	-0.052636467
55	0xbdcb9dec	-0.099422306
56	0x3d11e824	0.035621777
57	0xbd0cd525	-0.034382958
58	0x3d93053f	0.07178735
59	0x3d3cae1f	0.046064492
60	0xbd9ae8d4	-0.0756394
61	0xbd74e1bc	-0.05978559
62	0xbd6477c1	-0.05577827
63	0x3d0d490a	0.034493484
64	0xbb854aa0	-0.004067734
65	0xbccc3f27	-0.024932457
66	0x3d2f38ee	0.0427789
67	0x3d9cf6d5	0.07664267
68	0x3d847689	0.06467921
69	0xbd8a6d2e	-0.067591056
70	0xbd05031f	-0.03247368
71	0xbc8ae308	-0.01695396
72	0x3d67567c	0.056478962
73	0xbd51d8ee	-0.05123227
74	0xbda49c70	-0.080376506
75	0xbcade535	-0.021227458
76	0xbca833c8	-0.020532504
77	0x3d0b6297	0.03402957
78	0xbbcb856d	-0.006210974
79	0xbd8e828d	-0.06958494
80	0x3d4d47ce	0.050117306
81	0x3d25bcbe	0.0404632
82	0x3bb07ebd	0.005386202
83	0xbdabd6d7	-0.08390587
84	0x3c399fda	0.0113296155
85	0x3d708fa6	0.058730744
86	0x3c49cc3b	0.012316759
87	0xbd79ec8d	-0.061016608
88	0xbc5030ab	-0.012706916
89	0xbd2654c2	-0.040608175
90	0x3d68c138	0.056824893
91	0x3db98fc4	0.09060624
92	0xbc28c280	-0.010300279
93	0xbd8ea449	-0.06964929
94	0x3d05182e	0.032493763
95	0x3cb4a481	0.022051098
96	0x3ccefa23	0.025265759
97	0xbd8a1b03	-0.06743433
98	0x3c14740c	0.009060871
99	0xbd31cd98	-0.04340896
100	0xbdb7c290	-0.08972657
101	0xbd88aae3	-0.06673219
102	0x3d15b35a	0.036547996
103	0x3c913a0b	0.017727872
104	0xbdae20b0	-0.085023284
105	0x3d49a415	0.049228746
106	0x3d889843	0.066696666
107	0x3d6840f6	0.056702577
108	0x3d1b9fa8	0.037994057
109	0xbcd4b08e	-0.025963094
110	0x3d7296f6	0.059226
111	0x3d8db763	0.06919744
112	0x3d10fa0d	0.035394717
113	0xbd8f00f2	-0.06982602
114	0xbd41d953	-0.047326397
115	0x3d73170f	0.059348162
116	0x3d8a013d	0.067385174
117	0x3d49cf94	0.049270228
118	0xbd440658	-0.047857612
119	0xbd2cb86a	-0.04216806
120	0xbd91bf63	-0.07116582
121	0xbd4e5381	-0.050372604
122	0x3d6de918	0.058083624
123	0xbd97cfcf	-0.07412683
124	0xbd09ad04	-0.033612266
125	0x3ca2995c	0.019848518
126	0xbd641e1a	-0.05569277
127	0x3c2de36e	0.0106133055
128	0xbcdd7e20	-0.02703768
129	0x3cfec037	0.031097515
130	0xbda9d320	-0.08292222
131	0x3c0507d3	0.008119541
132	0xbdd9ab84	-0.10628417
133	0x3cfe8bfa	0.031072605
134	0x3d963f0a	0.073362425
135	0xbd4a6217	-0.049409952
136	0x3d9334fc	0.0718784
137	0xbd72fbdf	-0.059322234
138	0xbd97ad36	-0.07406084
139	0xbd33fbe3	-0.04394139
140	0xbd022909	-0.031777415
141	0x3bb7d544	0.00561014
142	0xbcea0192	-0.028565202
143	0xbaeecca2	-0.0018218944
144	0xbd9a1ff2	-0.07525624
145	0xbd84d200	-0.06485367
146	0xbdb60432	-0.08887519
147	0xbd81e5ad	-0.06342635
148	0x3d87da74	0.066334635
149	0x3d0781a1	0.033082608
150	0xbdc5dca8	-0.096612275
151	0xbcd5fb2d	-0.026120747
152	0x3c1bb045	0.009502475
153	0x3d0e6a26	0.0347692
154	0x3d83fb0e	0.06444369
155	0x3c38009f	0.011230617
156	0x3d5de3fa	0.054172494
157	0xbc77e0a5	-0.015129243
158	0xbc976712	-0.018481765
159	0xbd9bf17f	-0.07614421
160	0x3ca42105	0.020035276
161	0x3d92acae	0.07161842
162	0x3d94c858	0.07264775
163	0x3da66208	0.08124167
164	0xbd524176	-0.05133196
165	0xbcdc53f2	-0.026895497
166	0x3d31f871	0.043449823
167	0x3d6f7c32	0.05846805
168	0xbdb40f0c	-0.087919325
169	0xbd3500e7	-0.044190314
170	0x3c0adc35	0.008475353
171	0xbd818110	-0.06323445
172	0x3d04d602	0.032430656
173	0xbbc574b0	-0.006025873
174	0xbc889510	-0.016672641
175	0x3d15d75b	0.036582332
176	0x3d486735	0.04892655
177	0x3d8edee0	0.06976104
178	0x3cca8bf8	0.024724945
179	0xbc2c47d9	-0.010515177
180	0x3d7c5141	0.061600927
181	0x3d6f0deb	0.058362883
182	0xbd5cdaaf	-0.05391949
183	0x3d36b424	0.04460539
184	0x3a34ed5f	0.0006901826
185	0xbd33ee8c	-0.043928668
186	0xbd0290f1	-0.03187651
187	0xbd127f2e	-0.03576582
188	0xbd97450a	-0.07386215
189	0xbc2478c1	-0.010038556
190	0x3c2b1520	0.010442048
191	0x3d514a06	0.051095985
192	0xbbf6adae	-0.0075280285
193	0xbdc8bdcc	-0.09801826
194	0x3d117d5f	0.035519954
195	0xbd294cc5	-0.04133298
196	0x3d65dda2	0.05611957
197	0xbdaeea55	-0.08540789
198	0xbd404811	-0.046943728
199	0x3d8d2f98	0.068938434
200	0x3c9a0391	0.018800529
201	0xbd836057	-0.0641486
202	0xbdaa687a	-0.083207086
203	0xbc121d26	-0.008918082
204	0x3d0d4315	0.034487803
205	0xbd8a39e3	-0.06749322
206	0xbda83812	-0.082138196
207	0xbc5339d8	-0.012892209
208	0xbcdddc05	-0.027082453
209	0x3d652ca9	0.055950794
210	0xbdb795a7	-0.08964091
211	0xbcbc7bd1	-0.023008259
212	0xbd89fc52	-0.067375794
213	0xbc4bfeb5	-0.012450864
214	0xbd89bff4	-0.06726065
215	0x3c869a1b	0.016430905
216	0xbda9d07e	-0.0829172
217	0xbdb3c5a8	-0.08777934
218	0xbd76d6e2	-0.060263522
219	0xbdc84010	-0.09777844
220	0x3d64b9a0	0.05584109
221	0xbcc50c18	-0.024053618
222	0xbd998e66	-0.074978635
223	0x3d484cad	0.04890125
224	0xbcff3c5b	-0.03115671
225	0x3d2f085e	0.04273259
226	0xbd39a2f2	-0.045321412
227	0xbdaf7537	-0.08567279
228	0x3c10964b	0.008824895
229	0x3d1d8381	0.03845549
230	0xbdcaf1f3	-0.099094294
231	0xbb00b927	-0.001964161
232	0x3b109daa	0.0022066631
233	0xbc52ebb5	-0.01287358
234	0x3c1c6fa5	0.0095481025
235	0xbce48327	-0.02789457
236	0xbda464b2	-0.080270186
237	0x3b1bc0f1	0.0023766125
238	0xbd70d568	-0.05879727
239	0xbd950408	-0.072761595
240	0xbcadecca	-0.021231074
241	0xbd9ba9e2	-0.07600762
242	0x3c92f0a8	0.01793702
243	0x3d37af76	0.044845067
244	0x3d8caec9	0.06869275
245	0xbd820f83	-0.06350615
246	0x3d1900c9	0.037354264
247	0x3d010414	0.03149803
248	0xbc044bfc	-0.008074757
249	0x3d14f876	0.036369763
250	0x3d0a3a1e	0.03374683
251	0x3d7e76f0	0.062125146
252	0x3d3a1f45	0.045439977
253	0x3d4d7283	0.050158035
254	0xbd24a3ac	-0.040195152
255	0xbd4d2722	-0.050086148

network.2.bias f4 [128]
0	0x3ce1d9a9	0.027569609
1	0xbd2e774b	-0.042594235
2	0xbcdf3785	-0.027248153
3	0x3da956ad	0.08268485
4	0xbe3b7e1d	-0.18309827
5	0x3f84d95e	1.0378835
6	0xbce028db	-0.027363231
7	0xbd1526c9	-0.03641394
8	0x3ed98eb7	0.42491695
9	0x3c7513df	0.014958351
10	0xbccca891	-0.024982722
11	0xbdeb69e2	-0.11494805
12	0xbc37a99c	-0.011209872
13	0xbdaae021	-0.083435304
14	0x3a95117e	0.0011373011
15	0x3dd8e674	0.105908304
16	0x3ebbf41b	0.36709675
17	0x3e8671a6	0.26258582
18	0xbd9a0bb6	-0.07521765
19	0xbd8102b6	-0.06299345
20	0x3d44f6f0	0.04808706
21	0xbcb53e5e	-0.022124466
22	0xbdbf639f	-0.09345173
23	0x3e9ec749	0.31011418
24	0x3d93699c	0.07197878
25	0x3c16ced5	0.009204586
26	0x3c0a0761	0.008424611
27	0xbe412215	-0.18860658
28	0xb95fb243	-0.00021333345
29	0x3c9af7b0	0.018916935
30	0xbd677f2a	-0.056517757
31	0x3dfca754	0.12336603
32	0x3d28ae59	0.041181896
33	0x3d2bb1bb	0.041917544
34	0xbca8640a	-0.020555515
35	0xbcc7f8dd	-0.02441066
36	0xbd0791fa	-0.0330982
37	0x3d39991e	0.04531204
38	0x3f5db128	0.86598444
39	0x3d213d99	0.039365385
40	0xbe90645e	-0.28201574
41	0xbda95087	-0.082673125
42	0xbd8f6aba	-0.07002778
43	0xbdb8bdd2	-0.0902058
44	0xbf4ddee2	-0.8041822
45	0xbedebf20	-0.43505192
46	0xbe21053a	-0.1572465
47	0xbf1dcad2	-0.61637604
48	0x3d3309f9	0.043710683
49	0x3d9635f4	0.073345095
50	0x3e2cc260	0.16871023
51	0xbfd3f696	-1.6559627
52	0xbf4c7bcb	-0.79876393
53	0x3ab476c8	0.001376831
54	0x3c78beab	0.015182178
55	0x3bb41b8b	0.0054964474
56	0xbca0ae1d	-0.019614274
57	0x3cad3511	0.021143468
58	0xbd229fc1	-0.039703134
59	0xbdcae209	-0.09906394
60	0x3d143562	0.036183722
61	0xbd839cc4	-0.06426385
62	0xbd06ec61	-0.032940272
63	0xbbbd66ed	-0.005780092
64	0xbd19c3ad	-0.037540127
65	0x3c1f6a40	0.009729922
66	0x3d45dfd7	0.048309173
67	0xbc9509c2	-0.01819313
68	0x3e93df17	0.28881142
69	0xbe281810	-0.16415429
70	0xbd193f5a	-0.037413932
71	0x3eaff900	0.3436966
72	0x3d84250e	0.0645238
73	0x3e5cc649	0.21560015
74	0xbe953cdc	-0.29147995
75	0xbe032dc7	-0.12810431
76	0x3cecb2fd	0.028893942
77	0x3d6a1bea	0.057155527
78	0xbd807103	-0.06271555
79	0x3cfd1897	0.030895514
80	0x3debda12	0.11516203
81	0xbc8d14c5	-0.017221818
82	0xbd08604d	-0.033294965
83	0xbc8bd191	-0.017067702
84	0xbe2e2d73	-0.17009525
85	0x3d3779e1	0.044793967
86	0x3e0f89b6	0.14017376
87	0xbd93ca88	-0.07216364
88	0xbe3aa9b9	-0.18228807
89	0x3c938e7d	0.01801228
90	0x3d4d56f6	0.05013176
91	0x3d6bd4ff	0.057576176
92	0x3c5cee31	0.013484524
93	0x3dc6f8ea	0.09715445
94	0xbd644b61	-0.05573595
95	0x3da1cc64	0.079003125
96	0xbe896ed0	-0.26842356
97	0x3dd4c48f	0.10389053
98	0xbe8b758f	-0.27238128
99	0xbe1a6bd4	-0.15080196
100	0xbe232890	-0.15933442
101	0x3f9cd672	1.2252944
102	0xbd7a5e12	-0.06112487
103	0xbda18841	-0.078873165
104	0x3d4171cd	0.04722767
105	0x3d29c15a	0.04144416
106	0x3d18874f	0.037238415
107	0xbd724d9e	-0.059156053
108	0xbf2d0e1e	-0.67599666
109	0x3ca707c1	0.02038944
110	0xbc89192b	-0.016735634
111	0x3e181b26	0.14854106
112	0x3c212852	0.009836273
113	0x3de0bb29	0.10973198
114	0x3e292437	0.16517721
115	0xbdfd5c16	-0.123710796
116	0xbe1162e6	-0.14197883
117	0xbe25a301	-0.16175462
118	0xbdeec8b4	-0.11659375
119	0x3d4dd159	0.050248478
120	0x3ecc482c	0.39898813
121	0xbe3ade80	-0.1824894
122	0xbcf9ad61	-0.030478181
123	0xbdc804ed	-0.097665645
124	0x3a1013ab	0.0005496095
125	0xbfca9b17	-1.582858
126	0xbd2058cc	-0.039147183
127	0xbcecb5a0	-0.0288952

network.4.weight f4 [3, 128]
0	0x3c278d37	0.010226539
1	0x3cb52120	0.022110522
2	0x3c8bb6fd	0.017055029
3	0xba7384a5	-0.000928948
4	0x3b92814c	0.00447098
5	0xbd2b85c9	-0.041875634
6	0x3bdf7276	0.0068190647
7	0x3bee5072	0.0072727734
8	0x3c0d7163	0.0086329905
9	0x3cb4d506	0.022074234
10	0xbaf0dfb4	-0.0018377216
11	0x3bbb7abb	0.0057214177
12	0x3d8d0c30	0.0688709
13	0x3b9d4305	0.004799249
14	0x3c8a1054	0.016853489
15	0xbc674610	-0.014115825
16	0x3bbb8f4f	0.005723871
17	0x3c79255f	0.015206664
18	0xbbcafa55	-0.0061943927
19	0x3c69e2e7	0.014275289
20	0xbcc451d7	-0.023964806
21	0x3d346dbe	0.04404997
22	0xbd078ea4	-0.033095017
23	0x3b6da40a	0.0036261105
24	0xbc84cb57	-0.016210241
25	0xbc27323d	-0.010204849
26	0xbcd2e52e	-0.025744047
27	0xbb42b44a	-0.0029709511
28	0xbdb3f8d4	-0.087876946
29	0x3c4be1d1	0.012443976
30	0xbd07c750	-0.033149064
31	0xbb4f4da7	-0.0031631978
32	0x3b839264	0.004015254
33	0x3adb94d1	0.0016752725
34	0x3b2d841a	0.0026476444
35	0xbcbef2c3	-0.023309117
36	0x3a703b6f	0.000916413
37	0xbb69f233	-0.003569734
38	0xbc275ad8	-0.01021453
39	0x3ceb2938	0.028706178
40	0x3a3b789c	0.0007151456
41	0x3c95d1e3	0.018288558
42	0xbd8d711e	-0.06906341
43	0xbab62301	-0.001389593
44	0xbe85d47a	-0.2613867
45	0xbd28a7bf	-0.0411756
46	0x398d1244	0.00026907225
47	0xbdecc391	-0.11560739
48	0xbd309200	-0.043107986
49	0xbc2f2849	-0.010690757
50	0x3c2f94f5	0.0107166665
51	0xbefaeb8c	-0.49007833
52	0xbeb9a0ce	-0.36255497
53	0x3d799cd5	0.060940582
54	0xbbd095a1	-0.0063654934
55	0xbb2dfbc1	-0.0026547762
56	0x3cebf43f	0.028802989
57	0xbc2712ae	-0.010197325
58	0xbd7fdde8	-0.062467486
59	0x3a9e65f2	0.0012084825
60	0xbbafde4a	-0.005367075
61	0x3c57ed92	0.0131792
62	0xbad0f315	-0.0015941585
63	0xbc22dc23	-0.00994018
64	0x3bb04071	0.0053787758
65	0xbcaaf9d2	-0.020871077
66	0xbd998da3	-0.07497718
67	0x3c8b7934	0.017025568
68	0x3b6594db	0.0035031352
69	0xbb60db49	-0.0034310392
70	0x3c463578	0.012097709
71	0xbb0bf8f2	-0.00213581
72	0x3af508de	0.0018694659
73	0xbb5d1fa6	-0.0033740788
74	0xbb994568	-0.0046774633
75	0xbd00d10c	-0.031449363
76	0xba9d6cf0	-0.0012010615
77	0xb8ceca1c	-9.860491e-05
78	0xba9a31b8	-0.0011764085
79	0x3d31379d	0.043265928
80	0x3b1d07c0	0.0023960918
81	0xbd67be6c	-0.056578085
82	0xbbc23654	-0.0059268866
83	0xbbd7e59f	-0.0065886523
84	0xbc1628d4	-0.009165008
85	0xbb93dd83	-0.0045124902
86	0x3c124386	0.008927232
87	0x3cd48c0f	0.025945691
88	0x39c0e1f1	0.00036789433
89	0xbd2b2f65	-0.041793246
90	0xbb74c651	-0.003734965
91	0xbbddce21	-0.0067689572
92	0x3c6d213d	0.014473257
93	0x3b828aac	0.003983816
94	0xbb46e530	-0.0030349009
95	0x3bb82567	0.005619693
96	0xbba73561	-0.005102799
97	0xbbad52bd	-0.005289404
98	0xbb7edfba	-0.0038890676
99	0x3b413bdf	0.002948515
100	0x3c1250b7	0.008930377
101	0x3d528b58	0.05140242
102	0xbc4d3d23	-0.012526783
103	0x3b9bb73b	0.0047520674
104	0xbcb6db7c	-0.022321455
105	0x3b807984	0.003920736
106	0xbba503bc	-0.0050358456
107	0xbd3f6bb8	-0.046733588
108	0xbcb373dc	-0.021905832
109	0xbca85b01	-0.020551207
110	0xbcbc3598	-0.022974774
111	0xbb3c3910	-0.0028720535
112	0x3c23f659	0.010007464
113	0x3b52eeb2	0.003218573
114	0x3b80366b	0.003912737
115	0x3be9b3e6	0.0071320413
116	0x3c9cba38	0.019131765
117	0xbb53759f	-0.0032266153
118	0x3a4b1b33	0.00077478884
119	0xbd2c02c3	-0.04199482
120	0x3c45c6fa	0.0120713655
121	0xbada742c	-0.0016666702
122	0xbc667032	-0.014064835
123	0x3c8cedc3	0.017203217
124	0xbd74a9a3	-0.05973209
125	0xbea3ac87	-0.31967565
126	0x3b411142	0.002945975
127	0x3a5ec79c	0.0008498372
128	0x3ca13f7e	0.019683596
129	0x3c2088c9	0.009798237
130	0xbd22c481	-0.039738182
131	0x3b7df256	0.003874918
132	0x3b84b50e	0.0040499037
133	0xbc015889	-0.007894644
134	0xbd3e086c	-0.04639475
135	0xbc30deaf	-0.010795279
136	0xba987fe7	-0.0011634798
137	0x3d0ab13d	0.033860434
138	0xbd6c075b	-0.057624202
139	0x3b548e3c	0.003243341
140	0xbcac8983	-0.021061664
141	0x3c43d88f	0.011953487
142	0x3d7618e5	0.060082335
143	0x3c515136	0.01277571
144	0xbba7dbb1	-0.005122625
145	0x3ad373e3	0.0016132559
146	0xbd8103ca	-0.06299551
147	0xbd195882	-0.037437923
148	0x3cbe7bb0	0.023252338
149	0x3cc90e12	0.024542842
150	0x3b8c8ed4	0.0042894874
151	0x3a4ba6e7	0.0007768706
152	0x3d4281df	0.047487136
153	0xbd86c135	-0.0657982
154	0xbd1a4915	-0.037667353
155	0x39d97c97	0.00041482292
156	0xbd825a71	-0.063649066
157	0x3d11dad6	0.03560909
158	0xbbf4b9eb	-0.007468452
159	0x3cb612d6	0.022225779
160	0x3ba06078	0.0048943125
161	0x3cc9b660	0.024623096
162	0x3b8a8c96	0.004228185
163	0x3c0b1124	0.008487973
164	0x3d084711	0.0332709
165	0xbafa3529	-0.0019089329
166	0x39efc367	0.00045731218
167	0xbc71eca0	-0.014765888
168	0xbcb4c80e	-0.02206805
169	0xbd96ae3f	-0.073574536
170	0x3d28befd	0.041197766
171	0x3c8fd2d3	0.017556584
172	0xbe4ea78e	-0.20181105
173	0x3c3c697a	0.011499757
174	0xbced0970	-0.028935164
175	0xbe1bf9eb	-0.15232055
176	0x3c945ad0	0.018109709
177	0xbba337cb	-0.0049810163
178	0x3c52d85b	0.012868966
179	0xbf01560e	-0.50521934
180	0xbed467a8	-0.41485333
181	0xbd31e674	-0.043432668
182	0x3d6b1bab	0.057399433
183	0xbb864751	-0.004097857
184	0xbc985c26	-0.018598627
185	0xbd45e2a0	-0.04831183
186	0x3bcd32a5	0.006262141
187	0xba88ed7b	-0.0010446751
188	0xbd0b26d6	-0.033972584
189	0xbd80613b	-0.06268545
190	0xbbb9c88b	-0.0056696585
191	0x3b0e9307	0.0021755116
192	0x3b9a78a4	0.0047140885
193	0x3d275ff8	0.040863007
194	0x3b013442	0.0019714986
195	0x3b29fce4	0.0025938088
196	0x3ca58923	0.020206993
197	0xb879f986	-5.9598613e-05
198	0x3bc10096	0.0058899624
199	0xbd59ebbb	-0.053203326
200	0xbb9f6d45	-0.004865321
201	0x3cb942bc	0.02261483
202	0xbc026b25	-0.007960116
203	0xbd25a7b8	-0.040443152
204	0x3c2eaaae	0.01066081
205	0x3aae77e7	0.001331088
206	0x3c01fc06	0.007933622
207	0xbc93ecd1	-0.018057259
208	0x39ab2381	0.00032642114
209	0xbd7e8bed	-0.062145162
210	0x3a8a466a	0.001054955
211	0xb988c2c8	-0.00026085065
212	0xba984b30	-0.0011619087
213	0xbb27f303	-0.0025627024
214	0x3b79dd19	0.003812617
215	0xbd379240	-0.04481721
216	0x3bd3d79c	0.0064649116
217	0x3d77ac1d	0.060466874
218	0xbad1f3fe	-0.001601815
219	0x3b540466	0.0032351254
220	0x3c0227a6	0.007944023
221	0x3c6e380e	0.014539732
222	0x3b8a81c2	0.004226894
223	0xbc95c231	-0.018281074
224	0xbb297668	-0.002585793
225	0x3c188545	0.009309118
226	0xbc073451	-0.008252219
227	0xbab95b04	-0.0014141505
228	0x3bea2850	0.007145919
229	0x3c2e5a5c	0.010641661
230	0xb9a4ba72	-0.0003141943
231	0xbc4d8871	-0.012544737
232	0xbd8942b8	-0.06702179
233	0x3b0aafb5	0.0021161858
234	0xbb42242d	-0.0029623613
235	0xbd6d15dd	-0.05788218
236	0xbbdd08ca	-0.0067454325
237	0x3caa7dae	0.020811882
238	0x3c69669a	0.0142456535
239	0xbb8399a5	-0.0040161186
240	0x3bf1ce1d	0.007379307
241	0x3d68880d	0.056770373
242	0x3b16e427	0.0023024173
243	0xbc8ec27d	-0.017426724
244	0xbb4034ac	-0.002932827
245	0xbb0c20b9	-0.002138181
246	0xbb57c9ff	-0.0032926796
247	0xbc83f614	-0.01610855
248	0x3bc86173	0.0061151325
249	0x3bcf0cbd	0.006318657
250	0xbd558505	-0.05212881
251	0xbb4d8376	-0.0031358874
252	0x3c0c9d0e	0.008582367
253	0xbebcc0b4	-0.3686577
254	0x3b914379	0.004433092
255	0xba88dbff	-0.001044154

network.4.bias f4 [3]
0	0x3cf05770	0.029338568
1	0x3c75ece3	0.0150100915
2	0x3cbfa1c0	0.023392558
